3_3/model_Plate 36841.pt (torch, 7726 bytes, 16 tensors)

down1.weight f4 [12, 15]
00000000: 0054 58bd ece6 003e 0e9a 853e 8290 54bd
00000010: 16d0 1d3e b087 b93d 7580 3a3e 455c c23c
00000020: d003 1abe 0557 a73e 2fa4 e03f 488e babd
00000030: c825 b63e 0640 cb3e 944b 9abf e15b 62bc
00000040: bb2f acbe bc89 adbe c0cc 993a 9ee8 7bbe
00000050: e5b7 40be 3513 913e 0a2d 4f3f af24 6a3f
00000060: 3aad afbd ff55 c2bd 72ee 35be e841 f0bd
00000070: e47b 8fbd b41d fcbe 7bb2 883b 8182 59be
00000080: 3de1 5dbe ebe5 86bc 52b8 24be 6e81 14be
00000090: 4a93 6d3e 92e6 053f 20b4 323f 0f88 3cbd
000000a0: 97d4 ccbd 2fa6 9bbd 7970 efbd 718a 413d
000000b0: b997 a3be d67d 013d 73a7 f3bc 4fc4 a5bd
000000c0: a637 b33c 1d3f 50bd 50cb c3bd 9418 99bd
000000d0: c20a 3b3e d9ab 993e 3b9f 99bd 6448 3c3c
000000e0: 7bcd 873d 6092 88bf 257f 3c3d 5ee5 a1bc
000000f0: 5267 7dbd b0c0 503d d276 4e3d 0110 b2bc
00000100: b146 4c3c 8654 213c 0e63 4e3e 74eb 533e
00000110: f0b2 623e 964d 803e 1e61 40bd 0bd9 2d3d
00000120: 1918 bbbd efa5 613e 9f38 89bd 0aaf cabd
00000130: 0bbd 6f3d e2f9 483e 6e81 22be 1ecb f63d
00000140: c009 34bd 77be 383d f558 903e 3b98 2dbd
00000150: 2c4b 6c3e 2d34 103f 9213 fa3e e7cb 133e
00000160: 1cf4 7e3e e236 893f b00e 95bd 0009 223e
00000170: c86d 183e dfa8 313d 10ea 113e 2fcd 623e
00000180: 0a01 6fbe b303 86be c547 46bf e5c7 a33e
00000190: 6609 f33d 7b72 7f3d 2e2f 1c3e e960 c9bd
000001a0: fcac 503e ee64 c2bd be50 dbbc f354 ccbd
000001b0: e25a a4bd fd27 7d3c 539d 7a3d fe49 ec3e
000001c0: 84b3 393d f945 8b3d 67e9 7b3e eb84 903f
000001d0: a297 85be e5cd 993e 2069 833e 550b fa3d
000001e0: 91e2 c4bb c276 353e ee81 0c3e 5535 c43d
000001f0: bd23 84bd dfd8 4ebd ee9e 653e d394 2a3e
00000200: f67f 113f cab6 ed3d 2625 933e 7959 a8be
00000210: 00cd a4bd a624 813e cdbd a8bb 2a8d 0bbc
00000220: 18a5 d2bd fbc5 003d 422d 61be 30d9 923d
00000230: d053 a33c 6cea 633d b712 cd3d 87ab 6ebe
00000240: 0312 ce3d d04c 743e 703e 17bf f46c 6f3d
00000250: 8511 233e d2a0 ad3e 3267 49be 7673 883e
00000260: 3058 243e dba5 bdbb 3d4d b83c d131 513e
00000270: 6cab 103e bef0 b2bd ad5e 7dbe a298 c63e
00000280: a38c f63e 7eb5 0d3d d5ea 293e 5eba efbd
00000290: 5de2 e43e 9b6b 383d fb0d 1c3e 48f4 343e
000002a0: 1ca6 833e d939 dc3d faa2 a1bb c3fc 0dbe
000002b0: c326 92bd 70e0 3abe 7c54 643e f491 763e
000002c0: c5db cebe 23b2 eebc 9ab0 f93d 4e4e 573e
-0.052814484 0.1258809 0.26094097 -0.051895626 0.1541141 0.090590835 0.18213065 0.023725638
-0.15040517 0.32683578 1.7550105 -0.09109169 0.355757 0.39697284 -1.2054315 -0.013815851
-0.33630165 -0.33894145 0.0011733994 -0.24600455 -0.1882015 0.28334966 0.809281 0.91462225
-0.08577962 -0.09489059 -0.17766741 -0.117313206 -0.07006052 -0.49241412 0.004171667 -0.2124119
-0.21667953 -0.016467055 -0.16085938 -0.14502499 0.23200718 0.5230495 0.698061 -0.046028193
-0.10001486 -0.076000564 -0.11691374 0.04725117 -0.31951693 0.031614147 -0.029742932 -0.080940835
0.021877121 -0.05084144 -0.09560263 -0.07475391 0.18265823 0.30013922 -0.07501074 0.011491869
0.06630989 -1.066967 0.046019692 -0.019762691 -0.061866112 0.05096501 0.050406285 -0.021736147
0.012468026 0.009846812 0.20154974 0.20695287 0.22138572 0.25059193 -0.04696762 0.042443316
-0.09135456 0.22035955 -0.06700253 -0.09896667 0.058529895 0.19626573 -0.15869686 0.1205046
-0.04395461 0.045103516 0.2819287 -0.042381506 0.23075551 0.56329614 0.48843056 0.14433251
0.24897808 1.0719874 -0.07278192 0.15823746 0.14885628 0.04337394 0.14249444 0.22148584
-0.2334024 -0.26174697 -0.7745326 0.31988445 0.11867027 0.062365036 0.15252373 -0.09832937
0.20378488 -0.09491907 -0.0267719 -0.0997714 -0.08025147 0.0154514285 0.061185192 0.46150202
0.045337215 0.068004556 0.24600755 1.1290563 -0.2609225 0.30039898 0.25666142 0.12209193
-0.006008454 0.17721084 0.13721439 0.09580485 -0.06452129 -0.050499793 0.22423908 0.16658334
0.5683588 0.1160713 0.2873928 -0.32880762 -0.08046913 0.25223273 -0.005149579 -0.008517543
-0.102853954 0.03143881 -0.2198992 0.071703315 0.019937426 0.055643484 0.10013335 -0.2330762
0.10062029 0.23857427 -0.5907965 0.058453515 0.15924652 0.3391176 -0.19668272 0.2665059
0.16049266 -0.005787594 0.022497768 0.2042916 0.14127892 -0.08737324 -0.24743147 0.38788325
0.48154172 0.034596913 0.16593488 -0.117054686 0.4470395 0.045024496 0.15239708 0.17671311
0.2571267 0.10753221 -0.0049327584 -0.13865952 -0.071362995 -0.18249679 0.22297853 0.24079114
-0.40402046 -0.029137677 0.12191887 0.21025965

down1.bias f4 [12]
00000000: e050 d33e a89c b1be 65f1 cbbe 582a 173f
00000010: 266d 59be 2b5c 933d a89a 5b3e ac83 033f
00000020: 818b c33e ed2c 213f f7d8 6e3e 4bce ca3e
0.4127264 -0.34689832 -0.39832607 0.59048986 -0.21233043 0.07195314 0.21445715 0.5137279
0.3819237 0.62959176 0.23324953 0.39610514

down2.weight f4 [9, 12]
00000000: 1a9e 58be fe59 2abe 2bb5 cb3d 3f6f 5e3e
00000010: 2387 66be 6313 2fbe c4d5 623e f23f ff3c
00000020: 58d4 3bbe 5e35 78be 215d 1cbe 2750 14bc
00000030: 0115 f23e 06ee 863f 8137 b3bf 91a1 223f
00000040: 1eb7 143d 4426 1a3f e9c9 183f ea4d 033f
00000050: 3dab 913d b1bd dbbe d5c9 aa3e 829b aebe
00000060: ed9a 1f3e 4188 923f 17d5 c8bf af3d 293f
00000070: fa47 963c c18e 41be f534 863e 0543 9b3e
00000080: cbcc 013f 17c8 343f 032c 4cbe 32c6 203e
00000090: 5ba7 3f3f f6ec 69bf fe28 0440 5bc4 853e
000000a0: be20 81be 9445 d53d 7838 0dbf f5d1 5b3e
000000b0: a352 74bd ff24 8bbc 4bad cf3e 7b16 1f3e
000000c0: c53c d23e e59f 933f c6ea 06c0 699e a7be
000000d0: 4892 f53e 0551 143e 1b60 2f3d b142 053f
000000e0: ba1b 1b3f 67fb 81be 47f8 d9be a2ed 2ebe
000000f0: 686f c0bc df37 793e abe9 bb3d 9f71 1b3e
00000100: 34aa a7be 1615 aabe 0686 44be 7899 42be
00000110: aa87 a33c 869a 423c 8f8b abbf 8477 bdbe
00000120: df7b f1be 4175 7fbe c253 463f 058e 1dbe
00000130: 00b3 c2bd 40cf 453d 03c3 71be 77e2 af3e
00000140: 8e35 2c3d 7196 363f 9e9b 4a3f 0516 1f3f
00000150: 79cc 24be 5853 b23d 70d9 d13c 1612 d7bd
00000160: e0c9 233d 9850 873d 641c bfbd 3c5f bcbd
00000170: 2771 0dbe d8b9 3ebe 1805 1abd 2062 703d
00000180: 5658 9b3e aed5 423f df0f dcbd 29a9 9bbf
00000190: 2f04 093f 71f4 1a3f 45b8 37bf ad2a 333f
000001a0: 05cc f33e 2e07 33bd f385 0dbe 9f44 953e
-0.21154061 -0.16635892 0.099466644 0.21722125 -0.22512488 -0.17097239 0.22151858 0.031158421
-0.18342721 -0.24239108 -0.15269901 -0.009052313 0.4728165 1.0541389 -1.4001313 0.6352778
0.036307447 0.6021464 0.5968309 0.5129076 0.07112739 -0.4291816 0.3335711 -0.34103018
0.15586443 1.1447831 -1.569003 0.66109747 0.018344868 -0.18902113 0.26212278 0.3032457
0.50703114 0.7061781 -0.19938664 0.15700606 0.7486474 -0.913772 2.065002 0.2612637
-0.25220293 0.104136616 -0.5516429 0.21466811 -0.05964912 -0.016985415 0.405619 0.1553592
0.41061988 1.1533171 -2.1080794 -0.32738045 0.47963166 0.14484031 0.042816263 0.5205489
0.6058918 -0.25387117 -0.42572233 -0.17082837 -0.023490623 0.2433772 0.09175428 0.15180062
-0.32747042 -0.33219212 -0.19191751 -0.19003856 0.01996215 0.011877662 -1.3401965 -0.37005246
-0.4716482 -0.24947073 0.77471554 -0.15386207 -0.09506798 0.048293352 -0.23609547 0.34352466
0.04204326 0.71323305 0.79143703 0.62142974 -0.16093625 0.08707303 0.025616378 -0.105014965
0.039987445 0.06607169 -0.09331587 -0.09197852 -0.13812695 -0.18625581 -0.037602514 0.05868733
0.30340832 0.761073 -0.10745215 -1.2160999 0.5352201 0.6052924 -0.7176555 0.69986993
0.47616592 -0.04370802 -0.13820629 0.29153916

down2.bias f4 [9]
00000000: 87e5 c4bc 045c 29be 228b e33d 64a3 653e
00000010: 8920 ea3d 0094 043e f444 963d a260 5ebe
00000020: 9d26 2d3e
-0.024035228 -0.16539007 0.11110522 0.2242561 0.11431987 0.12947083 0.073373705 -0.2171655
0.16909261

down3.weight f4 [8, 9]
00000000: 3062 08bd 695c 89be 07cf 4a3f 7aae 2c3e
00000010: d7d5 cf3c 5516 81be 6ed3 043f 162b 88be
00000020: 9790 9bbd 9210 313e 9a85 673e af3f 2b3f
00000030: 288f a5bf e3ed c73e ab80 ea3e a5c5 c33e
00000040: aad3 493e 518c d73e c255 7dbe 8ced 5f3f
00000050: 3f05 423f 038a 93be 0eba b23e ecf2 3b3d
00000060: 224f 74be 5f48 9bbe a2a1 4f3e 6aab 553e
00000070: 0f44 a53c 8d1f c6be c001 993f 07a0 cabe
00000080: 6d73 ddbd 2367 343f 1801 21be fbd8 1c3f
00000090: 9898 0c3e b0b5 ed3d 4371 62be ec27 adbd
000000a0: e6f4 9ebe 4c30 82be 183a 16bd 1554 a93e
000000b0: 906d a03c 137f 08be 2b26 a5bd 6b70 70be
000000c0: 610b d8bd 3f60 f7bd f7f7 563d 07ea d4bd
000000d0: 6c2b a73d 7054 e3bd d866 13bd 6050 28bc
000000e0: 94f2 99bd 765f ebbd ab18 91be 1249 663e
000000f0: 6b79 0fbe f239 253e 2e50 6a3e 2ee8 063e
00000100: 3b56 223d acd9 163f 2961 b3bd 83b2 923f
00000110: e2c5 b6bc efc5 0dbf 38f9 8cbe b919 573f
-0.033296764 -0.26828316 0.7922215 0.16863433 0.025370521 -0.2521235 0.51885116 -0.26595372
-0.07595938 0.17291477 0.22609559 0.6689405 -1.2934313 0.3904868 0.4580129 0.38236728
0.1970965 0.4209924 -0.24739745 0.8747184 0.75789255 -0.28816232 0.34907573 0.045885965
-0.23858312 -0.30328652 0.20276502 0.2086617 0.020174054 -0.38695946 1.1953659 -0.39575216
-0.10813031 0.70469874 -0.15723073 0.61268586 0.13730085 0.1160692 -0.22113518 -0.0845488
-0.31046218 -0.25427473 -0.036676496 0.33071962 0.019583493 -0.13329725 -0.080639206 -0.23480384
-0.10549045 -0.12078904 0.05248257 -0.103962 0.08162579 -0.111000896 -0.03598675 -0.010273069
-0.07516971 -0.11492817 -0.28339133 0.22488812 -0.14011161 0.16135386 0.22882149 0.13174507
0.039633017 0.5892589 -0.08758766 1.1460727 -0.022311155 -0.5538015 -0.2753389 0.84023625

down3.bias f4 [8]
00000000: da2f 053f 042e 293e b860 7a3e e324 ae3e
00000010: 9a2f 99be 1c07 91bc 709c aabe e822 8d3e
0.5202614 0.1652146 0.24450958 0.34012517 -0.2991913 -0.017703585 -0.33322477 0.27565694

down4.weight f4 [7, 8]
00000000: db57 cabd a2ff 843f 7c1f ed3e 7dc8 54bf
00000010: 58a8 91be 9f4b fa3d 3de5 813e 856e a93e
00000020: de33 473f 694a 0bbf af87 f23d 683e 943e
00000030: 41e1 a5be 6623 70be be7d 293e 6863 753e
00000040: d77b c73e a4c5 0f3f 1821 5ebe a230 17be
00000050: 270d 6fbe 748e e4bd 5dae a9be c4fb 223e
00000060: 7579 e63e 1e05 0d3f b68d b13e aa3b e23c
00000070: 8f78 9e3e eb4e 413d bdd4 44be 6a35 79be
00000080: ae09 d1be 0c7e 0e3f bdca 2b3f 39c5 d33e
00000090: 1a3f e5bd 4ab2 a73e d5ae 933e 9ad3 b73e
000000a0: 0766 5ebe ecd7 c33e 4ba0 1d3f 5968 cebe
000000b0: 1b27 943e cc2e 773e 2e66 743e cd30 c93e
000000c0: cf49 28be a581 00be 174a fdbe d07e 003f
000000d0: b096 b23d 3390 e8bd 589c 1dbd 4468 413c
-0.09880038 1.0390513 0.46313083 -0.8311842 -0.2844875 0.12221455 0.25370207 0.33092132
0.7781352 -0.54410416 0.11842286 0.28953862 -0.32398418 -0.23451003 0.16551873 0.23963702
0.3896167 0.5616095 -0.21692312 -0.14764646 -0.23344861 -0.11159983 -0.3314084 0.15916353
0.4501454 0.55085933 0.3467843 0.02761634 0.30951354 0.047194403 -0.19221778 -0.24336782
-0.40827698 0.5566108 0.6710623 0.41361406 -0.11193676 0.3275321 0.28844324 0.35903627
-0.21718608 0.38250673 0.6157271 -0.40313986 0.28936085 0.24138945 0.23867103 0.39295045
-0.16434406 -0.12549455 -0.4947059 0.501935 0.087201476 -0.11355629 -0.03847918 0.011804644

down4.bias f4 [7]
00000000: 404f 1b3d e2b0 f63c 87c5 68be 778f 6d3e
00000010: 63d1 133f 91f8 8fba 9710 343e
0.037917376 0.030113641 -0.227316 0.23199259 0.57741374 -0.0010984113 0.17584454

down5.weight f4 [6, 7]
00000000: d06e 6f3e b744 4b3f 2e65 d73f 47e1 0ebf
00000010: 4b71 cb3d aa39 bd3d 9154 9c3f 5dda 083b
00000020: 7bb9 643d 8b5a 0a3e c6d5 ba3e 1a5f 11bf
00000030: 847b d2be 199f e7bf 5d6f 79bf 2871 3e3f
00000040: 21c2 cabc 60e0 bd3e ba4e e43d e65e 19bf
00000050: 4ac3 843f 63c5 c33e c317 813d a467 2abf
00000060: 6a86 023f b997 753e 7142 063f 70a6 6fbf
00000070: eadf 9cbe d9e2 85be 2401 773e 8cd5 eabe
00000080: bfa4 1f3e 778d 34be 6499 ab3f 492e c9be
00000090: 2811 c43d 4601 80bf 1513 00bf f281 d2be
000000a0: db9e 0cbe b33b 06c0
0.23382115 0.79401726 1.6827753 -0.55812496 0.09933718 0.09239514 1.2213308 0.0020882108
0.05584095 0.13511102 0.3649122 -0.5678574 -0.4110986 -1.8095428 -0.9743555 0.7439141
-0.024750771 0.37085247 0.111478284 -0.5991043 1.0372097 0.38236532 0.0630336 -0.66564393
0.5098635 0.23983659 0.5244513 -0.9361334 -0.30639583 -0.26149634 0.24121529 -0.45866048
0.1559019 -0.1763209 1.3406186 -0.39293125 0.09573585 -1.0000389 -0.50029117 -0.41114765
-0.13732474 -2.0973938

down5.bias f4 [6]
00000000: b47b 8b3d 948e d4be 84b2 d93d 04ab aebe
00000010: bc03 9b3e c1b7 99be
0.06810704 -0.41515028 0.10629752 -0.3411485 0.30276287 -0.30023006

up1.weight f4 [7, 6]
00000000: 324e 89be 44b0 b5be e86f 4a3e b6ca 1bbe
00000010: e88e 5f3e 989a 483e fa72 b33e c62f c7be
00000020: 9d5d 5d3e 9b5a 0d3f 20de e0be 20c6 143e
00000030: 0102 a13e e5f0 1d3e 7c94 6bbf 0fd8 303f
00000040: 072a 0cbf 157c 06bf 4493 1d3f 5dba 7ebe
00000050: 52a0 683f b9bd e3be 2397 023e 1cf2 69be
00000060: ccc7 39bd 195f fa3d 5fc3 7e3e 6337 b7be
00000070: ad77 9dbe 42fe ba3e b881 5fbd 88ef 43bf
00000080: 91f6 36bf 90a1 843c ee95 b93e 4c03 aebe
00000090: 725f b4be 2c58 33bd 92e0 373f 7d67 0cbe
000000a0: a42b 1e3e 5063 7bbe
-0.2681747 -0.35486042 0.19769251 -0.15214047 0.21831858 0.19590223 0.35048658 -0.38903636
0.21617742 0.5521638 -0.43919468 0.14528704 0.3144684 0.15423925 -0.92023444 0.6907968
-0.5475163 -0.52533084 0.61552835 -0.2487578 0.9086963 -0.44480684 0.12752967 -0.22846264
-0.045356557 0.1222517 0.24879216 -0.35784444 -0.30755368 0.36522108 -0.05456707 -0.7653737
-0.7146998 0.01619032 0.362472 -0.3398689 -0.3522907 -0.04378526 0.7182704 -0.13711353
0.15446335 -0.24549603

up1.bias f4 [7]
00000000: 33c5 7abe e294 223e 2ec8 07bf 10db eb3e
00000010: 4a94 83be 7e57 a43e 7c76 de3e
-0.24489288 0.15877107 -0.53039825 0.4606557 -0.25699073 0.32098 0.4344977

up2.weight f4 [8, 7]
00000000: 56c5 82be 5946 f93d 4293 963e 6c9f 933e
00000010: 77a5 66bd 07ec 523e e409 363e 523a 8bbe
00000020: 0e1f 49bc f069 973e 6c1a c7be d8f9 b6bd
00000030: 72ff 313e b420 83bf bce1 da3d f393 91bd
00000040: b93e fa3e 2e58 b2be c773 993e a081 a23e
00000050: 8c33 5dbe 8055 6fbc 9fe9 b43e 67ef b8be
00000060: 0166 6fbd 9173 563e edaf 083f 22ae 93be
00000070: 5794 6cbe 1edc 12be 04b2 b3be 984f f53e
00000080: e009 a03e fd6b d23d f95b 393e 7c9d bebe
00000090: b5a4 89be a25a 4f3e 63ca 31be 8f38 68bd
000000a0: 9b64 8b3e 1b9d 583f 8b81 1bbe 6773 ad3e
000000b0: 0e4c e33d e7d7 a0be 20a4 403e 9d9c d1be
000000c0: cf97 81bd 31ad 9d3e 908b dd3e 2926 cebc
000000d0: 0f5e 5abd 2cbd 6c3d 3c9e 86be 5ea8 033f
-0.2554118 0.12171621 0.29409224 0.28832567 -0.056310143 0.2059785 0.1777721 -0.27192932
-0.01227547 0.2957301 -0.38887346 -0.08934373 0.17382601 -1.0244355 0.10687587 -0.07108297
0.4887598 -0.348329 0.29971144 0.3173952 -0.21601695 -0.014607787 0.3533449 -0.3612015
-0.058446888 0.20942523 0.5339344 -0.2884379 -0.23103462 -0.1434178 -0.35096753 0.47912288
0.31257534 0.102745034 0.18101491 -0.37229526 -0.26883474 0.20249417 -0.1736236 -0.056694563
0.27225193 0.84614724 -0.15186135 0.33877108 0.11098491 -0.3141472 0.18812609 -0.409398
-0.06327783 0.30796197 0.4327054 -0.02516468 -0.053312358 0.057797596 -0.26292598 0.5142878

up2.bias f4 [8]
00000000: ab0f 38be 84f1 79bf 9a65 6d3e 26b4 af3e
00000010: 501f e3bd c3a1 863d 90f6 203f c106 0dbf
-0.17974727 -0.9763415 0.23183289 0.3431713 -0.11089957 0.06573822 0.62876225 -0.5508843

up3.weight f4 [9, 8]
00000000: e180 5e3d af3a d9be 09f5 1e3e d5f4 3d3b
00000010: 8f0a a93d f61d 163c 5743 82be 2811 08bc
00000020: c405 493c b20d 8cbe 221e 393e a86a febb
00000030: 5600 7a3d e8db 9d3d 614a 0f3d 95e0 25bb
00000040: 086e 173e c494 57be 6fec bd3d 52c9 fc3d
00000050: 3275 a03e 87e0 89be 50dd bc3e 0ab3 02bf
00000060: d818 d2bc 0bb9 dfbf 73cd 483e 374a debd
00000070: 71ec 4fbe 6ccf d03e d5d7 d8be 73c7 c33e
00000080: c83d 3b3c efee 8c3e 970c 0f3d d701 863e
00000090: 2edf b63c 46d3 1d3d 135c a83e cef7 1c3f
000000a0: c3c4 adbe b195 3bbf 8d62 3bbd 9743 383f
000000b0: 4712 7dbe 777e 833f 5a44 863e 8a2c 163e
000000c0: 5635 853d 722e ba3e 60b8 02bd 5412 093e
000000d0: 419f fe3d 63f6 263d f505 dabf 9c6f 92be
000000e0: 55b3 bf3e 0384 a83e 283c 0dbf d2a3 973d
000000f0: 2cfb 45bf c903 d63d c0ac 2d3e 1f64 d4be
00000100: 14b7 8b3e 29a1 7ebf bbc6 22bd 2ded cdbe
00000110: 9c8f 17be cbe2 a23f 1bec 3abe 9b8c c93d
0.054322127 -0.42427585 0.15523161 0.0028985043 0.08253967 0.009162417 -0.25442 -0.008304872
0.012269441 -0.273542 0.18077901 -0.0077641793 0.061035477 0.077079594 0.034983043 -0.0025310863
0.14788067 -0.21052843 0.09273612 0.12343086 0.31339413 -0.26929113 0.36887598 -0.5105444
-0.025646612 -1.7478346 0.19609623 -0.10853999 -0.20305039 0.4078325 -0.42352167 0.38238105
0.011428304 0.27526042 0.034924116 0.2617328 0.022323217 0.038531564 0.32882747 0.6131562
-0.3393918 -0.73275286 -0.045748282 0.71978134 -0.24714004 1.0272969 0.26224023 0.14665428
0.06504314 0.3636356 -0.031914115 0.13385898 0.12432719 0.040762316 -1.7033068 -0.28600776
0.37441507 0.32913217 -0.55169916 0.07404293 -0.7733638 0.10449941 0.1696043 -0.41482636
0.27288115 -0.9946466 -0.039740305 -0.40220013 -0.14800876 1.2725462 -0.1825413 0.098412715

up3.bias f4 [9]
00000000: 455c b3bc 6d18 03bd 4bba 32be 50d5 b7ba
00000010: 769a 55bf c4d7 f43d ce4d c13e f853 003f
00000020: 937a 27bf
-0.021894583 -0.032005716 -0.17453878 -0.0014025364 -0.83438814 0.119552165 0.37754673 0.50128126
-0.6542141
