4/model_Plate 28332.pt (torch, 6354 bytes, 12 tensors)

down1.weight f4 [12, 15]
000000 ae 6c 95 3c 9e 2e e6 bd 7e 47 5a be 0d 20 39 3d
       0.0182403 -0.1123936 -0.21316335 0.04519658
000010 df b1 77 3d 34 64 1f bd 70 91 f8 bc 28 2e 47 3e
       0.060472365 -0.03891392 -0.030342788 0.19451201
000020 50 b4 ce 39 cf 9f a1 bd 2a 7a e4 3d c1 7d 6d be
       0.00039425725 -0.07891809 0.111561134 -0.23192503
000030 e2 6d fb 3d b1 77 96 bd cf 45 4b be a4 b4 73 bd
       0.12276818 -0.07347048 -0.19850849 -0.059498444
000040 97 3f 01 be 8a 3c 20 3d 5f 52 04 be 1c ff 84 3d
       -0.12621914 0.039120235 -0.12922047 0.06493971
000050 c6 15 2d be 31 e2 0b 3e 2d 59 89 3e 7e 7d 03 3f
       -0.16902837 0.13660504 0.26825848 0.5136336
000060 c8 f5 86 3d 00 b0 25 be a8 be 30 3f cc ec 82 bd
       0.06589848 -0.1618042 0.6904092 -0.06392822
000070 0c 72 ee 3e c3 33 d8 bc 12 a7 af 3d a0 d7 9d 3e
       0.46571386 -0.02639187 0.08576788 0.3082857
000080 34 19 2d 3e a8 c6 84 3d e0 72 34 bd 73 32 80 3d
       0.16904145 0.06483203 -0.044054866 0.062596224
000090 f3 63 2a 3e 67 94 31 3e e1 69 d1 3e 06 02 2a 3e
       0.1663969 0.17341767 0.40901092 0.16602334
0000a0 37 97 a4 be 54 7b 3b 3e 44 be 13 bf dc 71 32 3f
       -0.32146618 0.18308765 -0.577122 0.69704986
0000b0 b8 3d f9 bc 08 f1 cb 3d 84 81 e6 3d bc 3c b2 3b
       -0.030424938 0.099580824 0.11255172 0.005439369
0000c0 9e 40 61 3d d0 e0 fc 3c dc 48 3b 3e e2 81 9a 3d
       0.054993264 0.030868918 0.18289512 0.075443044
0000d0 fd ed 9e 3e 2c 0c 56 3e 43 82 08 3e d7 cb 16 3e
       0.31040946 0.2090308 0.13330941 0.14726196
0000e0 82 51 ff 3e 08 29 e5 3e c4 1f 4c be fa 31 ab be
       0.49866873 0.44757867 -0.19933993 -0.33436567
0000f0 d1 4d 4d be c1 ac 8e bd ed 4a 59 be c7 87 27 bd
       -0.20049216 -0.06966544 -0.21219988 -0.04090097
000100 4e 3f 07 bd 8b b3 c1 bc ab f0 40 3e 72 65 82 3e
       -0.033019356 -0.023645183 0.18841808 0.25468022
000110 44 55 05 3f 48 c4 b8 bd 3f d0 a3 be d0 8b fb bb
       0.5208323 -0.09021813 -0.31994817 -0.007676579
000120 89 f3 b7 bd dc 2c 3a 3d 98 33 a7 3e eb 98 bc bc
       -0.089819975 0.045452937 0.3265655 -0.023022136
000130 05 3e 1b be b9 bf b9 3c f2 60 28 3e 92 26 33 be
       -0.15160377 0.022674428 0.16443232 -0.17495182
000140 f4 ee 0d be 91 30 d1 3d 74 24 9c bc 34 88 ca 3d
       -0.13860685 0.102143414 -0.019060351 0.0988926
000150 d6 53 c1 bd 86 75 07 bf 55 32 d7 3e a6 90 60 3e
       -0.094398186 -0.529137 0.42030588 0.21930179
000160 28 3b 0c bd a1 85 97 3e 3f 13 ae bd e2 54 75 3c
       -0.034236103 0.29594138 -0.08499765 0.014973851
000170 be 9b 98 bc ab 5b cb 3d 02 9f 03 be 4b 35 4f 3c
       -0.018628951 0.09929594 -0.12853625 0.012646983
000180 b4 e9 d1 bd 2f ad a5 3c 86 d0 db be b7 d8 c0 3d
       -0.102496535 0.020224182 -0.42932528 0.09416335
000190 5f 91 89 3e c3 ed 87 bd 4a 91 d6 be 6d 73 e6 ba
       0.26868722 -0.06637146 -0.41907722 -0.0017582007
0001a0 6f 68 d8 be 77 1f a0 3d eb 70 57 3d 95 c2 23 3c
       -0.42267177 0.078185014 0.05259792 0.009995122
0001b0 e4 ef c9 bd 8a e4 8d bc 2f f2 84 bd 52 40 09 bd
       -0.09860209 -0.01732089 -0.06491505 -0.033508606
0001c0 98 f6 59 3e a7 9b 2e 3d 2b 46 83 be ca c9 20 bf
       0.21285474 0.04262891 -0.2563947 -0.62807906
0001d0 95 33 92 3e bb 3e d3 bd e8 33 32 bc 2d 71 81 3d
       0.2855498 -0.10314699 -0.010876633 0.06320415
0001e0 17 3d 80 be 97 95 bf 3c fe 7d 68 3e 80 3f 0e be
       -0.25046608 0.02338676 0.22704312 -0.13891411
0001f0 d0 77 1a be fe c2 e8 bd 9f f3 60 3e 14 32 aa bd
       -0.15084767 -0.11365317 0.21967934 -0.08310333
000200 ca 0c 20 be de ee 48 3d 05 4c f1 bb 99 2f 85 bd
       -0.15629879 0.049055927 -0.0073637986 -0.06503219
000210 a3 1a 56 be a1 82 0a be ee e2 04 3d 2a 62 de 3d
       -0.20908599 -0.13526393 0.03244298 0.10858567
000220 4d 01 0f bd e3 79 08 3e ee 17 fe 3c 9a 97 e5 3d
       -0.03491335 0.13327746 0.03101727 0.11210556
000230 1e ee aa 3d 42 89 1a 3e 57 31 c5 3e f1 1d 04 3f
       0.083461985 0.15091422 0.38514206 0.51608187
000240 9e b3 19 be 2e 0a d5 be 00 e6 03 be 41 36 f6 bc
       -0.15009925 -0.4160933 -0.12880707 -0.030055167
000250 66 9e 60 be e4 6e f3 3e 39 46 9d bd a4 b1 94 3e
       -0.21935424 0.4754554 -0.076794095 0.2904178
000260 2d 5f da 3d 70 5a 0f be cc 6d 0f 3e f7 bd 3b 3d
       0.106626846 -0.13999343 0.14006728 0.04583546
000270 cc 25 9f bd 80 17 35 be 97 4f d5 3d d6 48 8b bd
       -0.07770881 -0.17684746 0.10415571 -0.06801002
000280 6f ec 0d bf b3 e7 e9 3e b6 90 58 3e 8e 6e 2e 3d
       -0.55438894 0.45684585 0.21148953 0.042585902
000290 39 9a fa 3e 0f 69 a6 3d 1b fc 5a bd f4 5b 0d be
       0.48945788 0.08125507 -0.053463083 -0.13804609
0002a0 0b aa 0d 3e e8 88 e9 3c e3 88 96 3e 06 7c fe bd
       0.13834397 0.028507665 0.2940131 -0.12425999
0002b0 24 61 76 3d 9e 89 66 3d 4b 6a c6 bc 55 79 12 bf
       0.060151234 0.056283586 -0.024220606 -0.5721639
0002c0 28 81 25 3f dc fd 64 bc 57 cd cc 3e 08 17 22 3e
       0.646502 -0.01397654 0.40000412 0.15829098

down1.bias f4 [12]
000000 70 c5 73 be 78 39 a9 3e a1 f0 ac 3e e6 7f d4 3e
       -0.23805785 0.33051658 0.33777335 0.4150383
000010 4e a9 0b 3f 69 4b 12 3f ac 1f 66 be 94 3c 2d 3f
       0.54555213 0.57146317 -0.2247302 0.6767056
000020 1f 6f 34 be 7b fc ef 3e d8 32 00 3f 71 bd b4 3e
       -0.17620514 0.46872315 0.5007758 0.35300782

down2.weight f4 [9, 12]
000000 c7 e4 99 bd 10 d8 8f be c2 fa 87 be c4 c7 e6 3d
       -0.07514339 -0.2809453 -0.265585 0.11268571
000010 9d 95 61 be cd 57 b9 3c 8e 3c 50 be 84 ec 81 be
       -0.22029729 0.022624874 -0.203356 -0.2537576
000020 87 a3 42 3e ed 8c 93 3c a9 22 ce bd bc 1e 3d 3e
       0.19007693 0.018011535 -0.10065205 0.18468755
000030 74 0b 8b be c0 b5 c4 3e 7e c5 17 3f 03 f5 cc be
       -0.27157176 0.38419914 0.59285724 -0.4003068
000040 50 9a 2c 3f b1 db d4 3e 77 f8 d6 3e 1f eb 0f 3f
       0.6742296 0.4157386 0.4198644 0.5621814
000050 ca 73 0e 3e 2b 62 1e 3f c1 23 a1 3e be b8 fa 3e
       0.13911358 0.6186854 0.3147259 0.48969072
000060 69 29 84 3e 55 2b e0 3d 1a 38 9d be 85 15 c2 bc
       0.25812843 0.10945765 -0.30706865 -0.023691902
000070 37 94 60 bc 09 eb 56 3f df 51 94 3e d4 a6 10 3f
       -0.013707212 0.83952385 0.28968713 0.5650456
000080 1e 37 df bd 48 15 18 3d c8 0f 6b 3f 78 a4 d6 3e
       -0.10899185 0.03712967 0.91820955 0.41922355
000090 d8 a9 68 3e 82 62 12 bf ec f8 ea bc 87 d4 f2 3d
       0.2272104 -0.5718156 -0.028683148 0.118569426
0000a0 63 17 e8 3e 63 b2 03 3f ee 59 c9 3e 4e d4 95 3e
       0.45330343 0.5144407 0.39326423 0.29263538
0000b0 0d cf 31 3e 72 e3 3e 3f c9 e7 16 3f ca a8 01 be
       0.1736414 0.74565804 0.58947426 -0.12662044
0000c0 46 0c 03 be 38 99 25 3e 95 b3 22 3d 9b d2 80 3f
       -0.1279765 0.1617173 0.039722044 1.0064272
0000d0 5f a3 99 3e 90 d0 17 3f 69 31 79 3e 43 94 34 3e
       0.30007455 0.59302616 0.24335255 0.17634682
0000e0 62 b2 96 bd bd 40 a0 3e 09 49 a7 3e 64 ac 48 3d
       -0.073582426 0.3129939 0.3267291 0.04899253
0000f0 50 e2 a3 bb fb 71 a4 3e 99 d0 bb 3e 30 8c 03 bf
       -0.005001344 0.3211821 0.36682585 -0.51385784
000100 6b ec 8a be 00 38 8b 3e a9 09 3e 3e eb 13 27 3d
       -0.27133498 0.27191162 0.18558373 0.04079048
000110 a2 3e 56 3e 7f c0 59 be 1d 32 da 3e 42 72 4f 3f
       0.2092233 -0.21264838 0.42616358 0.8103372
000120 0a 4b 4d 3b 5f 5a 79 3e 27 11 b0 3e cb 1b ac 3e
       0.0031325244 0.2435088 0.34388086 0.33614954
000130 7c 39 fe 3d 26 6a af 3d 67 2e f0 3e b9 d3 e7 be
       0.12413308 0.08565168 0.46910402 -0.4527872
000140 5f f6 9c 3d d6 dd ec bc 5f c6 7e 3e ef ae 06 be
       0.07664179 -0.028914373 0.2488036 -0.1315267
000150 9c 53 9b 3d 66 8f b1 3d b2 55 76 be de 62 05 3e
       0.075843066 0.08669929 -0.24056128 0.13025996
000160 e0 4f 26 be 89 7e 9d bd 02 3f 60 be e0 9e f4 ba
       -0.16241407 -0.0769015 -0.21899036 -0.0018663071
000170 b8 ea 89 be 53 74 ed 3d 29 88 6d be b3 f4 29 3e
       -0.2693689 0.11594453 -0.23196472 0.16597252
000180 36 58 36 bc 9a 4d 9d 3c cf ad e3 3c e7 e7 46 be
       -0.01112943 0.019202042 0.02779284 -0.19424401
000190 9c 09 82 be b7 3a ff 3c 89 bc ef 3d 94 56 e3 3d
       -0.25397956 0.031155927 0.11705882 0.11100498
0001a0 c0 a4 1f 3c 9f 13 94 be 84 d8 dc 3d 48 6a f2 3c
       0.009743869 -0.2892122 0.107834846 0.029591694

down2.bias f4 [9]
000000 f8 51 4e be 51 27 2a 3c 05 df 0f 3e 9b 8d 88 3e
       -0.20148456 0.01038535 0.14049919 0.26670536
000010 a7 39 96 3d 95 fb db 3e 82 91 3a be 50 11 88 be
       0.07335215 0.4296538 -0.1821957 -0.26575708
000020 94 43 7f be
       -0.24928123

down3.weight f4 [7, 9]
000000 53 3d 77 3e 84 ab a3 be fe b4 92 be 88 7f 78 be
       0.24144487 -0.31966794 -0.2865371 -0.242674
000010 36 54 57 3e a6 db 8a 3e ce 19 17 be 56 62 2e 3c
       0.21028218 0.27120703 -0.14755937 0.010643562
000020 1f 8f 97 be d6 bc 08 be 93 24 58 be 94 df a1 be
       -0.2960138 -0.13353285 -0.21107702 -0.3161589
000030 0a e4 9e be 33 ad 35 be 56 6b 73 be 30 22 a8 3d
       -0.31033355 -0.17741852 -0.23771414 0.08209646
000040 80 0a 2d be 96 91 b5 bd 48 fe 4c 3e 0b f5 fd 3e
       -0.16898537 -0.08865659 0.20018876 0.49601015
000050 8f e6 41 3f 08 b8 7a be 1f cb 18 3e 98 bb bc 3e
       0.7574243 -0.24484265 0.14921235 0.36861873
000060 22 08 9c be fa 79 8e 3e 81 26 c2 bd e0 70 c5 3d
       -0.30474955 0.27827436 -0.0948 0.0964067
000070 66 9a c6 bd 7b 56 7a be 80 e5 bb bd 13 f2 78 3e
       -0.09697418 -0.24447052 -0.09174633 0.24311094
000080 f0 02 a0 be ab b6 f5 bc cc 02 a3 be bb 8e db bd
       -0.3125224 -0.02999433 -0.3183807 -0.10720583
000090 eb c6 8e bd 89 56 98 3e 4f f1 f5 3e 35 1e 56 3f
       -0.06971534 0.2975352 0.48035666 0.8363984
0000a0 ec ab bb 3e d2 2c 54 bf a0 4c 26 bf 4b 24 dc bd
       0.36654603 -0.8288089 -0.6496067 -0.1074911
0000b0 f0 87 71 be f0 e9 c7 bd b8 8e 33 3f 1d 31 0e bf
       -0.23587012 -0.09761417 0.70139647 -0.5554369
0000c0 f7 d6 85 be ab 01 37 3e ad 8a 87 be 65 d4 3c 3e
       -0.26140568 0.1787173 -0.2647299 0.18440397
0000d0 17 bc a0 be be 17 59 be 3f e6 92 3e 4a 8e 92 3d
       -0.313935 -0.21200463 0.2869129 0.07156046
0000e0 78 b4 bc 3e 53 c4 fb be 13 86 3b 3f 60 7a 16 bf
       0.36856437 -0.4917322 0.73251456 -0.5878048
0000f0 80 b4 87 3e 36 1c 8b 3d f7 a8 1c be
       0.26504898 0.0679249 -0.1529883

down3.bias f4 [7]
000000 80 55 3e be e0 1b fe bd 84 e2 08 3e ab 48 9e be
       -0.18587303 -0.124076605 0.13367659 -0.30914816
000010 25 c8 60 bc ed cd e6 3e 4d 5b 6b bc
       -0.013719593 0.45078984 -0.0143650295

down4.weight f4 [5, 7]
000000 4c fb 89 be 3a 94 a9 be a3 8e 2e 3f 9d 98 bf 3d
       -0.26949537 -0.331209 0.68186396 0.093552805
000010 60 68 e2 be d0 59 20 bf bf e3 2e bf 5f 6c 4b 3d
       -0.44220257 -0.62637043 -0.6831626 0.049663898
000020 42 cd 2e 3e 29 bc 45 3e 4d db c0 3e 00 a8 09 3f
       0.17070487 0.19310059 0.37667313 0.5377197
000030 5f dc b3 3e 64 6d cc be 8a 9d 43 3e 7e 08 2f 3d
       0.35129067 -0.39927208 0.19103065 0.04273271
000040 2b 82 0b bf 06 72 a8 3e 3e 65 ac bd 88 62 8f bd
       -0.54495496 0.32899493 -0.08417748 -0.07001215
000050 f4 1d 0a bf f7 56 0b bc e4 9f dc 3c 86 ca 0a be
       -0.53951955 -0.008504621 0.02693171 -0.13553819
000060 37 46 03 3e f6 7f d8 3e f3 a9 06 3d 41 eb ef be
       0.12819754 0.42285126 0.03287692 -0.46859172
000070 e9 2d 4a 3e e4 0d 6e 3e 54 1b 03 3e fc dd 6a be
       0.19744076 0.23247486 0.12803394 -0.22936243
000080 ca 28 39 3f bf c4 1f bf e2 6b c3 3e
       0.72327864 -0.62409586 0.38168246

down4.bias f4 [5]
000000 7a a8 82 3e cb 11 fe 3d de ea 1e be b0 d4 0f be
       0.25519162 0.124057375 -0.15519282 -0.14045978
000010 09 3a 6c 3e
       0.23069014

up1.weight f4 [7, 5]
000000 77 1e 97 3e 45 d7 b0 3e 81 e0 bd 3e f5 75 c6 3e
       0.2951543 0.34539238 0.37085345 0.3876187
000010 cb 64 87 be 6c d3 17 bf 73 18 a6 3e 93 ad a3 be
       -0.26444086 -0.5930698 0.32440528 -0.31968364
000020 fb 6c c7 be 9c 0d 11 3e 93 b6 a6 3e dd 71 2a 3e
       -0.38950333 0.14165348 0.32561168 0.16644998
000030 d3 36 be be d9 19 0a bf 24 0f 5e be c6 97 87 3e
       -0.37151203 -0.5394569 -0.21685463 0.2648298
000040 75 20 e4 3e fc 61 2f be 51 dd cb 3e 9d 9c cc 3e
       0.44556013 -0.17127222 0.3981729 0.39963236
000050 14 74 b2 be 97 3a b6 be 80 6b b1 3e d9 fa b5 be
       -0.34854186 -0.35591576 0.34652328 -0.35542944
000060 c9 b8 30 3e c5 32 5e be e9 36 a4 be 1e 3c cd be
       0.1725799 -0.21699055 -0.32073143 -0.40084928
000070 c4 33 0d bf 12 25 96 3e 05 b6 7a be 0f 2f 0a 3f
       -0.55157113 0.29325157 -0.24483497 0.53978056
000080 93 73 fb be e1 37 28 3d 08 d3 0f bf
       -0.49111614 0.041068915 -0.56181383

up1.bias f4 [7]
000000 60 12 7b be d9 63 37 3d 28 75 d1 3e e6 e2 cb 3d
       -0.24518728 0.044772957 0.40909696 0.09955387
000010 0f 99 b8 be 29 50 61 be cd af db be
       -0.36054274 -0.22003235 -0.42907563

up2.weight f4 [9, 7]
000000 54 06 2a be de f1 f3 bc 90 73 6b be db 7b 66 bd
       -0.16603976 -0.029778417 -0.22993302 -0.05627046
000010 21 90 c0 be 8b 23 1f 3e d4 b0 b0 3e c2 cb d2 bd
       -0.37609962 0.15540902 0.3450991 -0.1029277
000020 bf f1 b1 3e 99 7b ce bd 79 60 19 be 0d 46 2b 3e
       0.3475475 -0.10082168 -0.14978208 0.16725941
000030 49 b2 84 bd 7d 6d 8a 3e 07 70 a9 be f1 92 c8 3e
       -0.06479318 0.27036658 -0.33093283 0.39174607
000040 f5 ea 1b bd b4 81 2a be d8 e3 5d 3e e9 07 ec bd
       -0.03806587 -0.1665104 0.21668947 -0.11524946
000050 7a dd db 3e 93 9d 9d 3d d5 e9 15 be 68 96 53 bd
       0.4294241 0.076960705 -0.14639981 -0.05165711
000060 d8 e3 01 be 0a 93 a5 bd 0c 2b 84 3e 68 bc 2a 3e
       -0.12684572 -0.08084686 0.25814092 0.16673434
000070 44 be 22 3e c6 ca 39 3e 00 3e 58 bd f3 a1 bc be
       0.15892893 0.18143758 -0.052793503 -0.36842307
000080 80 25 51 bd 49 5d 08 3d f7 a4 2a be 2a e5 55 be
       -0.051061153 0.03329209 -0.16664492 -0.208882
000090 87 71 ed bd d4 a4 a5 3e 0a b5 0d bd a4 fb 37 3e
       -0.11593919 0.32352316 -0.03459648 0.17967087
0000a0 0e ee 2f 3f 36 4d 0a be c9 7c c1 3d 92 a4 0d 3e
       0.6872262 -0.13506016 0.09447629 0.1383231
0000b0 f0 af d0 bd bf 48 2f 3b d7 6c b1 3e 6d e6 de 3e
       -0.101898074 0.002674624 0.3465335 0.43535176
0000c0 40 46 04 bf c1 56 40 bc c4 55 1b bd 21 99 0d 3f
       -0.51669693 -0.011739434 -0.03792359 0.5531178
0000d0 e1 3f 05 be da ca 7a be c4 20 5f be f8 53 61 3e
       -0.13012649 -0.24491444 -0.21789843 0.22004688
0000e0 39 c4 e6 3c 22 80 69 bd bd e3 7d bd 68 8a 98 3e
       0.028169738 -0.057006963 -0.061984766 0.29793096
0000f0 7f 16 02 3d a3 7b 73 be b5 82 6a 3d
       0.031759735 -0.23777632 0.05725356

up2.bias f4 [9]
000000 f4 6a c0 3e a5 db d0 bd 39 74 5a be bb 8f c7 3e
       0.375816 -0.10198144 -0.21333398 0.38976845
000010 9a 58 4b 3f 45 92 dd be a6 eb 2b 3e 79 94 27 3e
       0.7943207 -0.43275657 0.16789111 0.16365232
000020 b2 5f 07 be
       -0.13220099
