4/model_Plate 39630_N.pt (torch, 6386 bytes, 12 tensors)

down1.weight f4 [12, 15]
00000000: 24e1 0f3e 3523 32bd 14bf fd3d ac0c cd3d
00000010: dd68 d93b 367d c53d 5231 713e 1922 383e
00000020: 62f5 fc3e ecce ba3c ae17 ca3e 6ed1 9cbd
00000030: 17d9 dc3d 4b1a 39be 76d2 86be 07ff b83d
00000040: 54f5 e53c 8abc a43d 0f9b c3bb 5b13 78bd
00000050: e198 6bbc 6a4a 093f 7ff1 273d 2eb7 7b3e
00000060: 91e3 f43e d908 103f 3033 ce3e 9821 ef3e
00000070: cd69 4f3d 0a4f 213f eaeb bfbb ef8f d1b8
00000080: f669 a13d 679e 61bd 03b6 58bd cc97 c0bd
00000090: 75b9 693e b213 df3e b798 e63e 4f26 473e
000000a0: 797b 813e d3da 233f e471 c1be 4bbf b63e
000000b0: 4b71 f6bd aac0 b63d 077f 34bd d7ca 113e
000000c0: 8acd a1bd f6e1 b0bc edd4 033e 7ee6 873e
000000d0: 94eb 153e 324f bc3e 5169 263e da04 52bc
000000e0: a7eb 073c 7a79 1fbe d9a0 f03e 992b 0f3e
000000f0: 0fdf 7cbe b767 09be a19e 99be a8a9 fb3c
00000100: b9af 983d 092a ce3d ff3b 3a3e 5e88 c53d
00000110: 15d8 c53e 053d 153e af1d 8b3d 9a4d 393f
00000120: 8e96 fc3d 7006 0e3e d2b7 833e ee28 683c
00000130: 3eaa cb3d fc45 943e eaef 3d3e 0671 543e
00000140: 1364 46bd 1725 fd3e de0f ec3e 21a2 063f
00000150: 47ab 0bbd e15f 17bd 6f8a 0fbf e311 673f
00000160: 97b6 b4be c783 c53e 3af7 7abd 2aec 9dbc
00000170: f290 41be 4f57 9cbd 5c73 38bb f253 a3bc
00000180: 6229 063f 8556 383b 2980 813e 38b0 073f
00000190: c846 733e 720c 1f3e 22b2 21bd f295 a83e
000001a0: cd74 783f 0600 8f3d 66cd 72bd 561a 29bd
000001b0: e2f6 1c3d 0fd5 1d3c c4c8 57ba 1c46 763e
000001c0: 623e 963e bd7c 5b3d c482 bd3e c71f 853e
000001d0: 0712 ec3e 5c19 03bf 989c 1c3f 08b8 3e3e
000001e0: ce00 53bd c48a 153e 153a 44bd b8e4 10be
000001f0: d972 82bc 8b6e b7bd 33f9 c93e 52ec a63e
00000200: 1ae6 113f f719 b93c c1e8 393e 51c5 e3be
00000210: c026 6f3d d140 33be 3134 903d 3e91 e03b
00000220: 80ab 0d3e 4031 853e 4b73 b43c f32a 1e3e
00000230: 2a03 813d a93c a43e fe76 b23e be27 863d
00000240: 4f0a 81bd 978e 493e 13b1 6cbd 5165 7d3f
00000250: b6e0 edbe 77cb 95bc 13b4 183e 6f1b 1f3e
00000260: abe8 8c3e 905e a7bd e57c 3abc 28e4 b4bc
00000270: 04ff 3d3e 5d67 643e 9c61 c23e fac5 923d
00000280: c695 2abf bc6f f53e 7ff0 d23e 4389 f7bc
00000290: ce4c 673d 1ddc 2fbd bd13 60be 3368 4fbe
000002a0: f41b 8c3d 40da babd 1974 0b3e 554d 933e
000002b0: 304a aa3e e936 413e b9e4 7b3e 8a12 84be
000002c0: 3939 a4ba 1d61 97be 7942 ec3d e2b2 203f
0.14050728 -0.043490607 0.12389961 0.100121826 0.006634815 0.09643023 0.2355397 0.17981757
0.49405962 0.022803746 0.3947119 -0.07657133 0.10783594 -0.18076436 -0.26332444 0.090330176
0.028071083 0.080437735 -0.005969412 -0.060565334 -0.014379711 0.5362917 0.041001793 0.24581596
0.4782987 0.562635 0.40273428 0.46705317 0.05063801 0.6301123 -0.0058569806 -9.992706e-05
0.078815386 -0.055082705 -0.052907955 -0.09403953 0.22824652 0.43569714 0.45038387 0.19448207
0.25289515 0.64005774 -0.37782204 0.3569282 -0.12033328 0.089234665 -0.044066455 0.14237534
-0.079005316 -0.021592122 0.12874193 0.2654304 0.14640647 0.3677917 0.16251113 -0.0128185395
0.00829593 -0.15573683 0.46997717 0.13981475 -0.24694465 -0.1341847 -0.30003837 0.030720547
0.074553914 0.10066611 0.18186949 0.096451506 0.3864142 0.14574058 0.06792771 0.72384036
0.123334035 0.13869643 0.2572618 0.014169915 0.099445805 0.28959644 0.18548551 0.2074624
-0.048435282 0.4944236 0.46105856 0.5259114 -0.03409889 -0.03695667 -0.5607061 0.9026167
-0.35295555 0.385771 -0.06127093 -0.01927765 -0.18902948 -0.0763384 -0.0028144931 -0.01993749
0.52406895 0.0028127742 0.2529309 0.53003263 0.2375747 0.15532091 -0.03947652 0.329269
0.97053224 0.06982426 -0.059277914 -0.04128488 0.038321383 0.009633317 -0.00082315155 0.24050182
0.2934447 0.053585757 0.3701383 0.26000807 0.46107504 -0.5121057 0.61176443 0.1862489
-0.05151444 0.14603716 -0.047906954 -0.1414975 -0.015923904 -0.08956631 0.39447936 0.32602173
0.5699173 0.022595389 0.18155195 -0.44486478 0.058386564 -0.17505194 0.07041205 0.0068532517
0.13834953 0.26014137 0.022027632 0.15446071 0.062994316 0.3207753 0.3485641 0.06550549
-0.06300794 0.196833 -0.05778606 0.9898272 -0.46460503 -0.018285496 0.14912443 0.15537809
0.27521262 -0.08172333 -0.011382316 -0.02208145 0.18554312 0.22305055 0.37965095 0.07166667
-0.66634786 0.4793681 0.4119911 -0.030216819 0.05646973 -0.042934526 -0.2188253 -0.20254593
0.06841269 -0.09123659 0.13618506 0.28769937 0.33259726 0.18868603 0.2459897 -0.25795394
-0.0012529261 -0.2956628 0.11536116 0.62772954

down1.bias f4 [12]
00000000: e0dc 943e e8c2 f23d a712 aa3e f642 0d3e
00000010: 416d 623e 6b1a a83e ee57 8f3e 7da8 ce3e
00000020: 6128 fd3e 4482 8c3e b158 013f 3249 ce3e
0.29074764 0.11853582 0.33217356 0.13795075 0.2211199 0.32832655 0.27996773 0.4036292
0.4944487 0.27443135 0.5052596 0.4029022

down2.weight f4 [9, 12]
00000000: 79a8 f03d 516c 9abe f6f8 803e b7e1 4e3e
00000010: 4e96 cebd 78e7 fcbe 7292 f63e 51bd ef3e
00000020: 328f e23d 1f77 39bf 5df9 eebd 95b9 533e
00000030: 9a4e 1abe 0968 c33e 87bb debe 76aa bdbe
00000040: 8cd2 353e 903a 093f 3936 19bf 0086 8bbe
00000050: f90f 703d 8816 243f c9e8 463e 84b6 88be
00000060: d60b 64be 74b0 863e 3bbe 9abe a549 143f
00000070: c989 a1be 3236 2a3f 1e05 193f 8600 8c3e
00000080: ed27 e33e 2588 7fbd 9a4b b6bd 1a7b f23e
00000090: c652 fb3e 56df 2d3f f5d8 b03e b607 953d
000000a0: 0ee9 9dbd 76f7 703e 0380 2e3f 1143 ab3e
000000b0: b830 bd3e 7561 f03e 615a 16bf 31be 10be
000000c0: 13da 0c3f 1eb6 98bd e7bb 223e aa07 9ebe
000000d0: 01f8 283e 5685 373f 8b21 023f a725 63be
000000e0: 09a7 f93e ff9d 203f 9f53 0b3f e211 c33e
000000f0: 08b3 d3bc a082 453f c1a4 f83e d755 593e
00000100: b064 123f cbc6 67be bc39 6b3f 1052 1e3f
00000110: 52f8 e7bd 9948 69be cdab 073f 9a48 c23e
00000120: 92ed 373e 73e2 8cbe 053c 773e 79bd adbb
00000130: 8777 953d 952f 4d3d d3e1 893e 302e af3e
00000140: c865 2c3e 4f82 0cbf 2d29 c63e be6e 423e
00000150: 19df a4be 705c 42bc 33af 1dbe 3a3f 9d3e
00000160: 2307 86b9 40fd e03e c406 f33e 95ba a6bd
00000170: 468e 003e 2962 793d 948e 323e 8b63 c13e
00000180: 677d de3e 20af 60be c46f eb3e 781b 973e
00000190: eb7c b63e 48f4 3cbe dce5 54be 36f5 263e
000001a0: 575c 233f 60a1 12be 4227 9fbd 8396 7c3e
0.117508836 -0.30160764 0.25189942 0.20203291 -0.10087262 -0.49395347 0.48158604 0.46824124
0.110624686 -0.7244739 -0.11668656 0.20676263 -0.15069047 0.3816531 -0.43502447 -0.37044114
0.17756099 0.53604984 -0.5984836 -0.2725067 0.058608983 0.6409688 0.19424738 -0.26701748
-0.2227014 0.26306498 -0.3022326 0.5792487 -0.31550434 0.66488945 0.59773433 0.2734415
0.44366398 -0.062385697 -0.089011386 0.47359544 0.4908659 0.6791891 0.34540525 0.07276861
-0.07710467 0.23531899 0.6816408 0.33449605 0.36951232 0.46949354 -0.5873166 -0.14135052
0.55020255 -0.07456611 0.15891992 -0.30865222 0.16500856 0.7168783 0.5083243 -0.22182332
0.4876025 0.6274108 0.5442447 0.3809958 -0.025842205 0.7715244 0.48563197 0.21224152
0.57184887 -0.22634427 0.9188497 0.6184397 -0.1132666 -0.227816 0.5299652 0.37946016
0.1796172 -0.27516517 0.2414399 -0.005302128 0.07298189 0.050094206 0.26930103 0.34214926
0.16835701 -0.54886335 0.3870329 0.18987557 -0.3220146 -0.011862859 -0.15398864 0.307123
-0.0002556379 0.43943214 0.474661 -0.081410564 0.12554273 0.06088463 0.17437202 0.37771258
0.4345505 -0.21941805 0.45983708 0.29513144 0.3564218 -0.18452561 -0.2079081 0.16304478
0.63812774 -0.14319372 -0.0777116 0.2466679

down2.bias f4 [9]
00000000: 3620 b03d 8cab 09be 5554 6bbd d0f8 b23e
00000010: 0519 10be 717d a83d e3e8 423e df5b 173d
00000020: 18e5 91bd
0.08599894 -0.13444346 -0.057453472 0.34955454 -0.14072044 0.08227051 0.19034152 0.03695285
-0.07123774

down3.weight f4 [7, 9]
00000000: 7597 8d3e 5b81 82be 1b55 573e 2a98 e43d
00000010: 42a3 163f 9609 953e 7b0d ab3e d3a4 823d
00000020: a4bc fa3e e4f1 933f 779a 863e 2bf0 a43e
00000030: 3c1c cd3e 8373 3f3d 43da eb3d 2416 21bd
00000040: aab0 70bc 6490 013f cbd9 87be 6326 14be
00000050: 4012 c43d e3fc 84be bb83 e13d d094 d9bd
00000060: e618 113e 8819 aabe 7bd2 7ebe 3156 973e
00000070: 293e 493d f85c 9f3e 1847 b3be 52a5 d83e
00000080: 1ecf ee3e 160d e13e b9ae 0e3f 8a7d a1be
00000090: 0129 4abf da85 21bf 1ce8 bdbe daba f33d
000000a0: a88c 733f 19e3 863e d539 97be 2786 8abe
000000b0: 7b78 4dbe 6d39 25bf 7483 e2be ca74 0e3f
000000c0: fdfb 133f 9096 0cbe 380f 853c 5060 e7be
000000d0: d189 2b3f d614 8cbe 9999 333f a62e 4f3f
000000e0: 3ae3 22be 904f 213e 9e98 90be ca70 4b3f
000000f0: efbd 363e 41bf 473d 27d2 c33d
0.27654615 -0.25489315 0.21028559 0.111618355 0.5884286 0.29108876 0.33408722 0.06379094
0.48972046 1.1558194 0.26289722 0.32214484 0.40060604 0.04674102 0.115162395 -0.039327756
-0.0146905575 0.5061095 -0.2653335 -0.14467768 0.095737934 -0.25974187 0.11011454 -0.10624087
0.14169654 -0.33222604 -0.2488498 0.29557946 0.049131546 0.31125617 -0.35015178 0.4231363
0.46642393 0.43955296 0.55735356 -0.3154109 -0.78968817 -0.63094866 -0.37091148 0.119008735
0.951365 0.26345137 -0.2953631 -0.27055475 -0.20065491 -0.6454075 -0.44240916 0.55646956
0.5780638 -0.1372931 0.016242608 -0.45190668 0.67007166 -0.27359647 0.70156246 0.80930555
-0.15906993 0.15753007 -0.28241438 0.7946898 0.17845891 0.04876638 0.09561568

down3.bias f4 [7]
00000000: 48e9 1e3e aa80 073e ee66 9abe 0493 d33d
00000010: 7f6c d33e c4f6 b13e 96f0 ea3d
0.15518677 0.13232675 -0.30156654 0.103307754 0.41293713 0.3475858 0.114716694

down4.weight f4 [5, 7]
00000000: 1be8 28be 130f 97be 3bf6 35bc e475 383f
00000010: 2892 66bf e20c 0fbf 31ac c93e 49f7 3cbe
00000020: a03d ffbe d60e 783e 63bd 413e 6b77 543f
00000030: c40e d5bd 983a b6bd ae24 c8be b9b5 7bbe
00000040: c1aa 07be bcad 99be f8e2 21be bceb bb3e
00000050: 81e2 393f 2970 a5be 83a9 ecbe 9ffc 563e
00000060: 0f70 5dbe d35a 8dbd d9d8 f13d a523 b0be
00000070: 54b6 1dbe 3de9 86be f40f 073d 1bce ef3e
00000080: 6891 17be 665b 113f a1d3 9ebe
-0.16494791 -0.29503688 -0.011106069 0.72054887 -0.90066767 -0.5587903 0.39389184 -0.18453707
-0.49851704 0.2422441 0.18919902 0.8299472 -0.10403207 -0.088978946 -0.39090484 -0.2458104
-0.13248731 -0.3001536 -0.15809238 0.3670329 0.7261124 -0.32312134 -0.46223077 0.20994805
-0.21624778 -0.06902089 0.118089385 -0.34402195 -0.15401584 -0.26349822 0.0329742 0.46836933
-0.14801562 0.5678009 -0.31020835

down4.bias f4 [5]
00000000: 224a a0be 2d81 a2be e0b5 b13e 04a3 45be
00000010: 2f65 6ebe
-0.3130656 -0.31739178 0.34709072 -0.19300467 -0.23280786

up1.weight f4 [7, 5]
00000000: d9ef bcbe 46af 32be 2cda efbe fa3d 8ebd
00000010: 5501 0bbe 125e 63be af15 73be 1c5c 433f
00000020: c259 3abe b070 c63e d138 20bf fa53 d03f
00000030: 994e 48bd 6877 9c3e a4ed b23e 1b2d 2e3e
00000040: e40c d03c aca7 b6be 8331 a1be fda6 383e
00000050: af5c 203e 0cb8 083e 652a bebd 7e9f c0be
00000060: 22b3 413e c8d4 9cbe 0989 4d3e f247 ad3e
00000070: bc64 8fbe dad4 4abf ea5a c4be c1a3 2fbf
00000080: 86b9 9abe 9534 a73c 9006 eebe
-0.3690174 -0.17449674 -0.4684614 -0.06945415 -0.13574727 -0.22203854 -0.2373874 0.7631242
-0.18198302 0.3875785 -0.62586695 1.6275628 -0.04890308 0.3055985 0.3494693 0.17009394
0.025396772 -0.35674798 -0.31483087 0.18032451 0.15660356 0.13351458 -0.0928543 -0.37621683
0.1891599 -0.3063109 0.20071806 0.33843952 -0.28006542 -0.79231036 -0.38350612 -0.68609244
-0.30219668 0.020410815 -0.46489382

up1.bias f4 [7]
00000000: eb39 213d dc8e e43d 6e51 27bd b9a9 013e
00000010: fa1a 49bd aeb0 66be d294 aabd
0.039361876 0.11160061 -0.04084914 0.126624 -0.049097992 -0.22528335 -0.083291665

up2.weight f4 [9, 7]
00000000: d06b 523e 7bda f63d 3460 343e b4db f03d
00000010: 27de 373d 735e 0f3c e9bb 823b 0164 803e
00000020: cf5c 85be 8d8e 34be 490c ccbd 3c25 8f3e
00000030: 6a54 bcbc da73 a63d 8fb5 9d3e 8b83 aabe
00000040: 2145 19be 8b88 323e 8e6a e13d d9cf 7e3d
00000050: 8a46 7a3d 5a28 97bd 794f 483e ac8e 713e
00000060: 1830 63bd 34e0 733e 8041 253d 0fd4 833c
00000070: 9226 3b3e b0a5 ef3e 09dd 8a3d 606a f4be
00000080: 1700 9cbc ac07 513e c1b8 883e 61c5 81be
00000090: 21db 18be af2c 10be 5d0d 1cbe ccfa ec3e
000000a0: fea2 2a3f 88de d2be 7e2f 983e 0121 0a3e
000000b0: 126c 4e3e 61b4 07bd d367 bfbd 29cf 6b3e
000000c0: 888f 09bf 4ca6 d43c 465c 323e f03d 27c0
000000d0: c0c8 05bd 43cc 5e3d a09e 73bd e080 8bbd
000000e0: 65b4 9dbd 942a b23e 3333 123f ad81 d0bc
000000f0: b1ba d13e e3a8 7dbe f426 82bd
0.2054894 0.120533906 0.17614824 0.11760655 0.044889595 0.008750546 0.003989686 0.25076297
-0.2604737 -0.17632504 -0.09963281 0.27958095 -0.02298947 0.08127566 0.3080258 -0.33303484
-0.14967777 0.174349 0.11006652 0.062209938 0.061102428 -0.07380743 0.19561566 0.23589581
-0.055465788 0.23815995 0.04034567 0.016092328 0.18276432 0.46806097 0.0678044 -0.47737408
-0.019043012 0.20413083 0.26703456 -0.253459 -0.14927341 -0.14079545 -0.15239473 0.46285093
0.66654956 -0.41185403 0.29723734 0.13489152 0.20158413 -0.033131007 -0.09345975 0.23028244
-0.53734636 0.025958203 0.17418012 -2.6131554 -0.032662153 0.054394018 -0.05947745 -0.0681169
-0.07700423 0.3479811 0.57109374 -0.02545246 0.40962747 -0.24771456 -0.06355086

up2.bias f4 [9]
00000000: 71ba cdbe 0db6 f4bd 040a 9bbe 7a19 8bbe
00000010: 8c71 dfbe 3952 c3bd 496f 743e d40d 123f
00000020: 561a 8abe
-0.40181306 -0.11948786 -0.3028108 -0.27167875 -0.43641317 -0.09537167 0.23870577 0.5705235
-0.26973218
