model_Panel1.pt (torch, 8002 bytes, 12 tensors)

down1.weight f4 [15, 18]
000000 08 d2 48 3c 0c 72 76 3e 56 c6 83 3e 46 d9 92 3d
       0.012257107 0.24066943 0.25737256 0.07170348
000010 27 42 61 3d 98 eb ad 3d 0e 53 7e 3e 25 15 f4 3e
       0.05499473 0.084922016 0.2483637 0.47672382
000020 1e 73 bd 3e 09 bb 67 be 60 a8 27 bd d2 e0 01 bd
       0.3700189 -0.22629942 -0.04093206 -0.031708546
000030 d2 b4 b6 bc 52 e3 dc 3e 34 35 cb bd 14 77 26 3f
       -0.022303019 0.43142182 -0.09922257 0.6502545
000040 26 da eb 3b b4 94 e4 be 43 50 87 bd d0 81 57 3e
       0.007197636 -0.446447 -0.066071056 0.21045613
000050 0e 6b 9f 3d 36 de d1 be ff df dd 3d ac b8 4c be
       0.07784091 -0.40989846 0.108337395 -0.19992322
000060 16 25 78 be 3c a2 4f 3e a6 93 d7 3e 1c f6 da 3d
       -0.24232897 0.20276731 0.42104834 0.10691473
000070 29 07 50 3e 28 c2 cf 3e 19 bc 11 3f 5c e8 22 3f
       0.20315231 0.40577817 0.5692764 0.636358
000080 51 1d b3 3e 90 41 5c 3e 40 92 aa be f5 77 d7 3e
       0.34983304 0.21509385 -0.33314705 0.42083707
000090 09 3e 48 bd 03 12 71 be c9 3b 6b bc e4 83 50 bd
       -0.048887286 -0.23542027 -0.014357516 -0.05090703
0000a0 b5 72 b2 3c 34 81 7d bd 49 54 dd 3e 47 bf bd 3e
       0.021783212 -0.061890796 0.43228367 0.37059996
0000b0 67 22 86 bb f8 23 0a 3e c8 c7 e0 3e 5f d2 e0 3b
       -0.0040934565 0.13490283 0.4390242 0.0068610157
0000c0 16 48 07 3e 59 58 33 be 0f 5d f1 3e 45 86 2b 3f
       0.13211092 -0.1751417 0.4714131 0.67001754
0000d0 4c c6 cf 3c c3 80 32 be d3 db 0d 3e 1e ef 81 3d
       0.02536311 -0.17431931 0.13853388 0.06344436
0000e0 90 ce 06 3e 50 65 22 3e c0 6b 45 3d b6 1e d5 3d
       0.13164735 0.1585896 0.04819846 0.10406248
0000f0 ee 4d 87 bd 3d 7b 8f 3e 76 9a b9 3e c8 27 33 be
       -0.06606661 0.2802371 0.36250657 -0.17495644
000100 50 4e 07 3f 1a 6d 05 3b 5d c1 67 3e 06 48 48 3d
       0.5285387 0.002035922 0.22632356 0.048896812
000110 26 e8 71 3d 21 c3 cd 3e 8e 07 f5 3e 5c f5 21 be
       0.059059285 0.40187934 0.47857326 -0.15816253
000120 67 4d 11 3e 1c 4b a7 3d 56 d0 9c 3d 80 79 73 3e
       0.14189683 0.08168623 0.076569244 0.23776817
000130 e0 03 05 3f df 5d 47 3e 80 df 8d 3e e7 0b 82 be
       0.5195904 0.19469403 0.2770958 -0.25399706
000140 19 49 21 be a1 82 07 3e 6f 71 9a bd 7b 69 88 bd
       -0.15750541 0.13233425 -0.07541167 -0.06660744
000150 41 25 f9 3e 7e 75 a9 be ea ee 44 3e 7f b3 da 3e
       0.48661235 -0.33097452 0.19231763 0.4271507
000160 3e 41 59 3a 92 22 66 be 4f d0 a4 3d 59 59 58 3e
       0.0008287615 -0.22474125 0.08047544 0.21127833
000170 ec 7e f3 3d 39 f4 85 be e9 7d c0 3d 1e b2 46 bd
       0.11889443 -0.2616289 0.093990155 -0.04850971
000180 60 35 8e 3e a4 6b 10 3e 00 52 77 3e 12 6e 39 3e
       0.27775097 0.14103562 0.24152374 0.18108395
000190 8f 4e 6a be e7 58 91 3c 90 4f 19 bd 43 da 54 3e
       -0.2288153 0.017742587 -0.037429392 0.20786385
0001a0 70 dc f1 3e 28 3b fb bd d3 6e 8d 3c 45 f4 3d bd
       0.47238493 -0.122671425 0.01726476 -0.04637553
0001b0 fe 17 cc 3c 3a ca 1c be a8 e8 29 3e 51 d2 00 3e
       0.024913784 -0.15311518 0.16592658 0.1258023
0001c0 4c 92 fc bc bd 91 f6 3d ae 37 86 bc 24 a2 f7 3d
       -0.030831479 0.12039516 -0.016383972 0.12091473
0001d0 d9 11 d9 bc 07 c3 b7 bd 68 1c 84 3e 1c 2e 4e bd
       -0.026497768 -0.089727454 0.25802922 -0.050336942
0001e0 e2 c4 00 3f 4d 85 bb be 14 b1 c4 3e e1 f9 11 3f
       0.5030042 -0.36625138 0.3841635 0.5702191
0001f0 f7 b4 ab 3e 9c bb b1 be c1 b2 00 3e 86 90 1f 3e
       0.33536503 -0.34713447 0.12568189 0.15582475
000200 12 35 59 3e df bf 9b 3d 1b 25 37 be f6 0e cb 3d
       0.21211651 0.07604956 -0.17885248 0.09914963
000210 92 af 06 3f fe 2c 6c be 7e 9c 25 3f 24 d0 bb 3e
       0.5261165 -0.23064038 0.64691913 0.36682236
000220 92 4c 86 be 42 05 72 3d b0 d0 95 3e cb 7c ac 3e
       -0.26230294 0.059087045 0.29260778 0.3368896
000230 81 1e 42 bc c5 c1 8d be 19 a5 2a 3e 47 bc fa 3e
       -0.011848093 -0.27686897 0.16664542 0.4897177
000240 35 d8 ed 3c 9f b0 42 3e c2 23 80 3d 5a e4 f8 3c
       0.02903376 0.19012688 0.0625682 0.030382324
000250 c0 18 0e 3e 89 31 33 bc d5 c2 c2 3e 71 a6 3f 3e
       0.13876629 -0.010937103 0.3803927 0.18715836
000260 56 36 45 3f 97 3c 5c 3e 14 48 38 be 1e f5 7a bd
       0.77036035 0.21507488 -0.17996246 -0.06126892
000270 80 ed 2f be e6 30 21 3f 4b 59 bb 3d e6 a6 71 3c
       -0.17180443 0.6296524 0.09147891 0.014749264
000280 53 5a 30 3e a8 ca c1 3e 08 b9 0d 3d 4e e7 aa 3d
       0.17221956 0.37849927 0.034600288 0.08344899
000290 cb fd c3 3d 02 5a 24 3d 20 e1 2e 3c 33 9e 3c 3d
       0.095698915 0.0401249 0.010673791 0.046049308
0002a0 ba f2 3e 3f 3e c0 4c bc 24 f9 1f be ab 58 f7 3d
       0.7458912 -0.012497006 -0.15622383 0.12077459
0002b0 07 bf 4b 3e f3 37 6b 3e 1a aa a4 be d1 5c e6 3d
       0.1989709 0.22970562 -0.32161027 0.11248172
0002c0 d5 ae a6 be c4 fc 94 3e 9d d1 9a 3d 01 66 14 3c
       -0.3255526 0.29099095 0.07559512 0.009057523
0002d0 b7 5a 85 bb bd 95 f5 3d 3f 18 17 bc e0 7f 80 be
       -0.004069652 0.11991451 -0.009222089 -0.2509756
0002e0 37 85 7b 3e 82 08 20 be 3a 45 29 3f ab 76 87 3e
       0.24562536 -0.15628245 0.66121256 0.26457724
0002f0 4e e3 68 3e 6b 51 66 3d e5 f0 83 3e 74 7b b6 bd
       0.2274296 0.05622999 0.25769725 -0.089102656
000300 03 3e 11 3f 93 b6 37 be cb fb e6 be 43 d8 8e 3d
       0.5673525 -0.1794074 -0.45113978 0.069748424
000310 2c 46 ec 3d fd a0 c5 bc 25 43 3f bd 7d d1 c3 bd
       0.11536822 -0.024124617 -0.046694893 -0.09561441
000320 ea 26 c2 bb 74 aa 38 be 3e 06 83 bd 79 21 bb bd
       -0.005925049 -0.18033773 -0.06397675 -0.09137244
000330 9f dc 5b 3e d6 fb 12 3e 7c 4d 35 be 7d e2 6e 3e
       0.21470879 0.1435388 -0.17705339 0.23328586
000340 81 3e 47 3d d1 6a 7f 3d 78 e9 fd 3e 47 83 91 be
       0.048643593 0.062357727 0.49592185 -0.2842047
000350 e8 d8 88 be 22 80 c2 3e 6e b8 80 be 6c 80 87 3e
       -0.26727986 0.37988383 -0.2514071 0.26465166
000360 3c af b4 bd 32 74 88 3d e3 81 99 3d 72 1d 82 3d
       -0.08822486 0.066627875 0.07495477 0.063532725
000370 55 32 60 3e 47 fa 84 3e ae d2 68 3e 8a 7c b9 bd
       0.218942 0.25972196 0.22736618 -0.09056957
000380 73 a7 b5 3e 11 84 58 bd 7d 9f 1b 3e cb 21 77 3c
       0.35479316 -0.052860323 0.15197559 0.01508374
000390 25 9f 87 3e e5 48 08 3f 70 6c 5f be 2c a7 42 be
       0.26488605 0.5323623 -0.2181871 -0.19009084
0003a0 95 42 1e 3e f5 be ae 3e 8a a2 ad 3e 5d ce c9 3d
       0.15455087 0.34130064 0.3391307 0.09853814
0003b0 e8 ab a2 3e d1 8e 33 3d 6e c6 71 3e c0 17 2a 3e
       0.3177178 0.043837372 0.23610851 0.16610622
0003c0 be ce 27 bd 5c a6 ce 3e a3 75 72 be aa a4 72 3e
       -0.04096865 0.40361297 -0.23677687 0.23695627
0003d0 0d d7 e9 3e 79 7b 24 3b 04 f1 0d bd 8b e6 2a be
       0.45671883 0.002509801 -0.03465368 -0.16689508
0003e0 48 71 04 3d a6 95 f4 3d d8 78 ee 3e 0e e4 b6 3d
       0.032334596 0.11942606 0.4657657 0.08930217
0003f0 b0 de 07 3d a9 07 0a be cc bf 7f be ab bc 83 3d
       0.033171356 -0.13479485 -0.24975508 0.0643247

down1.bias f4 [15]
000000 95 6d 0b 3e 6e 99 0d 3e 07 ad a1 3d 61 3e e8 bd
       0.13616021 0.1382806 0.078943305 -0.11340023
000010 42 c7 66 3e 7a 54 ae 3e b3 a7 05 3f 5a 21 b5 3d
       0.22536948 0.34048826 0.52209014 0.08844252
000020 c1 2b 8e 3e 48 c3 9d 3e a7 bb bf 3e 7f e9 35 3e
       0.27767757 0.3081305 0.37447855 0.17764853
000030 84 25 e5 3e 83 fd 77 3e 5a 19 59 be
       0.44755185 0.24217801 -0.21201077

down2.weight f4 [12, 15]
000000 4f 48 54 be 86 35 a7 be 0b 80 14 3f 7c 16 c1 3b
       -0.20730709 -0.32658023 0.5800788 0.005892573
000010 44 da 14 3e 16 a9 1a 3f 82 d8 00 3f a3 2c 00 be
       0.14536387 0.60414255 0.50330365 -0.12517028
000020 73 ee 05 3e e0 07 99 3e 96 ea 80 3c eb 4c 23 be
       0.13079242 0.2988882 0.01573686 -0.1594731
000030 51 8d 0a 3d 50 cf c7 3e c6 5c cb 3e 0b f1 49 be
       0.033826176 0.39025354 0.39719218 -0.19720857
000040 69 17 9b 3e 41 79 50 3e 43 8f 79 3e 1c 4a 4f be
       0.30291298 0.20358755 0.24371056 -0.20243114
000050 6a fc 09 3f 53 68 a7 3e e4 b6 12 3e 78 61 b3 3e
       0.5390078 0.3269678 0.1432758 0.350353
000060 8e 59 e0 be bf cc c8 bc 61 d6 24 bf a2 7a 7c 3e
       -0.43818325 -0.024511693 -0.64389616 0.24656156
000070 80 d4 8e bc 8a 60 73 3e ec 96 9e bd 0c 90 42 be
       -0.017435312 0.23767295 -0.0774363 -0.19000262
000080 5b 0f 8a 3e 5b d6 1f be a7 3b 0f be fd 9b 75 3e
       0.2696484 -0.15609114 -0.139876 0.23985286
000090 1f e8 a4 3e 30 95 14 bf a1 1d 60 be ad 94 f8 bd
       0.32208344 -0.5804014 -0.21886303 -0.12137733
0000a0 85 23 8b be a7 a1 f0 3b 64 2c 69 bd 2b 64 a9 3d
       -0.27175537 0.007343489 -0.0569271 0.08271059
0000b0 8d e4 d7 bd d6 4d e9 be 75 66 4a 3e 20 ea 99 3e
       -0.105416395 -0.45567197 0.19765647 0.30061436
0000c0 42 da 93 3e 2c 9c 93 3e 8f 92 7a be c8 da 9c 3e
       0.28877455 0.28830087 -0.2446997 0.30635667
0000d0 67 bc 1d be 7a c9 21 be cc 58 83 bd 7f 6d 0c 3f
       -0.15403901 -0.15799513 -0.06413421 0.5485458
0000e0 27 e5 9c 3e 02 ac a3 3e 5c 50 c9 3e 90 be db 3e
       0.3064358 0.3196717 0.39319122 0.42918825
0000f0 0f 83 92 3e 4e c6 c0 3e 06 6d 4e 3e 13 9c 96 3e
       0.28615615 0.37651294 0.20158777 0.2941595
000100 e3 c8 4e be 06 42 23 be ae 3e e7 3b a5 a6 03 3e
       -0.2019382 -0.15943155 0.0070570325 0.12856539
000110 7f 94 87 bd 64 34 2d bc e9 09 f6 3e 0f 38 b9 3e
       -0.0662012 -0.010571573 0.48054436 0.36175582
000120 77 aa d2 3d c8 ce cb 3d e6 06 f3 3e 93 44 ec bd
       0.1028642 0.0995155 0.474662 -0.11536517
000130 3e 57 03 3f 43 0d cf 3d 0b cd ac bd 53 19 e0 3e
       0.51304996 0.10109951 -0.08437546 0.4376932
000140 fb b7 f9 3e 35 77 42 3e da b1 25 3f 32 0b 01 3f
       0.48773178 0.18990786 0.64724505 0.5040771
000150 76 2c cb be 26 0e 03 bd 73 37 f6 bc 11 04 b6 3e
       -0.39682359 -0.031995915 -0.030055737 0.35549977
000160 1b 36 10 be 90 6c 32 3f 35 95 22 3f c6 1c 66 3d
       -0.1408314 0.69696903 0.6350892 0.056179784
000170 3a e3 32 3c 9f f9 18 3f bf d7 fa be 6e d2 8c be
       0.010918433 0.5975589 -0.48992726 -0.27504295
000180 ef a1 3e be b3 00 89 3d b2 bd 02 3f 10 b5 0c be
       -0.1861646 0.066895865 0.510707 -0.13740945
000190 ad 3f ff 3d bd 10 01 bf db 50 5c 3e ef 59 1a 3e
       0.12463317 -0.50416166 0.21515219 0.1507337
0001a0 c2 4b 60 3d f0 29 68 bd c2 29 a0 be de 29 32 bb
       0.05475975 -0.05668062 -0.3128186 -0.00271856
0001b0 17 8d af be bc 7a d7 bc 66 65 88 3e 95 c3 2a be
       -0.3428733 -0.026303641 0.2663986 -0.16676171
0001c0 31 71 24 3f e2 27 f0 3e 74 0c 17 3f d9 30 10 3f
       0.64235216 0.46905428 0.59003377 0.56324536
0001d0 ed ab 8b 3e fa 80 07 3f eb c9 07 be 16 59 bf 3e
       0.27279606 0.5293118 -0.1326062 0.37372655
0001e0 6c be f7 3e eb d6 8f bd 28 93 ac bd 2f 1a d4 3e
       0.48387468 -0.07023414 -0.08426505 0.41426226
0001f0 aa e7 06 3f be 4d 3c be e8 27 e0 3e d1 15 67 3e
       0.5269724 -0.18389031 0.43780446 0.22566916
000200 f0 b1 83 be 17 38 8d be 10 a2 5d 3e 70 51 c0 3e
       -0.25721693 -0.27581856 0.21643853 0.37562132
000210 95 49 bb bd cf b2 80 be 93 eb 80 be 01 2e 6a 3d
       -0.09144894 -0.2513642 -0.2517973 0.05717278
000220 b0 f7 69 be 6b 32 d5 3d 62 1a 66 be 6c 63 6e be
       -0.22848392 0.10410007 -0.22471002 -0.23280114
000230 ee 9a 79 bc d8 5e 80 be 54 0d 57 3e 4c dd 8f bd
       -0.015234692 -0.2507236 0.21001178 -0.07024631
000240 b8 e1 49 3e 77 14 37 be a9 87 b3 bd 1f e1 38 be
       0.19715011 -0.178789 -0.087661095 -0.18054627
000250 80 90 5e 3e a2 3f 2c be 59 70 5d 3f f3 02 e3 3d
       0.2173481 -0.16821149 0.86499554 0.11084547
000260 24 b5 d3 3e db 0f 34 be 53 f8 47 3e 29 69 27 3e
       0.41349137 -0.17584173 0.19528322 0.16348709
000270 54 8b 09 be ae 8f 32 be a5 8a 78 3e 02 3e e2 3e
       -0.13432056 -0.17437622 0.24271639 0.44187933
000280 95 f6 9e bd 7f 50 5a 3e 9e f0 30 be 3f f4 a5 be
       -0.077618755 0.2131977 -0.17279288 -0.32412907
000290 79 26 88 bd b8 cd bf bd 9e 65 e3 3e d5 64 fa bd
       -0.06647963 -0.093654096 0.44413465 -0.122262634
0002a0 0e a8 c7 bd 36 51 47 3d 42 0f 13 3f 0f ae b6 3e
       -0.09748851 0.048661433 0.57445157 0.3567967
0002b0 f2 ed 00 3f 79 f2 07 3f f3 dc b0 be 99 34 37 3e
       0.50363076 0.5310436 -0.3454357 0.17891158
0002c0 e1 22 97 3e 3a 6d 02 3f fb 66 75 be 26 df e2 3e
       0.29518798 0.50947917 -0.23965065 0.44310874

down2.bias f4 [12]
000000 f0 56 0c 3e e9 06 aa 3d 2c ee 58 bd ee 4f c5 3e
       0.13705039 0.08302099 -0.052961513 0.38537544
000010 07 46 db 3d 98 6c 45 3e 3b f7 11 3e 5b 76 dd 3c
       0.10706716 0.19279706 0.14254467 0.027033975
000020 60 fa c5 3c 2d d9 49 be 07 45 2e 3e 62 e1 b0 3d
       0.02416724 -0.19711752 0.1701852 0.08636738

down3.weight f4 [11, 12]
000000 a2 76 9f 3b 78 9b 5d 3e ab fc 0e be 72 84 80 be
       0.004866437 0.21641338 -0.13963573 -0.25101048
000010 be eb 44 3e 31 58 9f 3e 23 8f 2f be d3 e7 d3 3b
       0.19230554 0.31121972 -0.17144446 0.0064668446
000020 29 c8 f6 3e 4b 1f ef bb 19 d7 25 3f e8 fe 61 3e
       0.48199585 -0.0072974316 0.6478134 0.22069895
000030 4c a0 c5 bd 4d 20 59 3c 59 12 69 be 76 2c 0f 3f
       -0.09649715 0.01325233 -0.22760905 0.55927217
000040 fd 81 93 3e 75 02 af 3e b1 27 48 be a4 df fa bd
       0.2881011 0.34181562 -0.19546391 -0.12249687
000050 1a 10 a7 3e 9e f2 84 bd 36 70 ec be 55 8b af 3e
       0.32629472 -0.06491588 -0.4617936 0.3428599
000060 b4 7b d9 3d 0e 5a c9 bd ce 91 b5 3e 86 ec 9e 3e
       0.106192976 -0.0983163 0.35462803 0.31039828
000070 2b 01 b1 3e dd cf ca 3e c0 f4 db 3d a5 a9 30 3b
       0.34571204 0.39611712 0.10740042 0.0026956585
000080 c0 54 d2 be bd f9 af bd 60 32 84 3e 44 c4 c1 3e
       -0.41080284 -0.08592556 0.25819683 0.3784505
000090 70 c1 a4 3d 83 d3 55 bd 8b eb 00 3f 5a 37 2b 3e
       0.08044708 -0.052203666 0.5035941 0.16720334
0000a0 b2 f4 af 3d 6e e9 8e bd 67 09 a7 be d7 82 13 3e
       0.08591594 -0.06978117 -0.3262436 0.1440538
0000b0 73 01 34 bf d0 d1 b0 bd f4 dd ae be 6c 18 3c 3e
       -0.7031471 -0.086337686 -0.34153712 0.18368691
0000c0 25 f1 de be bc fc 8e bd ba 16 87 be d0 95 30 be
       -0.43543354 -0.06981799 -0.26384526 -0.17244649
0000d0 ae 55 30 3e e0 2a ab 3e ff 49 ad 3e be ba 45 3f
       0.17220184 0.3343115 0.33845517 0.7723807
0000e0 f1 8d 49 bd 0a ff c5 3d cb 23 9f be fa 86 a5 3e
       -0.04920763 0.096677855 -0.31081995 0.3232954
0000f0 bc d4 86 3e 2b 68 f7 bd 98 bb c1 3e a0 ec 95 3d
       0.26334178 -0.12080415 0.37838435 0.07320523
000100 02 f0 f7 bc 2f 7c 0d bd 45 6f 71 3b 11 38 79 bd
       -0.030265812 -0.03454226 0.0036840003 -0.060844485
000110 d6 f8 91 bd 4f 8d 81 3d 3e 5e a0 3d 25 94 9f bd
       -0.0712754 0.063257806 0.07830475 -0.07791928
000120 42 4f 20 3f 59 73 25 3c 6c 33 35 3e a3 b1 bb 3e
       0.6262094 0.010098302 0.17695397 0.36658964
000130 ac cc 0d 3d 59 75 ec 3d 45 77 85 be 71 6f 1b 3f
       0.03461902 0.1154582 -0.26067558 0.6071692
000140 2a c3 85 be 94 d0 27 3e ed 2b 87 3e 4b 60 6e 3e
       -0.2612546 0.1638816 0.264007 0.2327892
000150 ac 15 09 be 37 83 a3 be 85 e7 42 3e a0 00 10 3e
       -0.13387173 -0.31936046 0.1903363 0.14062738
000160 25 43 86 be ae 71 33 be 89 4e 9f bd f5 b8 02 3d
       -0.26223102 -0.17523834 -0.07778651 0.03191467
000170 16 24 ae 3d 23 85 83 be 40 e0 5f be 81 1f 1c 3e
       0.085029766 -0.25687513 -0.21862888 0.15246393
000180 f4 12 62 3e 46 45 5e 3e b5 89 ee 3d b6 bd 91 3d
       0.22077543 0.21706113 0.11647359 0.071162626
000190 eb 6a a1 be a6 61 e2 3e 09 ff b8 be 56 28 08 bd
       -0.31526884 0.44215125 -0.36132076 -0.033241592
0001a0 e2 16 35 be 4b 85 61 3e 36 4c 84 bd 18 92 a7 3e
       -0.1768451 0.22023503 -0.064598486 0.32728648
0001b0 06 99 34 3d a2 45 fc 3e 18 7c e9 3e 60 37 fe bb
       0.044091247 0.49271876 0.4560249 -0.007758066
0001c0 45 3d 85 3e c4 b9 d8 3e 28 ed 41 3f db 59 f9 bd
       0.26023307 0.42329228 0.75752497 -0.12175342
0001d0 15 74 fa be 89 d0 86 3d b8 fc e2 3d 85 7b ff 3e
       -0.4891669 0.06582744 0.110833585 0.49898925
0001e0 21 05 7d bc 04 47 2f 3e 03 6d 99 bd 9f 86 47 be
       -0.015443117 0.17116934 -0.074914955 -0.19484948
0001f0 99 f2 e6 3c bf d0 d3 bd 51 c1 64 be 40 b9 54 3e
       0.028191851 -0.103425495 -0.2233937 0.20773792
000200 91 de 27 3d 49 29 8e be 04 f6 52 be 35 46 47 3e
       0.04098374 -0.27765873 -0.2060166 0.19460376

down3.bias f4 [11]
000000 f6 88 5e be fd 65 94 3e 6d 9d 1a 3d 9f 42 9c 3e
       -0.21731934 0.2898406 0.03774779 0.30519578
000010 07 78 60 3e ed 77 b6 3d 1e b5 11 bd 88 9a 42 3c
       0.21920787 0.08909593 -0.035573117 0.011877663
000020 a2 94 92 3e 3b 1f 07 be 7b 3a 56 be
       0.28629023 -0.13195507 -0.20920746

down4.weight f4 [10, 11]
000000 8b 4a 0f bf a2 ed b2 bb bf cb 13 be 9a 16 46 be
       -0.5597312 -0.005460457 -0.14433192 -0.1934456
000010 15 49 7e be 86 e5 6f be 61 f2 8e 3e 6f 0d 6a 3e
       -0.24832566 -0.234274 0.27919295 0.22856687
000020 e3 43 e5 be 7e 68 06 bf 27 82 ae 3e cf b3 2c 3f
       -0.44778356 -0.5250319 0.34083673 0.67461866
000030 84 60 7f be 86 3c 97 3c 28 61 58 bd f8 73 94 be
       -0.24939162 0.018461477 -0.05282703 -0.28994727
000040 74 41 aa 3e 83 12 d9 bc 63 35 81 be 6b 25 f5 3d
       0.33253062 -0.026498085 -0.25236043 0.119700275
000050 38 19 45 be 26 ee 52 3e 1b e1 04 be f7 9c c2 be
       -0.19247901 0.20598659 -0.12976496 -0.3801038
000060 6d 78 80 3e f4 bf 91 3e 32 85 7c 3e 26 ad b8 3e
       0.25091878 0.2846676 0.24660185 0.36069602
000070 d5 44 c5 3e db 48 24 be 4c 9e b7 be 15 17 ae 3e
       0.38529077 -0.16043417 -0.35862958 0.34001985
000080 16 68 99 3c 24 0e 1f bd d6 0d 82 be f4 38 a7 3d
       0.01872639 -0.038831845 -0.2540118 0.0816516
000090 61 af 12 3f a3 42 2a be ac 51 5a be 21 b3 bf bd
       0.57298857 -0.16626982 -0.21320218 -0.09360338
0000a0 f0 84 12 be 4a 17 41 3e 00 40 95 3e ee fd fd be
       -0.14308524 0.1885654 0.2915039 -0.49607795
0000b0 5d 9e 3a 3e 56 75 aa 3e 73 7c ed 3d ca 8e 11 3f
       0.18224473 0.33292645 0.115960024 0.56858504
0000c0 7b 9a a2 3e 96 7e 23 3f bb a5 37 be 41 bf b4 bd
       0.31758484 0.6386503 -0.17934315 -0.08825541
0000d0 38 6a d7 3e 50 38 4a be cc af 10 3e 62 02 33 bd
       0.42073226 -0.19748044 0.14129561 -0.043703444
0000e0 27 9f b5 3e 73 2f 27 3e 46 03 b6 3e 30 ed 1b 3d
       0.35472986 0.16326694 0.35549372 0.038067997
0000f0 32 76 c0 be af d5 a8 bd ac e8 9a 3e 8a a9 db be
       -0.37590176 -0.08243882 0.3025564 -0.42902786
000100 11 3e 41 bd 17 79 bf bd dd 5f 86 bd 30 0e 8a be
       -0.04717833 -0.09349268 -0.06561253 -0.2696395
000110 17 6c f3 bd 6f b8 3e 3e de 02 fd be a3 1b c9 3e
       -0.11885851 0.18625043 -0.4941625 0.39278898
000120 b2 29 0a bf 04 fb 2b be 47 e2 7e 3d 9c 11 52 be
       -0.5396987 -0.16794974 0.062227514 -0.2051453
000130 f4 53 b4 3e cd 3a 1f 3f ef c1 87 bd 75 ed bf bc
       0.352203 0.621991 -0.06628787 -0.023428658
000140 6c 9e 69 3e ea 11 78 3e c4 2f bb be 96 93 2f be
       0.2281434 0.24225584 -0.3655988 -0.17146143
000150 26 3d fb 3d 1b 83 45 bf 7d a8 b7 be eb b1 e6 be
       0.122675225 -0.77153176 -0.35870734 -0.45057616
000160 43 49 aa 3d d0 c4 0e 3d 78 dc 01 be 8f 43 8a bd
       0.08314755 0.034855664 -0.12681758 -0.06751167
000170 c5 45 c6 3e 0d f3 49 3e 8b 14 12 bf 4f 87 92 be
       0.38725105 0.19721623 -0.57062596 -0.28618857
000180 4f 8e 49 bf b6 38 35 3e 36 68 28 be d4 2d 08 be
       -0.7873277 0.17697415 -0.16446003 -0.13298732
000190 74 93 c4 3e 0e d8 ac 3e f6 b3 ac 3e 52 26 aa be
       0.38393748 0.33758587 0.3373105 -0.3323236
0001a0 b8 c6 95 3e 27 4f 59 3e 64 62 97 bd b4 cd 2b bf
       0.29253173 0.212216 -0.073918134 -0.67110753
0001b0 0d 20 6c 3e 0d 62 38 bd
       0.23059101 -0.045015384

down4.bias f4 [10]
000000 4a 26 2e be 59 1c 04 be 72 c3 84 bd 0b 09 68 be
       -0.17006794 -0.12901439 -0.06482591 -0.226597
000010 35 cd 9a 3e 07 74 53 be 5b 3f 9f bd 6f 61 3d be
       0.30234686 -0.2064973 -0.07775756 -0.18494199
000020 63 0e 65 3e c0 a8 eb 3d
       0.2236877 0.11506796

up1.weight f4 [11, 10]
000000 b7 c3 78 3e 69 ea 0a 3e 70 1e 50 3e 67 6a 23 bd
       0.2429341 0.13565983 0.20324111 -0.039896395
000010 f7 a6 17 3e 27 f6 5e 3e ab 69 02 3d 48 ad bc bd
       0.14809786 0.21773587 0.031839054 -0.09212738
000020 36 df 77 3e ce a8 41 3d f2 51 8a be c7 3f 0f 3e
       0.24206242 0.047280125 -0.27015644 0.13989173
000030 8f e4 11 be 92 dc fc 3d e8 b7 a1 3e 04 37 19 be
       -0.14247344 0.12346758 0.31585622 -0.14962393
000040 9c b6 bf be b2 b1 38 3e 11 5a 1e be df e5 a1 be
       -0.37444007 0.18036535 -0.15464045 -0.3162069
000050 74 5b f8 bd 7c 4f 59 be 31 a1 f2 be 60 e3 99 be
       -0.12126818 -0.21221727 -0.47388604 -0.30056286
000060 16 a7 28 3e 45 b3 56 3e 82 f3 c8 bd 12 84 d5 be
       0.16469988 0.20966823 -0.098120704 -0.41702324
000070 ca ec 3d bc e2 1d 0a 3e 7e 8a af be 9a 03 21 be
       -0.011592099 0.13487962 -0.3428535 -0.1572403
000080 4d 69 d2 be 0a 36 03 3e e3 81 ab 3e d9 99 1c 3f
       -0.41095963 0.12813583 0.33497533 0.6117225
000090 51 48 9c be a2 2a 3b bd 8c b6 bf 3e 4a 0b b9 3e
       -0.30523923 -0.045694955 0.3744396 0.36141425
0000a0 fb c5 66 3d 11 cb ed be 38 1c 59 3e 04 21 94 3e
       0.056341153 -0.4644399 0.21202171 0.2893144
0000b0 e7 28 98 3e 17 73 03 3d 6f 17 6f be 99 19 d1 be
       0.29718706 0.03209218 -0.23348783 -0.40839842
0000c0 88 59 84 bd ba e3 8e bd 81 70 d6 be 67 16 8b 3e
       -0.06462389 -0.06977029 -0.4188271 0.2716553
0000d0 bf 65 80 3e e8 aa d3 3e 39 d3 e0 be 37 65 94 bd
       0.25077626 0.4134133 -0.4391115 -0.07245868
0000e0 2a 5c 49 bb 43 30 9e be 55 59 65 be 17 84 cc 3e
       -0.00307251 -0.30896196 -0.22397359 0.39944527
0000f0 fd 51 f9 3c 9b e4 38 3e fc eb 11 bb 3f 99 93 3d
       0.030434603 0.18055956 -0.0022265902 0.07206964
000100 03 86 89 be a2 6b 5f be 51 9f 91 3e b6 49 c9 bc
       -0.26860055 -0.21818402 0.2844186 -0.02457128
000110 78 5a 85 3d 87 b0 77 3e 3f 21 92 be ad 41 04 bf
       0.06511396 0.24188434 -0.2854099 -0.51662713
000120 be 22 a4 3d c2 23 2f bd d5 c4 dc 3d 9f d7 90 be
       0.08014439 -0.04275871 0.1077973 -0.28289506
000130 b5 c7 eb bd 73 22 28 be 7b 28 2e 3f 85 f4 88 be
       -0.115127005 -0.16419391 0.6803052 -0.26749054
000140 1d f8 9f 3c 07 db d9 bd c2 0a dc 3e 6b 83 01 bf
       0.01952749 -0.10637479 0.42976958 -0.5059115
000150 f0 75 1a be 32 db b0 3e c6 5b 82 be 11 9a 89 3e
       -0.15084052 0.34542233 -0.25460643 0.26875356
000160 1a a0 6e 3e bc aa e1 3e 46 a5 d4 be 96 91 b7 3c
       0.23303261 0.44075572 -0.41532344 0.022408288
000170 32 f1 96 3e 09 8c 87 3e ed b8 b3 bd 55 b9 34 3e
       0.29480892 0.26474026 -0.08775506 0.17648824
000180 c0 9e 1e 3e 76 53 ec 3d 96 dd de 3e 2f 92 f4 3c
       0.15490246 0.115393564 0.43528432 0.029854862
000190 c5 74 30 be 1d 5d 94 3e 02 99 e7 bc 8c 35 a8 be
       -0.17232044 0.2897729 -0.028271202 -0.32853353
0001a0 6f 44 be 3e 4a b4 ab be 85 7e 2b 3e 50 b1 4e 3e
       0.37161586 -0.33535987 0.16747482 0.20184827
0001b0 3c 5b 69 3e 8e a4 99 bd
       0.2278871 -0.075020894

up1.bias f4 [11]
000000 1a 2d 2c be ee 5c 24 bf a9 4f 8e be 62 a9 fc 3d
       -0.1681408 -0.642043 -0.2779515 0.12336995
000010 34 2c 1c be 5d d6 4d be 6a b9 18 be b5 d6 9f 3e
       -0.15251237 -0.20101304 -0.1491448 0.31218496
000020 61 ca 35 bd 82 b8 fb be 6e d4 9f 3e
       -0.044382457 -0.49164206 0.31216758

up2.weight f4 [12, 11]
000000 4c 16 f9 bd 60 f5 ed 3e 80 65 1f be 76 9a c5 be
       -0.12162456 0.4647627 -0.15566063 -0.38594407
000010 d3 58 49 3e c3 4f bd bd 6d dd 70 3e 5d 59 86 be
       0.1966279 -0.09243729 0.23521967 -0.26240054
000020 8e 5c b5 3e 64 50 1d bd f2 8d 58 be b4 4d 96 be
       0.35422176 -0.038406745 -0.21147898 -0.29356158
000030 8a 61 96 be a1 11 f3 bd 4e 6d 26 3e 2a 1c 60 bd
       -0.2937129 -0.11868597 0.16252634 -0.05471436
000040 db 47 ac 3e 62 95 d2 3d 0b 7b 80 bc f4 e7 ef 3d
       0.3364857 0.10282399 -0.015683671 0.117141634
000050 21 f3 a0 bd a7 43 e6 3d 8b d3 eb 3d f6 14 d3 3d
       -0.07858873 0.112433724 0.11514958 0.10306732
000060 e3 1e 6c bd 98 5c 1e 3e a0 1a c9 be 44 28 54 3e
       -0.057646643 0.15465009 -0.39278126 0.20718485
000070 a2 5f 8d bd 56 2b e4 3e fb 22 b4 3c ea e9 24 bf
       -0.06903006 0.44564313 0.021989336 -0.64419425
000080 ab 15 62 be 98 fd 88 be 78 9f 83 3e 1e 46 ec bd
       -0.22078578 -0.26755977 0.25707603 -0.11536811
000090 38 1b 94 bc 32 56 d2 3d 19 a8 78 bd 7c 79 61 3c
       -0.018079385 0.10270347 -0.060707185 0.013761874
0000a0 1b 66 2d be 75 97 5c bd 21 1d b4 3c 3a d6 13 bf
       -0.16933481 -0.05385538 0.021986546 -0.5774876
0000b0 17 72 96 3e f9 60 a5 be 2e f9 75 3e 91 e8 52 3d
       0.2938392 -0.32300547 0.24020836 0.051491324
0000c0 e3 25 5a 3b bd 75 22 3e 4a d2 4a bd 50 ac db bd
       0.0033286742 0.15865226 -0.049516954 -0.107262254
0000d0 55 50 3b 3e 7f 46 1d 3d 59 a5 2a bf f1 f9 7b be
       0.18292363 0.03839731 -0.6665855 -0.24607064
0000e0 ce 97 81 bb c0 26 1e be 38 56 09 3e f3 bb bf bb
       -0.003954864 -0.1544447 0.13411796 -0.0058512627
0000f0 1b a4 11 3a 02 98 a6 bd bc fa 81 bd 71 ef 56 bd
       0.00055557647 -0.08134462 -0.06346652 -0.052474443
000100 c1 00 ec bb 74 40 d3 bd 08 7c 54 be 8a 55 82 3e
       -0.0072022383 -0.10315028 -0.20750439 0.25455886
000110 71 fc d2 3e cc 0b 77 3e 82 7f 81 be 10 b9 46 be
       0.41208223 0.24125594 -0.25292593 -0.19406533
000120 58 7d 19 be ef 36 1d be 9c f7 4c 3d c4 c4 15 3e
       -0.14989221 -0.15352987 0.050040826 0.14625841
000130 ed df 0c be c6 09 c5 bd 6d 6f d5 3d e6 6e 8f 3d
       -0.13757296 -0.09621005 0.104216434 0.07003574
000140 c8 9d fc bd e4 ad a9 bd fc 4e 93 3c 04 f9 d4 3d
       -0.12334782 -0.0828512 0.017981999 0.103990585
000150 38 0b a5 3d 9f 7b 09 3b 25 9c 1e 3f f6 91 29 be
       0.080587804 0.0020978225 0.6195701 -0.16559586
000160 4e b9 97 be 5f 95 0a 3e 08 38 40 3e c9 b4 c9 bb
       -0.29633564 0.13533543 0.18771374 -0.0061555845
000170 33 05 1b be 6a bd cc 3e e1 d7 96 3d b7 a8 ca bd
       -0.15138702 0.3998826 0.073653944 -0.09895461
000180 b2 dd c5 be e2 f2 6a 3b 19 bf 7b be c8 23 07 be
       -0.38645703 0.0035850336 -0.24584617 -0.13197243
000190 3e 75 ef 3d 36 5d 28 3e 53 09 58 bd cd fd b4 be
       0.11692284 0.16441807 -0.052743267 -0.35349885
0001a0 2a 11 50 3e 1c ec 95 be d5 86 07 be 23 59 57 3e
       0.20319048 -0.292817 -0.13235028 0.21030097
0001b0 e0 91 44 3e a9 39 bf 3e 15 36 be 3a 9d 82 3f be
       0.19196272 0.3734868 0.0014511967 -0.18702169
0001c0 b5 7c f2 3e 19 a6 9f be c8 0a 6e 3c 39 da 48 3e
       0.4736077 -0.3118141 0.014528938 0.19614495
0001d0 39 43 67 be 70 6b 26 3e 16 26 6e 3e 70 78 b4 bd
       -0.22584237 0.16251922 0.23256716 -0.08812034
0001e0 d7 a5 a9 bd e9 33 23 be 7f 77 a5 bd 69 a0 bb 3d
       -0.082835846 -0.15937771 -0.08079433 0.09161455
0001f0 27 f7 c7 bc 40 35 bf 3e 74 25 01 be 14 0b 91 be
       -0.024409844 0.37345314 -0.12611943 -0.28328764
000200 d2 19 b7 bd ba 09 23 3d a4 37 86 3e a7 cf 72 3e
       -0.08940472 0.039804198 0.26214325 0.23712026

up2.bias f4 [12]
000000 52 f7 2f 3e c1 87 83 be 76 96 19 be 92 8d 24 3e
       0.17184189 -0.2568951 -0.14998803 0.1606963
000010 ed e7 76 3d 38 12 d8 3d d5 19 1b be 28 8d 7d 3e
       0.060279775 0.1055035 -0.15146573 0.24760878
000020 66 48 30 bd d4 65 a5 3e 83 c5 0b be d1 e2 a3 be
       -0.043037795 0.3230425 -0.13649563 -0.32008985
