6_3/model_Plate 36841.pt (torch, 7470 bytes, 16 tensors)

down1.weight f4 [12, 15]
000000 bc 0d f1 3e 78 99 e8 3d 71 ca c3 3e 48 c0 db 3e
       0.4708079 0.11357397 0.38240388 0.42920136
000010 c7 a1 b0 3e 91 bb bd 3e 90 f2 7b 3d af 8e 0d 3d
       0.34498426 0.37057164 0.061510623 0.0345599
000020 e7 b8 63 3e 78 92 95 3d 21 8f a3 3d 05 d3 1d bd
       0.22238503 0.07303327 0.07986284 -0.038531322
000030 82 8c 9a 3e f0 42 ac 3c d0 ac 1a be b7 10 3d 3e
       0.30185324 0.021028012 -0.15104985 0.18463407
000040 84 fc c4 3d 7c 2f 33 3e be da 5a 3e 2e 6a 4c 3e
       0.09618476 0.17498583 0.21372506 0.1996238
000050 e4 1e 44 3e 8f f3 5b 3e c5 bd 48 3e c7 b1 19 3e
       0.19152409 0.21479629 0.19603641 0.15009223
000060 9d 9d 46 3f 82 0f e8 3e 64 0d 21 3d 69 61 9e 3e
       0.7758425 0.45324332 0.03931941 0.30933693
000070 d0 2f 3e bd b1 78 b9 3e 6e 32 9a be 4f 5f bd be
       -0.046432316 0.36224893 -0.301166 -0.36986777
000080 95 e5 bc be 2b 89 94 be 96 91 b2 be 69 1b aa be
       -0.36893907 -0.290109 -0.34876698 -0.33224037
000090 74 4b 02 3e d4 ea e8 3e 99 a5 1f 3f e5 8f 68 be
       0.12724096 0.4549166 0.62362057 -0.22711141
0000a0 15 a9 9c be 89 51 59 be b9 12 14 bf 5c bb 85 be
       -0.3059775 -0.2122251 -0.5784107 -0.26119506
0000b0 ed 3a 68 be e7 9d ab bc 01 e8 8b be ce 0f d7 be
       -0.22678728 -0.020949317 -0.27325442 -0.42004246
0000c0 67 f8 07 bb ab bf 97 be 86 0d a8 be 36 f7 29 3f
       -0.0020747425 -0.2963842 -0.32822818 0.6639284
0000d0 91 c5 6b 3f 70 f6 a6 3f 59 a2 a6 bd d8 59 8a be
       0.9209834 1.3043957 -0.08136434 -0.2702167
0000e0 fa ec d2 3d 8a 94 c3 be 88 b0 c0 3e 03 d1 56 be
       0.10299106 -0.38199264 0.37634683 -0.20978169
0000f0 c7 c2 05 be 91 d8 1d 3e 58 c5 79 be 00 94 fb bd
       -0.13062583 0.15414645 -0.24391687 -0.12284088
000100 33 1f e5 3d 80 d4 0a 3e 99 e3 a9 3d 85 0c 46 be
       0.111875914 0.13557625 0.08295364 -0.19340713
000110 5c 2a 5b be b0 00 66 3e f1 96 24 be e8 69 b7 bd
       -0.21402878 0.224612 -0.16073205 -0.08955747
000120 74 4f dd 3d 9b 35 b3 3d e9 6f 5a be 3d d1 71 bc
       0.1080617 0.08750459 -0.21331753 -0.014759359
000130 65 e2 ad 3e 36 0a d3 3d 1d b8 f0 bc 24 51 93 bd
       0.33961788 0.10304682 -0.029384667 -0.07193211
000140 5e cf 38 3d fb 82 c1 3e f8 bc 1f 3e 99 9b 86 3e
       0.045119636 0.37795243 0.1559943 0.26290587
000150 86 09 87 3e d6 04 d7 3d 35 f6 db 3e ad 62 a3 3f
       0.26374453 0.10498969 0.4296128 1.2764488
000160 ce 73 7b 3d 8b 6f 37 3e dc bf 79 3d ed fc d3 bd
       0.061389737 0.17913644 0.060973987 -0.10350976
000170 18 90 04 be 41 79 d7 3d 86 d6 e7 3d 09 d6 eb 3c
       -0.12945592 0.10521174 0.11320214 0.028788583
000180 ae 5f 8f 3d b9 31 9f 3e 82 94 fc 3e b0 35 36 be
       0.07000671 0.31092623 0.49332052 -0.17793918
000190 d7 26 91 be cf e4 97 3e 80 5e c0 be d5 fe cc 3e
       -0.28349945 0.29666755 -0.37572098 0.4003817
0001a0 64 6a 84 be 06 f1 bd 3c ca 1f 9f bd ad 55 12 be
       -0.2586242 0.023186218 -0.07769735 -0.14290495
0001b0 a5 40 12 bc 59 46 84 3d 61 ec b6 bb b6 63 0a 3e
       -0.008926545 0.0645873 -0.005582378 0.13514599
0001c0 91 5e 44 3e bf c8 c4 3e 4e e1 98 be 9b 2e 49 be
       0.19176699 0.38434407 -0.29859394 -0.19646685
0001d0 19 09 34 be 28 36 73 be 43 4e 17 3f e3 10 6c be
       -0.17581595 -0.23751128 0.5910379 -0.23053317
0001e0 7c 84 68 3e ef 2d 21 3f c5 bc c7 3e cb 7f 72 3e
       0.22706789 0.62960714 0.39011207 0.23681562
0001f0 bf bb 30 3e 76 90 ac 3e 6d b0 b5 3d ba ef bc 3c
       0.1725912 0.33703965 0.08871541 0.02306353
000200 95 21 e6 3d c5 1c 84 bc f0 32 f1 3d 86 52 59 3d
       0.11236874 -0.016127 0.11777294 0.053057216
000210 70 8c 72 be 12 a9 72 3f ac 44 f2 bb 4d e5 97 3e
       -0.23686385 0.9478923 -0.00739344 0.2966713
000220 60 1b 89 3e 8a 38 c1 3e 8c 8a 7a 3e a9 aa 21 3e
       0.26778698 0.37738448 0.24466914 0.15787758
000230 42 5a 86 3e 78 3c 69 bd 3d 98 39 be 22 b6 b1 bc
       0.26240736 -0.056942433 -0.1812448 -0.021693293
000240 12 56 ac be 5d bb ec bd 29 02 7f 3d 16 ce be 3e
       -0.33659416 -0.11559174 0.06225792 0.37266606
000250 7a a7 94 3d 1a 12 84 be fb 8f 89 3d f8 73 8a be
       0.07258506 -0.2579506 0.06716915 -0.27041602
000260 74 07 a7 be 14 a3 99 3b b8 62 00 be 1c 7f bf be
       -0.32622874 0.00468863 -0.12537658 -0.37401664
000270 77 9a 84 3d 13 02 3d 3f 90 d0 5b 3f 2d 45 bd 3e
       0.06474774 0.7383129 0.85865116 0.3696684
000280 a0 1c cf 3c 74 49 24 3e 0c 0e 94 be ef 7a ce be
       0.025282204 0.16043645 -0.28916967 -0.40328166
000290 32 75 0c 3d f0 70 ba 3d ab 2f 06 3f cd 6d cb 3e
       0.034291454 0.09103572 0.52416486 0.3973221
0002a0 b7 9b 53 3e 45 05 2c 3e bd 41 91 3e 55 2d 35 be
       0.20664869 0.16798885 0.28370467 -0.17693074
0002b0 cf 97 f4 bd aa 0b 11 be 59 6d d1 3c 54 5d 07 bc
       -0.11943018 -0.14164606 0.025564836 -0.008261997
0002c0 2f e9 79 3e cb ad c5 3e 70 1d 4c be ce 08 28 3d
       0.24405359 0.38609156 -0.19933105 0.04102402

down1.bias f4 [12]
000000 c5 56 d6 3d 1f 9b f6 3d 75 81 23 bf cd ed 38 bf
       0.10465769 0.12041306 -0.6386941 -0.72237855
000010 15 c7 88 be 23 f3 a9 3e 38 28 f9 3e c1 04 2f be
       -0.26714388 0.3319331 0.48663497 -0.17091657
000020 0c 29 ac 3e 03 19 d2 3e a4 69 eb be 8e 1c e8 3e
       0.33625066 0.41034707 -0.45979035 0.45334285

down2.weight f4 [9, 12]
000000 e5 6b 60 be fe bd 58 be 11 ea 40 3f 95 56 84 3d
       -0.21916158 -0.21166226 0.75357157 0.06461827
000010 90 ba c3 3c 1d 1f d8 be 9b 42 6d 3e b2 91 ce 3e
       0.02389267 -0.42211238 0.23169939 0.40345532
000020 a6 17 d1 be 68 ad 9a bd b1 94 d0 bd 22 22 c1 3e
       -0.40838355 -0.07552606 -0.10184611 0.37721354
000030 ad e2 eb bd 84 89 cd bd b9 a3 44 3e 39 d6 45 3d
       -0.11517844 -0.10035995 0.1920308 0.0483
000040 14 01 69 be 8b 39 9a 3d c0 ac ae be a6 b5 98 3d
       -0.22754318 0.07530507 -0.34116173 0.07456522
000050 d8 ec 85 be cc ba c2 bd 63 c4 82 bd ec 7d 64 3e
       -0.2615726 -0.09508285 -0.06385114 0.2231366
000060 ed 84 5b be 14 bc 5d 3e 97 39 1a 3f 9f b7 24 3f
       -0.21437426 0.21653777 0.60244125 0.64342684
000070 15 a4 3a be 9b 91 39 3e 42 f8 7a 3e 62 28 97 3f
       -0.18226655 0.1812195 0.24508765 1.1809199
000080 e1 95 26 bf 4d 01 d7 3e 47 32 b5 3e 55 ed 1b 3f
       -0.6507245 0.4199318 0.3538992 0.60909015
000090 cb 5a 85 be 30 65 45 3e 3b c8 82 3d 85 47 07 3f
       -0.26045832 0.19276881 0.06385847 0.52843505
0000a0 48 da 23 be d8 f0 27 bc a8 a4 63 3e cc b8 18 be
       -0.16001236 -0.010250293 0.2223078 -0.14914244
0000b0 e9 98 05 3d 0d 59 90 3e 84 ec 48 3f f8 9b 28 be
       0.03261653 0.2819294 0.78485894 -0.16465747
0000c0 75 96 9e be c8 4e 0b 3f fb d2 80 3f ef 48 1e 3f
       -0.30974165 0.54417086 1.0064386 0.6183004
0000d0 ca 70 9a bd 40 08 a1 3e f7 b3 14 be b5 9c da 3d
       -0.07541044 0.31451607 -0.14521776 0.10674421
0000e0 13 e2 b5 be d5 d2 cf 3e ca eb eb 3e 60 c9 66 3d
       -0.35524043 0.4059054 0.4607833 0.05634439
0000f0 12 19 0b 3e 22 2b 45 3d 39 d1 b4 bf 31 c9 1c bf
       0.13583782 0.048136838 -1.412635 -0.61244494
000100 de 8e 28 be 1d 81 8f 3d 88 1c 82 3e f0 f5 0e 3f
       -0.1646075 0.07007048 0.25412393 0.5584402
000110 de 4e 4f 3e be 11 8f bd af e1 cf be 68 93 91 3c
       0.20244929 -0.06985806 -0.4060187 0.017770484
000120 a2 d0 77 3b a9 d5 9b bd e6 e1 bf bf 94 cf e6 3c
       0.0037813564 -0.07609112 -1.4990814 0.028175153
000130 ce 54 08 3e 5c 35 cf 3e f6 b0 81 3e e2 2b 0d 3f
       0.133136 0.40470397 0.25330323 0.55145085
000140 8a cb e8 be 0c b9 e2 3e d0 23 1f be d7 42 52 3f
       -0.45467788 0.44281805 -0.15541005 0.8213324
000150 b9 fc 48 be ad dd 89 bb 6d 66 d0 3f e7 1f 72 3e
       -0.19627656 -0.004207334 1.6281258 0.23644982
000160 01 90 3f bd 5f 9f 10 bc 3a a6 de 3e c2 6e c1 3e
       -0.046768192 -0.0088270595 0.43486196 0.37779814
000170 77 2b 57 bd 2e 0f e7 3e 75 f2 fe 3e d6 e2 ae 3e
       -0.052531686 0.4512877 0.49794355 0.34157437
000180 68 d9 e0 3d c0 88 95 3b 10 8f 70 3d be 73 ea bd
       0.10978967 0.004563421 0.058730185 -0.11447857
000190 00 50 87 3e 00 c4 3f bc 09 be 3a be 15 39 39 be
       0.26428223 -0.011704445 -0.18236555 -0.18088181
0001a0 8c c7 93 be ec cf 85 bd 94 62 fc 3d 2a ff f0 bd
       -0.2886318 -0.065337986 0.1232349 -0.11767419

down2.bias f4 [9]
000000 1e 67 ae be 68 26 3f be 3d 38 f8 3e c1 ce b6 be
       -0.34063047 -0.18666995 0.48480406 -0.35704616
000010 08 be a7 3e 66 64 a2 3d 88 bc 1c 3f b4 a7 80 be
       0.3276217 0.07929306 0.61225176 -0.25127947
000020 7a 00 4b be
       -0.198244

down3.weight f4 [7, 9]
000000 17 56 63 c0 44 b5 0f 3e 85 57 6d 3d 95 15 7d 3e
       -3.5521295 0.14033991 0.057944793 0.24715264
000010 1a 98 b8 be 35 1b 8b be 76 6d b4 3e d3 1d e1 be
       -0.36053544 -0.27169195 0.35239762 -0.43968067
000020 e4 47 d9 3d 02 ab 27 3f cf 94 fc bd 9f 15 29 3f
       0.10609415 0.6549531 -0.123330705 0.66048616
000030 36 61 5a bf 3a 83 35 3d 12 6c f3 be 08 1b 08 3f
       -0.8530458 0.0443146 -0.4754339 0.53166246
000040 ba 51 d4 3e 96 89 76 3e 8a 54 8c bf 8c 6f 8d 3e
       0.41468602 0.24075922 -1.0963299 0.27624166
000050 4d 34 5f 3e c7 77 56 3f 3f 2c 3a 3b fd e0 32 3f
       0.21797295 0.83776516 0.002840772 0.69874555
000060 45 69 4b 3e c8 bd 7e 3c 2e 0a 6a 3e 71 a6 e6 3e
       0.19864376 0.015548177 0.22855446 0.4504886
000070 78 75 62 be ce 75 09 3e 01 68 4c 3f d5 80 c7 be
       -0.22115123 0.13423845 0.798462 -0.3896548
000080 2d ab bb 3d e7 d2 1d 3f a9 07 9a bf 49 e0 a3 3e
       0.091635086 0.61649936 -1.2033588 0.32007053
000090 50 f4 56 3f 78 c5 a6 bd 86 5a be 3e b9 6e 5b bf
       0.8396654 -0.08143133 0.3717844 -0.85715824
0000a0 ab 85 0b 3f ae 8f 6c be 1a 58 61 3e f2 1c 34 be
       0.54500836 -0.23101684 0.22006264 -0.17589167
0000b0 78 6e 11 3d e8 2b 66 bd a7 5c 83 be 2b c3 3e be
       0.03550574 -0.056194216 -0.25656626 -0.18629138
0000c0 06 39 63 3e 54 ab 91 be f3 ca 82 be ac 94 cc 3d
       0.22189721 -0.28451025 -0.25545463 0.099892944
0000d0 b0 be d9 3c 80 ab 99 bc 71 32 76 3f 3a 78 39 3e
       0.026580185 -0.018758535 0.9617072 0.18112269
0000e0 20 95 8a 3e cc d3 ed be 0d d2 91 be b2 ad 33 bf
       0.27066898 -0.4645065 -0.2848057 -0.70186913
0000f0 18 c6 34 bd f3 32 de 3d 9a f2 09 3e
       -0.04413423 0.108495615 0.13471451

down3.bias f4 [7]
000000 e6 d2 06 3f 93 5a 1c 3f 81 9f 03 bf 77 ad 61 3e
       0.52665555 0.61075705 -0.5141526 0.22038828
000010 7c c1 14 3f 60 28 60 be f3 6d 34 be
       0.58107734 -0.21890402 -0.17620067

down4.weight f4 [5, 7]
000000 10 cb be bf 17 6f 49 be 7e 1a 09 3e 04 4b 9c bf
       -1.490572 -0.19671284 0.13389012 -1.2210393
000010 4e d2 a2 3e 62 3e 15 be d1 48 0a 3f 7a 67 12 bf
       0.31801075 -0.14574578 0.5401736 -0.5718914
000020 bb 59 e1 3e 80 29 35 bf a9 1a 9d bf 8d 2d 2d 3d
       0.4401377 -0.7076645 -1.2273761 0.04227977
000030 26 20 9e be c2 fd a0 3f 05 f4 f8 be aa 6a 2f 3f
       -0.30883902 1.2577441 -0.48623672 0.6852213
000040 39 ed 16 bf 71 30 f3 be 15 8c 28 3f 60 31 18 bc
       -0.58955723 -0.47497895 0.6583875 -0.009289116
000050 58 5d b9 3f 31 7f c4 bf d8 46 23 3e 1a 30 0e bf
       1.4481611 -1.5351316 0.15944993 -0.5554215
000060 0c b1 38 bf 0b 11 c1 3e 89 23 b5 3e ff 1a a4 3f
       -0.7214515 0.37708315 0.35378674 1.2820739
000070 e3 15 b7 be 3d a1 3c 3e ec 9a 3f 3c ac b7 c7 bd
       -0.35758886 0.18420883 0.011694651 -0.097518295
000080 9b f3 ca be 3e b8 79 3e 23 e3 b2 be
       -0.3963898 0.24386689 -0.34938917

down4.bias f4 [5]
000000 43 e8 9b be c6 a1 2d 3f 59 cc 87 3d 0e a4 47 3f
       -0.3045064 0.6782497 0.06630773 0.779847
000010 88 69 d4 bd
       -0.10371691

down5.weight f4 [3, 5]
000000 4c a8 ec 3e b7 a5 17 3f 80 97 7a bf 7b 69 ba 3d
       0.4622215 0.59237236 -0.9788742 0.0910215
000010 00 06 8e 3d c9 fe 9b 3e 01 49 cf bd 4d 80 04 be
       0.06934738 0.30467823 -0.10121346 -0.12939568
000020 89 96 e3 bf ed 4b c2 3e 88 12 94 3f 9b e7 17 c0
       -1.7780315 0.37948552 1.1568155 -2.373511
000030 e9 8f dd be 89 b9 58 bf 9a ec 10 3e
       -0.43273857 -0.84658104 0.14152756

down5.bias f4 [3]
000000 7f d5 ae be 43 1e 55 3f 88 f6 6d 3e
       -0.3414726 0.832493 0.23238575

up1.weight f4 [5, 3]
000000 23 7a 72 bf c2 ae 01 40 af 7a 15 3f 46 68 30 bf
       -0.94717616 2.0262914 0.58390325 -0.6890911
000010 87 f4 c2 3d ee fc 06 3f 0c 1e 92 3e 8d 6e 98 3f
       0.09519296 0.5272969 0.2853855 1.1908737
000020 c5 9f 06 bf f8 c0 f4 3e d0 6b d7 3d bc af 11 3f
       -0.5258754 0.47803473 0.105186105 0.56908774
000030 43 da 6f bf 4d d9 a0 bf 0c a8 a8 bf
       -0.93692416 -1.2566315 -1.3176284

up1.bias f4 [5]
000000 81 4c 4a 3f 80 ba 38 bf 6f 45 0e 3f 64 0b 0c bf
       0.79022986 -0.72159576 0.555747 -0.5470488
000010 eb 25 9e be
       -0.30888304

up2.weight f4 [7, 5]
000000 2f eb 49 3f 95 9d 12 3e 7a 04 99 be d0 0f 2e bd
       0.78874487 0.14317925 -0.29886228 -0.04249555
000010 f4 09 b5 be 0c 48 4b be 0b 59 e2 bd 1b 5b 80 3d
       -0.35359156 -0.19851702 -0.1105214 0.06267377
000020 30 48 8c 3d d1 d3 33 3e 7f 13 da 3d 05 c0 35 3f
       0.06849706 0.1756127 0.1064825 0.70996124
000030 5e 07 32 bf 60 dd 62 3d 55 76 6e 3e 18 0f b7 be
       -0.6954249 0.0553869 0.23287328 -0.35753703
000040 f7 e4 e6 be 48 c8 04 3f 95 1c 6e be c1 5a 18 3f
       -0.4509656 0.51868105 -0.2325309 0.5951348
000050 8b 89 a0 3f 45 b6 84 bf 38 bf f6 be 83 9e 93 be
       1.2541975 -1.0368124 -0.48192763 -0.28831872
000060 a9 d1 55 3e 65 55 e6 3e cd 40 9a 3f 5d 43 08 bf
       0.2088076 0.44987026 1.2051026 -0.5322779
000070 43 28 74 be 29 ba 89 3d e2 d1 93 bd 7b c6 d4 bf
       -0.23843484 0.0672496 -0.07217766 -1.6623071
000080 6f 71 5d bf 94 8c fb bd a9 a7 7f 3e
       -0.8650121 -0.122826725 0.24966301

up2.bias f4 [7]
000000 74 4b 08 3d a1 73 ad bf 95 b1 9d 3e 45 1c 12 bf
       0.033275083 -1.3550912 0.30799547 -0.57074386
000010 32 01 ef be a8 c7 9c 3f bf 10 9b 3f
       -0.466806 1.224843 1.2114486

up3.weight f4 [9, 7]
000000 f5 3b 57 3e 70 5e 61 bf 5d 8f 80 bd bb d8 e1 bd
       0.21018966 -0.88034725 -0.062773444 -0.11027666
000010 33 33 b6 be dc 85 fd 3e 64 f1 11 3f ea 02 4e 3e
       -0.35585937 0.4951619 0.5700896 0.20118299
000020 50 53 96 bf 32 15 30 bd 13 93 57 3d 0a 01 a5 be
       -1.1744175 -0.042988963 0.052630495 -0.32227355
000030 84 c2 a2 3e 37 4d a4 3e 0f 8d be 3e 60 4b e5 bf
       0.3178903 0.3209016 0.37216994 -1.7913628
000040 4d ad be bc 76 28 54 3e 32 b8 b1 be c2 c0 96 3e
       -0.023275996 0.2071856 -0.34710842 0.29443938
000050 a9 6c b6 3e d9 9f df be 64 36 19 3f 63 99 86 3e
       0.35629776 -0.43676642 0.5984862 0.262889
000060 17 75 2c bf 6d ca c0 be 74 cf 03 3f de 37 f9 3e
       -0.67366165 -0.3765444 0.51488423 0.48675436
000070 80 a8 e8 3d 6a 3a 3b 3f bf d4 c0 3d a4 0a eb be
       0.11360264 0.7313601 0.09415578 -0.45906556
000080 fe a9 c2 be 4f fa b2 3e 98 eb 03 3f d0 42 1f c0
       -0.3802032 0.34956595 0.5153136 -2.488453
000090 9f 96 98 bf fc 1e d6 be d3 6a 87 bd d7 31 4d 3f
       -1.1920966 -0.41820514 -0.06612172 0.80154175
0000a0 e6 43 0e 3f a4 0f 3c bf f1 4e 05 3e 86 8f c7 bf
       0.55572355 -0.73461366 0.13018395 -1.5590675
0000b0 ab 64 f5 3e 1a 55 13 be 40 3b 06 3f de ce ab be
       0.47928366 -0.14387932 0.5243416 -0.33556265
0000c0 0f 56 17 3f c8 53 cd be 7d a6 c2 3e 16 a2 16 bf
       0.5911569 -0.40102983 0.38017645 -0.58841074
0000d0 ee 19 db be af 6f db 3d cd 85 d8 bb 05 bb 4e 3f
       -0.4279322 0.10714661 -0.006607747 0.8075412
0000e0 ac 92 00 bc 61 a7 2d 3f a3 ec 87 3e 1f e6 c3 be
       -0.007847469 0.67833525 0.26547727 -0.38261506
0000f0 1d 0a 80 be 8d 5e 3b 3e 37 4c 97 3e
       -0.25007716 0.18297787 0.29550335

up3.bias f4 [9]
000000 05 3f 98 be c5 f3 49 bd b5 38 1f be 20 7f ae 3e
       -0.2973558 -0.049304742 -0.15548976 0.34081364
000010 0f 26 92 3e 12 0f 0f be e5 a0 6d bf c2 12 24 3f
       0.2854466 -0.13970593 -0.9282363 0.6409112
000020 aa cc 84 3e
       0.25937396
