6_3/model_Plate 27902_N.pt (torch, 7510 bytes, 16 tensors)

down1.weight f4 [12, 15]
0	0xbd8e4771	-0.0694722
1	0xbd9d8762	-0.07691838
2	0xbd4cdbab	-0.05001418
3	0x3bd12a67	0.0063832286
4	0xbde01f2a	-0.10943444
5	0xbd7e35a3	-0.06206287
6	0x3eb6bc22	0.3569041
7	0x3f203185	0.6257556
8	0x3f74887e	0.9552077
9	0x3d6645ca	0.0562189
10	0x3c97cae6	0.018529367
11	0xbd1aabcf	-0.037761506
12	0xbde338bf	-0.11094808
13	0x3ecd7790	0.4013028
14	0xbe034abe	-0.1282148
15	0xbd2cf351	-0.042224232
16	0xbd96ebdc	-0.07369205
17	0xbd549880	-0.051903248
18	0x3c663190	0.014049903
19	0xbdc33e7e	-0.09533404
20	0xbd810c99	-0.06301231
21	0x3e913f06	0.28368396
22	0x3f005508	0.5012975
23	0x3f3f3363	0.74687785
24	0xbcfd3c1a	-0.030912448
25	0x3c3d5360	0.011555523
26	0xbc01b266	-0.007916069
27	0xbd43e7e2	-0.047828563
28	0x3e8fc7be	0.2808208
29	0xbe7b1495	-0.2451957
30	0xbd0c9357	-0.0343202
31	0x3e329ad9	0.17441882
32	0x3e63b886	0.22238359
33	0xbd9456bc	-0.07243106
34	0xbde7ebf1	-0.11324299
35	0x3e3fbcf4	0.18724424
36	0x3d11ce1d	0.035596956
37	0x3e214079	0.1574725
38	0x3dff789a	0.12474175
39	0x3e714d6d	0.23564692
40	0x3e2abc7f	0.16673468
41	0xbcf8f235	-0.03038893
42	0x3d2af081	0.04173327
43	0x3eae1041	0.33996776
44	0xbd7094a4	-0.058735505
45	0x3cab83ce	0.020936873
46	0x3e1dea56	0.15421423
47	0x3d8e3f0b	0.06945618
48	0x3db8a032	0.0901493
49	0x3e220f03	0.15826039
50	0x3e0fc617	0.14040409
51	0x3d656cbd	0.056011904
52	0xbd45f415	-0.048328478
53	0x3db3283e	0.0874791
54	0x3ed98bf4	0.42489588
55	0x3e2083fd	0.1567535
56	0xbdfe4dbe	-0.12417172
57	0xbe45b424	-0.19307
58	0x3eab1de6	0.33421248
59	0x3e0b9bfb	0.1363372
60	0x3d7567e6	0.05991354
61	0x3d509fbb	0.05093358
62	0x3e520233	0.20508651
63	0x3e2e32b5	0.1701153
64	0x3d0ae85b	0.033912998
65	0x3eb87826	0.36029166
66	0xbdf43b74	-0.11925402
67	0xbe024891	-0.12722994
68	0xbe5faf9c	-0.21844333
69	0x3ea572e7	0.32314226
70	0x3dea5064	0.114411145
71	0xbe992bf9	-0.2991636
72	0x3d81f3d0	0.06345332
73	0x3e59631a	0.2122921
74	0x3e3f5f80	0.18688774
75	0xbe60778a	-0.219206
76	0x3e39ca14	0.18143493
77	0x3e2d9608	0.16951764
78	0x3d25439a	0.040347673
79	0xbe73e8db	-0.23819296
80	0x3dbaf182	0.09128095
81	0xbe6cca59	-0.23124065
82	0xbe76c636	-0.24099049
83	0xbd9d808a	-0.076905325
84	0xbc9bce9a	-0.019019414
85	0xbe3bff61	-0.18359138
86	0x3e28d837	0.1648873
87	0xbd60e74c	-0.054908082
88	0xbe24b1f7	-0.16083513
89	0x3c960a73	0.01831553
90	0x3d47d929	0.048791084
91	0x3d81d422	0.06339289
92	0x3d0cc5e1	0.0343684
93	0x3d66f5d0	0.05638677
94	0x3c3e97ce	0.011632873
95	0xbd53e316	-0.051730238
96	0xbe605891	-0.21908785
97	0xbec1107a	-0.37707883
98	0xbf112858	-0.56702185
99	0xbb093c80	-0.0020940602
100	0xbc75daad	-0.01500575
101	0x3c27ad7b	0.010234232
102	0x3d5f9504	0.05458547
103	0xbf050dff	-0.5197448
104	0x3dc05d28	0.09392768
105	0x3d88bf08	0.06677061
106	0x3e8ba525	0.27274433
107	0x3ea8c857	0.32965347
108	0x3ddf57d0	0.10905421
109	0x3cb0744f	0.021539835
110	0x3d3458ff	0.044030186
111	0x3e5b41da	0.21411839
112	0x3d1b6c73	0.037945222
113	0x3c8f711c	0.01750999
114	0x3f15a6ed	0.58457834
115	0x3e27b90c	0.16379184
116	0x3d8d75ab	0.06907209
117	0x3d295730	0.041342914
118	0x3e56247f	0.2091236
119	0x395ffc9c	0.00021361042
120	0xbcfd4687	-0.03091742
121	0x3eae59e4	0.34052956
122	0x3e69cd1d	0.22832151
123	0xbd359a1a	-0.044336416
124	0x3db2308c	0.08700666
125	0x3d6dfea6	0.05810418
126	0xbe3f4e88	-0.18682301
127	0xbe981eb6	-0.2971093
128	0xbefd2fd6	-0.49450558
129	0x3ed25a4a	0.4108451
130	0x3e7a4c90	0.24443269
131	0x3e5c1ba5	0.2149492
132	0xbe351368	-0.17683184
133	0x3d1cf0ca	0.03831557
134	0x3cf613a6	0.030038666
135	0xbcdd00d3	-0.026977932
136	0x3ccec64b	0.025241038
137	0xbd6a4deb	-0.057203215
138	0x3d62c960	0.055367827
139	0xbd5cab02	-0.053874023
140	0xbd88bb6f	-0.06676375
141	0x3c35648a	0.011071334
142	0xbea5ec8d	-0.32407036
143	0xbe4fa368	-0.20277178
144	0x3f09a09a	0.53760684
145	0x39d9c24e	0.00041534234
146	0x3eb97543	0.36222276
147	0x3f3adbb8	0.72991514
148	0xbe91019a	-0.28321534
149	0x3d9109b1	0.070819266
150	0x3bbb76bc	0.0057209413
151	0xbe0b114f	-0.13580821
152	0x3e45d3b4	0.1931904
153	0x3d5571bf	0.05211043
154	0xbd8cb49b	-0.06870385
155	0xbe4f1721	-0.20223667
156	0x3e2bfde6	0.16796073
157	0x3dac66df	0.084180586
158	0xbe52020f	-0.20508598
159	0x3ef03a56	0.46919507
160	0x3e262f05	0.16228874
161	0x3d7edd3e	0.06222271
162	0xb98d031d	-0.00026895935
163	0xbdc5a9ce	-0.09651528
164	0xbe528e15	-0.20562012
165	0xbe002b02	-0.12516406
166	0xbd58d5c8	-0.052938253
167	0xbc0b10dc	-0.008487906
168	0xbd5e8418	-0.054325193
169	0x3d921bdc	0.0713422
170	0x3e08d275	0.13361533
171	0x3d737586	0.05943825
172	0x3e256329	0.16151108
173	0x3e8bdff8	0.27319312
174	0x3ea63b09	0.32466915
175	0x3d49d45c	0.049274787
176	0x3ef7f3df	0.48428246
177	0x3e7f49aa	0.24930444
178	0x3eac2443	0.33621415
179	0xbd659652	-0.05605156

down1.bias f4 [12]
0	0xbf1426d9	-0.57871777
1	0xbf4dd70d	-0.80406266
2	0x3e5427b2	0.20718268
3	0x3ef7d3f5	0.48403898
4	0x3e7286f5	0.23684295
5	0xbe4072f7	-0.18793856
6	0x3f141d2c	0.5785701
7	0xbd28052b	-0.041020554
8	0x3f33f54f	0.70296186
9	0x3f54f27b	0.83182496
10	0x3efccffb	0.49377427
11	0x3e43e9ae	0.1913211

down2.weight f4 [9, 12]
0	0x3fd0d2de	1.6314352
1	0xbf9990a7	-1.1997269
2	0x3cb5da48	0.022198811
3	0x3ce539c8	0.027981654
4	0x3f15cccb	0.58515614
5	0x3b8a1380	0.0042137504
6	0xbec7a12a	-0.38990146
7	0xbeebf7d5	-0.46087518
8	0x3f199474	0.59992146
9	0xbd393e33	-0.045225333
10	0x3d130035	0.03588887
11	0xbf17fcb0	-0.59369946
12	0x3d90567f	0.07047748
13	0x3eb7b742	0.35882002
14	0x3cf3fb3f	0.02978289
15	0x3f3a68bb	0.72816056
16	0x3dd6b6ed	0.10484109
17	0xbdc1879e	-0.09449695
18	0xbf8f3a77	-1.1189717
19	0xbecf121f	-0.40443513
20	0x3f322e3c	0.696018
21	0x3ea71b4c	0.32638013
22	0x3ea009e9	0.3125756
23	0xbd189ff1	-0.037261907
24	0x3fdff404	1.7496343
25	0xbfe99f67	-1.8251771
26	0x3d0b7590	0.034047663
27	0xbea48371	-0.32131532
28	0x3ea039a6	0.31293982
29	0x3de586bf	0.112073414
30	0xbf0c4d2c	-0.54805255
31	0x3eae921c	0.34095848
32	0x3e5d9f30	0.21642756
33	0x3ebcf1c4	0.36903203
34	0xbc8f32d6	-0.017480295
35	0x3e492a75	0.19645102
36	0xbd502c10	-0.05082327
37	0xbd65269c	-0.055945024
38	0xbe586799	-0.2113327
39	0xbe1b9757	-0.1519445
40	0xbdbcd8d3	-0.092210434
41	0xbe0a2554	-0.13490802
42	0x3da64cc8	0.081201136
43	0x3e0a4206	0.13501748
44	0x3c94999a	0.01813965
45	0x3e0c0659	0.13674296
46	0xbbbeaafc	-0.005818723
47	0xbd429887	-0.047508743
48	0x3fa4f818	1.2888212
49	0xbf12883c	-0.5723913
50	0x3d383e39	0.044981215
51	0x3df8de71	0.12151802
52	0xbdf1e9ba	-0.11812158
53	0x3e47b35e	0.19502017
54	0xbf85ab5e	-1.0442922
55	0xbe9bf735	-0.30462041
56	0x3eff6860	0.4988432
57	0x3f1cc958	0.61244726
58	0x3e614afc	0.2200126
59	0xbe46cba8	-0.19413626
60	0x3faa63ee	1.3311746
61	0xbfd03229	-1.6265308
62	0xbeabd368	-0.33559728
63	0xbe87429b	-0.26418003
64	0x3e62227f	0.22083472
65	0xbe27bb88	-0.16380131
66	0x3dccfa94	0.100087315
67	0x3f0e5e45	0.55612594
68	0x3ea476e6	0.32121962
69	0x3ecf60cd	0.4050354
70	0xbe94e44e	-0.29080433
71	0x3eb189e7	0.34675524
72	0xbfae4ed5	-1.3617808
73	0x3fef2eaf	1.8686122
74	0x3f079fd8	0.5297828
75	0x3f180dd4	0.593961
76	0x3e092fc0	0.13397121
77	0x3d532636	0.051550113
78	0x3e81fe34	0.25389254
79	0xbe5339c2	-0.20627502
80	0x3e14ce5a	0.14531842
81	0x3f1856ad	0.59507257
82	0x3e5c0856	0.21487555
83	0xbdbe2fc9	-0.09286458
84	0x3fb1428a	1.3848431
85	0xbf91f90b	-1.1404127
86	0xbe9a16bf	-0.3009548
87	0xbd9939d6	-0.074817345
88	0x3e3fe211	0.18738581
89	0x3d81ce76	0.063382074
90	0xbf3f6eaa	-0.74778235
91	0xbef48976	-0.47761124
92	0x3edea0d6	0.43482083
93	0x3ef8ffdc	0.48632705
94	0x3f013d87	0.5048451
95	0xbeb72f66	-0.3577835
96	0xbf4d562c	-0.8020961
97	0x3f676e3a	0.9040257
98	0x3e826dab	0.25474295
99	0xbc33446f	-0.010941609
100	0x3c72c0cd	0.014816475
101	0xbe5ec74f	-0.21755718
102	0x3edbf4bf	0.42960164
103	0x3e9554a7	0.29166147
104	0x3e49cc52	0.19706848
105	0x3f0b7633	0.5447723
106	0x3decf42f	0.11570012
107	0x3f4f4df6	0.80978334

down2.bias f4 [9]
0	0x3f1d681d	0.6148699
1	0x3e7f1f6c	0.2491433
2	0x3e7c2a20	0.24625444
3	0xbe7b8d5a	-0.2456564
4	0x3d5c8324	0.053836003
5	0xbd3d9a8f	-0.046289977
6	0x3cb990ad	0.022651995
7	0x3f01226b	0.5044314
8	0xbe5084d9	-0.20363177

down3.weight f4 [7, 9]
0	0x3e3ecf50	0.18633771
1	0x3d4ce8ee	0.050026827
2	0xbdd03fb9	-0.10168404
3	0xbe2daa78	-0.1695956
4	0xbebd511f	-0.36975953
5	0xbe0feea9	-0.14055885
6	0xbd3aeef2	-0.045638032
7	0x3e5ddb6f	0.21665739
8	0xbdc356db	-0.09538051
9	0xbd26fde8	-0.040769488
10	0x3e8ff537	0.28116772
11	0xbe255cd6	-0.16148695
12	0xbdb81806	-0.08988957
13	0xbe738e3e	-0.2378473
14	0x3d1a4998	0.03766784
15	0xbe9cdfaa	-0.30639392
16	0xbdc410ec	-0.0957354
17	0x3d82b0ec	0.063814014
18	0x3e816d10	0.2527852
19	0x3f632ad9	0.88737255
20	0x3e0c2c7a	0.13688841
21	0x3e43f628	0.1913687
22	0x3f38ea51	0.7223254
23	0xbe9d1828	-0.30682492
24	0x3f103753	0.5633442
25	0x3f3d103c	0.73852897
26	0xbe48926f	-0.1958711
27	0x3e548057	0.20752083
28	0xbe39b545	-0.18135555
29	0x3f4ea02c	0.8071315
30	0xbe33ce72	-0.17559221
31	0x3f2980ad	0.6621197
32	0x3f88f496	1.0699642
33	0xbf6cbd49	-0.92476326
34	0x3efcaa30	0.49348593
35	0xbdc16bc0	-0.0944438
36	0xbe35a6c1	-0.17739393
37	0x3dd0234f	0.101629846
38	0xbe8b92ad	-0.27260342
39	0x3e799c52	0.24376038
40	0xbdfdd5fe	-0.123943314
41	0xbd0dc51a	-0.0346118
42	0x3dd40641	0.10352755
43	0xbd693c68	-0.056942374
44	0x3e47b999	0.19504394
45	0x3f8a60a4	1.0810742
46	0x3ed5f85c	0.41791046
47	0x3eedbbd6	0.4643237
48	0xbe1ecc37	-0.1550759
49	0x3ea97ef2	0.33104664
50	0x3e837dd1	0.25681928
51	0xbf1f29cd	-0.6217316
52	0x3f4231e3	0.7585737
53	0xbf652192	-0.8950435
54	0xbe9ad0cb	-0.3023742
55	0xbe733f0e	-0.23754522
56	0xbb2c6000	-0.0026302338
57	0xbe2e85a6	-0.1704317
58	0xbe71a3cb	-0.23597638
59	0xbe207320	-0.15668917
60	0xbd9673c0	-0.07346296
61	0x3e07991a	0.13241997
62	0xbe986f22	-0.29772288

down3.bias f4 [7]
0	0xbe86ec70	-0.26352262
1	0xbdddb90c	-0.108263105
2	0x3e00eb77	0.12589823
3	0x3e3dea35	0.18546374
4	0xbebb0954	-0.36530554
5	0x3ed6e0b7	0.4196832
6	0xbea7ca7e	-0.32771677

down4.weight f4 [5, 7]
0	0x3d9c6684	0.07636741
1	0x3e59bb4a	0.21262851
2	0x3e04f8fd	0.12985606
3	0xbe21628c	-0.15760249
4	0x3e8b16b9	0.27165774
5	0xbeb9ed0e	-0.3631367
6	0x3ec00649	0.37504795
7	0xbe473b1e	-0.19456145
8	0x3e6f986e	0.23397991
9	0x3f6bcc85	0.9210895
10	0x3df54e85	0.11977867
11	0x3e2058b2	0.15658835
12	0x3f8a1c01	1.0789796
13	0x3db63e6c	0.08898625
14	0xbe1dc650	-0.15407681
15	0xbe730772	-0.23733309
16	0xbea8d92d	-0.32978192
17	0x3eb900c8	0.3613341
18	0xbd840c72	-0.06447686
19	0x3f639df9	0.8891292
20	0xbe12dc1d	-0.14341779
21	0x3e6b0b6e	0.22953579
22	0xbe35f94a	-0.17770877
23	0xbe3a576a	-0.18197408
24	0xbe8a8560	-0.27054882
25	0x3e169b7a	0.14707747
26	0x3dee1608	0.11625296
27	0xbe6ec2d8	-0.23316514
28	0x3d44e8b1	0.048073474
29	0x3e894d5d	0.26816836
30	0xbdd7b4d3	-0.10532536
31	0x3fa3b9b0	1.2791042
32	0x3e19613d	0.149785
33	0x3f057b40	0.5214119
34	0x3e723a2e	0.23655006

down4.bias f4 [5]
0	0xbea0067f	-0.31254956
1	0x3e618d2d	0.2202651
2	0x3f0db37f	0.55352014
3	0xbd387b50	-0.045039475
4	0xbef81692	-0.4845472

down5.weight f4 [3, 5]
0	0xbeca8b63	-0.3955947
1	0x3e6f7709	0.23385252
2	0xbf6698e1	-0.90077025
3	0xbe1194b0	-0.14216876
4	0xbdeacf33	-0.11465301
5	0x3d32b3eb	0.043628614
6	0xbebd55d0	-0.36979532
7	0xbed1869e	-0.40923017
8	0x3ebf15d0	0.3732133
9	0xbfa48258	-1.2852278
10	0x3eca4117	0.39502785
11	0xbf6f38cf	-0.9344606
12	0xbe4b0994	-0.19827873
13	0x3e44b224	0.1920858
14	0x3e8fb31d	0.2806634

down5.bias f4 [3]
0	0x3d62ae00	0.05534172
1	0x3e9bea48	0.3045218
2	0xbeb29e58	-0.34886432

up1.weight f4 [5, 3]
0	0x3ed81ba5	0.4220859
1	0x3e744550	0.23854566
2	0xbea33773	-0.31878242
3	0x3eb1de9a	0.34740144
4	0x3e92fcef	0.28708598
5	0xbf0f3ec6	-0.5595516
6	0xbf80a554	-1.0050454
7	0xbf91a70f	-1.1379107
8	0xbf072b43	-0.5280039
9	0x3df3f83f	0.119125836
10	0xbef728f7	-0.4827344
11	0x3ea3bef5	0.31981626
12	0x3f6eff87	0.93358654
13	0xbe6cea7a	-0.2313632
14	0xbdcd8edb	-0.10037013

up1.bias f4 [5]
0	0x3f891c17	1.0711697
1	0x3ec8f3bd	0.39248458
2	0xbecc9275	-0.39955488
3	0x3f4b696e	0.7945775
4	0x3dfacb97	0.12245863

up2.weight f4 [7, 5]
0	0x3e8b2ec0	0.27184105
1	0xbe319913	-0.1734355
2	0xbe17acb9	-0.14811982
3	0x3f1ede34	0.62057805
4	0x3c22350d	0.009900344
5	0x3f1cad1f	0.6120166
6	0x3cbe4e88	0.023230806
7	0x3f1002fe	0.56254566
8	0xbe55d017	-0.20880161
9	0x3a107724	0.00055109174
10	0x3f343d7c	0.7040632
11	0x3d48c1b5	0.04901286
12	0xbdd343c4	-0.1031566
13	0x3f17963d	0.5921362
14	0x3f449538	0.7679019
15	0xbf16c54b	-0.58894795
16	0x3e3bfb19	0.18357505
17	0x3ea0c9ff	0.3140411
18	0x3f053ca3	0.5204565
19	0xbe38771e	-0.1801419
20	0xbef930dd	-0.48670092
21	0xbee7a2fc	-0.45241535
22	0x3ee4861d	0.4463357
23	0xbd02fed0	-0.03198129
24	0x3e58c690	0.21169496
25	0xbf8cb6b0	-1.0993252
26	0x3ec48166	0.38379973
27	0x3e672e03	0.22576146
28	0x3ef13395	0.47109666
29	0x3f3653ab	0.7122142
30	0x3e007277	0.12543665
31	0xbf6282c2	-0.8848077
32	0x3eb80265	0.35939327
33	0x3f5e171d	0.8675402
34	0x3d2d2584	0.042272106

up2.bias f4 [7]
0	0x3f2caeff	0.6745452
1	0xbe54ae03	-0.20769505
2	0xbf435329	-0.7629877
3	0x3ea57976	0.3231923
4	0xbec57852	-0.3856836
5	0x3f1c7f7b	0.6113202
6	0x3eb8dec2	0.3610745

up3.weight f4 [9, 7]
0	0x3d93ccd1	0.072168
1	0x3c3fe36e	0.011711938
2	0xbe06dadd	-0.13169427
3	0xbea14bf6	-0.31503266
4	0xbd66e8b0	-0.05637425
5	0x3e95cad6	0.29256314
6	0x3dd836bf	0.10557317
7	0x3e1d55d0	0.15364766
8	0x3dbca65e	0.092114195
9	0xbe9c4187	-0.30518743
10	0xbe7f3794	-0.24923545
11	0xbd46de96	-0.04855212
12	0x3e84da81	0.25947955
13	0x3c68d652	0.014211254
14	0x3dc6bf40	0.09704447
15	0x3d1a83ba	0.03772328
16	0xbe41cde3	-0.18926196
17	0xbe86b22c	-0.2630781
18	0xbc8f4176	-0.017487269
19	0x3e590186	0.21191987
20	0x3dbde01f	0.09271263
21	0xbebfa643	-0.37431535
22	0xbe17ab15	-0.14811356
23	0x3f6c5746	0.9232067
24	0xbe8d7de9	-0.27635124
25	0x3f3da8e6	0.74085844
26	0x3db8c56a	0.09022029
27	0xbe894819	-0.2681282
28	0xbec29135	-0.3800141
29	0xbcd27ddb	-0.025694778
30	0x3e8aebb3	0.2713295
31	0xbd98ace2	-0.0745485
32	0x3ea8098a	0.32819778
33	0x3e1f19da	0.15537205
34	0xbe9561a2	-0.2917605
35	0x3f276788	0.6539235
36	0xbe957cbc	-0.29196727
37	0x3dbf67f0	0.093459964
38	0x3e13fca0	0.14451838
39	0xbecd4fd4	-0.40099967
40	0x3e11829a	0.14209977
41	0x3eb6b7f2	0.35687214
42	0x3e3ea731	0.18618466
43	0xbed32d10	-0.41245317
44	0x3e26051e	0.1621289
45	0x3cc7cbd2	0.024389181
46	0xbebcb2ed	-0.3685526
47	0x3e4fd83f	0.20297335
48	0x3ee17fe7	0.44042894
49	0xbf376011	-0.7163096
50	0x3e3e93fb	0.18611138
51	0xbe24e242	-0.16101936
52	0x3c3f0f1d	0.011661318
53	0xbfacefbe	-1.3510664
54	0x3edd4219	0.4321449
55	0x3f312619	0.6919876
56	0x3e6168bd	0.2201261
57	0x3ea8be2c	0.3295759
58	0x3e2e10e9	0.16998638
59	0xbe84430a	-0.25832397
60	0x3de7c8e7	0.11317616
61	0xbf1d44ce	-0.6143311
62	0x3ea96e96	0.33092183

up3.bias f4 [9]
0	0x3dfcc7da	0.12342806
1	0x3de40d6d	0.11135373
2	0x3e2da2bb	0.16956608
3	0xbf242a89	-0.64127403
4	0xbc1935fd	-0.009351251
5	0x3d1d133e	0.03834843
6	0x3f273f1f	0.6533069
7	0xbf229708	-0.63511705
8	0xbf009b8a	-0.50237334
