VR/model_Panel1_sinkhorn_clust.pt (torch, 9802 bytes, 16 tensors)

down1.weight f4 [15, 18]
00000000: b51f 69bc 1809 34be a0d6 bb3c 6237 76be
00000010: baed a33c 6c04 483e b4fb e33c 3f7a 893c
00000020: 7045 c2bd 165f 39be 80ce babd cd63 2a3e
00000030: 31a7 393e d50b bbbd 9016 04be 033a 56be
00000040: d326 acbd f41f 4abe 3218 b63c 3201 91bd
00000050: 6881 d33c 5cfc 783c 51f1 b93d 9f58 1dbe
00000060: 1dfc 89bd 25e4 543e 8d28 533f 432f 04be
00000070: 1971 173d 893b 75be dec0 ad3e ea55 043f
00000080: e56e c3be b443 26be f688 59bd 1208 223e
00000090: 0b1a 883e 1d53 cc3e e3d4 893c 8391 293e
000000a0: 6649 cc3d 4d42 133e 944f 133d 7e39 3a3e
000000b0: 6dbc 903e c3d6 cd3c 4555 b3be b5eb 9e3b
000000c0: f7cd 5b3e 1eec 053f 4693 373d 6a98 f03d
000000d0: 8a27 1cbe 077f b1bd e97c 8bbd 310c acbe
000000e0: c2ba 9fbd d9f0 f2be f1e5 af3d f2c5 44bc
000000f0: 8da7 283e 8be3 263e 20fd e43e 43f7 073e
00000100: e3d2 9e3d 47b5 b3bd 30ac e13e d1b6 e33d
00000110: 6174 e33e a4c7 a53d bcbd 60bd e4df e0bc
00000120: e9cb a03d 0248 9bbc a061 f9bd e55e 3a3d
00000130: 37d6 b73c 5b6a 823d 2c68 273f d652 f43d
00000140: 51dc 3ebe 9f28 a23e c66b 183e ecda b9bc
00000150: e77f 183e d846 873d c915 8ebe 6342 803e
00000160: dc65 483e 45e6 3e3e 4e43 1d3d 2fca fa3d
00000170: 37af 1d3e 51e1 15bc 7793 123e 0d63 813b
00000180: 1c22 fd3e 33d9 d53d d0ea 763e ef60 c43d
00000190: 9f30 393e 2f1b 6ebd 5fba 6d3e fd23 c1bd
000001a0: dc5e b8be 0f24 d8bd 8aa4 8d3d d3ce 103d
000001b0: 0e1e 1abe 2094 cd3d 78cc 523e dc63 2abe
000001c0: f710 1fbe 5f28 b13c 8d82 7d3f 621d 843e
000001d0: 32d3 f93e f0ba 853e 97a9 9fbe 437d 883d
000001e0: 478a 86be 77fc f53e 6369 593e e903 b83e
000001f0: 0b39 a2be ca19 a1bd 6dba 3d3e 61b2 d6bb
00000200: 1be4 81be 04d0 993e 866d 91bd 62c2 1ebe
00000210: 45d5 ae3d 6dce 363f 6f43 e5bd 148c 2cbe
00000220: 38aa 9b3e 8d78 10be 0bab a3be ef81 743d
00000230: 7356 363e 9e8b 973c b7a2 a93e ffce 4b3e
00000240: aead 7dbd e208 a83e 05a2 e83d 464e 98bd
00000250: 0926 b63e 27c0 de3d 9b0f 353d a071 bebd
00000260: 3c37 a63e 44f3 c13d 3b52 b0bd 985a b43e
00000270: 6924 c53e 2812 e23e 41bf 06bd bb65 443c
00000280: 48bd 313c 5778 cb3e 2ade 833d d070 7e3e
00000290: d8de a23d cab3 f43d ca4a 353e 78c1 123c
000002a0: 517c 0abb 89ab 633e b664 ba3e 66a1 113e
000002b0: 73ed 47be 2bfd 98bd bd3b 803e 35b7 8b3e
000002c0: ff63 1c3e 042c b13e 862d 14be 8b5e 8c3e
000002d0: 6188 093e 151c d33d ddca cd3b ef36 173d
000002e0: 356f ffbc 15be 763e b844 40be 60a8 91bd
000002f0: c7ba 8c3e 9bf8 953d 6f6b c3bd 1ea0 073e
00000300: e46b 4d3e 1836 163f 89a0 f23e f023 533e
00000310: d290 7f3c aaf9 323d 9d91 de3d 2d27 55be
00000320: e120 82bc 141a c23d 20be 9b3e 7e68 19be
00000330: 3a3a dd3e b337 d6bd 9108 1e3e 9000 923d
00000340: 4bc4 45be e713 35bd d9fe 643e 1fac 89be
00000350: 1b65 ea3d 22e5 0abd e487 ebbd 7f06 d7bb
00000360: 2a5b c8bd f778 c0bd d90b 923d 1f61 5ebe
00000370: 64c5 8b3d 3b30 b93d fdc7 c5bd 7b76 a5be
00000380: 8a82 00be 11f5 cabd 273d b5be d04d 023e
00000390: 1c21 c33e 9ca5 27be f0db c7bd 3cd1 a83d
000003a0: 1a2f 90be e073 5abd 2f4d 1839 f5ba 693e
000003b0: 1759 d53d 1abc 29be 92cf 0a3e e3c6 213e
000003c0: 027d 6e3e df9c 6c3e ee7a 8b3e 2568 91bc
000003d0: 2995 5bbe 8092 073e dd17 8ebd 86bb 0b3f
000003e0: bccd 79be 88b7 b53e 7476 85bd 46f8 9abd
000003f0: 03f4 a6bd 9264 b1be 3fa1 673c 2679 b0be
-0.014228751 -0.17581594 0.02292949 -0.24044564 0.020010818 0.19532937 0.027829982 0.016781924
-0.094859004 -0.18102679 -0.09121418 0.16639633 0.18130185 -0.09133116 -0.12899232 -0.20920567
-0.08405843 -0.19738752 0.022228334 -0.07080306 0.025818542 0.015196886 0.090792306 -0.15365838
-0.0673754 0.20790155 0.8248375 -0.12908654 0.036973093 -0.23948492 0.33936208 0.51693594
-0.38170543 -0.16236764 -0.05310913 0.15823391 0.2658237 0.3990716 0.016825145 0.16559415
0.09974937 0.1438076 0.035964563 0.18185994 0.28268757 0.02512682 -0.35025993 0.004849876
0.21465288 0.5231341 0.044818185 0.11747821 -0.15249458 -0.08666807 -0.06810934 -0.3360305
-0.07799293 -0.47449377 0.0858878 -0.012010084 0.16470166 0.16297738 0.4472437 0.13277917
0.07755067 -0.0877481 0.4407668 0.11118854 0.44424728 0.08094719 -0.054868445 -0.02745051
0.07851393 -0.018955234 -0.121768236 0.045500655 0.022441013 0.06367942 0.6539333 0.11929862
-0.18638732 0.31671616 0.14884862 -0.022687398 0.14892541 0.06605309 -0.27750996 0.2505065
0.19570106 0.18642528 0.038394265 0.12245595 0.1539887 -0.009147958 0.14314066 0.0039485754
0.49440086 0.10441818 0.24113011 0.09588801 0.18084954 -0.058131393 0.23215626 -0.09430692
-0.36009872 -0.10553753 0.06916149 0.035353493 -0.15050527 0.10038018 0.20585811 -0.16639656
-0.15533815 0.021625696 0.9902733 0.25803667 0.48793942 0.26119184 -0.31184074 0.06664517
-0.26277372 0.48044178 0.21231608 0.35940483 -0.31684145 -0.07866247 0.18528147 -0.006552026
-0.25369343 0.30041516 -0.07100968 -0.15503839 0.08536772 0.7140873 -0.111945026 -0.1685031
0.30403304 -0.14108486 -0.31966433 0.059694227 0.17806415 0.018499192 0.33131954 0.19903181
-0.061933212 0.32819277 0.11359028 -0.074368045 0.35575894 0.10876494 0.044204336 -0.09299016
0.32464015 0.09470227 -0.08609434 0.35225368 0.3850434 0.44154477 -0.032897238 0.011987145
0.010848351 0.3974025 0.06438859 0.24847722 0.0795266 0.119483545 0.17704311 0.008957259
-0.0021131227 0.22233404 0.3640496 0.14221725 -0.19524173 -0.07470163 0.25045577 0.27288213
0.1527252 0.34603894 -0.14470491 0.2741588 0.1343093 0.103080906 0.0062802867 0.036917623
-0.031180957 0.24095948 -0.18776214 -0.07112193 0.2748625 0.07322808 -0.09541976 0.13244674
0.20060688 0.5867629 0.47388104 0.20619178 0.015598493 0.04369513 0.10867617 -0.20815726
-0.015884819 0.0947763 0.3041849 -0.14981267 0.43208486 -0.104598425 0.15432955 0.071290135
-0.19313161 -0.044208433 0.22362842 -0.2688913 0.114450656 -0.033909924 -0.115005285 -0.0065620537
-0.09783013 -0.09398072 0.07131166 -0.21716736 0.06824759 0.09042402 -0.09657285 -0.32316956
-0.12549797 -0.09910024 -0.35398218 0.12724996 0.38111198 -0.16371769 -0.097587466 0.08243033
-0.28160936 -0.053333163 0.00014524603 0.22825225 0.10417383 -0.16575661 0.13555744 0.15798526
0.23289874 0.23106717 0.27242225 -0.017749855 -0.21443619 0.13239479 -0.06938145 0.54583013
-0.24394888 0.35491586 -0.06516734 -0.07566886 -0.0815201 -0.34647042 0.014137565 -0.3446743

down1.bias f4 [15]
00000000: 998d 70be 9699 5e3e 9364 093c 1a25 733e
00000010: 5494 6a3e 05ea 7b3e ddb3 003f 6bc9 90be
00000020: 0347 903e 6c45 05bb 242e 363e 8a70 c93e
00000030: 0ec6 af3e a0ab 1a3e 7fbf bf3e
-0.23491515 0.21738276 0.008385795 0.23744622 0.22908145 0.2460099 0.5027445 -0.2827867
0.28179178 -0.0020335568 0.17791039 0.39343673 0.3433079 0.15104532 0.37450787

down2.weight f4 [12, 15]
00000000: a547 013e 95e3 49be e31c 35be a9b6 873d
00000010: 7d17 5b3d 855a 9a3e a036 5c3e 0ff7 023f
00000020: 92e1 a03e 58a6 b73e a08b db3e 35c8 c83d
00000030: 24e4 e4be ff41 b53c 3ed3 8f3e 37d7 023e
00000040: f538 bb3d e96e ca3e eabb 8c3d baf0 783e
00000050: c95d 10be be44 4b3e c70e 2fbe 4dd3 97be
00000060: 759e 12bf a8bb 3f3c 3b32 453f 6944 0c3f
00000070: b18f 2e3f 8ae8 e3bd e786 973d ecd1 d63e
00000080: b1f8 8fbd 9fa7 863e af80 ddbe ae32 153e
00000090: 013a 80be dd11 343f e39a 493e 4424 a1bd
000000a0: ddb0 0abe 70cf 8bbe c923 3fbe 71ea 6b3e
000000b0: 60e1 c83e 9872 bf3d 3e60 043f 9664 913e
000000c0: 48ba f9bc 93b5 f63c 8147 443d cb52 f03e
000000d0: 5ede 163e 8d16 b23e fd7e ee3e d319 fd3d
000000e0: 2d92 87be 400c 5ebf 5509 1e3f 5f56 aa3e
000000f0: e4dd 8bbe e90b 533e 005e 793e 1742 b13e
00000100: 8ca7 a43e 61c0 dd3e edcd a13d d9fc 183e
00000110: 0fdb bf3e de0b 9c3e 833a 48be 6716 073f
00000120: 0905 9b3d ec15 e1be 6264 f23d b6ff 4a3e
00000130: 5c4a 213e 380d f73e 7d52 203e d190 dd3e
00000140: b6b6 21be 5bf8 023e 3775 34bf 7dc4 fb3d
00000150: bfd0 cdbd 1799 7a3d b5ab 833e f295 f83e
00000160: 8a5d c7be ecb2 9fbd 6d89 67be 44eb f93d
00000170: 2515 a9be 300e 423e 6364 e5be bb47 ae3e
00000180: f390 583e 41fb eb3e 223e 083e 817b dcbd
00000190: 38a5 bf3e 56c6 0ebd 832e 05bf 7fd3 c53d
000001a0: 9f71 3cbd 6555 e63d 6bf2 f03e f18f c73d
000001b0: 4914 9e3e 63a6 c23e 07d4 fe3e fd03 973e
000001c0: c8dc e43d 24c5 e9bd bb98 c7bc b768 2cbe
000001d0: 1efe 1d3f a3ee df3e cd88 a7bd 7d89 9b3e
000001e0: 6f70 1f3d 8e55 e13e 325b b43e 4c32 453e
000001f0: 9a86 b9be 2296 4ebe 7b89 e7bc fb73 1abe
00000200: c404 5cbe ec63 8d39 4c7e cb3e f32c e93e
00000210: 089d 5c3e 4a57 1d3e fbe6 dbbc ac1c c6bd
00000220: f8c7 e03d edd6 dd3e 41e4 873e 8cc5 bc3e
00000230: 3126 38be 0e4e 69be 940b 09bf e49c 883e
00000240: 755a f8bd 0816 c83b a822 7f3c 9831 2b3f
00000250: da9b e6bd 996e 403e cf76 f4bc 5433 dcbe
00000260: eea9 8f3e b95c 273f 6caf 57be aabd 43bd
00000270: 0467 9f3e 3830 793d fbc8 233d 1feb c83e
00000280: 4c36 6f3e f017 353e 1408 8e3c 6a34 0dbf
00000290: 9c62 273d b7f2 4e3e d3cd 67be 3c27 803d
000002a0: 09ef 20be cb29 183e 9fbd 80be 7d9b 103e
000002b0: 1849 3ebd 998c 8a3c 661c 00be bd90 22be
000002c0: cace 933b c66e 7f3d 0d43 373c e39b 20be
0.12624986 -0.19715722 -0.176868 0.066266365 0.053489197 0.30147186 0.21505213 0.5115823
0.31422096 0.35869098 0.42879963 0.098038115 -0.44705307 0.022126196 0.28090852 0.1277741
0.09141723 0.39537743 0.06871779 0.2431058 -0.14098276 0.19850442 -0.17095481 -0.29653397
-0.57273036 0.011702456 0.7702977 0.54791886 0.68188006 -0.11128338 0.073987775 0.41957033
-0.07029856 0.2629976 -0.4326224 0.14570114 -0.25044253 0.7033976 0.19687991 -0.07868245
-0.1354403 -0.273067 -0.18665995 0.23038651 0.39234447 0.09348029 0.51709354 0.28397053
-0.030484334 0.030115878 0.047919754 0.46938166 0.14733264 0.3478283 0.4658126 0.12358441
-0.2647871 -0.8673744 0.6173299 0.3326902 -0.27317727 0.20610012 0.24352264 0.34620735
0.32159078 0.43310836 0.07900605 0.14940204 0.37471816 0.30477804 -0.1955357 0.5276856
0.0756932 -0.43962038 0.11835553 0.19824108 0.15751022 0.48252273 0.15656467 0.4327455
-0.15792355 0.12790053 -0.70491356 0.122933365 -0.10049581 0.061181154 0.2571694 0.485519
-0.38938552 -0.077977985 -0.22611018 0.122030765 -0.33023944 0.18950725 -0.4480315 0.340391
0.21149044 0.4609013 0.13304952 -0.10765744 0.3743074 -0.034857117 -0.52024096 0.0965948
-0.046006795 0.112467565 0.4705995 0.097442515 0.3087485 0.38017568 0.4977114 0.2949523
0.11174923 -0.11414555 -0.02436482 -0.1683682 0.6171588 0.43736753 -0.081803896 0.30378333
0.038925584 0.44010586 0.35225827 0.19257468 -0.36235505 -0.20174459 -0.028263798 -0.15083306
-0.21486193 0.00026968063 0.39744794 0.45542106 0.21544278 0.1536533 -0.026843539 -0.096734375
0.10975641 0.43328038 0.2654133 0.36869466 -0.17983319 -0.22783682 -0.5353329 0.26682198
-0.12126628 0.006106142 0.015572228 0.6687255 -0.11260195 0.1879219 -0.029841809 -0.4300791
0.28059334 0.6537586 -0.21063012 -0.0477883 0.31133282 0.060837 0.03998659 0.39241883
0.23360556 0.17684913 0.017337836 -0.551581 0.040865526 0.20209776 -0.2263711 0.06257483
-0.15716185 0.14859693 -0.2514467 0.14121814 -0.046456426 0.016912745 -0.12510833 -0.15875526
0.004510735 0.0623615 0.01118542 -0.15684466

down2.bias f4 [12]
00000000: ed49 343e bfc6 643e 2b10 993e 3477 8c3e
00000010: 5635 b53e 57ef 8e3e e30c c93d 8984 af3e
00000020: 21fc 193e 1263 253e 5e56 783e ff28 71be
0.17606325 0.2234144 0.29895148 0.27434695 0.35392255 0.27916977 0.09816911 0.34280804
0.15037586 0.16151074 0.24251696 -0.23550795

down3.weight f4 [11, 12]
00000000: ae71 6ebe c5b9 363e 37c9 e03e 1180 43be
00000010: 21cc b93d 80fd 873d bd4e 88bd 1dfe 553e
00000020: 5e99 5a3f 16e1 943e 821d 613e 8e1b 8fbe
00000030: 345b 1fbe 3342 d93e f550 a43d c84c 753e
00000040: 92c0 a5be d700 983b 1d3c 3dbe 50c9 30bd
00000050: 4eb4 463f 709c 1e3d fac4 393e 4797 693e
00000060: 05d2 0b3e c1dc d13d f030 c83e 6d83 853e
00000070: a172 c73e 7d50 84bd 5a13 013e d798 b33e
00000080: 5d1e fabd 7ea7 84be 8bc9 11be 8b6f e2bd
00000090: 15dd ce3e db8b 46be 5f9d 883e a224 db3e
000000a0: d0ae af3d 7913 aebd 95e6 b33e 062d 983c
000000b0: 98f9 b8bd 0ee9 b9bd a6b3 223e bd9e cebd
000000c0: f8e1 8a3c e0c2 a53f bbb6 7dbe 1598 81bd
000000d0: ed56 c73d 0f93 a03d b14c 443d 293a 9a3e
000000e0: c231 8abe 4b25 ebbe 5491 df3e 394f 923e
000000f0: 363a 393e bc50 a7be 2ec2 08bd 3943 6c3d
00000100: 5974 823e 729d d53e fa50 b5be 75cd 513e
00000110: ca7e 3dba 0f7f e03e 98b3 d03e 80f8 fa3a
00000120: 0124 23bd 0355 87be fb71 92be f22b 123e
00000130: ab52 88be 6e36 2ebc 2b2a 513d 623d 1c3d
00000140: 7246 23be 03d5 eebd 43a1 63bd 3e80 803e
00000150: 3ab5 2dbe 9f4e 493d 9556 233e ef6e 39be
00000160: ed11 0abe efbd 2abe de46 92bd 62ab b93d
00000170: 926a 883d f5a1 0a3e e2f0 33be b2fe 423e
00000180: ddad 4e3e 6dfb eabe cb1f 72bd 41aa 6abe
00000190: a21d 6d3e 827b 943e 2ff7 ed3e b7f0 cdbd
000001a0: 0874 f83e 3b16 44be ff76 6c3f e6e9 0f3e
000001b0: 950f 2abd da3b 203e c0d2 46be 45bf 273e
000001c0: e426 4a3e 1367 a23e 98d4 9bbe c66a ca3d
000001d0: fc2a 6fbd b515 da3e 7011 5a3e 9da2 3c3d
000001e0: 8cfd 91be 3b8d 51be 4e62 c03d 5e91 86be
000001f0: 8e32 70be bf61 2a3e ccc9 5a3e aa88 01be
00000200: 9f2e 323e 477f 70be 44ba 62be fdbf 4a3e
-0.23285553 0.17844303 0.43903515 -0.19091822 0.090721376 0.06640148 -0.06655643 0.20897718
0.8539027 0.29077977 0.21983913 -0.2795071 -0.15562135 0.42433318 0.08023254 0.23955071
-0.32373482 0.004638772 -0.18479963 -0.043160737 0.77618873 0.03872341 0.18141547 0.22811614
0.13654335 0.102471836 0.39099836 0.26076832 0.38954642 -0.064606644 0.12605038 0.35077545
-0.122128226 -0.25909036 -0.14237039 -0.110564314 0.40403047 -0.19389288 0.26682565 0.42801386
0.08578265 -0.08499808 0.35136858 0.018576156 -0.09031981 -0.09077655 0.15888843 -0.10088871
0.016953453 1.2950096 -0.24776737 -0.063278355 0.09733377 0.07840549 0.0479247 0.30122498
-0.26991087 -0.4592689 0.43665564 0.28576067 0.18088612 -0.32678783 -0.03338831 0.057681296
0.2547939 0.41721684 -0.35413343 0.20488532 -0.0007228671 0.43846938 0.4076202 0.0019147545
-0.039829258 -0.26432046 -0.28602585 0.14274576 -0.2662557 -0.010633094 0.051065605 0.038144477
-0.15944842 -0.116617225 -0.055573713 0.2509784 -0.16963664 0.049147245 0.15950997 -0.18108724
-0.134834 -0.16674016 -0.07142423 0.09065892 0.06660952 0.13538344 -0.17572358 0.19042471
0.20183511 -0.45894948 -0.05911235 -0.22916509 0.23155835 0.2900048 0.4647765 -0.10055678
0.48526025 -0.19149105 0.92369074 0.14054069 -0.041518766 0.15647832 -0.19416332 0.16381557
0.19741398 0.31719264 -0.30435634 0.09883647 -0.058390602 0.42594686 0.21295714 0.046053518
-0.28513753 -0.20464031 0.0939375 -0.2628278 -0.23456785 0.1663885 0.21366042 -0.1264979
0.17400597 -0.23486052 -0.22141367 0.197998

down3.bias f4 [11]
00000000: c4a9 de3e abf8 863d 17d4 2e3e 84e2 1e3d
00000010: 5006 953e 36da 773b e4f2 86bd de47 e1bd
00000020: c845 793e 51f1 a1bd 5c77 8fbd
0.43488896 0.065903984 0.17073093 0.03879024 0.2910638 0.0037819273 -0.065892965 -0.11000036
0.24343026 -0.079073556 -0.07005188

down4.weight f4 [10, 11]
00000000: 3966 083f 4f1f af3e 519a 883e 596e 763c
00000010: 82de 99be 9b5d 8d3e 3e6a 2abe 0605 823e
00000020: d868 3dbe f689 be3e 6e76 583e a137 cb3c
00000030: 1a4a 0a3f a9a9 b23d be5a fdbb 5a6b d13e
00000040: 85fe 50be 9186 093e 1224 64be 9f3b b6bd
00000050: 4058 27be 0452 c0bc efd4 1d3c f22f 313e
00000060: 193b ffbe 77f6 d0be 160a cb3e d98d 81be
00000070: fbeb 273c eebc e0bd 5e55 dcbd d44b 5d3e
00000080: 634e 0b3d 3f97 3e3c f3a4 a5be 860f 24be
00000090: 5078 083d 3581 c23e a6da 803e 5207 5fbd
000000a0: 1f6e 8d3d 4f02 153f 449b 003e aa1d 9abb
000000b0: f571 80bd 668c b6bd 6245 db3e de0c c33e
000000c0: 5df6 713c b036 dd3c f04b 83be cb4c 933c
000000d0: c983 c63e 3dc0 e9be 4b97 78be 1ead 81be
000000e0: a2e0 13bd d523 2abe d44c 48bc 693c 83be
000000f0: 8362 a23d c03b 613e 08fa 06bd e36e bc3d
00000100: 19c0 1e3e 6243 833e de5e 95be 480b 33bf
00000110: 2715 db3e f199 9e3e 2ea0 f73d 6a21 de3e
00000120: ffde 573d 21dc 473e 2be6 0cbe 8e1e 9f3e
00000130: ddfa 623e 7821 8fbe 593b 853e 7e18 aebe
00000140: fb07 15bd ebcc 41be 1545 873e e948 693e
00000150: 6415 853c fe7d f93e 211b fc3d 1d22 83be
00000160: 71a8 aebe cea1 803f 1a2b 9b3e becc 023f
00000170: 422d 6ebd c6ed 883d 9e01 21bd 9759 223e
00000180: f29c 8f3e 4a74 93be 85e9 0f3d 0d7b 4bbe
00000190: 42e5 0dbd 105a 70bd a3fc 0fbe 939d 03be
000001a0: a438 81be 72ac d1bd 9d67 88bd a0a3 893e
000001b0: a43e 0b3e 276e 723d
0.5328098 0.34203574 0.26680234 0.015040957 -0.30052572 0.27610478 -0.1664209 0.25394458
-0.18497026 0.3721463 0.21138927 0.0248068 0.5401932 0.08723766 -0.0077317646 0.40902215
-0.20409591 0.1343024 -0.22279385 -0.088980906 -0.16342258 -0.023476608 0.009633287 0.17303446
-0.49849775 -0.40813038 0.39656132 -0.25303534 0.010249133 -0.109735355 -0.1075847 0.21610957
0.034010302 0.01163274 -0.3235241 -0.16021547 0.033317864 0.37989202 0.25166816 -0.05445034
0.069057696 0.5820665 0.12559229 -0.0047032433 -0.062717356 -0.089134976 0.42826372 0.38095754
0.01476821 0.027003616 -0.25643873 0.017980954 0.3877242 -0.4565448 -0.24276464 -0.2532739
-0.0361029 -0.16615231 -0.0122253485 -0.25632027 0.07928946 0.21995449 -0.032953292 0.092008375
0.15502967 0.25637347 -0.2917394 -0.6993909 0.42789575 0.30976823 0.12091099 0.43384868
0.0527029 0.19517566 -0.13759677 0.31078 0.22166009 -0.27955222 0.2602184 -0.3400306
-0.036384564 -0.18925826 0.26419893 0.2278172 0.016245551 0.48728937 0.12309862 -0.25611964
-0.34112886 1.0049379 0.3030632 0.5109366 -0.05814863 0.06685977 -0.039308183 0.15854488
0.28049427 -0.2879966 0.03513481 -0.19871159 -0.034642465 -0.05867964 -0.14061217 -0.12853079
-0.25238526 -0.102379695 -0.06660388 0.26882648 0.13598114 0.05918708

down4.bias f4 [10]
00000000: 1036 453c 1b69 563e 1091 26bd 2344 8cbd
00000010: 3aa9 ab3e e93f d2bd a532 c93d 1f5b 53ba
00000020: e257 69be 796b 703d
0.012036815 0.20938532 -0.040665686 -0.068489335 0.33527547 -0.10266096 0.09824113 -0.00080625893
-0.22787431 0.058696244

down5.weight f4 [9, 10]
00000000: 809f 71be dc4d b03e e010 c93e 37f6 063d
00000010: 4306 fdbe f205 9cbe a6c7 aa3e bf66 233f
00000020: b325 8dbc 9aaa 9f3e d251 b4be e731 3b3f
00000030: db8c 863d 9511 803d d037 8e3e 23ef 8d3e
00000040: 52fe 9cbe a771 b73e 80a1 a03e 4bc1 fe3d
00000050: a510 c63b 1303 08be 35ae b03e 94c8 7fbe
00000060: d91b b73e 491b b3bd c62e c43e f4b9 0f3e
00000070: 4ba1 d1bd 1e4b bdbd 9cd3 c83e 186e a63e
00000080: 77b6 69bd 06ed de3d 8803 78bd 8763 6a3d
00000090: 9ba7 e1bd dcf0 213e dfd0 c6be b624 4e3e
000000a0: 04e9 8f3e 83e6 08bf ade7 f33e 92f2 f83e
000000b0: 74b2 abbc dd31 77be d943 98be 8b19 813e
000000c0: 933d 08bd 9b7c 263e 69b4 0fbe 4a5c b43e
000000d0: f678 493d df21 f83e 3152 033c ec9c 92be
000000e0: 6942 6f3e 2be5 a2be 7837 8dbe f2ee 9d3e
000000f0: 6f5c b1be 1b08 f0be 4ed5 17be 60f3 e73d
00000100: 42fa 873e 96a5 e53d 7bca 76be 4211 253e
00000110: 9ccd 2bbe d213 8b3e 2f3f 12be 1617 02bf
00000120: e3d9 5abe 9abd ca3e fcfd 6f3d 7c7d 80be
00000130: dea7 123e 8b02 c83e 241c 363e 59f6 95bd
00000140: d776 783e ef06 a23d cf57 2cbf b72e ebbd
00000150: 2c6e a33e 8f8f 08bd d15b 9ebd 09eb fb3e
00000160: 0e87 80be ee06 03be
-0.23596 0.34434402 0.39270687 0.032949653 -0.4941884 -0.30473286 0.33355445 0.63828653
-0.01722989 0.31184846 -0.35218674 0.7312302 0.06569835 0.062533535 0.27776957 0.2772151
-0.3066278 0.35828897 0.31373215 0.124392115 0.0060444647 -0.13282423 0.3450791 -0.24978858
0.35763434 -0.087454386 0.38316935 0.14035779 -0.10235842 -0.09242843 0.39223945 0.3250587
-0.057058778 0.108850524 -0.060550243 0.057223823 -0.11018296 0.15814537 -0.3883123 0.20131192
0.28107464 -0.5347673 0.47637692 0.48622566 -0.020959117 -0.24140115 -0.29739264 0.252148
-0.033261847 0.1625847 -0.14033665 0.3522666 0.049187623 0.48463342 0.008015201 -0.28635347
0.23365177 -0.31815466 -0.27581382 0.30846363 -0.34640834 -0.46881184 -0.14827463 0.11325717
0.2655812 0.11213224 -0.24100678 0.16119865 -0.16777653 0.2716356 -0.14281915 -0.50816476
-0.2137218 0.3959778 0.058591828 -0.25095737 0.14321849 0.3906444 0.17784172 -0.07322378
0.24264084 0.07911479 -0.67321485 -0.114835195 0.31919992 -0.033340033 -0.07732356 0.49202755
-0.2510304 -0.12795612

down5.bias f4 [9]
00000000: 8ce7 cfbe 8a25 a93d a08a 03be faec 983e
00000010: a690 5e3e e439 49be f52c 9f3e c96b 603d
00000020: 7bf3 0c3f
-0.40606344 0.08259113 -0.1284585 0.298683 0.21734866 -0.1965099 0.31088987 0.054790292
0.5505902

up1.weight f4 [10, 9]
00000000: e33e 96be 5510 22bc c191 ee3d 8b63 a5be
00000010: 7ffa e43e d2c7 e33e 3e71 55bf 751c e73e
00000020: 49f0 49be 019d 9fbe 7391 50be 5e4c b1be
00000030: 081e 0d3f 6441 5d3e 15d7 f7be de55 8bbe
00000040: 6d65 29bd 4034 b23d 43d7 0ebe fa85 ec3e
00000050: 12c9 413e 1b6c 95be 332f a0bc 38f0 83be
00000060: a626 22be c9fe 2a3e 592a 02bc c41f 713c
00000070: ecc0 2d3e 5fc2 f7be 8f91 273e 4d46 6cbe
00000080: dd09 833e d87e aabe 5ce4 0fbd 72b4 113e
00000090: 66b8 3bbf 11fa 1a3f bd07 06be 1471 0cbf
000000a0: 3e44 7d3e aa63 5e3e 20e1 253e 97c1 20bd
000000b0: d74f 383e 67e1 853e 1154 c43e 9c1d 91be
000000c0: 7482 cd3d f994 b93e fb38 0d3e ad6a 7cbe
000000d0: 043f 533e 02a8 55be cf74 f2bd ecd2 a0bd
000000e0: 802e e9bd a6b3 783e c976 9e3e abf0 55be
000000f0: 2f5d c23e 36fc a63e f6b7 9f3e 19ec 91bd
00000100: c101 423e 0b08 d93d f1b5 7c3e 7ca4 3bbe
00000110: 528f 3fbe 6eaa 4b3e ec21 20bc a102 403d
00000120: 29ef f9be a308 043e 1d5c 033f 886a d9be
00000130: 6f6c a5be a2b5 bbbe 348a e9be d8c2 603e
00000140: 30d6 3f3e b000 a9be c7b8 593e 5853 123f
00000150: 5c38 013e af6c 993e b24b cf3e 64fa 763d
00000160: 291b b83e ff40 f93e
-0.29344854 -0.009891589 0.11648894 -0.32302508 0.44722363 0.44488388 -0.8337592 0.45138898
-0.19720568 -0.31174472 -0.20367984 -0.34628576 0.5512395 0.21606976 -0.48406282 -0.2721395
-0.041356493 0.08701372 -0.13949303 0.46195966 0.18924358 -0.2918404 -0.019553756 -0.2576921
-0.15835056 0.16698755 -0.007944667 0.014717046 0.16968125 -0.4839048 0.1636412 -0.23073693
0.25593463 -0.332999 -0.03512989 0.1422899 -0.73328245 0.6053782 -0.1308889 -0.54860044
0.24733064 0.21717706 0.1619916 -0.03924712 0.17999206 0.2614853 0.38345388 -0.28342903
0.100346476 0.3624647 0.13791268 -0.24650069 0.20629507 -0.20864871 -0.11838686 -0.0785273
-0.11385822 0.2428728 0.3095 -0.20892589 0.37961718 0.32614297 0.3119504 -0.0712511
0.18945982 0.10597237 0.2467878 -0.18324465 -0.18707016 0.19889233 -0.009773713 0.046877507
-0.48815277 0.1289392 0.5131243 -0.4246409 -0.3230929 -0.36662012 -0.45613253 0.21949327
0.1873405 -0.33008337 0.21261893 0.5715842 0.12619156 0.29965732 0.40487438 0.060297385
0.35958222 0.486824

up1.bias f4 [10]
00000000: ed27 1cbe 844b 263e 2d3c c53e ee1a c13d
00000010: bef9 95bc 5171 1a3d 2c5d 7d3e 6944 a5be
00000020: 9006 253d 65f9 34bd
-0.15249605 0.16239744 0.38522473 0.094289646 -0.018307563 0.037705723 0.24742573 -0.32278755
0.04028946 -0.044183154

up2.weight f4 [11, 10]
00000000: ddc6 0c3f aefc ad3e 5d59 88bc 067e 9a3e
00000010: f14c b6bd 1232 f63e 8eb5 a63e 148d 143e
00000020: c2ce 8f3e 46c4 743d 5b1c 783e 6fff 7dbd
00000030: 3b58 683e a9c9 11be 6a9c ed3d 938d 53be
00000040: ea1f 593d 0291 c93e c13e ee3e c177 cd3e
00000050: 1b42 8f3e ff76 97be 72f6 debd 666c cabe
00000060: 988d 0fbe 392c 433e 2507 973e 4c34 293e
00000070: 7574 c8be 6624 063f 3369 d73d b174 c43e
00000080: 04c4 2b3c 7dfe 9dbe de80 ad3d 8324 7abe
00000090: 59da 4f3c 7d18 16be e751 a63e 1a54 653e
000000a0: bdea f53e b62a f03e e053 c2be 333d 833d
000000b0: 41a5 09bf cccf 873d bd0e bdbe 62c2 733e
000000c0: 432a 4c3e 49d2 523e 2d8f 753d 98b6 92be
000000d0: 6536 373e bb31 f7bd 3c27 ffbe 8c19 b1bd
000000e0: e2f1 6b3e ae90 f1bd 8c89 903e 1ad7 5f3e
000000f0: eb96 2fbe 40e1 2abe 4089 f9bd 9101 1dbe
00000100: 9dd7 853d 7c39 11be a693 9ebe ebef 81be
00000110: 1a6f 15bd 180c b43b 0c1b 383e dc3e 563e
00000120: 4773 ad3e 8107 c8bd 9fe9 a03d c5d7 69be
00000130: f22c 1cbd d04d 703b 0314 983e 9d29 84be
00000140: 776e 0cbd 6b7f 1dbf 203f a23e 642a 0e3f
00000150: 24db 13be 3d55 7d3e cbf8 87be 5177 55be
00000160: df7d 843d 6aca 843e 8c03 393c 642f c6be
00000170: a9e2 cabb 06d9 55bf 54b2 603e efba 203c
00000180: c568 92be fe29 1f3d 5e3d 5a3e 7fb6 103e
00000190: ae8d 703e 2360 803e 4be6 b83d 1c59 5dbe
000001a0: b72a 003e df03 bd3e e255 c83d 4b94 c8be
000001b0: 9d86 a03e d132 893d
0.5499094 0.33981842 -0.016644174 0.30174273 -0.08901394 0.48085076 0.3256039 0.14506942
0.2808743 0.059757493 0.24229567 -0.06201118 0.22689907 -0.14237083 0.11602099 -0.20659475
0.05300895 0.39368445 0.46532252 0.40130427 0.27980122 -0.29582974 -0.108868495 -0.39535826
-0.14018857 0.19059838 0.29497638 0.16523856 -0.3915135 0.5239929 0.10518112 0.38370278
0.0104837455 -0.30858222 0.08471845 -0.2442799 0.0126863355 -0.14657779 0.32484362 0.22395363
0.48030654 0.46907586 -0.37954617 0.06408157 -0.5376778 0.06631431 -0.36925307 0.2380462
0.19937997 0.2058803 0.059950996 -0.28654933 0.17891844 -0.12070032 -0.4983462 -0.08647451
0.2304149 -0.117951736 0.2822994 0.21859398 -0.17147414 -0.16687489 -0.121843815 -0.15332629
0.065352656 -0.14182085 -0.30972022 -0.25378355 -0.036482908 0.0054946057 0.17979068 0.20922416
0.33877012 -0.09767056 0.0785706 -0.22836216 -0.0381288 0.0036667474 0.29702768 -0.25812998
-0.034285035 -0.6152255 0.31688786 0.5553343 -0.14439064 0.24739547 -0.26557 -0.20846297
0.064693205 0.2593568 0.01129235 -0.3870803 -0.006191571 -0.83534276 0.21943027 0.009810193
-0.28595558 0.038858406 0.21312472 0.14132117 0.23491547 0.25073346 0.090283 -0.21616024
0.12516294 0.36917016 0.09782006 -0.3917564 0.31352702 0.066991456

up2.bias f4 [11]
00000000: b13d 49be 096d 5bbc 76b3 393e 1095 f03d
00000010: 469a 043e 39dd 633e b738 40be 841f a6be
00000020: 3574 293e 878a b53d c0a4 59bd
-0.1965244 -0.013392695 0.18134865 0.117471814 0.12949476 0.22252358 -0.18771635 -0.3244592
0.16548236 0.088643126 -0.053135633

up3.weight f4 [12, 11]
00000000: 4e2e a1be 8c25 9a3e e76c 9f3e f0b4 74be
00000010: 8971 093f 911a 58be f6d4 43be abd9 493e
00000020: f60f 293f 409e 07be 29b9 7dbe 3800 83bd
00000030: 24f6 8d3d 422f 49be 5157 c43e 60af c8bc
00000040: fe09 94bd 2811 8ebe 293a febe 831f 923e
00000050: 6eb3 f63e ca3f 123d a4df 1c3e b41b e03e
00000060: 2535 8bbe e455 3d3e 1bdc b03d 0206 ffbd
00000070: 1685 883c cd31 7ebf 2934 793c ed3a 47be
00000080: 45db 043e 81ca 9f3c 39e0 c63d e772 c33e
00000090: cf97 81be 8602 f9bd 2f57 b63e 472e 2abc
000000a0: ebba dd3e 841d f13d f216 eebe 2972 183d
000000b0: 9a27 74be b737 753e ce30 3d3e 0d27 a83e
000000c0: 5887 20be 9004 5f3e b544 f7bd 153a 94be
000000d0: 3af9 11bd 91f3 a23c 0f39 a4be c510 523d
000000e0: 96af 61be 156b e8bc 5ab7 013e 46e3 f8bd
000000f0: ec3c 463e 9be3 5c3e 1b96 9dbd d6a3 fd3d
00000100: ea0a ecbc 4428 643e e2eb a13e d423 74be
00000110: 8906 693e 481e 953e eeb7 9e3e ce02 4f3d
00000120: 14a6 0bbe 18fb 67be ed09 80be 2ce3 823e
00000130: 046c b03a d420 af3e d4c8 a2bd 5d49 eebd
00000140: 2e16 1f3e c34c 6fbe d714 5b3e eb51 223e
00000150: aa8d 983f b42b 2f3e c42e babe d227 81be
00000160: 9aad a43e 9f6a 7abd 4e3a fd3e f3f1 5ebd
00000170: e3d4 11bf b197 b4be 93e7 c6bd 9894 433e
00000180: 9d94 673d 3213 0c3e 4869 6b3e f9ba 0d3e
00000190: 4695 77be 8d44 0bbe 341d e23d a8b7 663e
000001a0: ef66 03bf ec82 9e3d e1bb 9cbd 4735 a33e
000001b0: fcb1 023f f3d9 dc3d 4857 09be 27fa 8a3e
000001c0: 14a6 633d 257c 0f3e 4333 96ba 8f0b 8ebd
000001d0: 892a aebd 818c 9fbe 3668 2b3b 03e3 5a3e
000001e0: 76e3 51be 510b 0ebe 5246 00bd 5ac5 a73e
000001f0: f65f e83d 6510 aa3d d0f8 ab3e 9136 3fbe
00000200: f764 1f3f 648b bbbd 9b72 d23d 999e 723d
-0.3148064 0.3010677 0.31137773 -0.23897147 0.53688866 -0.21103884 -0.19124207 0.1971194
0.6603998 -0.13243961 -0.24777664 -0.06396526 0.06931713 -0.19646934 0.38347867 -0.024497688
-0.07228468 -0.27747464 -0.49653748 0.28539667 0.4818377 0.035705365 0.15319687 0.43771136
-0.27188984 0.18489796 0.08635732 -0.12452318 0.016665023 -0.9929474 0.01521019 -0.19456072
0.1297427 0.019505741 0.09710736 0.381736 -0.25311133 -0.121586844 0.3561339 -0.01038701
0.4330667 0.11773208 -0.4650188 0.037218247 -0.23843232 0.23947035 0.18475649 0.32842293
-0.1567663 0.21779084 -0.12073652 -0.28950563 -0.03563807 0.019891532 -0.32074782 0.051285524
-0.22039637 -0.028371373 0.126676 -0.12152724 0.19359177 0.215712 -0.07694646 0.12384765
-0.028813798 0.22280985 0.31625277 -0.23841792 0.22756399 0.29124665 0.30999702 0.050539784
-0.13637573 -0.22654378 -0.25007573 0.25563943 0.0013459926 0.34204733 -0.07948461 -0.11635087
0.15535805 -0.23369126 0.21394669 0.15851562 1.1918232 0.17106515 -0.36363804 -0.25225693
0.32163697 -0.061136838 0.49458545 -0.05442996 -0.56965464 -0.3527198 -0.09712138 0.19099653
0.056538213 0.13679197 0.2298938 0.13840856 -0.24178037 -0.13600369 0.11040726 0.22530997
-0.5132894 0.07739815 -0.076530226 0.31876585 0.5105283 0.10783758 -0.13412201 0.27143976
0.055578306 0.14012201 -0.0011459369 -0.069357984 -0.08504207 -0.31161883 0.0026154644 0.2137566
-0.20496926 -0.13871504 -0.031317063 0.32767755 0.11346428 0.08303908 0.33588266 -0.18673159
0.62263435 -0.09157446 0.102757655 0.05923328

up3.bias f4 [12]
00000000: a5cf 66be ec70 18be 304b eabe 62ac 5cbe
00000010: 56ea d53d 1290 58bd b1eb b9be 484e f0bd
00000020: 6c38 6ebe 381c 4b3e 75ac 063c 6b41 1bbe
-0.22540148 -0.14886826 -0.4576049 -0.21550134 0.10445087 -0.05287177 -0.3631263 -0.11733681
-0.2326371 0.19834983 0.008219828 -0.15161674
