OC/model_Panel1_sink_oc12.pt (torch, 12674 bytes, 12 tensors)

up1.weight f4 [16, 12]
0.053342544 0.062230527 0.20584732 -0.13323268 -0.22319908 -0.036207426 -0.044725876 0.008848789
0.058512647 0.7949947 -0.20434202 -0.036124833 -0.11946839 0.263648 0.01464452 -0.31041986
0.13727444 -0.019815758 -0.09896964 0.44256422 -0.032611854 0.3470591 0.40313703 0.18973802
-0.03553334 0.19875298 0.17019643 0.16630134 0.29075438 0.20633215 -0.35413083 -0.2001177
-0.040876836 0.6398044 -0.021218147 0.3108852 0.11290647 0.42679754 0.2993169 -0.16453804
0.123051 0.24307904 -0.18347615 -0.13917959 0.5331806 0.012145116 -0.056884322 -0.27562484
-0.19676958 -0.12160155 0.43805924 0.4456214 0.104401715 0.17329794 0.24529168 0.36812314
0.09296443 0.4105385 -0.1295661 0.17275451 0.064442836 0.09515158 0.36993846 0.02434117
0.06005043 -0.02114456 0.3867283 -0.3565605 0.3444491 0.22149886 -0.19693421 0.395962
0.13285765 -0.24927002 -0.09394194 -0.08852926 0.20180051 0.24970728 0.7113636 0.056181315
-0.026241617 0.24620508 0.029380416 0.002669667 -0.026681934 -0.06545726 0.00032603354 -0.023607437
0.50761837 -0.03872097 0.35401782 -0.15320688 -0.38560483 -0.06300375 0.084832594 0.32436714
0.3191108 0.40019876 -0.25647727 0.4171032 0.028451534 0.13840142 -0.019098572 0.07287221
0.014368482 0.27636203 -0.026130708 0.28103292 0.122121975 0.11747124 0.21943672 0.17069894
-0.03677027 0.12886298 -0.020758953 0.18887241 0.2430565 -0.2638732 0.44654888 0.08019795
-0.21644458 0.17268625 -0.14535841 0.13567784 0.22776017 -0.053821385 0.267518 0.08532075
0.46383303 0.13800645 -0.009966507 0.02890905 0.5376077 -0.16814946 -0.1006929 0.07811851
0.4828048 0.04182131 0.09460281 0.020923294 0.27009732 0.3042014 -0.103813745 -0.09296546
0.34538683 -0.39578784 -0.011743817 0.35236397 0.03735396 -0.04737791 -0.1004107 -0.21347773
0.39248258 0.11945504 -0.09424871 0.6542258 0.54445285 -0.09048139 0.25681818 -0.05841607
0.1334327 -0.02409001 0.19957681 0.34383607 -0.12483885 0.46748787 0.053544622 0.4952712
-0.031690203 0.22575478 -0.46755865 -0.27165127 -0.4098643 -0.04732127 0.33112332 -0.1128298
-0.0153052015 0.11245058 -0.33048525 0.20654717 0.21753116 0.19984889 0.22376159 0.078927174
-0.13734432 -0.20037186 0.2619632 0.09096149 -0.29974064 0.0019695577 0.110646665 0.061825793
00000000: b67d 5a3d 70e5 7e3d a4c9 523e 266e 08be
00000010: 4d8e 64be 3d4e 14bd 7b32 37bd 83fa 103c
00000020: f5aa 6f3d c684 4b3f 093f 51be a2f7 13bd
00000030: d8ab f4bd dffc 863e 92ef 6f3c 5aef 9ebe
00000040: ac91 0c3e a854 a2bc 98b0 cabd c797 e23e
00000050: 0294 05bd bbb1 b13e fa67 ce3e af4a 423e
00000060: 688b 11bd e785 4b3e f947 2e3e e64a 2a3e
00000070: c2dd 943e bc48 533e a350 b5be a8eb 4cbe
00000080: 786e 27bd 39ca 233f aed1 adbc 582c 9f3e
00000090: 823b e73d 3585 da3e 1140 993e a97c 28be
000000a0: 2a02 fc3d b6e9 783e 2ce1 3bbe 1885 0ebe
000000b0: 867e 083f 4ffc 463c 89ff 68bd b31e 8dbe
000000c0: f77d 49be 3c0a f9bd 4d49 e03e 7d28 e43e
000000d0: 91d0 d53d 0475 313e be2d 7b3e a37a bc3e
000000e0: 2364 be3d 1a32 d23e faac 04be 8fe6 303e
000000f0: 9bfa 833d d5de c23d 9368 bd3e 2267 c73c
00000100: 71f7 753d 5b37 adbc 4001 c63e 198f b6be
00000110: a25b b03e 99d0 623e 1fa9 49be 88bb ca3e
00000120: d60b 083e a440 7fbe a264 c0bd d44e b5bd
00000130: cba4 4e3e 44b3 7f3e ed1b 363f 611e 663d
00000140: a9f8 d6bc 2f1d 7c3e 33af f03c 94f5 2e3b
00000150: 1294 dabc 750e 86bd 7bef aa39 6264 c1bc
00000160: 47f3 013f e199 1ebd d341 b53e 44e2 1cbe
00000170: ff6d c5be 1c08 81bd b6bc ad3d 7313 a63e
00000180: 7e62 a33e dae6 cc3e fd50 83be 8d8e d53e
00000190: 3113 e93c 1ab9 0d3e 9c74 9cbc 063e 953d
000001a0: c869 6b3c 537f 8d3e 1110 d6bc 8ce3 8f3e
000001b0: 161b fa3d c394 f03d 05b4 603e b4cb 2e3e
000001c0: 6c9c 16bd a8f4 033e ae0e aabc c567 413e
000001d0: cee3 783e 631a 87be 0ea2 e43e d33e a43d
000001e0: a6a3 5dbe aad4 303e d6d8 14be 22ef 0a3e
000001f0: f639 693e d073 5cbd 1ff8 883e a5bc ae3d
00000200: 867b ed3e 9051 0d3e 8f4a 23bc acd2 ec3c
00000210: a9a0 093f 5f2f 2cbe 1438 cebd 99fc 9f3d
00000220: 3132 f73e d24c 2b3d 1ebf c13d 5467 ab3c
00000230: 324a 8a3e 49c0 9b3e 4d9c d4bd ad64 bebd
00000240: 8bd6 b03e b4a4 cabe 2369 40bc 0d69 b43e
00000250: 7700 193d 570f 42bd 20a4 cdbd e899 5abe
00000260: 7af3 c83e d8a4 f43d 7805 c1bd 587b 273f
00000270: 4361 0b3f 4f4e b9bd ac7d 833e b045 6fbd
00000280: 95a2 083e 6a58 c5bc dd5d 4c3e 480b b03e
00000290: 83ab ffbd 925a ef3e 9b51 5b3d 3094 fd3e
000002a0: 96cd 01bd 432c 673e d963 efbe e015 8bbe
000002b0: bcd9 d1be f3d3 41bd ff88 a93e 4f13 e7bd
000002c0: abc2 7abc 7d4c e63d 5d35 a9be 1a81 533e
000002d0: 7dc0 5e3e 30a5 4c3e c221 653e 92a4 a13d
000002e0: fda3 0cbe 482e 4dbe 0a20 863e 054a ba3d
000002f0: 9b77 99be b213 013b b89a e23d 0b3d 7d3d

up1.bias f4 [16]
0.15536994 0.11362078 0.03883632 0.3514684 -0.18466799 0.05681418 0.06705636 0.2863771
0.24864174 -0.01480126 0.09280985 0.09706508 0.14486451 0.034381688 0.36508143 0.1254815
00000000: 4c19 1f3e 03b2 e83d d512 1f3d abf3 b33e
00000010: 9b19 3dbe fcb5 683d d854 893d 05a0 923e
00000020: f19b 7e3e fc80 72bc 1713 be3d 0fca c63d
00000030: 5d57 143e d0d3 0c3d f4eb ba3e 397e 003e

up2.weight f4 [20, 16]
0.46173707 0.26471528 0.3631983 0.21832524 0.3523226 0.21558137 0.10551883 0.24481064
0.1833301 0.005495584 0.106971346 0.10707402 0.07571484 0.106052354 0.3132007 0.06638193
0.0041642236 -0.10896935 0.22124887 0.2035808 0.092217654 0.4152465 0.4254934 0.43578473
0.18071744 0.011607383 0.12966011 -0.06388436 0.003222219 0.3550304 0.2916019 0.30825204
0.11356546 0.34648702 -0.0058937003 0.07568528 0.18458505 0.02416088 0.37623197 0.06824379
0.10702165 0.21694972 0.49718496 0.18645991 0.1420464 0.29370096 0.35689694 -0.053645067
0.7498082 0.1362701 0.43154117 -0.1070544 0.32503328 0.10389211 -0.28425866 -0.32401145
0.39415053 0.2034093 -0.12423259 -0.042968992 0.43580717 0.033087533 0.323142 0.19639811
0.43731812 -0.0033535373 -0.058376662 0.30504137 -0.070796214 -0.1756247 0.2531227 -0.068666115
0.16986936 -0.0396434 -0.09148356 -0.109863445 -0.40494567 0.11987167 0.3911738 0.37958246
-0.20354608 -0.053648528 -0.10273764 -0.14797448 -0.022486327 -0.19936678 0.0004895867 0.23525646
0.1986765 -0.1963499 0.034154925 -0.23616345 0.1359215 -0.04613861 -0.22871909 0.11180309
0.20275457 -0.2284327 -0.21878251 -0.07215212 -0.1268355 0.43500826 0.2475512 0.06381557
0.26568192 -0.26053694 -0.05985868 -0.05131849 -0.05525382 0.09166234 0.58726746 0.3498035
-0.21823972 -0.18504894 -0.21137664 -0.18846822 0.0011650026 0.13525838 0.2144554 -0.16687486
0.20275381 -0.16576976 0.15532479 -0.08970675 -0.07372615 -0.07204506 -0.11186111 0.08615589
0.38436532 -0.24491753 -0.10105323 0.10131172 0.4352509 0.068531215 0.14012012 -0.053544693
0.20421262 0.018413324 -0.2016556 0.25899884 0.15592515 0.38929397 -0.25307503 0.25306472
0.6049665 0.074895695 0.22862759 0.26217586 0.23787767 0.20894814 0.33974725 -0.1568743
-0.10792489 -0.20219539 0.298467 0.0014432142 -0.09779027 0.17009273 0.21404336 -0.27095902
0.08489044 0.31639796 0.31837398 -0.023704384 0.08856329 0.2170713 0.020269323 0.17290185
0.07183979 -0.3409931 -0.13533555 0.15529062 -0.05410822 0.23894712 0.37175867 -0.03071986
-0.052249808 -0.082472555 0.03723947 -0.33040765 -0.087672696 -0.18916792 0.22525519 -0.004133444
0.48832908 -0.06249299 -0.1454485 0.4789203 0.11681356 0.23998497 0.41661772 0.17230403
0.080394275 0.0037042322 -0.031346563 0.4066395 -0.23830986 0.32863188 -0.09278874 -0.14417444
0.39457443 0.36313844 0.068150066 0.29915637 0.15212926 0.16388907 -0.0584017 0.11151544
0.33780217 0.011206674 0.4241538 0.26693907 -0.29030678 -0.052980684 -0.73510706 -0.10486765
0.26179186 0.37947714 -0.123524606 -0.40778127 0.17000125 0.2836975 0.20251717 -0.041263826
-0.20349395 0.48213845 0.4753658 0.11801903 -0.15810493 0.19962212 -0.107433595 0.49177226
0.08695496 -0.09247318 0.026415722 0.012429688 -0.38905156 -0.08119676 -0.261237 0.35181695
0.18988673 -0.029393306 0.33314627 -0.10085968 -0.074546725 -0.23825422 0.10777776 -0.01426958
-0.21774717 -0.015901849 0.02995025 -0.08348258 0.0010001016 -0.3301131 0.5698918 0.17974623
00000000: cd68 ec3e c388 873e 21f5 b93e a790 5f3e
00000010: a163 b43e 5dc1 5c3e 421a d83d a4af 7a3e
00000020: e3ba 3b3e 4d14 b43b cb13 db3d a049 db3d
00000030: 6210 9b3d fa31 d93d d85b a03e 40f3 873d
00000040: 0a74 883b 532b dfbd 108f 623e 7c77 503e
00000050: 9cdc bc3d 309b d43e 45da d93e 2d1f df3e
00000060: fe0d 393e e52c 3e3c 9fc5 043e ced5 82bd
00000070: dd2b 533b 8bc6 b53e d84c 953e 36d3 9d3e
00000080: 0295 e83d bf66 b13e f11f c1bb e200 9b3d
00000090: dd03 3d3e 0aed c53c 7aa1 c03e 66c3 8b3d
000000a0: 2b2e db3d 1128 5e3e 078f fe3e 59ef 3e3e
000000b0: 9d74 113e f95f 963e 32bb b63e eeba 5bbd
000000c0: 6ef3 3f3f 648a 0b3e f7f2 dc3e 563f dbbd
000000d0: c36a a63e 63c5 d43d 5a8a 91be d4e4 a5be
000000e0: 19ce c93e 874a 503e a86d febd 4100 30bd
000000f0: 1e22 df3e cb86 073d de72 a53e 961c 493e
00000100: 29e8 df3e 05c7 5bbb 5e1c 6fbd 622e 9c3e
00000110: 9bfd 90bd f6d6 33be 4c99 813e d2a0 8cbd
00000120: 3cf2 2d3e 1e61 22bd bc5b bbbd 1600 e1bd
00000130: 0a55 cfbe 477f f53d ef47 c83e a258 c23e
00000140: 626e 50be 8fbe 5bbd 1d68 d2bd 9f86 17be
00000150: 3f35 b8bc ce26 4cbe 9b57 003a 12e7 703e
00000160: da71 4b3e f30f 49be 09e6 0b3d d5d4 71be
00000170: 012f 0b3e d7fb 3cbd 5635 6abe 05f9 e43d
00000180: e59e 4f3e 43ea 69be 8608 60be 7ec4 93bd
00000190: 2ae1 01be 67b9 de3e 107e 7d3e bdb1 823d
000001a0: 7607 883e 1965 85be 602e 75bd 5633 52bd
000001b0: d451 62bd 77b9 bb3d 2957 163f 7219 b33e
000001c0: 3c7a 5fbe 787d 3dbe 1e73 58be d0fd 40be
000001d0: 00b3 983a 2c81 0a3e 329a 5b3e 3ee1 2abe
000001e0: b29e 4f3e 8cbf 29be 760d 1f3e 2cb8 b7bd
000001f0: bcfd 96bd 5c8c 93bd 7017 e5bd 8072 b03d
00000200: 88cb c43e a9cb 7abe fff4 cebd 857c cf3d
00000210: 35d9 de3e 185a 8c3d a67b 0f3e ae51 5bbd
00000220: 1d1d 513e 8ad7 963c ce7e 4ebe 7f9b 843e
00000230: d8aa 1f3e 8a51 c73e 0d93 81be b391 813e
00000240: 16df 1a3f ea62 993d 5a1d 6a3e ea3b 863e
00000250: 3496 733e 80f6 553e 5af3 ad3e a8a3 20be
00000260: ba07 ddbd 4f0c 4fbe abd0 983e 3c2a bd3a
00000270: 4446 c8bd ca2c 2e3e 2f2e 5b3e 24bb 8abe
00000280: 0adb ad3d eafe a13e ea01 a33e b22f c2bc
00000290: ac60 b53d f047 5e3e da0b a63c 2f0d 313e
000002a0: bd20 933d a696 aebe 6795 0abe 8104 1f3e
000002b0: 95a0 5dbd 8eae 743e 2757 be3e 37a8 fbbc
000002c0: e503 56bd 5fe7 a8bd 6a88 183d 312b a9be
000002d0: be8d b3bd 3cb5 41be 4ca9 663e d771 87bb
000002e0: 4506 fa3e a6f8 7fbd 74f0 14be 0b35 f53e
000002f0: f33b ef3d 9fbe 753e eb4e d53e 7870 303e
00000300: c1a5 a43d b4c2 723b 4165 00bd 0d33 d03e
00000310: 8007 74be 7042 a83e 0608 bebd 77a2 13be
00000320: a905 ca3e 48ed b93e 4392 8b3d 062b 993e
00000330: c6c7 1b3e 89d2 273e 9f36 6fbd 3562 e43d
00000340: 68f4 ac3e 339c 373c b02a d93e 3dac 883e
00000350: 17a3 94be 4602 59bd fa2f 3cbf dac4 d6bd
00000360: 9509 863e d44a c23e 78fa fcbd b5c8 d0be
00000370: cf14 2e3e cc40 913e a960 4f3e 4204 29bd
00000380: b860 50be dada f63e 2563 f33e f6b3 f13d
00000390: 42e6 21be be69 4c3e 2506 dcbd 93c9 fb3e
000003a0: 7115 b23d 9462 bdbd c965 d83c e4a5 4b3c
000003b0: c431 c7be 7d4a a6bd dbc0 85be 5a21 b43e
000003c0: ab71 423e 3bca f0bc 2692 aa3e 858f cebd
000003d0: f4ab 98bd eaf8 73be 96ba dc3d f5ca 69bc
000003e0: 1df9 5ebe 9844 82bc 3a5a f53c eaf8 aabd
000003f0: d715 833a 9604 a9be 6ee4 113f 650f 383e

up2.bias f4 [20]
0.19901276 -0.17904787 0.09865694 0.17729773 0.1882084 -0.18274944 0.23251602 -0.19819471
-0.0008271119 -0.15961443 -0.16413887 0.084916115 -0.102307744 0.23151012 -0.079027146 -0.06751337
0.1941133 0.11474929 -0.061847832 -0.010953578
00000000: 00ca 4b3e 5358 37be a60c ca3d 898d 353e
00000010: b4b9 403e ab22 3bbe ae18 6e3e 8ef3 4abe
00000020: 8ad2 58ba f771 23be 0514 28be 80e8 ad3d
00000030: b986 d1bd fd10 6d3e fcd8 a1bd 7344 8abd
00000040: a3c5 463e ad01 eb3d 2754 7dbd a376 33bc

up3.weight f4 [24, 20]
-0.17082712 -0.14741006 -0.19411017 -0.13234423 0.13466386 -0.14052573 -0.17722087 -0.15368374
-0.33232313 -0.23622991 -0.025544323 0.5501834 0.23140824 -0.0955598 0.18796411 -0.21767868
-0.09068661 0.0430334 0.030139783 0.30288586 0.24705167 -0.2786097 0.050111223 0.049259506
0.031896826 0.17046121 -0.325945 0.0016282822 0.16906232 0.124886245 -0.098841585 0.34991235
0.35922238 0.16107099 -0.1317637 -0.2317683 -0.12256395 0.18266334 0.39204162 -0.0056707743
0.05618776 0.052297026 -0.19036955 -0.09719465 -0.15848465 0.12129979 -0.2474189 0.21145731
0.010375547 -0.5020282 0.39311343 0.4634216 0.06377367 0.19648546 0.4802001 -0.029900955
0.36697885 -0.05468197 0.035343908 0.15196611 0.06760515 -0.27046037 0.039162587 0.08484938
-0.012684592 -0.053202555 -0.08703074 0.1994327 0.06517049 0.28192383 0.37378475 0.41577718
-0.3953536 -0.17698628 0.200008 0.30280855 0.40900698 0.13671875 0.34916142 0.07638554
0.11837002 0.38066438 0.26783317 0.3360731 -0.3925618 0.15906975 0.11692657 -0.22281066
0.2628865 0.21554685 0.28120315 -0.2340852 0.21372032 0.3122103 0.2101608 -0.12935096
0.15360418 0.32548118 0.06330024 0.11178614 -0.16180444 -0.32087258 -0.25894532 -0.28703222
0.6137255 0.21235777 0.049823288 0.08501273 0.20157547 -0.1213445 -0.3128059 -0.17136805
-0.22626245 -0.34555838 0.31655437 0.27184352 -0.04559515 -0.37001118 0.31022787 -0.37874547
-0.29606396 -0.31056824 -0.24637401 0.14229979 -0.34266704 -0.14573269 -0.28040093 0.22051464
-0.2881471 -0.0120412065 0.05426618 0.25439999 0.13166063 1.9008204e-06 -0.054431386 -0.16659304
0.13259614 0.12921669 -0.102637894 0.17896816 0.09137816 0.47755164 -0.16482696 0.0063785403
-0.085457556 -0.038683336 0.12562726 -0.1982732 0.23858778 -0.28643206 -0.2555526 0.16745578
0.53598213 0.018412488 -0.21359098 -0.040242042 0.22898215 0.24935615 0.26137644 0.24621809
-0.22315398 -0.06790831 -0.14917308 0.15850157 -0.46128467 -0.19223835 0.21276876 0.052835193
0.3311153 0.15244171 -0.2981414 0.15713857 -0.26330686 0.025765425 -0.28756547 0.040879756
0.30340737 -0.3264172 -0.083157405 -0.040882967 -0.13000987 0.024004962 0.18655968 -0.089214265
-0.21293584 0.049015764 -0.20954709 0.12077021 0.17372613 -0.030205622 -0.054933086 0.109158896
0.32481223 0.040373795 0.05932913 -0.19678675 -0.08361168 0.15481244 0.270609 0.33822328
0.003080994 0.32335946 -0.1948206 -0.26330888 0.49113917 0.09511644 -0.07811968 -0.014062083
0.22404923 -0.2699537 0.2006381 0.019071035 -0.40505338 -0.030237017 0.35761905 0.4924213
0.112574115 -0.104617834 -0.043304287 -0.37748343 0.23623769 0.2118283 0.20221564 0.14363168
-0.18492301 -0.2111973 0.042234503 -0.17833959 0.37927526 0.29759887 0.061739866 0.79367477
0.07125414 -0.14979136 -0.49985623 -0.08747927 -0.1099495 -0.016160201 0.26796755 0.18707347
-0.06780658 -0.23944867 0.04749645 0.061947163 0.098644994 0.007096886 -0.018359665 0.14940254
-0.35527316 -0.10713601 0.17831588 -0.33282647 0.09988851 0.38354918 0.46173754 0.011799645
00000000: 4eed 2ebe aaf2 16be d1c4 46be 3f85 07be
00000010: 53e5 093e fae5 0fbe 6379 35be 455f 1dbe
00000020: 4226 aabe 41e6 71be 5442 d1bc d2d8 0c3f
00000030: 48f6 6c3e dbb4 c3bd aa79 403e 29e7 5ebe
00000040: e7b9 b9bd ca43 303d b5e7 f63c db13 9b3e
00000050: 1dfb 7c3e eea5 8ebe 6d41 4d3d 56c4 493d
00000060: 3fa6 023d 628d 2e3e 43e2 a6be 166c d53a
00000070: ac1e 2d3e 5cc4 ff3d 756d cabd b627 b33e
00000080: ffeb b73e cbef 243e 10ed 06be ab54 6dbe
00000090: cf02 fbbd 190c 3b3e aeb9 c83e e7d1 b9bb
000000a0: 2325 663d 6835 563d 3cf0 42be fd0d c7bd
000000b0: cd49 22be 066c f83d 615b 7dbe 4488 583e
000000c0: 33fe 293c ec84 00bf 2a46 c93e 9945 ed3e
000000d0: c59b 823d 7c33 493e cadc f53e d9f2 f4bc
000000e0: a7e4 bb3e 34fa 5fbd c6c4 103d 019d 1b3e
000000f0: 9274 8a3d c879 8abe f368 203d 83c5 ad3d
00000100: 09d3 4fbc ecea 59bd 2c3d b2bd 1638 4c3e
00000110: 1b78 853d 5258 903e b760 bf3e bfe0 d43e
00000120: c96b cabe e43b 35be e6ce 4c3e b909 9b3e
00000130: 5d69 d13e 0000 0c3e 49c5 b23e 0670 9c3d
00000140: fb6b f23d 71e6 c23e 6e21 893e c611 ac3e
00000150: dcfd c8be 2ee3 223e 3377 ef3d 7a28 64be
00000160: 0f99 863e 50b8 5c3e dcf9 8f3e 08b4 6fbe
00000170: 80d9 5a3e 07da 9f3e 6534 573e 9474 04be
00000180: 6a4a 1d3e 78a5 a63e 8ea3 813d 22f0 e43d
00000190: 10b0 25be 6949 a4be 7b94 84be e3f5 92be
000001a0: 1d1d 1d3f 5174 593e 8113 4c3d 271b ae3d
000001b0: cd69 4e3e 7783 f8bd 1828 a0be 1b7b 2fbe
000001c0: 58b1 67be 07ed b0be 6a13 a23e 132f 8b3e
000001d0: fbc1 3abd 1b72 bdbe 30d6 9e3e edea c1be
000001e0: b295 97be cd02 9fbe 7849 7cbe 09b7 113e
000001f0: 0e72 afbe f33a 15be b690 8fbe 97ce 613e
00000200: 0488 93be 7b48 45bc 3746 5e3d b740 823e
00000210: 0bd2 063e b11f ff35 72f3 5ebd 5e97 2abe
00000220: 48c7 073e 6151 043e d133 d2bd 6e43 373e
00000230: 7924 bb3d a681 f43e 66c8 28be 1303 d13b
00000240: 5f04 afbd 6b72 1ebd 6fa4 003e 2108 4bbe
00000250: 5b50 743e 39a7 92be cad7 82be 8779 2b3e
00000260: 2036 093f c9d5 963c 98b7 5abe d7d4 24bd
00000270: 4c7a 6a3e 3857 7f3e 22d3 853e 9820 7c3e
00000280: 7a82 64be 8313 8bbd d4c0 18be 3c4e 223e
00000290: 812d ecbe 21da 44be 0ee0 593e b769 583d
000002a0: f287 a93e ae19 1c3e fda5 98be efe8 203e
000002b0: 28d0 86be 0312 d33c c83b 93be 8871 273d
000002c0: 3658 9b3e 2820 a7be 6e4e aabd e674 27bd
000002d0: 4f21 05be 0ea6 c43c 8009 3f3e f8b5 b6bd
000002e0: da0b 5abe c1c4 483d 8393 56be 5f56 f73d
000002f0: 43e5 313e c871 f7bc 8401 61bd b38e df3d
00000300: ca4d a63e fe5e 253d 1a03 733d 7782 49be
00000310: 9a3c abbd 2787 1e3e 438d 8a3e 9a2b ad3e
00000320: 80ea 493b 5f8f a53e 0d7f 47be 6cd0 86be
00000330: 9876 fb3e 68cc c23d 36fd 9fbd a764 66bc
00000340: 296d 653e 5f37 8abe 1374 4d3e dc3a 9c3c
00000350: 2863 cfbe 9fb3 f7bc d819 b73e a51e fc3e
00000360: 428d e63d e041 d6bd d65f 31bd 8245 c1be
00000370: 4be8 713e 85e9 583e 9e11 4f3e 2f14 133e
00000380: 755c 3dbe 1b44 58be 16fe 2c3d a79e 36be
00000390: 5e30 c23e e15e 983e f1e2 7c3d 452e 4b3f
000003a0: b1ed 913d e862 19be 28ed ffbe 5528 b3bd
000003b0: 342d e1bd 6662 84bc 0b33 893e 3090 3f3e
000003c0: 2dde 8abd 0832 75be a38b 423d 4fbc 7d3d
000003d0: 6306 ca3d ff8c e83b 0267 96bc fbfc 183e
000003e0: 5de6 b5be 206a dbbd 7098 363e 3b68 aabe
000003f0: 5992 cc3d 8f60 c43e dd68 ec3e 4c53 413c

up3.bias f4 [24]
-0.05660581 0.07735787 -0.069408946 -0.1281746 -0.018950364 -0.021620076 0.05991215 0.07513903
0.13609612 0.19258845 -0.02900662 0.09318625 -0.17536026 0.12005226 -0.09481633 -0.016937183
0.063691 0.14866503 0.088816874 0.063934594 -0.18087032 -0.14842598 -0.15671171 -0.15087697
00000000: 7edb 67bd ce6d 9e3d 4726 8ebd 3440 03be
00000010: cb3d 9bbc 961c b1bc 7166 753d 7ee2 993d
00000020: c85c 0b3e e835 453e 4b9f edbc 6fd8 be3d
00000030: a491 33be f6dd f53d 102f c2bd d9bf 8abc
00000040: 6d70 823d a53b 183e 9fe5 b53d 24f0 823d
00000050: 1236 39be fbfc 17be 0979 20be 7e7f 1abe

down1.weight f4 [20, 24]
-0.22925882 0.016121702 0.0056022187 0.37435743 0.29534698 -0.12982956 -0.060642496 -0.10578601
0.18637538 -0.16054404 0.050608184 0.2977597 -0.14907263 0.12608492 0.15038183 0.05139595
-0.041031893 -0.13726825 0.18922207 0.07236335 -0.017762825 -0.02592932 0.014587126 -0.03922319
0.18980137 0.19426364 -0.17581864 0.13754143 -0.10873349 -0.048056915 -0.11810869 -0.04978146
-0.26045606 0.13592406 0.12054088 0.13980897 0.17813347 -0.18902849 0.29543254 -0.29474524
-0.1102307 -0.20999026 0.08289506 0.20992441 -0.028020505 -0.0016501298 -0.12108071 -0.15941754
-0.019632109 0.2943376 -0.19246519 -0.030797519 0.08577429 -0.15839605 0.047888078 -0.09210427
-0.17013536 0.22368994 -0.28543407 0.017475586 0.21611518 0.0061881645 -0.16814363 -0.07337086
-0.16485283 0.059834287 0.052737486 0.1818441 0.12694016 -0.092366114 0.13797404 -0.16124591
0.26864505 -0.14513755 0.22689442 0.2491672 0.010304177 -0.21204844 -0.12964107 0.06582966
-0.13579844 0.055268776 -0.0076692007 -0.041923013 -0.02325877 -0.2186642 -0.4041495 -0.02658044
-0.15509386 0.23987006 0.011293292 -0.12501474 -0.18949763 0.16514692 0.19275187 -0.41639668
0.023298226 -0.13317148 -0.15959977 0.0075029414 -0.15631633 -0.016879635 -0.1022165 -0.19628061
0.037445914 0.13688436 0.08444098 -0.1715301 -0.1239722 0.065837316 0.022103526 -0.07616019
-0.08653845 0.17177887 -0.13110098 0.03767319 -0.16891675 -0.12724224 0.13809253 -0.06034298
-0.23112668 0.08870452 0.32843274 0.35228133 0.12089805 -0.09398337 0.034487866 0.07159529
-0.045859966 0.13634896 -0.038038254 -0.08842696 -0.010684585 0.2329787 -0.27533683 0.4661473
0.05664718 -0.047456086 0.25606218 -0.00624248 0.3457451 0.10969499 -0.048431434 -0.25569952
-0.1128938 -0.05026046 -0.046423744 -0.14754003 -0.112510115 0.13112988 0.037144043 -0.080558375
0.032338887 -0.08605014 0.22743978 -0.21845363 -0.11527184 -0.044995535 0.2198362 -0.17476797
-0.12069888 0.019322585 -0.046794385 -0.19879453 -0.14613892 0.09736234 -0.0068640527 -0.18380605
0.104791746 0.24986728 0.33458912 -0.010048984 -0.0029858889 -0.2858522 0.15373597 0.005361145
0.030213375 0.03396405 0.0046491646 0.23751812 -0.11761238 -0.067937344 -0.16976136 -0.2095656
0.017734865 0.02521257 -0.23173335 -0.12056105 -0.06641063 -0.23005565 -0.085277654 -0.08592304
-0.2095984 -0.14236356 -0.2580681 -0.26322153 0.23766127 -0.18483661 -0.024242435 0.275344
0.12771706 0.12272863 -0.1095552 -0.032126963 0.021344796 0.06747145 -0.013113164 0.100748464
-0.18020877 -0.046711218 -0.049708616 -0.08419968 -0.016988233 -0.13376197 0.24633704 0.15563221
-0.2590805 0.06546084 -0.084935874 0.0029200339 0.0823017 -0.26742536 -0.23983817 0.17239715
0.056506153 0.24774688 -0.05278379 0.2027845 -0.12220777 0.13177946 -0.19285709 0.075916745
-0.23892942 0.114184506 0.28192893 0.09911997 -0.38964662 -0.01579328 0.27922985 -0.15506664
0.1013304 0.054154944 -0.30416164 0.20330569 0.14488138 0.12727113 0.083028816 0.12908095
0.02651502 0.0138293225 -0.02391887 0.055279985 -0.17303081 0.094744705 -0.19292174 -0.14411895
00000000: d3c2 6abe a911 843c d192 b73b c7ab bf3e
00000010: b837 973e 0af2 04be 4464 78bd 56a6 d8bd
00000020: 30d9 3e3e a865 24be 874a 4f3d f673 983e
00000030: 7fa6 18be 681c 013e b2fd 193e 8f84 523d
00000040: 0f11 28bd 0c90 0cbe 6ec3 413e 3c33 943d
00000050: 5883 91bc ba69 d4bc d7fe 6e3c 7fa8 20bd
00000060: 4a5b 423e 0ced 463e cd09 34be a9d7 0c3e
00000070: aaaf debd 54d7 44bd f8e2 f1bd a5e7 4bbd
00000080: 7f5a 85be ad2f 0b3e 23de f63d 152a 0f3e
00000090: 9f68 363e af90 41be ef42 973e d9e8 96be
000000a0: a2c0 e1bd b007 57be e3c4 a93d 6df6 563e
000000b0: 428b e5bc 2b49 d8ba 2af9 f7bd 5a3e 23be
000000c0: 84d3 a0bc 6bb3 963e 9815 45be 144b fcbc
000000d0: 6eaa af3d 9332 22be 4a26 443d 2aa1 bcbd
000000e0: f737 2ebe fa0e 653e 6a24 92be f628 8f3c
000000f0: 4c4d 5d3e 16c6 ca3b d82d 2cbe 7643 96bd
00000100: 2ecf 28be cc14 753d 4303 583d 5735 3a3e
00000110: 9afc 013e 722a bdbd 1149 0d3e a61d 25be
00000120: d88b 893e f09e 14be 0357 683e b025 7f3e
00000130: dad2 283c 3a23 59be a1c0 04be b3d1 863d
00000140: bf0e 0bbe 8361 623d eb4d fbbb 77b7 2bbd
00000150: 2d89 bebc 82e9 5fbe afec cebe 39bf d9bc
00000160: edd0 1ebe 7fa0 753e 8007 393c dd03 00be
00000170: ab0b 42be 461c 293e bf60 453e f231 d5be
00000180: ecdb be3c 1b5e 08be 1f6e 23be 3cdb f53b
00000190: 6311 20be 2947 8abc e256 d1bd c9fd 48be
000001a0: e360 193d 6a2b 0c3e 64ef ac3d 96a5 2fbe
000001b0: 23e5 fdbd b7d5 863d 7412 b53c e0f9 9bbd
000001c0: 123b b1bd cde6 2f3e 563f 06be 344f 1a3d
000001d0: 83f8 2cbe ca4b 02be 2168 0d3e 332a 77bd
000001e0: 79ac 6cbe b7aa b53d 5628 a83e 385e b43e
000001f0: 6699 f73d 5a7a c0bd 2643 0d3d 8da0 923d
00000200: a9d7 3bbd 109f 0b3e 00ce 1bbd 3219 b5bd
00000210: 660e 2fbc f891 6e3e f3f8 8cbe dcaa ee3e
00000220: e006 683d 5061 42bd 951a 833e b88d ccbb
00000230: 8005 b13e c4a7 e03d 0a60 46bd 0ceb 82be
00000240: dd34 e7bd e9dd 4dbd d326 3ebd bc14 17be
00000250: b46b e6bd e946 063e 5a24 183d cafb a4bd
00000260: c875 043d 0e3b b0bd f9e5 683e 4fb2 5fbe
00000270: a413 ecbd 3d4d 38bd be1c 613e 60f6 32be
00000280: f930 f7bd 664a 9e3c 78ab 3fbd cb90 4bbe
00000290: 71a5 15be e865 c73d d9eb e0bb a737 3cbe
000002a0: 0e9d d63d 35dd 7f3e 444f ab3e 7ea4 24bc
000002b0: e7ae 43bb 385b 92be f66c 1d3e 8bac af3b
000002c0: 0a82 f73c e31d 0b3d 0558 983b f337 733e
000002d0: c2de f0bd bc22 8bbd ecd5 2dbe 5d98 56be
000002e0: b548 913c 978a ce3c 824b 6dbe b6e8 f6bd
000002f0: 4c02 88bd b593 6bbe 0da6 aebd 6bf8 afbd
00000300: f7a0 56be c1c7 11be 8121 84be f9c4 86be
00000310: 7a5d 733e cf45 3dbe 1298 c6bc e4f9 8c3e
00000320: 43c8 023e 2659 fb3d 7a5e e0bd 9097 03bd
00000330: 48db ae3c 792e 8a3d 99d8 56bc 3655 ce3d
00000340: a688 38be 4354 3fbd 439b 4bbd e270 acbd
00000350: e82a 8bbc e6f8 08be c73f 7c3e 0d5e 1f3e
00000360: 33a6 84be 5510 863d dcf2 adbd 0a5e 3f3b
00000370: cb8d a83d faeb 88be 2398 75be e188 303e
00000380: ff72 673d 5cb1 7d3e d133 58bd bda6 4f3e
00000390: 1148 fabd 32f1 063e 547c 45be 3d7a 9b3d
000003a0: eaa9 74be 91d9 e93d fd58 903e 69ff ca3d
000003b0: c37f c7be e960 81bc 37f7 8e3e cac9 1ebe
000003c0: 5086 cf3d 93d1 5d3d 13bb 9bbe 5e2f 503e
000003d0: c95b 143e 5d53 023e 030b aa3d cc2d 043e
000003e0: 0736 d93c 6294 623c 82f1 c3bc 446d 623d
000003f0: fd2e 31be 8309 c23d 478d 45be eb93 13be

down1.bias f4 [20]
0.16111715 0.12286036 0.173472 0.16577137 -0.18388163 -0.14849453 0.085920595 0.17009462
-0.027027415 0.05364038 -0.0760472 -0.17327951 0.048562944 0.046720512 0.022807265 0.092216805
-0.3935717 0.087817445 -0.11189887 -0.15380773
00000000: e5fb 243e 369e fb3d a5a2 313e f8bf 293e
00000010: 774b 3cbe f30e 18be 23f7 af3d 492d 2e3e
00000020: 9968 ddbc 04b6 5b3d a2be 9bbd 2f70 31be
00000030: f0e9 463d 025e 3f3d 4dd6 ba3c 2adc bc3d
00000040: 3b82 c9be a2d9 b33d 3c2b e5bd c67f 1dbe

down2.weight f4 [16, 20]
0.26859343 -0.12598737 0.22328123 0.37463555 0.13175091 0.08902405 0.22654854 0.23234273
0.31159833 0.3098702 0.18889408 0.058525205 -0.09001921 -0.07731108 0.027560899 0.27530885
-0.09524515 0.009783492 -0.004736426 -0.19237658 0.32129702 -0.009323454 0.10967297 -0.17638107
-0.014571399 0.353321 0.0034953412 -0.17843105 -0.18114817 0.025084494 0.051255 0.124673426
0.52486145 0.08155767 -0.3135498 0.027995225 0.100497 0.16975674 -0.17694631 0.20675817
0.10192806 -0.24175164 0.15133089 -0.23266192 0.08522485 0.08198512 -0.19155012 -0.085725866
-0.087472074 0.03524999 0.01866855 -0.16156049 -0.015627528 0.14422782 -0.056852233 0.00792708
0.0061584623 0.14222674 0.16134678 -0.07061003 0.054866116 0.3057157 0.22544478 -0.19491689
-0.11078533 -0.16630153 0.0032379818 0.2133051 -0.1278973 -0.073682785 0.2457035 0.07396609
-0.29683954 -0.0641388 0.29340878 0.17969705 0.13327177 0.2011699 -0.10419231 0.1748992
-0.0612984 0.14964807 -0.13697268 0.0020016946 0.17412895 -0.45066303 0.11661404 -0.068441115
-0.045477837 0.18866356 0.16091368 0.041070424 0.36441624 0.045853965 0.05293931 -0.03970321
-0.5740759 0.25295025 0.14087215 0.27985805 0.122919925 0.0842995 -0.079480596 -0.21762098
0.121930525 0.12327473 0.0821324 -0.20105933 0.24468996 0.14377953 0.54604834 0.22800997
-0.071798064 0.00024842634 0.21214072 -0.110641 -0.013081281 -0.10251162 0.21625686 0.21679841
0.3267974 -0.114341214 -0.1650283 0.19295272 -0.1640178 -0.067950055 -0.20356233 -0.071805686
0.21554314 0.3512077 -0.3002639 0.041400146 0.024817837 0.17804311 -0.024900949 -0.27807382
0.00781678 0.24728289 -0.19927636 -0.34496766 0.2565727 -0.08801683 -0.13665055 -0.3143281
-0.16350456 -0.08735099 -0.10443425 0.047089458 0.32313234 0.25233236 -0.318595 0.25449365
0.009413422 -0.21280715 -0.1842776 -0.03177021 -0.03095544 -0.32941547 0.12134651 -0.17895477
0.107441984 0.24792331 -0.23167092 -0.12466182 0.20741999 0.12828714 -0.13936248 0.082695544
-0.20311621 0.14337 0.08191775 0.51949865 -0.028642759 0.21032867 0.3294972 -0.03567257
-0.14897446 0.24701053 0.14805219 -0.44624975 -0.012235172 -0.08615542 -0.078166075 0.16220845
-0.17044403 0.110103466 0.0008118863 0.1446118 0.14978705 -0.1772632 0.03383166 -0.12815587
0.050223943 -0.05854881 -0.13507473 -0.20830794 -0.16019984 0.13017912 -0.15009363 0.06711188
-0.1718847 -0.074211925 0.0050186864 -0.15796995 -0.19128369 0.17772098 0.07903735 -0.06384508
0.050771512 -0.17965251 0.15239035 -0.08612774 -0.1509685 0.07065521 -0.0135533 -0.12701729
-0.21977553 0.030463098 0.035036124 -0.074790865 -0.09654215 0.006561775 -0.17800505 0.124087386
-0.003971852 -0.14034647 0.1889156 0.13103001 -0.13932233 -0.22601807 0.12442903 0.04084216
0.053206727 0.06447202 0.029125988 0.009808191 0.062165808 0.12063713 -0.08574395 -0.074474566
0.030804824 0.18200426 0.22942132 0.05534559 0.16780479 -0.06653153 -0.045593068 -0.16738541
0.20217693 0.12986282 -0.112409845 0.15905057 -0.2546723 0.12804243 0.02835314 -0.17174089
00000000: 1485 893e d502 01be d6a3 643e 3bd0 bf3e
00000010: b6e9 063e 3e52 b63d 57fc 673e 41eb 6d3e
00000020: d189 9f3e 4fa7 9e3e 736d 413e 20b8 6f3d
00000030: fe5b b8bd 4655 9ebd 65c7 e13c 48f5 8c3e
00000040: e40f c3bd f14a 203c 0534 9bbb 5efe 44be
00000050: 0b81 a43e 67c1 18bc 399c e03d 3d9d 34be
00000060: e1bc 6ebc 7de6 b43e 1812 653b a1b6 36be
00000070: e87e 39be ff7d cd3c c3f0 513d c854 ff3d
00000080: 525d 063f b507 a73d 9989 a0be 3e56 e53c
00000090: 5fd1 cd3d b6d4 2d3e 6a31 35be 6ab8 533e
000000a0: a9bf d03d be8d 77be 7cf6 1a3e ed3e 6ebe
000000b0: 5e8a ae3d d1e7 a73d b725 44be 0b91 afbd
000000c0: 8f24 b3bd 4b62 103d c9ee 983c 1d70 25be
000000d0: 4d05 80bc 75b0 133e e3dd 68bd 95e0 013c
000000e0: edcc c93b e3a3 113e 1738 253e fe9b 90bd
000000f0: 4bbb 603d c586 9c3e ffda 663e 4b98 47be
00000100: 6be3 e2bd f34a 2abe 5234 543b a76c 5a3e
00000110: 83f7 02be 00e7 96bd b399 7b3e 897b 973d
00000120: 5afb 97be 345b 83bd ad39 963e 8102 383e
00000130: 6578 083e 7bff 4d3e c762 d5bd c718 333e
00000140: 0814 7bbd 583d 193e 9142 0cbe dd2e 033b
00000150: dc4e 323e 4ebd e6be 58d3 ee3d db2a 8cbd
00000160: f846 3abd 0531 413e 8ec6 243e 7639 283d
00000170: c494 ba3e 5ed1 3b3d e4d6 583d d59f 22bd
00000180: a3f6 12bf b282 813e ca40 103e 8e49 8f3e
00000190: 71bd fb3d 37a5 ac3d b9c6 a2bd 09d8 5ebe
000001a0: b6b6 f93d 7677 fc3d 0835 a83d 7fe2 4dbe
000001b0: 0190 7a3e f13a 133e d3c9 0b3f 727b 693e
000001c0: dd0a 93bd 383f 8239 6b3b 593e c097 e2bd
000001d0: df52 56bc 9df1 d1bd 7072 5d3e 6700 5e3e
000001e0: fd51 a73e ba2b eabd 2efd 28be 6695 453e
000001f0: 48f4 27be 6629 8bbd a572 50be dc0e 93bd
00000200: 57b7 5c3e 7fd1 b33e 31bc 99be 3393 293d
00000210: c74e cb3c ef50 363e 13fd cbbc b15f 8ebe
00000220: f411 003c ba37 7d3e 1a0f 4cbe 9a9f b0be
00000230: 7f5d 833e 2b42 b4bd 1fee 0bbe 9def a0be
00000240: bd6d 27be 13e5 b2bd a0e1 d5bd e0e0 403d
00000250: 9a71 a53e b531 813e e21e a3be fe4c 823e
00000260: c13a 1a3c 1eea 59be 44b3 3cbe 7b21 02bd
00000270: 4396 fdbc 25a9 a8be 8584 f83d eb3f 37be
00000280: 8b0a dc3d 9cdf 7d3e 243b 6dbe b24e ffbd
00000290: e865 543e b45d 033e 0ab5 0ebe 485c a93d
000002a0: b2fd 4fbe 96cf 123e 7ec4 a73d ddfd 043f
000002b0: 38a4 eabc 6660 573e dbb3 a83e 671d 12bd
000002c0: c38c 18be 54f0 7c3e fe9a 173e d97a e4be
000002d0: 0876 48bc 4172 b0bd 8915 a0bd f919 263e
000002e0: e188 2ebe ed7d e13d c4d4 543a 1e15 143e
000002f0: c761 193e 7c84 35be 1193 0a3d 4b3b 03be
00000300: 9fb7 4d3d e1d0 6fbd 0851 0abe ad4e 55be
00000310: 6d0b 24be ad4d 053e 25b2 19be f471 893d
00000320: 8b02 30be 6cfc 97bd cb73 a43b e0c2 21be
00000330: dfdf 43be 7dfc 353e 56de a13d 36c1 82bd
00000340: caf5 4f3d d4f6 37be 370c 1c3e be63 b0bd
00000350: 7d97 1abe aeb3 903d a90e 5ebc d210 02be
00000360: d60c 61be bf8d f93c 0a82 0f3d f42b 99bd
00000370: e4b7 c5bd 2904 d73b f546 36be 8721 fe3d
00000380: 4f26 82bb fcb6 0fbe 1773 413e bb2c 063e
00000390: 83aa 0ebe 4871 67be a6d4 fe3d 1c4a 273d
000003a0: 4cef 593d e809 843d a099 ee3c 89b2 203c
000003b0: 93a1 7e3d 9a10 f73d 869a afbd 1f86 98bd
000003c0: 665a fc3c 535f 3a3e 6ced 6a3e 0fb2 623d
000003d0: 05d5 2b3e af41 88bd ccbf 3abd 1567 2bbe
000003e0: 7807 4f3e c2fa 043e 2237 e6bd 27de 223e
000003f0: 6864 82be 8e1d 033e d844 e83c d8dc 2fbe

down2.bias f4 [16]
-0.087000296 0.26475438 -0.21051419 0.16808538 0.11571203 0.12353744 0.04548981 0.09959041
0.15772419 -0.015845878 -0.011513582 -0.017016478 -0.11977867 0.1265934 -0.1931882 -0.09256799
00000000: 362d b2bd e38d 873e 0891 57be 931e 2c3e
00000010: 6efa ec3d 3301 fd3d 8653 3a3d 0ff6 cb3d
00000020: 7382 213e 37cf 81bc 77a3 3cbc 2466 8bbc
00000030: 854e f5bd b3a1 013e 21d3 45be 4994 bdbd

down3.weight f4 [12, 16]
-0.17505117 -0.3474856 0.054049753 0.12702234 -0.04888961 0.15035495 -0.056946073 0.08438236
0.20320031 0.09512882 -0.24578115 -0.055737544 0.20062774 -0.21911515 0.006624222 0.35454792
-0.120122574 -0.02163822 -0.1902922 0.17833048 0.21285142 -0.047791976 0.03221785 -0.08509372
-0.34511778 -0.18338363 0.15949655 -0.087219395 0.37386563 0.013045882 -0.035778433 0.4029653
-0.12413743 0.25750485 -0.19527389 -0.18564063 -0.29714844 0.1542689 0.24398606 0.31021008
-0.1725331 0.13878469 0.032317013 0.012577298 0.23789853 -0.10654202 0.20594528 -0.05683827
0.049212012 -0.12711036 0.037163313 0.019487256 -0.24017261 -0.01608329 0.001255629 0.23146018
0.08960894 -0.19005166 0.01565221 -0.057898812 0.01976499 0.16900255 -0.093381435 -0.070082515
0.20007434 0.017048832 0.06921629 0.10487792 -0.3044496 -0.19510648 0.08780324 -0.44032726
0.0011956642 -0.240574 -0.1944319 0.10232135 -0.14229211 -0.124146804 0.12514722 0.07098705
0.02320553 0.06718835 -0.17940816 0.20823288 -0.108342685 -0.19379394 0.06578068 0.026755797
0.0066446452 -0.14609183 0.06604305 0.061433356 -0.011554826 0.12394529 -0.20244458 -0.20068707
-0.12277915 -0.07807218 0.0066478467 -0.20934881 0.12217459 0.24019684 0.5700844 -0.3854604
-0.012959452 0.12989588 -0.15036085 -0.028030189 0.3619573 0.1064434 0.02624467 -0.21472178
-0.15137513 0.016032772 -0.22887388 0.1979356 -0.25183365 -0.013678458 0.13920248 -0.16506399
0.055477604 0.007706411 0.030050218 0.2246786 0.15108547 0.18975233 -0.09389016 -0.20481259
0.23875086 -0.23236087 0.1653956 0.308898 0.10001271 -0.01063919 -0.06716506 -0.025599916
-0.38624087 -0.0060618697 -0.047159135 0.17931269 0.10660884 0.14926568 -0.17855105 -0.33248013
0.08244915 0.2192137 0.04122383 0.032736644 0.011060699 0.18234058 -0.10136267 -0.17293927
0.058987126 0.034087148 0.20386946 -0.09428607 -0.19506332 -0.11585934 0.12895161 -0.040591702
0.07047853 -0.0033653043 0.23265775 -0.16888615 0.098123364 -0.27676812 -0.14610764 -0.12069798
0.0843526 -0.1755724 -0.05041483 0.17492194 0.46979284 0.056015085 -0.13553098 -0.03456175
0.2656696 0.15334016 -0.13934582 -0.22417268 0.24283919 -0.29486015 0.04954779 0.53346986
-0.091880344 0.050427295 0.07698929 -0.22299436 -0.057478115 0.18348093 0.011377156 0.21737655
00000000: 9d40 33be a2e9 b1be 4663 5d3d 2512 023e
00000010: 7940 48bd a6f6 193e 4940 69bd a9d0 ac3d
00000020: be13 503e e6d2 c23d 0eae 7bbe 0d4d 64bd
00000030: 5c71 4d3e b95f 60be 0010 d93b 4e87 b53e
00000040: d302 f6bd a342 b1bc f5db 42be 449c 363e
00000050: b9f5 593e 85c1 43bd ddf6 033d 9e45 aebd
00000060: 47b3 b0be ebc8 3bbe 1053 233e 15a0 b2bd
00000070: 516b bf3e 65be 553c 688c 12bd 7851 ce3e
00000080: c43b febd add7 833e e1f5 47be 9418 3ebe
00000090: d723 98be abf8 1d3e 7bd7 793e dbd3 9e3e
000000a0: 84ac 30be 931d 0e3e d85e 043d 0311 4e3c
000000b0: ac9b 733e b432 dabd 52e3 523e 3fcf 68bd
000000c0: 8992 493d 3829 02be 8f38 183d bda3 9f3c
000000d0: cfef 75be 1bc1 83bc eb93 a43a e603 6d3e
000000e0: e484 b73d e79c 42be 1039 803c 4e27 6dbd
000000f0: 30ea a13c 010f 2d3e c43e bfbd 6c87 8fbd
00000100: 4ae0 4c3e fea9 8b3c 45c1 8d3d 3cca d63d
00000110: d1e0 9bbe fec9 47be 2fd2 b33d 9372 e1be
00000120: d5b7 9c3a 0859 76be 2819 47be db8d d13d
00000130: 06b5 11be ae40 febd 9826 003e a961 913d
00000140: 8619 be3c 0c9a 893d c6b6 37be 003b 553e
00000150: c5e2 ddbd eb71 46be 05b8 863d f92e db3c
00000160: 53bb d93b 1999 15be 9441 873d 8ba1 7b3d
00000170: 7450 3dbc 07d7 fd3d a24d 4fbe e980 4dbe
00000180: a373 fbbd 4fe4 9fbd 2ed6 d93b 895f 56be
00000190: ac36 fa3d 29f6 753e 0df1 113f 115b c5be
000001a0: e253 54bc 6d03 053e 32f8 19be 919f e5bc
000001b0: 7852 b93e fffe d93d 10ff d63c 07e0 5bbe
000001c0: 1502 1bbe 2957 833c ea5d 6abe a1af 4a3e
000001d0: 57f0 80be 9c1b 60bc 188b 0e3e 8906 29be
000001e0: 7c3c 633d 1086 fc3b e02b f63c 2612 663e
000001f0: 26b6 1a3e 6f4e 423e 7c49 c0bd 64ba 51be
00000200: 1b7b 743e 02f0 6dbe 775d 293e e127 9e3e
00000210: 77d3 cc3d ff4f 2ebc d68d 89bd eab6 d1bc
00000220: 5dc1 c5be a6a2 c6bb f029 41bd bf9d 373e
00000230: bc55 da3d 1ad9 183e 16d6 36be d63a aabe
00000240: 1adb a83d 8e79 603e 52da 283d dc16 063d
00000250: ef37 353c 7db7 3a3e 3b97 cfbd fe16 31be
00000260: 7c9c 713d f79e 0b3d 28c3 503e 0e19 c1bd
00000270: aebe 47be a947 edbd e40b 043e 7c43 26bd
00000280: 0c57 903d 708c 5cbb d53d 6e3e 7ef0 2cbe
00000290: e7f4 c83d 8db4 8dbe 3e9d 15be 8130 f7bd
000002a0: 0ec1 ac3d 40c9 33be c87f 4ebd bd1e 333e
000002b0: b088 f03e 1370 653d a2c8 0abe 9f90 0dbd
000002c0: d905 883e 3405 1d3e acb0 0ebe 868d 65be
000002d0: d6aa 783e e9f7 96be a0f2 4a3d 7b91 083f
000002e0: c32b bcbd da8c 4e3d 90ac 9d3d a258 64be
000002f0: 2c6e 6bbd 6de2 3b3e 4067 3a3c f597 5e3e

down3.bias f4 [12]
-0.10571197 0.06504804 0.25705323 0.048604086 0.04489321 -0.061059467 -0.050992813 0.099822335
-0.16329798 -0.21710676 0.12141024 -0.26504388
00000000: 847f d8bd e837 853d 7b9c 833e 1415 473d
00000010: f1e1 373d 7e19 7abd d7dd 50bd a76f cc3d
00000020: 9637 27be 3c51 5ebe efa5 f83d d5b3 87be
