OC/model_Panel1_sink_vr_clust6_oc24.pt (torch, 19266 bytes, 12 tensors)

up1.weight f4 [20, 12]
000000 cf 92 51 bd d4 5c 66 be 40 83 8d 3d 2f 33 59 3e
       -0.0511654 -0.22496349 0.069097996 0.21210931
000010 0a b4 9d 3e fc e0 a4 3e 13 10 71 be f6 76 1e 3e
       0.3080142 0.322029 -0.23541288 0.15475067
000020 0a 2b 9c 3e c9 96 1e 3e 61 a1 00 3e 1e d6 b9 3e
       0.30501586 0.15487207 0.12561561 0.3629617
000030 0d ac 1f 3e e7 b6 94 3d ce 02 87 3d 84 df cd 3b
       0.15592976 0.07261448 0.06592332 0.0062827487
000040 fa 54 03 be bd 34 31 3e 53 5b 0c bd 6d ee cb be
       -0.12825385 0.17305274 -0.03426678 -0.39830342
000050 7b 2d 04 bf 20 91 0c 3e 5a 24 0c bf 8c f4 b5 3d
       -0.516319 0.13727236 -0.5474297 0.08884534
000060 27 6d 26 be 72 76 24 3e 19 6b d9 3e da dc 30 3e
       -0.16252576 0.16060808 0.42464522 0.17271748
000070 25 52 7e 3c dd 11 08 3c 5f 97 88 bd 62 52 a3 3e
       0.0155225145 0.00830504 -0.06669497 0.3189879
000080 c8 73 b9 bd d3 d4 76 be b0 17 47 bd 7a 9c 29 bd
       -0.09055287 -0.24104623 -0.048606575 -0.041408993
000090 10 ab c2 3c 80 5e 35 be 2e 7b ab 3e 68 29 bd 3d
       0.02376321 -0.1771183 0.33492416 0.09236413
0000a0 35 fe 81 bd 83 ae 2f 3e 82 6e d8 3e cd aa 2e 3e
       -0.06347314 0.17156415 0.4227181 0.17057343
0000b0 0a ea c8 3e 24 c1 10 3e 06 e4 8b bc 20 12 b8 bd
       0.39241058 0.14136177 -0.017076503 -0.08987832
0000c0 c2 40 1e be 78 a7 0d bd 87 f0 39 be 70 3e b4 be
       -0.1545439 -0.03458354 -0.1815816 -0.35203886
0000d0 7a d8 bc bd b5 97 09 bf d8 5f a8 3d 38 fc 0e be
       -0.09220977 -0.5374711 0.08221406 -0.13963401
0000e0 9f ec d1 bd 52 5d 39 3e c9 43 65 be fe 7a 27 be
       -0.1025021 0.18102005 -0.22389139 -0.16355512
0000f0 a3 45 46 3e 2c 7d b0 3e 59 9b 9f 3e aa 4e 99 3e
       0.19362502 0.344705 0.31173208 0.29942828
000100 1d d1 4c be 6d f2 40 bd f4 28 db bd 95 2f 03 be
       -0.20001645 -0.047106195 -0.107011706 -0.1281112
000110 bc e7 e7 3d c3 67 8e 3e d2 af cd bd 54 34 af 3e
       0.11323497 0.2781354 -0.10043301 0.3421961
000120 95 b1 a9 3e c2 3d 93 3e d1 56 81 be 20 a7 97 3d
       0.33143297 0.28758055 -0.25261548 0.074049234
000130 cf 5f 1e 3d 76 8e aa bc 8c 59 67 bd c9 55 70 3e
       0.03866559 -0.020819884 -0.056481883 0.23470224
000140 d9 d7 76 3e 28 7d 22 3e 80 6b 9b 3d c3 3a 20 3c
       0.24105777 0.15868056 0.075888634 0.009779635
000150 ba 79 5d be 06 90 a4 bd 83 35 52 bd a2 4b 58 3b
       -0.21628466 -0.08035283 -0.051320564 0.0033004065
000160 c1 c3 d5 3e 96 02 0f bd 88 84 c1 3d 61 95 81 3e
       0.4175091 -0.034914576 0.094491065 0.2530928
000170 54 0f e9 3d d9 31 92 3d 46 86 2e 3b 60 18 6c 3d
       0.11379877 0.07138414 0.0026630326 0.057640433
000180 e7 03 2e bc f4 f1 81 be 70 86 aa bd d4 e2 8f be
       -0.010621048 -0.25379908 -0.08326423 -0.28102744
000190 81 cf 9f 3e f3 9f da bd 75 ba cb be c6 9b 9f be
       0.31213 -0.10675039 -0.39790693 -0.31173533
0001a0 88 c0 32 be da 79 8b be bd b9 7f 3e 41 66 30 3e
       -0.17456257 -0.27241403 0.24973197 0.17226507
0001b0 f4 a2 8a be f3 46 a5 3e 8a 36 eb 3d 7e ae 2e 3e
       -0.27077448 0.32280692 0.11485012 0.17058751
0001c0 c4 a7 c0 3e 78 33 bd 3d c1 f1 7a bd ce 66 a1 bd
       0.37627995 0.092383325 -0.06126571 -0.078809366
0001d0 e1 5c b3 3e f3 f5 c0 3e 12 b1 ad 3d f0 51 73 be
       0.35031798 0.37687644 0.08481039 -0.23761725
0001e0 d7 d7 a4 3e 8f f0 97 be a7 a8 2e 3e 0b ac e4 bd
       0.32195923 -0.2967572 0.17056523 -0.11165627
0001f0 20 be 1a 3e f1 1f 12 3d e3 c7 cb 3d 4a c2 cf 3e
       0.1511159 0.035674993 0.09950235 0.40577918
000200 e3 70 8c 3e c7 45 78 bd 93 df 20 bd a2 13 7b 3e
       0.27429876 -0.06061342 -0.039275717 0.24519208
000210 b8 6d 73 3e 15 d4 b9 3d ef 1e b3 3e 7e 2e 78 be
       0.23772323 0.090736546 0.34984538 -0.24236485
000220 aa b7 b3 3e 33 e9 16 3e ed 77 55 3e b9 ac af 3d
       0.35101062 0.14737396 0.2084653 0.08577866
000230 45 00 02 be e6 3e a5 ba b4 6c e4 3e 47 72 00 bd
       -0.12695415 -0.0012607246 0.44614184 -0.031358983
000240 7b bb 5f 3d 1e 43 e0 3d 11 be b2 bd 53 dc 02 3f
       0.054622155 0.109503016 -0.087276585 0.5111744
000250 13 40 a1 bd 11 0e 73 bc a3 f2 38 3e 08 f5 85 3e
       -0.07873549 -0.014834897 0.18061309 0.26163507
000260 56 3b 31 3d 05 c1 43 bc 27 a7 80 3d 7e 4c f1 bd
       0.043269478 -0.011947875 0.06281882 -0.11782168
000270 0e 80 9f 3e a0 9f 4a 3e d7 75 b9 bd 37 f8 bd bd
       0.31152385 0.19787455 -0.09055679 -0.09275859
000280 e2 a1 71 3e 50 66 9e 3c 74 d2 46 3e fc ee f5 3e
       0.2359691 0.019335896 0.19416219 0.48033893
000290 e1 84 1d 3e 0c 23 7b 3e a8 34 1c bd b0 9f 3a 3e
       0.1538272 0.24525088 -0.038136154 0.18224978
0002a0 1a 8e a8 bd 24 18 f2 3e 21 6f ed bd 9f 99 5c be
       -0.08230229 0.47284043 -0.11593462 -0.21542977
0002b0 26 6e 55 be f1 c6 77 bd ae d8 ee 3d 8b 03 8f 3e
       -0.208428 -0.06049246 0.11662422 0.2793239
0002c0 fe f1 9e 3e e1 63 4d 3d 90 36 58 3e 22 12 d8 3e
       0.31044 0.05014408 0.21114564 0.42201334
0002d0 a3 0b 95 3d 99 d9 68 3e 52 29 b4 3e de 2c 85 3d
       0.0727761 0.22739257 0.35187775 0.06502698
0002e0 57 4b 14 be 39 9f 81 3e 14 79 60 bd b5 d6 36 3e
       -0.14481865 0.2531679 -0.05480297 0.17855342
0002f0 ec 18 e3 bd e4 c2 04 3f bd 5b ad 3d 79 7e 0c be
       -0.11088738 0.5185988 0.08464763 -0.1372012
000300 65 06 33 be 9c f7 84 be 93 6e bd 3e 69 68 0c 3e
       -0.17482908 -0.2597016 0.36998424 0.13711704
000310 b3 e3 fe 3d f9 2d 0f be 86 2b b0 bc 48 7b a8 3e
       0.12445774 -0.13982381 -0.021505129 0.32906556
000320 0b 2f b6 be a8 a6 da 3e 25 7b 0d be b4 f4 5a 3e
       -0.35582766 0.42705274 -0.13816507 0.2138241
000330 e6 24 39 3e 9c b2 76 3e 83 2b 6a 3e 43 a1 17 3e
       0.18080482 0.24091572 0.22868161 0.1480761
000340 5b 9f 52 3e e1 86 12 3e f0 5a 47 3e c6 c5 bc 3e
       0.20568602 0.14309265 0.19468284 0.3686964
000350 5e 2b 80 3d 07 14 e2 bd d3 e4 ca 3d 5b ef 6f be
       0.06258272 -0.11038976 0.09906926 -0.2343115
000360 3d a4 5b be 93 77 9e be 95 f4 a5 be 23 78 45 3e
       -0.2144937 -0.30950603 -0.32413164 0.1928411
000370 a9 dd c9 be 70 c1 f2 3d d8 c3 bc be 32 8c a8 be
       -0.39426926 0.118533015 -0.36868167 -0.3291946
000380 0f 5c 25 3e 52 2d a6 bd e4 92 02 bf a2 9e 1b be
       0.16148399 -0.08114113 -0.5100539 -0.15197232
000390 06 47 4f 3c 55 de 83 3e e4 9d de ba fc e7 20 3e
       0.012651211 0.25755563 -0.0016984311 0.15713495
0003a0 01 a1 94 3e 2c ed 50 3e 3d 6e dd 3e 44 d6 10 3d
       0.29029086 0.20402974 0.43248168 0.03536059
0003b0 44 16 80 be 3b c0 6d 3e a3 a0 19 3d 3b 6c 92 3e
       -0.25016987 0.23217861 0.03750671 0.28598198

up1.bias f4 [20]
000000 c3 26 f6 3d b9 ea 5f be eb 36 44 3e ad 18 d5 3d
       0.12019112 -0.21866883 0.19161575 0.10405097
000010 de 16 31 be 66 76 bd 3d 28 14 88 3e 5f 3a e7 3d
       -0.1729388 0.09251098 0.26577878 0.1129043
000020 18 de 13 be 38 3b 0f 3e 50 b3 15 bd d9 54 a6 3c
       -0.14440191 0.13987434 -0.03654796 0.02030413
000030 8c 6c b0 3c 63 9f d3 bd dc cd cb 3d 2c a7 95 3b
       0.021536134 -0.10333135 0.09951374 0.0045670476
000040 72 2d 99 3e 8d 5f 0f 3d 76 e1 7a 3d be e7 a4 bc
       0.29917485 0.035003234 0.061250173 -0.020130035

up2.weight f4 [28, 20]
000000 13 7c 25 be 89 1b 91 3d 76 49 1d be 46 37 74 3d
       -0.16160612 0.0708533 -0.15360054 0.059623025
000010 09 4e 6f 3b 40 3a 7c 3e 28 cf 47 be 2c 9a 25 be
       0.0036515018 0.24631596 -0.19512618 -0.16172093
000020 1a 9e 41 3e 31 ea 33 3e 7e a5 25 3e d1 50 a9 3e
       0.18907967 0.17569806 0.16176412 0.3306947
000030 a5 e2 00 bf bd 95 e1 3b c9 d7 c5 bd 20 72 85 3d
       -0.5034583 0.0068843053 -0.096602984 0.06515908
000040 be e8 b8 3d fa 70 ea 3d 44 53 19 bd 42 c8 de bc
       0.09028767 0.1144733 -0.037432924 -0.0271951
000050 4c 1e ed 3d 91 76 ab bd 16 da a8 3e 41 2b 29 be
       0.11578044 -0.08372224 0.32978886 -0.16520406
000060 fe 72 52 3d 83 e5 32 3e 3f 8d c6 bd ec a0 a7 3e
       0.051379196 0.17470364 -0.09694909 0.3273996
000070 b6 97 f3 bc 3e 44 aa 3e b2 c8 28 3d 37 7c b6 bd
       -0.029735427 0.3325519 0.041207023 -0.08910411
000080 f9 1e 16 be d2 87 90 3b 1e 0b cf 3e 14 e1 58 3e
       -0.14660253 0.0044107223 0.4043817 0.2117961
000090 ff 5e b4 3d ff b9 d3 3c c5 21 1d 3e 9c 93 c6 3c
       0.088071816 0.025845526 0.15344913 0.024240308
0000a0 61 43 5d 3e 4f 6c dc 3d a5 85 42 3e 4a de 0f be
       0.21607734 0.10762846 0.18996294 -0.1404964
0000b0 04 63 b4 bd a2 38 6a bd 79 6c 8e 3e d4 57 30 3e
       -0.08807948 -0.057182916 0.27817133 0.17221004
0000c0 33 e0 05 be d6 4d b0 3d 65 bd b2 bd 56 e4 37 be
       -0.13073806 0.08608596 -0.087275304 -0.17958197
0000d0 2e 38 d6 bb 82 a4 8a bd 78 39 c3 bd 5e 36 b4 3e
       -0.006537459 -0.067696586 -0.09532446 0.3519773
0000e0 b4 40 38 3e ec ca 84 3e 2b 6b 2a 3e dc 20 a2 be
       0.17993432 0.25936067 0.16642444 -0.31665695
0000f0 26 35 47 3c 99 ab aa 3e af 9a df bd f0 2e a1 3d
       0.012158668 0.33334044 -0.109181754 0.07870281
000100 f8 89 aa 3d 96 f5 87 bd d2 ac 23 be 08 9a 2d be
       0.08327097 -0.06638639 -0.15983894 -0.1695329
000110 b0 67 93 3d 44 f2 b3 3d 5d 8e 2b 3d 6e 46 ae 3c
       0.07197511 0.08786443 0.041883815 0.021273818
000120 7a 96 36 be 32 9b 63 3e 56 25 13 3d d3 a3 7c 3e
       -0.1783084 0.22227171 0.03592428 0.24671869
000130 55 62 6e bd 74 84 43 be cf ec a3 bd f0 69 e3 3c
       -0.058199245 -0.19093496 -0.08004152 0.027760476
000140 e8 37 30 be 86 64 2f bd c2 be 82 be 89 86 49 bd
       -0.17208827 -0.042820476 -0.25536162 -0.04920057
000150 13 ac 51 3d c2 01 44 3e f8 fc 8f 3e 0e e7 8e 3d
       0.051189493 0.19141296 0.28122687 0.06977664
000160 5f 95 04 be 1b 09 af 3d d3 3d 96 3c 33 17 49 3c
       -0.12947606 0.085466586 0.018340027 0.0122735975
000170 ae 08 5c 3e 9b 77 a8 3e 13 6f 85 be 70 f8 3d be
       0.21487686 0.32903752 -0.26061305 -0.18551803
000180 2e 59 68 3e 8b b0 3d 3e 6a 69 d6 bd f3 fe b5 3e
       0.2269027 0.18524377 -0.10469325 0.35546073
000190 bc 6f dd 3d b5 49 bf bd 08 f5 99 3d c1 2c c1 3d
       0.10812327 -0.093402304 0.07517439 0.09432364
0001a0 68 c3 ee bd f1 13 17 be 69 7a e5 bd 1d ce 4d be
       -0.116583645 -0.14753701 -0.112049885 -0.20098157
0001b0 6c 15 63 3e b6 d0 82 bd 20 ea 5f be 9d 16 a0 bd
       0.2217614 -0.06387465 -0.21866655 -0.07816813
0001c0 52 84 4b 3e 22 d0 d4 3d 5a e3 27 3c 0f 16 aa 3b
       0.19874695 0.10391261 0.010247076 0.005190618
0001d0 8c 36 9a bd ad 49 59 be 60 cb 8b bb 9b 34 d6 3d
       -0.07529935 -0.21219511 -0.0042661875 0.104592524
0001e0 ec 46 86 be 77 2e f9 3d e3 d6 6a 3e c1 66 62 3e
       -0.26225984 0.121670656 0.22933535 0.2210951
0001f0 7f 64 32 3e 00 f8 7b be 15 4e 31 bd 6f 79 a5 3b
       0.17421149 -0.24606323 -0.043287355 0.0050498764
000200 de 69 bd bd 41 f5 a8 bd 5d 94 8e bd c8 11 98 bc
       -0.09248708 -0.082499035 -0.06961892 -0.018563166
000210 bc 8f 7d bc b7 9f e3 3d ce 0f a6 3d 81 5d 5b 3e
       -0.0154761635 0.111144476 0.08108483 0.21422388
000220 5d 31 32 3e 95 b5 e1 bd 5a 64 64 bd 9e d4 8a 3d
       0.17401643 -0.11020962 -0.055759765 0.06778835
000230 31 93 21 be 8d 47 e0 3e 3a 40 aa 3d d5 7e 42 be
       -0.15778805 0.4380459 0.083130315 -0.18993695
000240 65 85 8b 3e a4 89 3c be 18 ac 4d be d5 b3 05 3e
       0.2725021 -0.1841188 -0.2008518 0.13056882
000250 02 5d 09 be 9a 5a 60 be 75 73 d5 bd 04 41 0b 3e
       -0.13414386 -0.21909562 -0.10422412 0.1359902
000260 9f 09 d2 be d3 63 8d bd 82 4f ee 3d 87 4d 1c be
       -0.41022965 -0.069038056 0.11636259 -0.1526395
000270 8f 3b 89 bd d5 c9 bd 3c b5 a1 39 be a9 d2 59 3e
       -0.06700813 0.02316753 -0.18128093 0.21271767
000280 bd 77 48 be 74 86 08 3e 10 13 e5 bc 19 ce 83 3c
       -0.19576927 0.1333254 -0.027963191 0.016089486
000290 c2 2b 12 be 43 a0 5c be f7 2c 85 3d 9b 3c ac 3d
       -0.14274505 -0.2154551 0.06502717 0.08409997
0002a0 3d 0d ee 3c 11 ee f2 bd 44 1b ec 3c b2 4a ad ba
       0.029059047 -0.11861814 0.028821595 -0.0013221113
0002b0 52 18 35 be b6 8b 6b bc b2 c2 b2 bd cc 84 03 3e
       -0.17685059 -0.014376571 -0.087285414 0.12843627
0002c0 67 00 af bc d9 27 df bd d3 3d 07 bd 74 0a 20 be
       -0.021362497 -0.10896272 -0.033017945 -0.15628988
0002d0 b2 12 84 be f2 90 ec 3e 34 29 83 3c 75 ff 2e 3e
       -0.25795513 0.46204334 0.016010858 0.17089637
0002e0 e5 f1 be 3d 66 e1 89 3e eb 05 a1 3c 8b 77 09 be
       0.093234815 0.26929778 0.019656142 -0.13424508
0002f0 66 c3 94 bd 60 89 4f bc de 59 20 bd 54 80 20 3d
       -0.07263832 -0.01266703 -0.039148204 0.039184883
000300 7e 02 de bd fe d7 20 be a9 4b 8e be b0 20 b2 bc
       -0.10840319 -0.15707394 -0.277921 -0.021744102
000310 db ea 8d 3e 6d 98 24 3e 54 23 80 bd 0a 97 9e 3e
       0.27718243 0.16073771 -0.06256738 0.3097461
000320 b8 ca 34 be 99 7a a0 3e 81 a3 ec bd 15 d5 95 3d
       -0.17655456 0.31343535 -0.115546234 0.07316033
000330 66 84 01 3f fa 68 65 3d 1d 7a 56 3e b4 80 ca 3d
       0.5059265 0.056008317 0.2094502 0.098878294
000340 5b 34 9a 3e 51 30 0b bd 7b be 71 3d 8a a1 4e be
       0.3011807 -0.033981625 0.059019547 -0.2017881
000350 e5 58 eb bc 6e 06 a4 3d 95 3b 1a be c8 dd c2 3d
       -0.028728912 0.08009039 -0.15061791 0.09514958
000360 f4 9a 53 be 5b d4 b4 bd 50 1f 04 3f bd 43 f4 bd
       -0.20664579 -0.08829566 0.5161028 -0.119269826
000370 99 7a a5 be 37 a9 7b be d0 3a 55 3e 07 e7 85 3e
       -0.32320097 -0.24576269 0.20823216 0.26152822
000380 e6 aa 68 3e 28 dc 89 be 09 5b 4d be c2 20 9a 3e
       0.22721443 -0.26925778 -0.20054258 0.30103117
000390 ac 38 0f 3e be 25 89 3e 9a d3 2b bd 4b f1 28 be
       0.13986462 0.26786608 -0.041949846 -0.16498296
0003a0 b4 49 2d 3d 85 d8 22 3e ad 72 40 bb b6 a7 26 3e
       0.042306617 0.15902908 -0.0029365227 0.16274914
0003b0 a2 25 05 bd 89 b2 ae 3c d2 7b 70 3e af 92 71 3e
       -0.032506593 0.021325367 0.23484734 0.23591112
0003c0 15 44 b8 3e eb 22 63 3e 4d 66 79 3e c2 3d 70 bd
       0.35989442 0.22181289 0.24355431 -0.058652647
0003d0 1d e9 a9 be 8a b5 81 bd 01 6f ae bd 55 89 12 bc
       -0.33185664 -0.06333454 -0.08517266 -0.008943875
0003e0 16 5d 8a 3d 5f e1 00 be de 9c 2f bc 0d 23 63 bd
       0.06756036 -0.12585972 -0.010718552 -0.05545335
0003f0 fb 7c cd 3d 86 53 7a 3e 83 f6 2e 3e e7 b1 cd bd
       0.10033604 0.24445924 0.17086224 -0.10043698

up2.bias f4 [28]
000000 59 d5 13 3e 07 f7 bd bd 59 9c 1b bc 4a 70 bf bd
       0.14436854 -0.09275632 -0.009497725 -0.09347589
000010 98 8f 02 3c a1 fc f2 bd 41 92 5d 3e b8 40 07 3e
       0.007968806 -0.118645914 0.21637823 0.13208282
000020 29 c2 d5 bd 2c 63 86 3e 8d a3 22 bc 67 94 4a 3e
       -0.10437424 0.26247537 -0.009926689 0.19783174
000030 18 9f a9 3a e4 99 0a 3e 3b 3e 81 3e e0 98 dd 3d
       0.001294109 0.13535267 0.2524279 0.10820174
000040 1a cb 53 bd 83 4a 53 be 14 5b da bd eb d9 2b be
       -0.051707365 -0.20633893 -0.10661903 -0.16782348
000050 9e fb 5c 3e 5e 2e d4 3d a4 8f 06 3e 2c 6f cc 3d
       0.2158036 0.10360406 0.13140732 0.09982142
000060 16 ae 16 3d d4 90 bc 3d 42 04 5f 3e 42 92 1b 3e
       0.036787115 0.09207311 0.21778968 0.15192512

up3.weight f4 [36, 28]
000000 09 34 45 3e ec 8f 5a be f1 4a 2b be 74 ba ec 3d
       0.19258131 -0.21343964 -0.16727807 0.115590006
000010 71 ab 22 bd 9b 0e 8a bd 42 9f 37 be 64 26 09 3e
       -0.03971428 -0.06741067 -0.17931846 0.13393551
000020 2b c5 5c bd e8 63 2c 3e 64 71 d5 3d 52 a9 7a be
       -0.05389897 0.16834986 0.10422018 -0.24478653
000030 7a 63 7a be c4 e1 54 3e 19 65 b1 be cf 89 92 be
       -0.2445201 0.20789248 -0.34647444 -0.28620765
000040 85 a8 56 3e 65 33 2d 3e fb d9 1c bd 34 01 1f be
       0.20962723 0.16914137 -0.03829382 -0.15527803
000050 42 d9 b1 3d 83 86 24 3d 9d dd 29 3e 81 77 41 3d
       0.08684017 0.040167343 0.16588445 0.04723311
000060 20 56 cb 3e 5a 8d 1f 3e ff ff 26 be 1e 4a b7 3e
       0.39714146 0.15581265 -0.16308592 0.35798734
000070 89 07 42 3d 57 8b 02 be ac ba 07 be 59 58 bc 3d
       0.047370467 -0.12748466 -0.13254803 0.091965385
000080 22 02 8a 3e a9 b3 0b 3d ad 8f c6 bd 80 8a c3 bd
       0.26954752 0.034106884 -0.09695373 -0.09547901
000090 35 a8 c4 bc 40 ee 05 3e 03 1f 2b 3e c0 87 7e 3d
       -0.024005989 0.13079166 0.16711049 0.06214118
0000a0 a4 a8 73 be 83 e2 44 be 41 e5 62 3d 7e 38 33 be
       -0.237948 -0.19227032 0.055394415 -0.17502019
0000b0 52 f0 94 3e cb 6f 33 3e 90 e7 e8 3d 51 b6 24 3e
       0.290896 0.17523114 0.11372292 0.16085173
0000c0 44 5c 60 be 0e a9 83 3e 63 03 8d be 05 7b d0 be
       -0.21910197 0.25714916 -0.27541646 -0.40718856
0000d0 d1 f4 56 3e bc 1d e6 bd 49 96 ab bd be 76 8e 3e
       0.20991828 -0.1123614 -0.08378274 0.27824968
0000e0 ab 2c ef bc 65 bb 59 be 50 60 2b be 0f da 92 3d
       -0.029196104 -0.21262892 -0.16735959 0.071704976
0000f0 02 ff b6 3d 88 aa b0 bd 4a ac 76 be d9 a6 37 3e
       0.08935358 -0.08626276 -0.2408916 0.17934741
000100 94 62 cb 3d f0 dc aa 3b 68 21 53 be e3 1c da bd
       0.09930912 0.005214326 -0.20618212 -0.10650041
000110 dd a3 e3 3c dd 7c 8b 3d 91 fd 0b be d4 42 8d 3e
       0.027788097 0.06810925 -0.13670947 0.27590048
000120 df ff 40 3d 62 aa 3f be 5a ad 6d bd a4 b4 d7 bd
       0.047119018 -0.1871734 -0.05802665 -0.10532501
000130 8e b0 7a 3d 04 b8 36 be 91 bf 04 be 7e a8 94 3e
       0.061203532 -0.17843634 -0.12963702 0.290348
000140 fa b4 f8 bd 36 24 4c be 6e c4 fa bc 50 81 e5 3d
       -0.121438935 -0.19935688 -0.030611243 0.11206305
000150 b2 46 be bd 55 d9 a3 3d 9d 33 8f 3e 48 5b 34 3e
       -0.09290828 0.08000437 0.27969065 0.17612946
000160 f3 a7 97 bd 04 5e a7 3d 24 1a 19 be cc 46 c6 be
       -0.07405081 0.08172229 -0.14951378 -0.3872589
000170 c0 4d 8f 3c 58 16 1b bd c8 00 19 3e 68 aa eb bd
       0.017493129 -0.037863106 0.14941704 -0.11507112
000180 3b e2 3e 3e 59 d1 da 3d ed 1a 2f 3e a2 91 fc bd
       0.18640988 0.10684461 0.17100115 -0.12332465
000190 2d a8 c5 be 28 40 8c 3d 1d 32 2d bd 87 23 27 be
       -0.3860487 0.06848174 -0.04228412 -0.16322146
0001a0 f1 66 83 be e6 f5 c0 3d b9 82 95 bc 1a d6 cc 3c
       -0.25664476 0.094219014 -0.01825081 0.025004435
0001b0 23 ee 8f 3e 89 95 55 be 45 af 7f bd a0 38 78 3e
       0.2811137 -0.20857824 -0.06242301 0.2424035
0001c0 10 4e 33 be e3 5c d3 3d 43 89 0a 3e 7c 1f 75 bd
       -0.17510247 0.10320451 0.13528924 -0.05984448
0001d0 a5 47 bb bd c7 ff 64 3d a8 50 39 be c8 c0 74 be
       -0.091445245 0.05590799 -0.18097174 -0.23901665
0001e0 ad 16 07 be ec 5b 27 be 9e e7 81 bd e3 bd 7c 3c
       -0.13192244 -0.16343659 -0.063430056 0.015426132
0001f0 5f ee 69 3e df 93 18 3e d4 07 93 bd ca 5e b2 bd
       0.22844838 0.14900158 -0.071792275 -0.08709486
000200 b0 5f 75 bc 51 1e a5 3d 5e 7e 56 3e 3c 18 75 3d
       -0.014976427 0.08062423 0.20946643 0.059837565
000210 f3 ef 02 bd c1 f7 58 3e ad 27 a5 3e 22 33 91 3b
       -0.031967115 0.2118826 0.32256833 0.0044311443
000220 81 cf 85 3d c1 8c 64 be 21 5f 65 be a2 32 51 be
       0.06533719 -0.22319318 -0.2239957 -0.20429471
000230 d9 44 4c 3e 64 19 16 3c a0 08 3a 3d 8b 0b 9a 3e
       0.19948138 0.009161327 0.04541838 0.30086932
000240 87 d0 49 3e ef 3e 10 be 06 25 02 3e 2a 5b 1d bd
       0.19708453 -0.14086507 0.12709436 -0.03841702
000250 bd 53 00 be 9a 98 22 3e a0 d3 8f 3e 79 e3 14 3e
       -0.12531944 0.15878525 0.28091145 0.14539899
000260 9b ca a4 be 0b a5 74 3e a3 1a 95 be 14 68 3b be
       -0.32185826 0.23891084 -0.29121885 -0.18301421
000270 05 a4 dc bc 0e 1c e2 3d 4e 32 a9 bd 82 89 27 3d
       -0.02693368 0.11040507 -0.08261548 0.040902622
000280 42 55 cf 3d 1a b8 eb bd a7 85 c5 3e 12 9d 75 3c
       0.101236835 -0.11509724 0.3857853 0.014991062
000290 d2 0d 26 3e 7b 4a 23 3e 87 1e bd bd 5c a1 eb bd
       0.1621621 0.15946381 -0.09234338 -0.11505386
0002a0 58 11 c2 3d ce 3b 49 3e c1 80 07 bd ee 0a 8b 3e
       0.09475964 0.1965172 -0.033081774 0.27156776
0002b0 a3 02 3b 3e a6 d9 dd 3d a1 04 b4 bd ef c6 95 bd
       0.18262725 0.10832529 -0.087899454 -0.07313334
0002c0 53 dd f7 bd 93 65 b7 bc 19 8a 54 3e 33 bd b7 bd
       -0.12102761 -0.022387302 0.20755805 -0.08971634
0002d0 37 46 c9 bd 24 b0 77 3e 32 d0 82 3d 21 82 8c 3c
       -0.098278455 0.24188286 0.06387366 0.017151894
0002e0 85 dd 7f bd 80 09 14 3e 17 0d 59 3e ad 09 e4 bd
       -0.062467117 0.14456749 0.211964 -0.11134658
0002f0 77 1f 87 3e 74 19 8a bd a4 db 4b 3e 92 0b 49 be
       0.26391193 -0.06743136 0.19908005 -0.1963332
000300 ac 0e df bc 22 34 18 be 63 e9 96 3c 0c 17 ca 3b
       -0.027228676 -0.14863637 0.018421834 0.006167298
000310 1a 6d 82 3e 1f 75 04 be 9a ff 4e be 69 e6 14 bd
       0.25473863 -0.12935303 -0.20214692 -0.03635255
000320 6e ab 24 3e 96 c0 67 bd c0 77 a8 3d 3b 4e 6e 3e
       0.1608102 -0.05658015 0.082259655 0.2327203
000330 53 b1 52 bd 34 5e 15 bc 6e ed db bc 6a d0 7c 3e
       -0.05143864 -0.009116698 -0.026846614 0.24688879
000340 75 6c a4 bd a0 1e 8e 3d f9 8f 6e 3c 0e 3e bb 3c
       -0.08028499 0.06939435 0.014560693 0.022856738
000350 e4 f2 3c 3e 08 8d e4 bd 41 e8 29 3e 11 f6 04 3e
       0.1845203 -0.11159712 0.16592504 0.12984492
000360 ed 2a 63 3d d1 5e d8 bd 79 c1 ea bd d8 ae 44 3d
       0.05546086 -0.1056496 -0.11462683 0.048018306
000370 2f cf f4 bd aa 2e c8 bb 1f 80 22 3e c7 17 59 be
       -0.1195358 -0.0061090784 0.15869187 -0.21200477
000380 dd ed 6b be e8 69 47 be 93 d3 06 be 69 b4 22 be
       -0.23039956 -0.19473994 -0.13166647 -0.15889134
000390 d5 de 39 3d 41 08 15 be 17 6b 3c 3e 88 3c 86 3e
       0.045378525 -0.1455393 0.18400227 0.26218057
0003a0 aa bd 9b 3d 45 f4 41 3e 13 68 90 bd 7c 89 00 3e
       0.07604535 0.18940838 -0.070511006 0.12552446
0003b0 14 05 e5 3d 69 1b 96 be 01 54 8a bd 78 6f db 3d
       0.11182609 -0.29317787 -0.06754304 0.1071462
0003c0 2a fa 9a 3d 2a f5 85 3d 77 4b 83 3c 97 0d 25 3e
       0.07567246 0.06540902 0.016027195 0.16118465
0003d0 52 38 f0 3b 53 b8 d3 3d 0e b3 72 bd 46 65 95 bc
       0.0073309327 0.103378914 -0.05925279 -0.018236768
0003e0 3f b4 d0 3d 2c 5a 09 3e ab b0 88 bd 88 de 2e 3d
       0.10190629 0.13413304 -0.06674322 0.04269269
0003f0 5f 9a 2d 3e cb 0d 2d 3e 0f b8 f7 bc 18 69 0e be
       0.16953419 0.16899793 -0.030239133 -0.13907278

up3.bias f4 [36]
000000 98 ba 3f 3e 59 d0 a8 bd e0 ce 18 be 86 ec 3c be
       0.18723524 -0.08242864 -0.14922667 -0.18449602
000010 f7 e5 1c 3e 8c 7d f6 3d 5b b9 12 3d 92 df 40 3e
       0.153221 0.12035665 0.0358213 0.18835285
000020 fe f6 26 3e f3 71 0a be 9d 79 02 3d 32 1d 9c bd
       0.16305158 -0.1352003 0.03185426 -0.07622756
000030 b9 fb e2 3d 60 b6 42 3e cf 88 41 3c a3 ce 26 be
       0.110831685 0.19014883 0.011812403 -0.16289763
000040 ff 05 4d bd f7 0e 2d 3e 13 9b b5 bd 13 5f 5c bd
       -0.050054546 0.1690024 -0.08867469 -0.053801607
000050 59 3b 42 3e 45 8a 08 3d cd f9 20 be a1 9c 8c bd
       0.18967952 0.03333499 -0.15720291 -0.06865812
000060 e7 c2 ba 3c 3a f6 b1 bd 63 0c c0 bd 7a 71 7a bd
       0.022798015 -0.08689542 -0.093773626 -0.061143376
000070 1a 74 c0 3c 77 fc 7d 3d f6 c1 01 be 50 93 4b bd
       0.023492862 0.062008347 -0.12671646 -0.049701035
000080 a7 54 05 3d 0c 36 c8 3d a1 b6 01 3e 4f 47 41 3d
       0.032551434 0.097759336 0.12667324 0.047187146

down1.weight f4 [28, 36]
000000 6f 96 8c be 80 58 c2 be 8f 9a d6 3a 73 e4 63 be
       -0.27458522 -0.37958145 0.0016372966 -0.22255115
000010 7b 77 99 3d a8 cc 6d 3e 84 c8 9b bb 30 17 e6 3d
       0.07493492 0.23222601 -0.004754128 0.112348914
000020 59 5f 4f 3e 5b 34 26 be 90 97 49 be af 41 2a bd
       0.20251216 -0.1623091 -0.19686723 -0.041566547
000030 0f 08 0f bd c8 b0 c5 3c 18 ca 95 bd 92 22 c1 bd
       -0.034919795 0.024132147 -0.07313937 -0.09430422
000040 da fa ca be 8d 8c cf bd da a2 17 be 8b de 93 3d
       -0.3964451 -0.1013423 -0.14808217 0.07220181
000050 1d 8b a7 3d 00 d7 49 be 93 ac 7e be 87 7f 6a be
       0.08180831 -0.19710922 -0.2487052 -0.2290021
000060 4c 78 6c 3e da 19 3e 3e ee be ec bd 98 7a 9b 3d
       0.23092765 0.18564549 -0.115598544 0.07591742
000070 98 1f 3c 3e a6 6f 06 be be 54 96 3e 2f ae ab 3d
       0.18371427 -0.13128528 0.29361528 0.08382832
000080 bf b3 df bd fd ed 27 3e 3b 95 92 be a9 00 0a bd
       -0.10922956 0.16399379 -0.2862948 -0.033692036
000090 d3 93 e1 3e 79 c3 aa 3d 4a ef 0c 3e 2d 15 07 3e
       0.44058093 0.08338065 0.13763157 0.13191672
0000a0 f0 f3 42 3e 3e 21 e5 3d 4e b1 a9 bd 26 9d af 3d
       0.19038367 0.11187981 -0.08285771 0.085748956
0000b0 0c e8 21 be 94 7b 55 3d ac 30 2a 3e 75 a8 76 3d
       -0.15811175 0.052119806 0.1662013 0.060219247
0000c0 38 91 46 3e e0 c3 d5 3d c0 7f 24 bd f6 e7 a2 3d
       0.19391334 0.10437751 -0.040160894 0.07954399
0000d0 cc f9 de bd 8b 3c 56 3e f1 fb 10 3e ed 00 aa 3e
       -0.10887489 0.20921533 0.14158608 0.3320383
0000e0 af 62 d1 3d 53 f6 30 bc be a0 27 be 37 66 54 be
       0.102239005 -0.010800916 -0.16369912 -0.20742117
0000f0 75 f3 24 bd 84 4b 30 3e 5e 16 a4 3b 0d cb c5 3c
       -0.04027124 0.17216307 0.005007549 0.024144674
000100 48 83 c2 3e c5 91 23 be 15 1f 86 3d 8d 60 6a 3c
       0.37990785 -0.15973575 0.06548897 0.014305246
000110 49 04 ed bd 0b 9f d7 3d 00 2f 86 3e 7b f8 00 3e
       -0.11573083 0.10528382 0.26207733 0.12594788
000120 78 9e 0b be e6 c7 18 be 51 f6 22 3d e1 3a a8 bc
       -0.1363467 -0.14920005 0.039785687 -0.020535888
000130 be 75 a4 3c 7b 1b e6 3d d0 e8 8e 3d 2c ab 5f 3d
       0.020075675 0.1123571 0.06977999 0.0546066
000140 65 35 87 bc 14 b3 34 be 3a c0 85 3d 81 ad bf 3d
       -0.016504953 -0.17646438 0.06530805 0.09359265
000150 6f 42 31 be 81 50 08 3e 16 b8 db 3d 97 a0 fa 3d
       -0.17310499 0.1331196 0.10728471 0.12237661
000160 38 03 c5 3d 10 fa 89 3d d1 79 e9 ba a7 06 23 be
       0.096197546 0.06737149 -0.0017812793 -0.15920506
000170 5e eb 48 be cc 52 5d be 10 d2 03 be 6f e0 6b bd
       -0.19621035 -0.21613616 -0.12873101 -0.057587083
000180 35 73 2f bd c0 5d a2 3d 53 db 2c bd b0 fc b8 bd
       -0.04283448 0.07928038 -0.04220135 -0.09032571
000190 d5 e5 3a ba 43 c0 56 bd 51 3f 30 3e 01 db 3a be
       -0.00071295846 -0.05242945 0.17211653 -0.18247606
0001a0 c8 2f de bd bb eb ea 3d 79 cb ad bd 9b 04 00 bc
       -0.10848957 0.11470743 -0.08486075 -0.007813598
0001b0 7b 74 83 bc 03 df 9b 3b 0c e5 a3 bd f2 5e 88 3b
       -0.016046753 0.0047568097 -0.080026716 0.004161709
0001c0 e7 31 18 be 3e c8 5c bd 45 fd b8 3d e6 8b 39 3e
       -0.14862786 -0.053901903 0.09032682 0.18119773
0001d0 df 06 01 3e 64 cb 57 be f0 7e 19 bf fe 95 01 be
       0.12600277 -0.21073681 -0.59959316 -0.12654874
0001e0 a3 f5 6e bc 33 ef 10 be c8 cc a5 bd 9c 25 d8 3c
       -0.014584932 -0.14153747 -0.080956995 0.026385121
0001f0 79 cb 17 3d c8 9c 62 be bf ca bc 3c 83 e9 4f be
       0.03705928 -0.2213012 0.023045896 -0.20303921
000200 6f fc c4 3d 35 ab b7 bd 4e cf 74 3e bf 63 a3 bd
       0.096184604 -0.08968202 0.23907205 -0.079780094
000210 58 d8 dd 3e 17 80 20 be bf 12 99 3e 30 60 8b 3d
       0.4332912 -0.15673862 0.29897115 0.06805456
000220 9c 9f 89 bd 34 24 b9 be 2d cb 6f 3e 69 ed 76 be
       -0.06719896 -0.36160433 0.23417349 -0.24114002
000230 93 78 14 be ae d3 a1 3d ac 66 17 3e a9 aa 95 3e
       -0.1449912 0.07901703 0.1478526 0.29231766
000240 bc 12 d3 3d 46 c1 84 3e df 59 77 be b9 04 35 be
       0.10306308 0.25928706 -0.24155377 -0.17677583
000250 87 10 7b be 73 3d a3 bb b7 0a 75 3e f6 2c 3a 3e
       -0.24518023 -0.0049816906 0.23929869 0.18181214
000260 10 af 6e 3d c0 13 32 be c5 b6 cf 3d 8d ae 38 be
       0.05827242 -0.17390347 0.101422824 -0.18035336
000270 bd 42 46 be 31 b1 d0 3d 10 2a 06 be 3e 0a 3e bd
       -0.19361396 0.101900466 -0.13101983 -0.046396486
000280 90 09 71 bd 00 30 0c 3e de 3c 59 3d bb 7a 9a bd
       -0.05884701 0.13690186 0.053036563 -0.0754294
000290 21 ee a1 bd c0 c1 92 bd 8a ff 0c be 29 fc a1 3d
       -0.079067476 -0.07165861 -0.13769355 0.07909424
0002a0 e2 46 0f bd 1c c1 90 bd a6 5f 11 3c dc 41 08 3e
       -0.03497971 -0.07068083 0.008872902 0.13306373
0002b0 da 93 a7 be 6f 1f 30 bd 23 dc 3c 3c 61 78 39 be
       -0.3272999 -0.042998727 0.011527094 -0.18112327
0002c0 57 a9 ca ba 1d 2d 9e be 21 c1 2f be 3f 9c 93 bd
       -0.0015461844 -0.30893794 -0.17163517 -0.07207536
0002d0 94 2c 0f 3e 9e c3 4d bd f0 ef 88 bd dc d5 85 bd
       0.13981849 -0.050235383 -0.066863894 -0.06534931
0002e0 a2 6a 22 3e 49 ad 45 3e 74 7f e2 bc 65 b5 20 3e
       0.1586099 0.19304384 -0.027648665 0.15694197
0002f0 5b 23 8b 3d 4e 8b 37 3e 88 6a 6d 3e 05 d9 14 3d
       0.06793853 0.17924234 0.2318517 0.03633978
000300 96 8e c6 3d 6a 00 09 3e 7a a3 6f 3e 15 62 48 bd
       0.09695165 0.13379064 0.23402205 -0.048921663
000310 ee be 00 be 33 f6 94 3d 6e c1 81 3e d2 80 b3 3e
       -0.12572834 0.07273521 0.25342888 0.3505922
000320 5f ff 19 3e 69 43 99 be a6 20 38 3b fe fb 10 3e
       0.15038823 -0.29934242 0.0028095632 0.14158627
000330 10 f3 07 be 55 c3 52 3e 0f 18 50 3d a0 22 01 3e
       -0.13276315 0.20582326 0.050804194 0.12610865
000340 65 3c c0 3e e2 f6 35 be d3 58 66 3d 02 47 45 3d
       0.37546077 -0.1776996 0.056237053 0.04816342
000350 49 f1 57 bd 8e 27 36 be 58 57 30 3e ef 4d b6 3d
       -0.05272034 -0.17788526 0.17220819 0.089015834
000360 af 32 74 3d b1 f0 a3 be 31 1e 41 be bf 5f 9c bd
       0.05961865 -0.3201957 -0.18859173 -0.076354496
000370 05 fa 83 3e 05 31 63 3e 4c b4 24 3e b1 8b 25 be
       0.25776687 0.22186668 0.16084403 -0.1616657
000380 08 68 04 3e 73 f7 86 be 1a f6 8d be 88 0e 13 3e
       0.1293031 -0.26360664 -0.27726823 0.14361012
000390 e2 c7 d0 3d fb a0 00 3e 59 f1 ff bc 2e b0 24 be
       0.101943746 0.12561409 -0.031243013 -0.16082832
0003a0 95 3f 61 3e 41 3a 81 3e 9b 22 20 be 7e 3e bf be
       0.21996911 0.25239757 -0.15638201 -0.37352365
0003b0 bd 03 54 be bb 81 d0 3d cf 48 a4 3d 5e f8 b7 be
       -0.20704551 0.10180994 0.080217 -0.35931677
0003c0 fe bb 39 3e fe a9 8c bc 5d 4a fe 3d 26 f2 4d be
       0.1813812 -0.017170902 0.124165274 -0.20111904
0003d0 b1 21 16 3e 27 c7 bf 3d 10 1e e5 3d 0b 2e 64 bd
       0.1466129 0.09364157 0.111873746 -0.055707972
0003e0 95 da 43 3a f9 ea 9c 3e aa 09 52 3d ab 09 cd bc
       0.0007471231 0.3064802 0.051278748 -0.025029024
0003f0 d3 18 14 3d 0a e4 85 be ce c3 9d bd c4 84 c0 bd
       0.036156487 -0.26150542 -0.077033624 -0.09400323

down1.bias f4 [28]
000000 50 ac 99 3d 4a 16 0e 3d a9 ae 89 3d 3f fd b0 bd
       0.07503569 0.034689225 0.06722767 -0.08642053
000010 5a 05 ac ba 10 16 1d 3e e8 c0 02 bd 03 67 be 3d
       -0.0013124153 0.15340447 -0.03192225 0.09296992
000020 d6 99 a9 3d 93 d9 d8 3d 10 98 de bd 7e b4 f1 bc
       0.08281295 0.10588374 -0.10868847 -0.02950501
000030 7b ee 11 3e 43 8d 0c 3d a3 b3 c6 bd 70 48 8f bd
       0.1425113 0.034314405 -0.09702232 -0.06996238
000040 5b 2f 22 bd 67 a3 30 3e 2c ed 67 3d 89 59 c8 3d
       -0.039595943 0.17249833 0.05662267 0.097827025
000050 6b 02 11 3e 25 e1 81 bd 9c ef e3 3d 2a a6 cd 3c
       0.14161079 -0.06341771 0.11129686 0.025103647
000060 d2 06 26 bd 84 7c 96 3d f3 d9 f4 3c e9 ad 0f 3e
       -0.040533848 0.07347968 0.029889083 0.14031185

down2.weight f4 [20, 28]
000000 1a 02 32 3d 2a 86 2b be 0b a3 03 3e 74 0c 1e 3e
       0.043459035 -0.16750398 0.12855165 0.15434438
000010 01 f6 06 be 95 81 bd 3d da 26 fd 3c 8b c1 3e be
       -0.1317978 0.092532314 0.030902315 -0.18628518
000020 7c b0 6a be 57 c2 c0 bd 63 a0 52 3d dc 7b 75 bd
       -0.22918886 -0.094120674 0.051422488 -0.059932575
000030 d2 ed 0a be c9 27 cb 3d 9d ec 0d 3d f9 1f ef 3d
       -0.13567284 0.09919698 0.03464948 0.1167602
000040 ea f5 31 3e 7d 13 a8 bd cb 5f 45 be 14 f2 35 3e
       0.17378965 -0.08206842 -0.19274823 0.17768127
000050 c7 81 48 be 45 06 22 be f6 75 f4 bd 68 8e fa 3c
       -0.19580756 -0.15822704 -0.11936562 0.030585483
000060 49 10 3d 3d d2 0b 74 3d 7a 2a 2b 3c d0 10 5f be
       0.04615811 0.059581585 0.010447139 -0.21783757
000070 47 83 cb bd 0e 2a 8f 3d 40 59 ed 3d bb c5 d1 3c
       -0.099371485 0.06990443 0.11589289 0.02560698
000080 3a 9d 47 be af 6a a3 3d 75 cc 46 3e 47 a4 15 3e
       -0.19493571 0.07979333 0.19413932 0.14613448
000090 bd a7 8e 3e 8b 6c e3 bd 7f f8 53 bd c3 b3 7d bc
       0.2786235 -0.11104687 -0.051750656 -0.015484753
0000a0 78 dd 61 3e 51 af 50 3e c7 f9 d1 bd 22 83 87 bd
       0.2205714 0.20379378 -0.10252719 -0.066168085
0000b0 99 c8 24 3e 2c 57 36 3e d0 27 df bd 8f 6c 8a 3d
       0.16092147 0.17806691 -0.108962655 0.06758987
0000c0 15 a2 94 3e 30 e1 00 be 5d 85 6e bd 63 87 6e 3e
       0.2902991 -0.12585902 -0.058232654 0.23293833
0000d0 49 cc ea 3d b6 51 ec 3d 25 65 24 be 72 7a 82 3d
       0.114647456 0.115390226 -0.16054209 0.06371011
0000e0 76 03 2d bc fb 07 72 3e ef f4 16 be 60 27 49 be
       -0.010559907 0.23635857 -0.14741872 -0.19643927
0000f0 9e 66 b1 bd e8 b9 14 3e fc e5 aa 3c be 7f 70 3e
       -0.08662151 0.14524043 0.020861618 0.2348623
000100 95 82 1f 3e 1c 39 09 be 74 53 30 be ab 07 80 3d
       0.15577157 -0.13400692 -0.17219335 0.062514625
000110 07 a5 94 be b5 66 ae 3d 17 bd 1e be d2 b6 00 3e
       -0.29032156 0.085156836 -0.1550182 0.1256974
000120 31 27 4f be 64 40 2d be 31 6c 5e 3e d1 e5 5d bd
       -0.20229794 -0.16919094 0.21720959 -0.054174248
000130 51 8b c5 3d a3 2c 46 bd 8b 1c 92 3d 1e 29 54 3e
       0.09645713 -0.048382413 0.071343504 0.2071881
000140 ea 25 23 3e 56 f4 d0 3d 4d 18 28 bc 36 a4 5a 3d
       0.15932432 0.102028534 -0.0102597 0.05337926
000150 61 ab 84 bd cb a0 a9 bd c6 d9 02 3e 65 58 d9 bd
       -0.064780004 -0.08282622 0.12778386 -0.10612563
000160 0d f0 fa 3c 4b d9 ad 3d 43 0a 99 bd 38 3d 7f bc
       0.030632043 0.08488711 -0.074726604 -0.0155785605
000170 db 2b eb 3d c1 fd 49 be 25 46 9b bc 04 a4 3a b7
       0.11482974 -0.19725706 -0.018954346 -1.1124652e-05
000180 19 36 44 be 89 93 09 be fb 98 2c be a9 dd 30 bd
       -0.19161262 -0.13435186 -0.16855232 -0.04318014
000190 8b 15 b1 bc 73 d6 d3 3d 76 1f 4e 3a 9a 7f fd bd
       -0.021616718 0.10343637 0.00078629644 -0.12377854
0001a0 ce d6 93 3d 0c 09 19 3e 8b 28 a2 3d c1 b8 26 3e
       0.07218705 0.14944857 0.07917889 0.16281416
0001b0 a4 9b 05 3e d6 a6 2f bd 04 e7 3f be 31 cd 51 be
       0.13047653 -0.042883717 -0.18740469 -0.2048843
0001c0 33 1c b8 3d f3 f6 0b 3d 18 73 9c 3e 21 20 04 3f
       0.089897536 0.034171056 0.3055656 0.51611525
0001d0 8e b9 3a be d0 49 69 3b 8f 71 46 3e c7 44 e0 bd
       -0.18234846 0.0035596974 0.19379257 -0.10950618
0001e0 1b e7 d1 bd fb 33 7e 3e 5f 6d 1f 3c 33 3b c9 3e
       -0.10249158 0.24824516 0.009730666 0.39302978
0001f0 82 1d 12 3e 81 b9 47 3e bc 1f 85 3d 0b 4b 95 3e
       0.14269069 0.19504358 0.065001935 0.29158816
000200 8a 29 11 3e 4b 75 c2 be f8 b1 45 bd dc 06 19 3e
       0.14176002 -0.37980112 -0.048265427 0.14944023
000210 91 83 5f bd 85 f6 84 3e 18 f0 4e 3e 67 d8 0b be
       -0.05456883 0.2596933 0.20208776 -0.1365677
000220 f7 57 f5 bd 3a d0 2c be 75 88 b2 3c c6 fd b9 3d
       -0.119796686 -0.16876307 0.021793583 0.090816066
000230 23 a6 f6 3d 16 52 07 3e 4a 39 f2 bd de f7 cc 3d
       0.12043407 0.13214907 -0.11827333 0.100082144
000240 bd ea 28 3c 0f 9e 0d be 4c 50 0d bc 04 c7 9d 3d
       0.010309872 -0.13829826 -0.008625101 0.07703975
000250 b3 1e 59 be 04 7d b6 be bd e9 72 3d 40 9c 23 3d
       -0.21203117 -0.35642254 0.05930494 0.039943933
000260 a0 37 8d bd 82 d8 2b 3d f4 91 31 bd f6 d0 a2 3c
       -0.06895375 0.041954525 -0.043352082 0.019875031
000270 67 c1 af 3e c7 1d 8a 3e 7c 61 1c bd 6d b8 52 bd
       0.34327242 0.26975843 -0.038178906 -0.051445413
000280 98 ae 40 3e 96 b1 4c be 28 08 84 be f6 3f fb 3d
       0.18816602 -0.19989619 -0.25787473 0.12268059
000290 01 d2 39 3e 88 fb 0f bb 79 7b 4c be 16 f0 48 3e
       0.18146516 -0.0021969993 -0.19968976 0.19622836
0002a0 4a 26 1e be 1f 71 02 3e e1 15 48 be ea b1 15 bc
       -0.15444294 0.12738465 -0.19539596 -0.009136656
0002b0 70 b9 43 3d 4f b8 04 be be 8b 51 bd 46 ff 2e be
       0.04778427 -0.12960933 -0.05115866 -0.17089567
0002c0 b3 93 ae bd 4b 3f 71 bc c6 61 24 3d 31 fa 9b 3e
       -0.08524265 -0.014724563 0.040132307 0.30464318
0002d0 48 97 2c 3e dd 5b 52 3e ac c1 de bc 95 01 d7 bc
       0.16854584 0.20542856 -0.02719196 -0.026245872
0002e0 2b 4b ce bd 9b e3 fc 3d 43 77 2d be 07 6a a7 bd
       -0.10072931 0.123481 -0.16940026 -0.0817452
0002f0 25 f8 72 3e a7 51 96 bd a4 89 46 3e 2d 72 19 bb
       0.23727472 -0.07339793 0.19388443 -0.0023414001
000300 2a 84 e9 3d 02 e3 c3 3c 31 37 17 3e c7 18 26 3e
       0.114021614 0.023911957 0.14767148 0.1622039
000310 1d d1 9e 3e b4 5f ac be 2c a1 84 3c 80 f3 70 3e
       0.31018916 -0.33666766 0.016190134 0.23530388
000320 25 76 c6 3e 48 94 31 bc d4 14 06 3d 0a 73 6f be
       0.38762012 -0.010838576 0.032734707 -0.23383728
000330 73 d4 95 be 6e 84 d9 3d 43 34 3b 3e f6 04 87 3e
       -0.29263648 0.10620962 0.18281655 0.26370972
000340 aa a5 f2 bd 1a 53 5a bd da 84 37 3e 2d 26 8e 3e
       -0.11848004 -0.053301908 0.17921773 0.277635
000350 07 09 80 3e 7b 7a d1 3c 91 65 b4 3d a1 6e 3e 3d
       0.25006887 0.025571099 0.08808435 0.046492223
000360 3b f1 62 bd 43 0b 48 3e 47 9f 71 be c7 32 87 3e
       -0.055405837 0.19535546 -0.23595916 0.26405928
000370 a7 bf 05 be 6b 03 a2 3e 44 56 72 bb 36 1d a5 bc
       -0.13061391 0.31643233 -0.0036977688 -0.02015553
000380 27 59 3b be e0 2c a5 3d f2 b4 2b be e0 52 cb bc
       -0.18295728 0.080652 -0.16768244 -0.024819791
000390 6a b4 8a 3d 43 d3 8b 3d 8d 06 d6 3d 2e 64 4b 3c
       0.067726925 0.06827404 0.10450468 0.012414021
0003a0 2e 0b 31 3e 08 c2 9f bd 26 7f 21 3d 61 33 39 be
       0.17289421 -0.078006804 0.0394279 -0.18086006
0003b0 b5 52 1f 3e fa 0e f4 bd 69 46 60 bd 51 40 d6 bd
       0.15558894 -0.11916919 -0.05475465 -0.10461486
0003c0 2a 79 35 bd d7 2f 20 be 02 9f 21 3d 1c 13 c4 3d
       -0.044305004 -0.1564325 0.039458282 0.09573957
0003d0 04 ca 0d be 8b e1 c1 bd b6 d8 3b be 3e 1b 0a bd
       -0.13846594 -0.09466847 -0.18344387 -0.033717386
0003e0 b5 45 92 3d cd bd 1b bd b9 ed 2f be 94 4f 0a be
       0.07142202 -0.038022805 -0.17180528 -0.13506919
0003f0 22 23 66 3e 02 78 1d bd 35 5e 2a bb 12 da 5d 3e
       0.2247434 -0.038444526 -0.0025996093 0.21665218

down2.bias f4 [20]
000000 d9 73 27 3e 7e b1 89 3d 2d 0e c4 3d d8 9d cb bd
       0.16352786 0.06723307 0.09573016 -0.09942216
000010 5b 02 55 be 33 fa b1 3d 55 73 13 3e 60 51 b8 3d
       -0.2080168 0.086903 0.14399464 0.08999896
000020 3b 37 11 be 36 e8 6e 3e 2f 6f ba 3c 83 80 5d be
       -0.14181225 0.23330769 0.022758095 -0.21631055
000030 d6 07 0d be 53 e3 4e 3d 38 0c 34 3c fd 0a 26 3d
       -0.1377252 0.050509762 0.010989241 0.040537823
000040 ef a8 bd 3d 14 fc 1a 3e a5 01 cc 3d 7d fe cd bd
       0.09260737 0.15135223 0.09961251 -0.100583054

down3.weight f4 [12, 20]
000000 cd 1d 33 3e cd 19 a1 3b c0 7c c1 3d 85 3a 45 3e
       0.17491837 0.004916406 0.09447622 0.19260605
000010 d7 17 b3 3e 45 d7 84 be 92 3c 35 3e 82 d1 bb 3b
       0.34979126 -0.25945488 0.17698887 0.0057317624
000020 41 5f 62 3e bc 04 e7 3d de 37 1d 3e 26 20 1c be
       0.22106649 0.112802 0.15353343 -0.15246639
000030 7a 0e c3 bd 8e f2 88 3e f8 85 00 be 90 6d c9 3e
       -0.095242456 0.26747555 -0.12551105 0.39341402
000040 b6 fb af be ad eb 21 3d cb 3e 26 be 3c 98 9f be
       -0.34371728 0.0395314 -0.16234891 -0.31170833
000050 fa e9 44 bd 1e 0a 7d 3e 42 a2 ea bd 36 ec 37 3e
       -0.0480747 0.2471089 -0.114567295 0.17961201
000060 0e a3 2b 3e 51 4e 9a 3e bb 6a ae 3d bf 32 ef bd
       0.16761419 0.30137876 0.08516451 -0.11679601
000070 7c 45 58 3e 8a 58 89 3e 51 80 5e 3d 0d 09 d5 3c
       0.21120256 0.26825362 0.05432159 0.026005292
000080 60 e0 ef 3d 7c 60 51 be f2 95 69 3e fa 15 97 bd
       0.11712718 -0.20446962 0.22811106 -0.073772386
000090 24 85 38 bd 33 57 b1 be 03 2b d6 3d c9 b6 84 be
       -0.045048848 -0.3463684 0.104574226 -0.25920704
0000a0 fc 43 49 ba 9c 83 13 be ac ad 8a 3e ae 5d 8f 3c
       -0.0007677672 -0.14405674 0.27085626 0.017500725
0000b0 c8 40 b6 3e fd 27 ff bb f3 93 9b bd 1f ee ee bd
       0.355963 -0.0077867494 -0.075965784 -0.11666512
0000c0 68 30 07 bd e5 7d 17 be 7b 42 44 3e 11 be 05 3e
       -0.03300515 -0.14794119 0.19165985 0.13060786
0000d0 90 a2 0e 3e 82 93 a2 be 11 d5 a1 3e 1a 73 e2 3d
       0.139292 -0.31753165 0.3160787 0.1105711
0000e0 96 5c a4 be 1e 4a 02 3e 9e 78 33 be c5 99 53 3e
       -0.32101887 0.12723586 -0.1752648 0.20664127
0000f0 c9 ab 3c be 45 8c 83 3e 59 6b 2c 3e be 5c 8a 3b
       -0.18424906 0.25692955 0.16837825 0.0042224815
000100 bb fc 69 3d b4 f4 22 3f e0 8f 99 be f2 ee 70 3e
       0.05712579 0.6365464 -0.2999258 0.2352865
000110 98 d4 fd bd 39 d5 12 bd a2 78 43 bd 37 59 f7 bd
       -0.12394065 -0.035847876 -0.047722466 -0.12077563
000120 2b 51 08 3d c5 cb 0e 3c 76 6c 28 3d 0a 3d a9 bd
       0.033280533 0.008715575 0.04111906 -0.082635954
000130 93 79 73 be 5c a7 80 3c 2f f3 cc bd 07 1e 23 bd
       -0.23776846 0.015704803 -0.10007321 -0.03982356
000140 3f 4c f7 3d 7b cc 07 bd 31 8b a7 3d ed 4d 29 be
       0.1207509 -0.033153992 0.081808455 -0.16533633
000150 66 5d 50 be 98 a0 11 be 4e 71 03 bf 5f 9b 04 3d
       -0.20348129 -0.14221418 -0.51344764 0.032374736
000160 f8 8a 66 3d 14 c3 34 3e 35 f6 bd 3e 79 61 2a be
       0.056284875 0.17652541 0.37101904 -0.16638745
000170 6e db 79 bd 2b 87 a9 3c 65 9f 64 3e f6 86 b2 bd
       -0.06100028 0.020694336 0.22326429 -0.08717148
000180 0d 86 d5 bb 96 c6 34 3e 3a e2 57 bd ca 19 de bd
       -0.0065162242 0.1765388 -0.05270598 -0.108447626
000190 44 c3 20 be 6f af c1 bd 7a 54 d2 3d 27 e0 05 be
       -0.15699488 -0.094572894 0.10270019 -0.13073789
0001a0 71 64 47 bd 26 25 3c bd a3 7c 9a 3d ea 0e 59 bc
       -0.048679773 -0.045933865 0.07543304 -0.013248185
0001b0 ed 83 fa 3d f6 94 76 3d 7d 47 25 be f9 c6 bc bc
       0.12232194 0.060200654 -0.16140552 -0.023044096
0001c0 85 04 f0 3d 10 ab c0 3d 04 52 16 3c 71 c7 3e 3d
       0.11719612 0.094076276 0.0091748275 0.04657692
0001d0 a8 1f 8f 3d 05 9f 45 3d 61 d1 54 be 5a 0a a9 bd
       0.0698846 0.048247356 -0.20782997 -0.082539275
0001e0 01 46 de 3c 2d 6a c9 be 43 22 53 bc d5 a0 15 be
       0.02713299 -0.39338818 -0.012886587 -0.14612134
0001f0 2c 5c 06 bd bd 45 43 bd b5 69 62 bd 8a 28 b1 3e
       -0.032802746 -0.04767393 -0.05527659 0.3460124
000200 f3 f7 4f 3e 7f c7 b0 3e 3b 1b c1 be 50 4b 83 3d
       0.20309429 0.34527203 -0.37716088 0.06410849
000210 0e 28 05 be 91 6e 24 3e e6 c4 2f 3d fa e1 0a 3e
       -0.13003561 0.16057803 0.042912386 0.13562766
000220 31 2f f1 3d c0 31 8c be e7 ca 5e 3c 7e 88 99 3e
       0.11776579 -0.27381706 0.01359818 0.29986948
000230 c8 d9 15 3e 79 7a 70 bc ab 03 a5 be 16 c7 c4 3c
       0.14633858 -0.014677637 -0.3222936 0.024020713
000240 d0 62 8b 3e 7f 21 7f be da 2d ab be 37 35 b7 3d
       0.27223825 -0.24915121 -0.3343342 0.08945697
000250 99 c8 11 be 5c 05 15 bd cb 63 2d be c4 7b 00 3e
       -0.14236678 -0.036382064 -0.16932599 0.12547213
000260 ca 03 0e be ca 27 58 bc d8 ed d8 3d 3d 1e 03 be
       -0.13868633 -0.01319308 0.1059224 -0.12804504
000270 0c 9f ad 3d 5a 5b 57 3e 85 eb 62 3e ad 96 44 be
       0.084776014 0.21030942 0.22160156 -0.19198103
000280 28 97 df bb 10 6b 35 3e 54 be 5d bd e2 0d c4 3d
       -0.006823439 0.17716622 -0.05413659 0.095729604
000290 a0 8d 88 be 0b 27 70 be ba d4 42 be 85 22 f6 bd
       -0.2667055 -0.23452394 -0.19026461 -0.12018303
0002a0 94 50 60 be e3 07 55 bd 6a 74 28 be 8a e6 66 3e
       -0.21905738 -0.052009474 -0.16450658 0.22548881
0002b0 4e fa cc 3d 8d 50 ff 3e 1f 12 a5 bc 8c 21 33 3b
       0.10008679 0.49866143 -0.020150242 0.0027333228
0002c0 d1 b8 6b 3d 79 54 67 be 9c a4 22 3c dd 0d 54 bd
       0.0575493 -0.22590818 0.009926941 -0.051771034
0002d0 66 d9 4f be b2 2d 44 bd c0 26 50 be 10 3d 77 3e
       -0.20297775 -0.04789514 -0.20327282 0.24144387
0002e0 df 24 9d 3e 4c 37 22 3e 80 b2 28 3d 5c 0a 27 3e
       0.30692193 0.15841407 0.041185856 0.16312546
0002f0 4c 5f 56 be c0 a7 a9 bd ce 8e ee 3e d4 ce 88 bd
       -0.2093479 -0.08283949 0.46593326 -0.06680074
000300 7c 14 9d 3e 68 a9 8d 3c fa 26 70 be 2b 68 c0 3c
       0.3067969 0.017292693 -0.23452368 0.023487171
000310 ac 23 5a 3e 47 c4 4d be 40 d9 2b 3e 0a ae f4 bc
       0.2130267 -0.20094405 0.16782093 -0.029868145
000320 3e d9 58 bd 8d 13 b1 3d e7 23 90 3e 09 7f 30 be
       -0.052941553 0.08646307 0.2815239 -0.1723596
000330 5d e1 8f bd a5 62 24 be 4d 86 44 3d e4 63 07 bd
       -0.070254065 -0.16053255 0.04797964 -0.033054247
000340 64 a2 ce 3d 5a 4e 4a 3e a6 69 94 bd 7f 5f 8b bd
       0.10089567 0.19756451 -0.07246713 -0.06805324
000350 b5 ca 69 bd 30 77 45 3d d5 03 01 3e 89 2f 67 bd
       -0.057078082 0.04820937 0.12599118 -0.056441817
000360 d8 7c fd 3c 15 35 8a bd 79 00 2a 3e e8 c3 3b be
       0.03094332 -0.06748406 0.16601743 -0.18336451
000370 c0 ea 34 3d 80 19 5f 3d 15 c5 83 3c ce 28 c1 3d
       0.044169188 0.054467678 0.016085187 0.09431611
000380 2e b9 94 3e c2 93 1a bd 54 11 e0 3d ee 5c 6c be
       0.2904753 -0.03773857 0.10940805 -0.23082325
000390 05 91 0a be 29 98 d8 bd 6e 09 b0 3d d7 2f d9 be
       -0.13531883 -0.10575897 0.085955486 -0.4241931
0003a0 a6 4b 82 be 0a 54 c5 3e 06 36 22 3e f3 f9 55 be
       -0.2544834 0.3854068 0.15840921 -0.2089613
0003b0 b3 0e b5 3d ec 1c ef bd ea 50 53 3e 8e 08 8c 3e
       0.08840694 -0.11675438 0.20636335 0.27350277

down3.bias f4 [12]
000000 77 e8 9a 3d bc 43 9c bd ba 60 7c be 7d 95 69 3b
       0.075638704 -0.07630107 -0.24646273 0.003564208
000010 4d a8 17 3e 2f 4c 7d bd 65 b4 0f be c7 39 f7 3d
       0.14810295 -0.061840232 -0.14033659 0.12071567
000020 78 bb 84 be de 6b 20 3e b6 03 0b be 5a 0a 2f 3e
       -0.25924277 0.15666148 -0.13575634 0.17093793
