OC/model_Panel1_sink_vr_clust12_oc24.pt (torch, 19266 bytes, 12 tensors)

up1.weight f4 [20, 12]
0	0xbd0052d7	-0.031329002
1	0x3e57e36e	0.21082851
2	0x3e8aeb73	0.27132758
3	0xbeab75ef	-0.33488414
4	0xbe210289	-0.15723623
5	0xbe280e56	-0.16411719
6	0x3e22ffa8	0.15917838
7	0x3e937bbe	0.28805345
8	0xbe903a2e	-0.28169388
9	0x3ec9078a	0.39263564
10	0xbeaca5fa	-0.3372038
11	0x3e11715c	0.142034
12	0x3d93f38f	0.072241895
13	0xbd02e0f4	-0.031952813
14	0xbd7bc164	-0.06146373
15	0x3d83367a	0.06406875
16	0x3e85fd90	0.26170015
17	0x3dc2a4a5	0.0950406
18	0x3ea05c50	0.3132043
19	0xbe387770	-0.18014312
20	0x3de28be2	0.11061837
21	0x3ebfbf8b	0.37450823
22	0xbaa0b5c0	-0.0012261197
23	0xbedf2af3	-0.43587455
24	0x3e09a2ad	0.13440962
25	0x3ea4302d	0.32068005
26	0x3e84e8d7	0.25958893
27	0xbe27fe5e	-0.16405627
28	0x3e48f9ca	0.19626537
29	0xbe264c28	-0.16239989
30	0xbdd04695	-0.101697125
31	0x3e10483b	0.14090054
32	0x3d5c7ca2	0.053829797
33	0x3e7c39ba	0.24631396
34	0x3d115fdf	0.03549182
35	0x3ca2f82d	0.01989373
36	0x3edab003	0.4271241
37	0x3e0625f6	0.13100418
38	0x3d1126a6	0.03543725
39	0x3b817e60	0.0039518327
40	0x3e9b8d91	0.30381444
41	0x3ea0bb37	0.31392834
42	0x3c8f5f99	0.01750164
43	0x3e99d242	0.30043226
44	0x3d5ea26b	0.054354113
45	0x3ec14228	0.37745786
46	0x3e87316c	0.26404893
47	0x3e6d79a6	0.23190936
48	0x3cd28adf	0.025700985
49	0xbe69e720	-0.22842073
50	0xbe9b2486	-0.30301303
51	0xbe939c68	-0.28830266
52	0xbe467bd1	-0.1938317
53	0xbf1dbc1e	-0.6161517
54	0xbe949a45	-0.29023948
55	0x3d28ed7c	0.041242108
56	0xbe8f1f00	-0.2795334
57	0x3e34c425	0.17652948
58	0xbeac1a3d	-0.33613768
59	0xbeda9cbb	-0.426977
60	0x3c2c1b3e	0.010504542
61	0xbdff70c3	-0.124726795
62	0x3dadae5a	0.084805205
63	0xbe3fd3ec	-0.18733186
64	0x3ed0795f	0.407176
65	0xbc5ea43c	-0.013588961
66	0xbe234f4a	-0.15948215
67	0xbdc956ed	-0.09831033
68	0xbeb2277a	-0.34795743
69	0xbe38327f	-0.17988013
70	0xbed5f24a	-0.41786414
71	0x3df15959	0.1178462
72	0xbd43c9b1	-0.04779977
73	0xbeaed99d	-0.341504
74	0x3d2b28b4	0.041786864
75	0x3dddabbf	0.108237736
76	0x3e6fde0e	0.23424551
77	0xbdf0404f	-0.11731016
78	0x3e905648	0.28190827
79	0x3e2a7a92	0.1664832
80	0x3e57d9e2	0.2107921
81	0x3e46f817	0.19430576
82	0x3d2628c3	0.040566217
83	0x3eb2aa13	0.3489538
84	0x3dd57b07	0.10423856
85	0x3df2b7f9	0.11851496
86	0x3e7421a7	0.23840962
87	0xbe9642a4	-0.29347718
88	0xbe413f1c	-0.1887173
89	0x3e30f3dc	0.17280525
90	0xbc00c910	-0.007860437
91	0xbd003b92	-0.03130681
92	0x3d08e928	0.03342548
93	0x3e055efd	0.13024516
94	0x3e145574	0.14485723
95	0xbd6c7251	-0.057726208
96	0xbe860e93	-0.26182994
97	0xbe48389d	-0.19552846
98	0xbca7eff9	-0.02050017
99	0x3dc103a0	0.094245195
100	0x3dc88e50	0.09792769
101	0x3eccfefd	0.4003829
102	0x3e7020e1	0.23450042
103	0x3e395d2a	0.18101946
104	0x3eb85d16	0.3600852
105	0x3e0bdf13	0.13659315
106	0x3cf4d361	0.02988595
107	0x3dfcd718	0.123457134
108	0xbe239428	-0.15974486
109	0x3e0b7d8e	0.13622114
110	0x3ed11be8	0.40841603
111	0x3d3c2ce5	0.045941252
112	0x3d07642b	0.033054512
113	0x3d03b174	0.032151654
114	0xbd42e597	-0.047582235
115	0xbe50574a	-0.20345798
116	0x3e87fa14	0.26557982
117	0x3e19329f	0.14960717
118	0x3e2deb74	0.1698435
119	0x3eb0cfa1	0.34533408
120	0xbe29b717	-0.1657375
121	0x3dc9d9a6	0.09855966
122	0x3ea59ba1	0.32345298
123	0x3f0561a3	0.52102107
124	0xbca206a6	-0.01977856
125	0xbdfeb443	-0.12436726
126	0x3e0da694	0.13833076
127	0x3ea67bc4	0.325163
128	0x3e37be90	0.17943788
129	0x3e98c764	0.29839623
130	0x3def4f70	0.116850734
131	0xbde0100b	-0.1094056
132	0x3ec74e1a	0.38926774
133	0xbdfd1e56	-0.12359302
134	0x3eb1cf84	0.34728634
135	0x3e9590de	0.29212087
136	0xbe0f78ad	-0.14010878
137	0x3d6400fc	0.055665
138	0x3e42846e	0.1899583
139	0xbc9e9bf5	-0.019361475
140	0xbda66307	-0.08124357
141	0xbca31c11	-0.019910844
142	0xbd2fad3a	-0.04288981
143	0xbd8f8b94	-0.07009044
144	0xbd0807bc	-0.0332105
145	0x3d87b5f9	0.066265054
146	0xbd4a6822	-0.049415715
147	0x3e93e86a	0.28888255
148	0xbea48587	-0.32133123
149	0xbd34e84d	-0.04416685
150	0x3dec878a	0.115492895
151	0x3e9ece64	0.3101684
152	0x3e3a8814	0.18215972
153	0xbcbb0db9	-0.022833692
154	0x3ddb5b0b	0.107107244
155	0x3ea92f09	0.33043697
156	0x3d6d2a23	0.057901513
157	0x3d8ddcd0	0.06926882
158	0xbcdf26c6	-0.027240168
159	0xbdfc41c5	-0.12317232
160	0x3d4973f3	0.049182843
161	0xbdea3d22	-0.114374414
162	0x3ee12d00	0.43979645
163	0x3f07b469	0.5300966
164	0x3ec85c70	0.39133024
165	0xbe914247	-0.28370878
166	0x3c790fdb	0.015201534
167	0xbe323fd1	-0.17407157
168	0x3de4d9ff	0.11174392
169	0x3ec2cdc7	0.3804762
170	0xbe2a4c3b	-0.16630642
171	0xbbc4f78f	-0.0060109566
172	0xbebce24d	-0.36891404
173	0xbdb1017c	-0.08642861
174	0x3dd69cd9	0.10479135
175	0xbea1e702	-0.31621557
176	0x3caf7927	0.021420075
177	0x3e6b7a9f	0.22995995
178	0x3d90880c	0.07057199
179	0x3e830411	0.2558904
180	0xbd165e7c	-0.0367112
181	0xbd625a34	-0.055261806
182	0x3e2195dc	0.15779823
183	0xbe81b922	-0.25336558
184	0x3e3c276a	0.1837441
185	0x3dcbf37a	0.09958549
186	0x3e99a5b2	0.30009228
187	0xbe0bddf9	-0.13658895
188	0x3e9d7ded	0.30760136
189	0xbd5ca236	-0.053865634
190	0x3dba5ac5	0.09099344
191	0x3e59cd5c	0.21269745
192	0x3e925c7d	0.28586188
193	0x3e62cb16	0.22147784
194	0xbda97587	-0.0827437
195	0x3e9d65a7	0.30741617
196	0xbe6d938b	-0.23200814
197	0xbe2fbc68	-0.17161715
198	0x3e826d95	0.2547423
199	0xbe61cdb1	-0.22051121
200	0x3e9f463e	0.31108278
201	0x3d636329	0.05551449
202	0xbd17310b	-0.036912005
203	0x3e684fb2	0.22686651
204	0xbe2ae628	-0.1668936
205	0x3e94cd1e	0.29062742
206	0x3e3c3639	0.1838006
207	0x3e25cf29	0.16192307
208	0xbd579c7c	-0.05263947
209	0x3e9b23ce	0.30300754
210	0x3ecc6eb3	0.39928207
211	0x3e566a9b	0.20939104
212	0xbe801fb1	-0.2502418
213	0xbe16ec77	-0.14738642
214	0x3e5256c3	0.2054091
215	0x3e92ac75	0.286472
216	0x3d181d35	0.03713723
217	0xbd696a1e	-0.056985967
218	0x3e84438b	0.2583278
219	0x3e1ce0dd	0.15320154
220	0xbea42eb2	-0.32066876
221	0x3e414e89	0.18877615
222	0xbe4d0230	-0.20020366
223	0x3ec7b52c	0.3900541
224	0x3ea227ff	0.3167114
225	0x3e20ff0d	0.15722294
226	0xbd8fa8e9	-0.07014639
227	0x3e37f1a3	0.17963271
228	0x3e7c893f	0.2466173
229	0x3e6fd5fa	0.2342147
230	0x3d5508a5	0.052010197
231	0xbe21982e	-0.15780708
232	0x3df4c7b8	0.11952156
233	0xbdd0d240	-0.10196352
234	0x3e4c81ac	0.19971341
235	0xbceb663c	-0.028735273
236	0x3e28b88e	0.16476652
237	0x3e6c2ba6	0.23063526
238	0xbd84e0c1	-0.06488181
239	0x3e9f1e9b	0.31078038

up1.bias f4 [20]
0	0x3e95e381	0.29275134
1	0x3e807abd	0.25093642
2	0x3da986f4	0.082776934
3	0xbe15c542	-0.14626029
4	0xbe52e801	-0.20596315
5	0xbdf3a23d	-0.11896179
6	0x3cc1f9e8	0.023678735
7	0x3df5f99c	0.120105
8	0x3dc7f1be	0.097629055
9	0x3d0bf9cc	0.03417377
10	0x3df01ecb	0.11724623
11	0x3e8dce14	0.27696288
12	0x3b9a2065	0.0047035688
13	0x3e49f7f6	0.19723496
14	0x3e475f87	0.19470035
15	0x3ddbdebf	0.10735845
16	0x3e87e0fd	0.2653884
17	0x3e4f2cf9	0.20232
18	0x3e135c0a	0.14390579
19	0x3d018dee	0.031629495

up2.weight f4 [28, 20]
0	0x3ddeacea	0.108728245
1	0x3d849efa	0.06475635
2	0xbe09f9b4	-0.1347416
3	0x3d052df2	0.03251452
4	0x3d556352	0.052096672
5	0x3eb8f2c8	0.36122727
6	0x3db75d9c	0.089534014
7	0xbdf18534	-0.117929846
8	0x3e4e12d6	0.20124373
9	0x3c604a0a	0.013689527
10	0xbe8fc40a	-0.28079253
11	0xbe9d3b6e	-0.30709404
12	0xbe24d719	-0.16097678
13	0x3e44b2be	0.1920881
14	0x3e1208cf	0.14261173
15	0x3e5e83d9	0.21729983
16	0x3cf259b2	0.029583786
17	0xba57acf4	-0.0008227371
18	0xbe0c9ac4	-0.13730913
19	0x3e96b956	0.29438275
20	0xbdd00c19	-0.101585574
21	0xbe48151f	-0.19539307
22	0x3eaa9593	0.3331724
23	0xbdcfa96c	-0.101397365
24	0xbe3db630	-0.1852653
25	0x3d51d433	0.05122776
26	0x3e7ca04c	0.24670523
27	0xbe8e685c	-0.27813995
28	0x3ca0a85a	0.019611526
29	0x3e800bef	0.25009105
30	0x3e0c6c3a	0.1371316
31	0x3dee2b67	0.11629372
32	0xbdb741ae	-0.08948074
33	0xbd41264d	-0.047155667
34	0xbec68a7e	-0.38777536
35	0xbd0dfb2d	-0.034663368
36	0x3d221e4c	0.039579675
37	0x3daa1ea4	0.083066255
38	0xbe398a7f	-0.18119238
39	0x3e96d80a	0.294617
40	0x3e74364f	0.23848842
41	0xbd01af5c	-0.031661376
42	0xbd85796a	-0.065172985
43	0xbd06fcd1	-0.03295595
44	0xbe227891	-0.15866305
45	0x3e523587	0.20528232
46	0x3da35e22	0.07976939
47	0x3d3c80d2	0.04602129
48	0x3e278d65	0.16362531
49	0x3d406865	0.04697456
50	0x3ea3aac0	0.3196621
51	0xbe916cc2	-0.28403288
52	0x3da9adea	0.082851246
53	0xbe225826	-0.15853938
54	0x3de36d6f	0.11104857
55	0xbe424f55	-0.18975575
56	0xbbab92e3	-0.005236016
57	0x3e8fb6d7	0.28069183
58	0x3e35a9f3	0.17740612
59	0x3e510325	0.20411356
60	0xbea850af	-0.32874057
61	0x3e4d2f15	0.20037492
62	0xbe33d42f	-0.1756141
63	0x3e352adb	0.1769213
64	0x3e8276c2	0.2548123
65	0xbe2d99b3	-0.16953163
66	0x3ab71e6c	0.0013970858
67	0xbe8423bb	-0.2580851
68	0x3e81543a	0.25259572
69	0xbe0b48fc	-0.1360206
70	0x3e85f744	0.2616521
71	0xbb4f6cab	-0.0031650465
72	0xbe9d38af	-0.3070731
73	0x3e95238e	0.2912869
74	0x3d8de3e5	0.06928233
75	0x3e6a810d	0.22900791
76	0x3e2938de	0.165256
77	0x3e44132f	0.19147943
78	0x3dfbca18	0.12294406
79	0x3e19fb8b	0.15037362
80	0x3dcc79eb	0.099841915
81	0xbe3947b8	-0.18093765
82	0x3dfcf74c	0.12351856
83	0xbbe6db0d	-0.007045156
84	0x3c916376	0.017747622
85	0xbe385b93	-0.18003683
86	0xbd923848	-0.07139641
87	0x3e04fb9e	0.1298661
88	0xbe42ab7e	-0.19010732
89	0x3d959669	0.07304079
90	0xbde31a90	-0.11089051
91	0x3de2023f	0.11035585
92	0x3d35f2b1	0.0444209
93	0xbd9a8908	-0.07545668
94	0xbdee5cf7	-0.116388254
95	0x3daaadcd	0.08333931
96	0xbe24679f	-0.16055153
97	0xbe538527	-0.20656262
98	0xbdf9f8a2	-0.12205626
99	0xbe4fdfb5	-0.20300181
100	0xbd91e21f	-0.07123207
101	0x3cb3dcf2	0.02195594
102	0xbe53e286	-0.2069188
103	0x3e2d9257	0.16950355
104	0xbe529c6a	-0.2056748
105	0xbd4a9cfa	-0.04946611
106	0x3de4fee2	0.111814275
107	0x3da8737e	0.082251534
108	0x3e1574cf	0.1459534
109	0x3d2966ce	0.041357808
110	0xbe2b57a0	-0.16732645
111	0x3d2bfccb	0.04198913
112	0x3cd61163	0.026131338
113	0x3d0644b2	0.032780357
114	0xbd0822e8	-0.033236414
115	0xbe5f245e	-0.21791217
116	0xbe5bb075	-0.21454032
117	0x3dc8e6c4	0.0980964
118	0xbdb3c24b	-0.08777293
119	0xbcf37d22	-0.029722754
120	0x3ea7881e	0.32721037
121	0xbe25e121	-0.16199161
122	0x3c5acb70	0.013354167
123	0x3e4b3050	0.19842649
124	0xbe2fb647	-0.17159377
125	0x3e2030c3	0.15643601
126	0x3d2b62bb	0.041842204
127	0x3d560035	0.05224629
128	0x3e8da434	0.2766434
129	0x3e881625	0.26579395
130	0x3e719027	0.23590146
131	0xbdbcfe7a	-0.09228225
132	0xbe676d86	-0.22600374
133	0xbe018244	-0.12647349
134	0xbe5dc14e	-0.21655771
135	0x3e44f01d	0.19232221
136	0xbca645e0	-0.02029699
137	0xbcd09cf6	-0.02546547
138	0x3dae3b2a	0.085073784
139	0x3e2890f6	0.16461548
140	0x3e6e640e	0.23280355
141	0x3c35a908	0.0110876635
142	0xbe36a93e	-0.17837998
143	0xbdb9c82c	-0.09071383
144	0x3d3c5897	0.045982923
145	0xbd563179	-0.052293275
146	0x3e391997	0.18076168
147	0x3e34b8cb	0.17648618
148	0x3e6823c4	0.22669894
149	0xbcbdb014	-0.02315525
150	0x3df4a0bc	0.1194472
151	0x3d9da8ad	0.07698188
152	0x3e2aee05	0.1669236
153	0x3d6e0e99	0.05811939
154	0x3e954248	0.2915213
155	0x3e2445a8	0.16042197
156	0x3d79bbc4	0.060970083
157	0x3e34847e	0.17628667
158	0xbe2bb756	-0.16769156
159	0x3c7ff762	0.0156229455
160	0xbea2b56c	-0.3177904
161	0x3e87c03c	0.2651385
162	0x3e760bec	0.24027985
163	0x3e0deb31	0.1385925
164	0xbc05f488	-0.008175977
165	0x3cbb62b0	0.022874206
166	0xbdb1c129	-0.086794205
167	0x3cb8eefb	0.022574892
168	0x3daabb9c	0.08336565
169	0xbd11626a	-0.035494246
170	0x3d907d7b	0.070551835
171	0xbe59801b	-0.21240275
172	0x3d6b2905	0.057412166
173	0xbdd64536	-0.1046242
174	0xbe0dd11b	-0.13849299
175	0x3e41af33	0.1891449
176	0xbc49e3d5	-0.012322386
177	0x3e2e912a	0.17047563
178	0xbe4a09dc	-0.19730324
179	0x3e55e8c3	0.20889573
180	0x3e3377d4	0.1752618
181	0x3e9a9e58	0.30198932
182	0x3e627cec	0.22117966
183	0x3d38e267	0.04513779
184	0x3c05871d	0.008149889
185	0x3ce4838f	0.027894763
186	0xbe8095da	-0.25114328
187	0x3dbd4b58	0.09242886
188	0xbe480bc6	-0.19535741
189	0x3e49fda9	0.1972567
190	0x3daa7e2f	0.08324849
191	0xbd110470	-0.035404623
192	0x3cf3a313	0.029740846
193	0x3d4210cf	0.04737931
194	0x3e6333fe	0.22187802
195	0xbe04a70d	-0.1295435
196	0x3ea0eeed	0.31432286
197	0xbcedb492	-0.029016767
198	0x3e141efc	0.14464945
199	0x3dee8873	0.116471194
200	0xbda2a0af	-0.07940804
201	0x3eaca99e	0.33723158
202	0x3e26c2be	0.16285226
203	0x3e64d2ec	0.22346085
204	0xbe72a433	-0.2369545
205	0x3d647fc9	0.055785928
206	0xbe54da15	-0.20786317
207	0x3e2feeaf	0.17180894
208	0xb94dde03	-0.0001963303
209	0x3d9e55cc	0.07731208
210	0x3e2216e9	0.15829052
211	0x3e1ca03e	0.15295503
212	0x3dc500f2	0.09619321
213	0x3de29b4b	0.11064776
214	0x3b85ae07	0.0040795836
215	0x3dce423f	0.10071229
216	0x3d8b773e	0.06809853
217	0xbe2869ab	-0.16446559
218	0xbd493abe	-0.049128287
219	0x3d10bcbc	0.03533624
220	0x3e2408ac	0.16018933
221	0x3e88c1fb	0.26710495
222	0xbdc4a55d	-0.09601853
223	0xbdf5a063	-0.11993482
224	0x3cc1da7c	0.023663752
225	0xbc797edd	-0.0152280005
226	0x3d7ab05d	0.06120335
227	0x3dd3e57f	0.10346507
228	0xbd14f0fa	-0.036362626
229	0xbd9441ed	-0.07239137
230	0xbe042df2	-0.12908152
231	0x3d89332b	0.06699213
232	0xbc365a84	-0.011129979
233	0x3e86986c	0.26288164
234	0xbc719ced	-0.014746887
235	0x3d745dfe	0.05965995
236	0xbd582aac	-0.05277507
237	0x3d7a6da1	0.061139707
238	0x3d383f33	0.044982146
239	0x3dade834	0.08491555
240	0x3e5806db	0.21096365
241	0x3d41c59c	0.047307596
242	0x3d340b73	0.04395623
243	0x3e2dc88c	0.16971034
244	0x3d6b39c3	0.057428133
245	0x3d31a51e	0.04337036
246	0x3e36b1d5	0.17841275
247	0x3e110975	0.14163764
248	0xbe236af1	-0.15958764
249	0xbe6b07f9	-0.2295226
250	0x3e4409ff	0.19144438
251	0xbe620e24	-0.22075707
252	0xbcf95a3b	-0.030438533
253	0x3ec8d1c8	0.3922255
254	0xbe01f349	-0.12690462
255	0xbe006bf1	-0.12541176

up2.bias f4 [28]
0	0x3e8517ae	0.2599463
1	0x3e4e1048	0.20123398
2	0xbd4af4a4	-0.049549714
3	0x3dddd085	0.108307876
4	0xbe37255b	-0.17885344
5	0xbdb8cc16	-0.09023301
6	0xbcafd040	-0.021461606
7	0xbe0e7026	-0.13909969
8	0x3e70f345	0.235303
9	0xbe09bcc5	-0.13450916
10	0xbdb80267	-0.08984833
11	0xbc3dd1fc	-0.011585709
12	0x3e001f32	0.125119
13	0x3db7764b	0.089581095
14	0xbdf75e4f	-0.12078535
15	0xbc7aba4c	-0.015303206
16	0x3e5a5802	0.21322635
17	0x3cbcb578	0.02303575
18	0xbc81f395	-0.01586322
19	0x3e750579	0.23927869
20	0x3d39293b	0.045205336
21	0xbe016233	-0.12635116
22	0x3e0d039c	0.13770908
23	0x3e1059e0	0.14096785
24	0x3e25cd28	0.16191542
25	0x3de6715c	0.1125209
26	0x3d7dc2f8	0.061953515
27	0xbe4c42f7	-0.1994742

up3.weight f4 [36, 28]
0	0xbe36dcd0	-0.17857671
1	0xbdb08aa1	-0.08620191
2	0xbd984050	-0.07434142
3	0xbe75abc7	-0.23991309
4	0xbd839b9c	-0.064261645
5	0x3d2c39b8	0.042047232
6	0xbd257ab5	-0.040400226
7	0xbd3a33b1	-0.045459453
8	0xbd753a1e	-0.059869878
9	0x3e879bd3	0.26486072
10	0xbda82851	-0.08210815
11	0x3e0c0652	0.13674286
12	0x3e2595d7	0.1617044
13	0x3dcc9050	0.09988463
14	0x3e007059	0.12542857
15	0xbe20ae8d	-0.15691586
16	0xbc7a9365	-0.015293931
17	0x3e4244c2	0.18971542
18	0x3e0a5dc1	0.13512327
19	0xbe40792b	-0.18796222
20	0x3da375ba	0.07981439
21	0x3e050712	0.12990978
22	0x3db2f6e3	0.08738496
23	0x3ebca41c	0.36843956
24	0x3e597297	0.21235119
25	0x3e7cbb17	0.24680744
26	0x3deaab19	0.114584155
27	0x3d84e2c6	0.06488566
28	0x3e0b2eee	0.13592121
29	0xbe8b38e6	-0.27191848
30	0xbdec39f4	-0.11534491
31	0xbe55ab32	-0.20866087
32	0x3e3b0942	0.1826525
33	0xbc6c841d	-0.014435795
34	0xbe1b4ed1	-0.15166785
35	0xbb561d34	-0.0032671215
36	0x3dbb8145	0.091555156
37	0x3d5f4a81	0.05451441
38	0x3e372196	0.17883906
39	0xbd306f7b	-0.043075066
40	0xbdbbaed3	-0.091642044
41	0xbe316abe	-0.17325875
42	0x3d0c1020	0.034195065
43	0xbe596006	-0.21228036
44	0xbd240795	-0.040046293
45	0xbe2374cb	-0.15962522
46	0xbdab3308	-0.08359343
47	0xbc0a6b78	-0.008448474
48	0xbc556969	-0.01302562
49	0xbe13a402	-0.14418033
50	0x3e61cd1e	0.22050902
51	0x3e581ed3	0.21105509
52	0x3e4f6188	0.20252049
53	0x3e985642	0.2975331
54	0xbe7973c7	-0.24360572
55	0xbe0ad96a	-0.135595
56	0xbe1878d9	-0.1488985
57	0xbe61231b	-0.21986048
58	0x3d241945	0.04006316
59	0xbe7a6ff0	-0.24456763
60	0xbc52c9e4	-0.012865517
61	0xbdb4de5c	-0.08831474
62	0x3e21691e	0.15762755
63	0x3e450b41	0.19242574
64	0xbdd01a28	-0.10161239
65	0xbe578bbb	-0.21049397
66	0x3d553925	0.05205645
67	0xbdb1ad14	-0.0867559
68	0x3da956cf	0.082685106
69	0xbe6010ef	-0.2188146
70	0x3e1a090d	0.15042515
71	0x3dd5cd29	0.10439522
72	0x3d4833b7	0.048877444
73	0x3dd4d1d1	0.10391582
74	0x3e39d68b	0.18148248
75	0x3e28dad9	0.16489734
76	0xbd0bb2c7	-0.034106042
77	0x3e40dd25	0.1883436
78	0x3d595dca	0.05306796
79	0x3d26c832	0.040718265
80	0xbce1ad25	-0.027548382
81	0xbe838440	-0.25686836
82	0x3d4e62db	0.050387245
83	0x3e0af8a0	0.13571405
84	0x3d953d4f	0.07287084
85	0xbeb4b7fe	-0.35296625
86	0x3cea17d9	0.028575825
87	0x3e67ed7d	0.22649188
88	0xbe32f940	-0.17477894
89	0xbe07b58d	-0.1325285
90	0xbee71092	-0.4512983
91	0x3e2a4369	0.16627277
92	0xbe06aef5	-0.13152678
93	0x3e0405c4	0.12892824
94	0xbccb5d04	-0.024824627
95	0x3e26a444	0.162736
96	0xbe12f8be	-0.143527
97	0xbe1ce1a3	-0.15320449
98	0x3e9c0db4	0.30479205
99	0xbdb5f170	-0.08883941
100	0x3d78d679	0.060751412
101	0x3e7b0fa1	0.2451768
102	0x3e70d5fd	0.2351913
103	0x3e0aa263	0.13538508
104	0xbcb68cc9	-0.022283928
105	0x3d702682	0.058630474
106	0xbdb5a878	-0.088700235
107	0xbd174923	-0.036934983
108	0xbe1d5b37	-0.15366827
109	0x3ead5148	0.33851075
110	0xbeac95ce	-0.33708042
111	0x3c466c28	0.012110747
112	0x3d2d8f4d	0.04237299
113	0xbe645a61	-0.22300102
114	0x3e105d7b	0.1409816
115	0xbd798dbd	-0.060926188
116	0xbd99ae01	-0.07503892
117	0x3da3191c	0.079637736
118	0xbdaf5631	-0.085613616
119	0xbc9befcb	-0.01903524
120	0xbe04d714	-0.12972671
121	0x3dd00f57	0.10159176
122	0x3d04e6ce	0.032446675
123	0xbe3ef55e	-0.18648288
124	0xbd2d4447	-0.042301442
125	0x3e3944e0	0.1809268
126	0xbe8381bc	-0.25684917
127	0x3d5673ed	0.05235665
128	0x3e237171	0.15961243
129	0xbdfa2e3e	-0.12215851
130	0xbdfc910e	-0.123323545
131	0xbdd149e3	-0.10219171
132	0x3d93ba46	0.07213263
133	0x3ca2606b	0.019821366
134	0xbd6e03dc	-0.05810915
135	0xbe04a0de	-0.12951991
136	0x3c868537	0.016420944
137	0x3e59e6bf	0.21279429
138	0xbe7d1867	-0.2471634
139	0xbd23e19b	-0.040010076
140	0x3e1b325d	0.15155931
141	0x3e55e655	0.20888646
142	0xbdbd736d	-0.09250531
143	0x3b78071c	0.0037846034
144	0xbe124951	-0.1428578
145	0xbda05b19	-0.078298755
146	0x3e87851a	0.26468736
147	0x3e0d8e81	0.13823892
148	0x3d3e3473	0.04643674
149	0xbe08ed90	-0.13371873
150	0x3d4da667	0.05020752
151	0xbe4a8543	-0.19777398
152	0x3ddcfbf2	0.10790242
153	0xbe2c412e	-0.16821739
154	0xbe51617d	-0.20447345
155	0x3e43e45d	0.19130082
156	0xbc0bf4cd	-0.008542252
157	0xbe8a012d	-0.26954022
158	0xbd690ace	-0.05689507
159	0x3e3b600d	0.18298359
160	0xbddde6ec	-0.108350605
161	0x3e2d0480	0.16896248
162	0xbe347089	-0.17621054
163	0xbd94e5e6	-0.07270412
164	0xbd39e0e0	-0.045380473
165	0x3e933d66	0.2875778
166	0x3e3bacd1	0.18327643
167	0xbba9e827	-0.0051851454
168	0x3e5a3ed5	0.21313031
169	0x3de24510	0.11048329
170	0x3d1fb8c1	0.038994554
171	0x3ce95147	0.028481139
172	0x3ca6b6cd	0.020350838
173	0x3d863e9c	0.065549105
174	0x3d07bfa3	0.033141743
175	0x3e410e39	0.18853082
176	0x3e1cd1fe	0.1531448
177	0x3d4c696c	0.049905226
178	0xbd8fd163	-0.07022359
179	0x3e6ad34c	0.22932166
180	0xbe32bcf5	-0.17454894
181	0xbd08a040	-0.03335595
182	0xbe329e3c	-0.17443174
183	0xbe8ff8a0	-0.28119373
184	0xbe128409	-0.1430818
185	0x3e3ce199	0.18445434
186	0x3e2e7cb5	0.1703976
187	0xbd95a975	-0.07307712
188	0x3c2ad618	0.0104270205
189	0xbe2748f6	-0.16336426
190	0x3dfcc7e7	0.12342816
191	0x3e9df5c9	0.30851582
192	0xbde77424	-0.11301449
193	0x3d385cd2	0.045010395
194	0x3c863b4b	0.016385695
195	0xbe08fa1a	-0.13376656
196	0xbe0f956a	-0.1402184
197	0x3d00586c	0.031334326
198	0xbe4d393c	-0.20041364
199	0x3d82c4d5	0.06385199
200	0x3d6fc5c3	0.05853821
201	0xbdf50233	-0.1196331
202	0xbd9b5bd6	-0.07585876
203	0xbcb07231	-0.021538826
204	0x3e2749fd	0.16336818
205	0x3e0a6556	0.13515219
206	0x3e9c6f09	0.30553463
207	0xbe6236c1	-0.220912
208	0xbe396649	-0.18105425
209	0x3e224df9	0.15850057
210	0xbe827cfc	-0.2548598
211	0x3e2bc45e	0.16774127
212	0x3d432f75	0.04765268
213	0xbe9266c4	-0.2859403
214	0xbcea40bc	-0.02859532
215	0x3d523ea7	0.05132928
216	0xbdefe3cd	-0.117133714
217	0xbdfe5d00	-0.12420082
218	0xbe52a02d	-0.20568915
219	0x3e220ba9	0.1582476
220	0xba7ab5c2	-0.0009563827
221	0xbe45400e	-0.19262716
222	0x3e86d12a	0.26331455
223	0xbd423836	-0.04741689
224	0x3e6ede35	0.23326953
225	0x3de30ca5	0.11086396
226	0x3df4b6c7	0.119489245
227	0xbd0ada24	-0.03389944
228	0x3cc22f42	0.023704175
229	0x3e02a4e2	0.1275821
230	0x3da4fe8c	0.080563635
231	0xbbc5cf52	-0.0060366774
232	0xbd367927	-0.044549134
233	0x3e711c4c	0.2354595
234	0xbe61e60c	-0.22060412
235	0xbdf240dd	-0.11828778
236	0xbcfc792f	-0.030819504
237	0x3e7268d7	0.23672806
238	0xbeaae967	-0.33381197
239	0x3cc32599	0.023821639
240	0x3e6c6c23	0.23088126
241	0x3e357a2b	0.17722385
242	0x3d56d28d	0.05244689
243	0xbe7ad286	-0.24494371
244	0xbe47db96	-0.19517359
245	0x3d2ad375	0.041705567
246	0x3e506419	0.20350684
247	0xbc947f1a	-0.018127013
248	0xbe296905	-0.16543968
249	0xbe075bc2	-0.13218597
250	0xbd95787e	-0.07298373
251	0xbdfe3531	-0.12412489
252	0xbe834e3f	-0.25645635
253	0x3e135848	0.14389145
254	0x3cbbfcb0	0.02294764
255	0x3e33bcfe	0.17552564

up3.bias f4 [36]
0	0xbd2386c2	-0.039923437
1	0x3c777e7a	0.015105838
2	0xbdefdbf8	-0.117118776
3	0xbdfc46c4	-0.12318185
4	0xbe5d51bb	-0.21613209
5	0x3e2d7ffb	0.16943352
6	0x3db78d97	0.08962553
7	0xbd9412d1	-0.072301514
8	0xbe3a0105	-0.18164451
9	0x3dfb1966	0.12260704
10	0x3d13b59b	0.036061864
11	0xbd5f73e5	-0.054553885
12	0xbd48dd0d	-0.049038935
13	0xbe1ab899	-0.15109481
14	0xbd9647c0	-0.07337904
15	0xbbd7eea8	-0.0065897293
16	0x3ba39998	0.004992675
17	0x3d80c692	0.06287874
18	0xbe41e9cc	-0.18936843
19	0xbe6f0233	-0.23340683
20	0xbe25189f	-0.16122673
21	0xbe35af80	-0.17742729
22	0xbd44a0e4	-0.048005
23	0xbe24fb97	-0.16111599
24	0xbe39cba3	-0.18144087
25	0xbe5abe9b	-0.21361773
26	0x3e4d6f9c	0.20062107
27	0x3e0f373c	0.13985914
28	0x3d924ecf	0.07143938
29	0xbe4a60df	-0.19763516
30	0x3e2d43a2	0.16920331
31	0x3e3af9d4	0.18259364
32	0x3d943904	0.07237437
33	0x3dd34b5d	0.10317109
34	0xbd2c8fe8	-0.042129427
35	0x3e478670	0.19484878

down1.weight f4 [28, 36]
0	0x3e18a7d9	0.14907779
1	0x3d4b8209	0.049684558
2	0xbe2f4ea4	-0.17119843
3	0xbd8d8141	-0.06909419
4	0xbdd7d0d2	-0.10537876
5	0x3dbee0a8	0.093201935
6	0xbe27ccf3	-0.16386776
7	0xbde24cf8	-0.11049837
8	0xbe5ab195	-0.21356805
9	0xbe989cf0	-0.29807234
10	0xbeac07f0	-0.33599806
11	0xbf039faa	-0.51415503
12	0xbe83ff8c	-0.25780904
13	0x3de07b7e	0.10961054
14	0xbd94f533	-0.072733305
15	0xbd1d0435	-0.03833409
16	0xbc279ed5	-0.01023074
17	0x3ea83ea9	0.32860306
18	0x3ca7523b	0.020424953
19	0xbe0b6229	-0.13611664
20	0xbe1539b5	-0.14572795
21	0x3e0f1ee0	0.13976622
22	0x3d22f546	0.039784692
23	0x3e061f93	0.13097982
24	0x3da48039	0.08032269
25	0xbe2ce507	-0.16884242
26	0xbe048c3e	-0.12944123
27	0xbe9c21b3	-0.3049446
28	0x3e8c625b	0.2741879
29	0x3d84b416	0.06479661
30	0x3e281dad	0.1641757
31	0x3e992f35	0.2991883
32	0xbd771476	-0.060322247
33	0xbd99e780	-0.07514858
34	0x3cc1f70f	0.023677377
35	0x3c6224db	0.013802732
36	0x3e7086e2	0.23488954
37	0xbcbf3739	-0.023341762
38	0x3d0184ae	0.031620674
39	0xbd8e4b66	-0.06947975
40	0x3d045ab5	0.032313067
41	0x3e0e74e8	0.13911784
42	0x3e5e285b	0.21695082
43	0x3e62caa5	0.22147615
44	0x3e20a44e	0.15687677
45	0xbe34a18b	-0.17639749
46	0x3d678c3b	0.05653022
47	0xbd456e8e	-0.048201136
48	0x3cf59d23	0.029982155
49	0x3d17f5a1	0.037099484
50	0xbbeb9be9	-0.007190217
51	0x3ec355ae	0.38151306
52	0xbdcde027	-0.10052519
53	0x3d6ad597	0.0573326
54	0x3e6f379d	0.23361059
55	0x3e230ac2	0.15922073
56	0x3dfb4b0a	0.12270172
57	0x3df1823e	0.1179242
58	0xbe4a70b9	-0.19769563
59	0x3e4ff848	0.20309556
60	0x3ce02490	0.027361184
61	0x3d512bc7	0.05106714
62	0xbe1fe209	-0.1561357
63	0x3e22bd0e	0.15892431
64	0xbe54991f	-0.20761536
65	0x3e08fc80	0.13377571
66	0x3e23c102	0.15991595
67	0x3c1e23b8	0.009652071
68	0xbe580e3c	-0.2109918
69	0x3d152d37	0.036420073
70	0x3c441cec	0.011969786
71	0xbcef9a55	-0.029248396
72	0xbe9d5042	-0.30725294
73	0xbea01679	-0.31267145
74	0x3d8f6b50	0.0700289
75	0xbeabb34d	-0.33535233
76	0xbe5737d4	-0.2101739
77	0x3e3c5dd7	0.18395172
78	0x3d404318	0.046938986
79	0xbec3b3b3	-0.38223037
80	0x3eb967b0	0.3621192
81	0x3e574e35	0.21025927
82	0x3cebbcb2	0.0287765
83	0xbdbc9497	-0.09208029
84	0xbdc0389d	-0.09385798
85	0x3e8c8772	0.27447087
86	0xbe020f36	-0.12701115
87	0x3e7658f3	0.24057369
88	0xbdcec8a8	-0.10096866
89	0xbea3b649	-0.3197501
90	0xbef2d97d	-0.47431555
91	0xbe04db4a	-0.12974277
92	0x3ca08787	0.019595874
93	0xbd921b28	-0.07134086
94	0xbde9728a	-0.113988
95	0x3c3e3990	0.011610404
96	0xbe32a26d	-0.17444773
97	0xbe1ad0bb	-0.15118687
98	0xbccd51ba	-0.025063384
99	0xbe63bd08	-0.22240078
100	0x3e93641b	0.28787312
101	0x3e8d7f6f	0.27636287
102	0x3d112ad8	0.03544125
103	0x3db04604	0.086071044
104	0xbe17c4ab	-0.14821117
105	0xbe8ef76e	-0.2792315
106	0xbe794641	-0.24343206
107	0x3e21023a	0.15723506
108	0xbdc1cfa5	-0.09463433
109	0xbc94dc56	-0.01817147
110	0xbd6bc18b	-0.057557624
111	0xbcddc835	-0.027073005
112	0x3d30b8cd	0.04314499
113	0x3eb09757	0.34490463
114	0xbdc23b00	-0.094839096
115	0x3ea930a7	0.3304493
116	0x3d422412	0.04739768
117	0xbf2e7f40	-0.6816292
118	0xbe15cd07	-0.14628993
119	0xbe2858fc	-0.16440195
120	0x3d3e065e	0.04639279
121	0xbdf51407	-0.119667105
122	0xbdc8e3d3	-0.09809079
123	0x3ebac1ca	0.36475974
124	0xbe76da52	-0.2410672
125	0xbe62dfab	-0.22155635
126	0x3ea84007	0.3286135
127	0xbdf40846	-0.119156405
128	0x3e2b62ac	0.16736859
129	0xbe33620b	-0.17517869
130	0xbdf292db	-0.11844417
131	0x3ce41016	0.027839702
132	0xbe4c90cb	-0.19977109
133	0xbe232a2b	-0.15934055
134	0x3d9fff82	0.07812406
135	0xbe3cf4af	-0.18452714
136	0x3d713265	0.05888595
137	0xbe5e888a	-0.21731773
138	0x3e5286c5	0.20559223
139	0x3ca69ef9	0.020339476
140	0xbeb1e2bc	-0.34743297
141	0xbe976be2	-0.29574496
142	0x3e40bc83	0.18821912
143	0x3d70dfc1	0.05880714
144	0x3cf4fe2c	0.029906355
145	0xbe20cb78	-0.15702617
146	0xbccb63fa	-0.024827946
147	0xbd600621	-0.054693345
148	0xbdfc24d3	-0.12311711
149	0x3e345ea5	0.17614229
150	0x3d679d9a	0.056546785
151	0x3e2c1d2c	0.16808003
152	0xbdc3f5d1	-0.0956837
153	0x3d0f2e4b	0.034956258
154	0x3dcf9451	0.10135711
155	0xbc55adda	-0.013041938
156	0x3d99987d	0.07499788
157	0x3e405e05	0.18785866
158	0xbdaf0970	-0.08546722
159	0x3e67f68d	0.22652645
160	0xbd611a06	-0.05495646
161	0xbcc01a62	-0.02345008
162	0x3e06bc0b	0.1315767
163	0xbd5d21ee	-0.053987436
164	0x3e6cb787	0.23116885
165	0x3e591c44	0.21202189
166	0x3ce28a09	0.02765371
167	0x3e85de00	0.26145935
168	0x3c13cb4f	0.0090206405
169	0x3d8c6ae2	0.06856324
170	0x3c818605	0.015810976
171	0x3e03ffe7	0.12890588
172	0xbd55359a	-0.05205307
173	0x3d160bdb	0.0366324
174	0x3e199b06	0.15000543
175	0xbddd8b25	-0.10817555
176	0xbe5cbd93	-0.21556692
177	0x3e4212d5	0.18952496
178	0xbe617cef	-0.22020315
179	0x3d2b375c	0.04180084
180	0x3e161bc3	0.14659028
181	0xbd41fe23	-0.047361504
182	0x3d4d25d1	0.050084893
183	0x3ea395ab	0.31950125
184	0xbeba4517	-0.36380836
185	0x3bef953a	0.0073114904
186	0x3e325df9	0.1741866
187	0xbe6c4e78	-0.23076808
188	0xbe7820bf	-0.24231242
189	0xbe96363d	-0.29338256
190	0x3cd2018a	0.0256355
191	0xbe1db3c5	-0.15400608
192	0x3e589031	0.21148755
193	0x3ea7e5a7	0.32792398
194	0xbe0b9946	-0.13632688
195	0x3e850096	0.2597701
196	0xbeb177a4	-0.3466159
197	0xbd87d746	-0.06632857
198	0x3e7f7756	0.24947867
199	0x3df4d57a	0.1195478
200	0xbe8bcbeb	-0.27304015
201	0xbe224782	-0.1584759
202	0xbe140980	-0.14456749
203	0x3e4190c4	0.1890288
204	0xbda43611	-0.08018125
205	0x3d214e65	0.039381403
206	0x3dfb4901	0.12269784
207	0x3bd76e88	0.0065744556
208	0x3e96b9c9	0.29438618
209	0x3c3fa518	0.011697076
210	0xbe69ccae	-0.22831985
211	0xbd5f08b4	-0.05445166
212	0xbd36de96	-0.04464587
213	0xbe42d4aa	-0.19026437
214	0xbead08c1	-0.3379574
215	0x3e981199	0.29700926
216	0x3c3bac0d	0.011454594
217	0x3b407800	0.00293684
218	0xbd8a742d	-0.0676044
219	0xbf061d7f	-0.5238876
220	0xbe77bab8	-0.24192321
221	0x3dec6bd5	0.11544005
222	0x3e2c6eda	0.16839162
223	0x3e9aa179	0.3020132
224	0xbdd69b20	-0.104788065
225	0xbd1710fd	-0.036881436
226	0xbdbedbcf	-0.09319269
227	0x3e35349f	0.17695855
228	0x3d44fa14	0.048090056
229	0xbe947533	-0.28995666
230	0xbe4c69f2	-0.1996229
231	0x3d8ded3c	0.069300145
232	0xbe0b65fd	-0.13613124
233	0x3e798ad6	0.24369368
234	0x3eb866af	0.3601584
235	0x3db8abd2	0.09017147
236	0x3cb32e25	0.02187259
237	0xbeba2be4	-0.3636161
238	0xbe22cda0	-0.15898752
239	0x3b005efb	0.0019587863
240	0x3d2309a8	0.03980413
241	0xbe402e0d	-0.18767567
242	0x3ec66fc4	0.38757145
243	0x3e9c86ec	0.30571687
244	0xbe176d2a	-0.14787737
245	0xbe993ca0	-0.29929066
246	0xbdd1da12	-0.10246672
247	0x3ce28379	0.027650582
248	0xbda673c2	-0.08127548
249	0x3da7e85f	0.08198618
250	0x3bbfd0f6	0.0058537675
251	0x3e1fc513	0.15602522
252	0xbe9c0e64	-0.3047973
253	0x3cd2f581	0.025751831
254	0xbde1dcb4	-0.11028424
255	0x3cf40de3	0.029791778

down1.bias f4 [28]
0	0xbca3e55d	-0.02000683
1	0x3d8c91ba	0.06863733
2	0xbd625b2c	-0.05526273
3	0x3b64cf5e	0.003491364
4	0x3df93710	0.121687055
5	0xbd835826	-0.06413297
6	0x3de8619e	0.11346744
7	0x3a1e82a1	0.0006046687
8	0x3a69d831	0.00089204597
9	0xbd10e2b5	-0.035372455
10	0x3e267ba6	0.16258106
11	0xbc9ba96b	-0.019001683
12	0x3dc6ea73	0.097126864
13	0x3dfd2b1f	0.1236174
14	0x3d25d810	0.040489256
15	0x3e03c8cf	0.12869571
16	0x3c757eaa	0.014983812
17	0x3e455682	0.19271281
18	0xbe090484	-0.13380629
19	0xbe270fad	-0.16314574
20	0x3dc88d85	0.09792618
21	0x39532d6d	0.0002013945
22	0x3c2327cb	0.009958218
23	0x3e40e1a3	0.18836074
24	0xba2821aa	-0.0006413708
25	0x3d84644a	0.06464441
26	0xbc99a84a	-0.018757004
27	0x3e0d7c50	0.13816953

down2.weight f4 [20, 28]
0	0xbcf0b3ff	-0.029382704
1	0x3ddaf29c	0.10690805
2	0x3c4399a9	0.011938491
3	0x3e9765c6	0.29569834
4	0xbb8b17fc	-0.0042448025
5	0xbe11614e	-0.14197275
6	0x3e5b2f9a	0.21404877
7	0x3e25a826	0.16177425
8	0x3e31ecc9	0.17375483
9	0x3e4d62be	0.20057198
10	0x3ca5fd83	0.020262485
11	0x3eb10192	0.3457151
12	0x3dd9f353	0.106421135
13	0x3d474ca6	0.048657082
14	0xbd8bfbca	-0.06835134
15	0x3e3d9e22	0.18517354
16	0xbe7ae7b1	-0.24502446
17	0xbddfedeb	-0.10934051
18	0xbe3eeedc	-0.18645805
19	0x3d638d8f	0.055554923
20	0x3e63d313	0.22248487
21	0xbd125c8b	-0.035732787
22	0xbdaf6064	-0.08563307
23	0x3e8377d2	0.25677353
24	0x3e423932	0.18967131
25	0xbe60e31f	-0.2196164
26	0xbe2229a1	-0.15836193
27	0x3e693cb1	0.22777058
28	0x3cc75ecb	0.024337193
29	0x3d986bfb	0.07442471
30	0x3e8bc3f4	0.27297938
31	0x3dd96339	0.10614628
32	0xbdf5650a	-0.11982162
33	0xbdcd07bb	-0.1001124
34	0x3db18b7d	0.086691834
35	0xbe18873f	-0.14895342
36	0x3d3fb6b0	0.046805084
37	0xbede1b48	-0.4338019
38	0xbdbec4a7	-0.09314852
39	0x3d038260	0.032106757
40	0x3e74b3eb	0.23896758
41	0x3d86e982	0.06587507
42	0xbf1975d1	-0.599454
43	0x36ca1e86	6.0236225e-06
44	0x3ea1020d	0.31446877
45	0x3e5a0a13	0.21292906
46	0x3e3b1c15	0.18272431
47	0x3d993e8e	0.074826345
48	0xbdbe62b2	-0.092961684
49	0x3e5f1317	0.21784626
50	0x3dc67a95	0.096913494
51	0x3921eeb1	0.00015443076
52	0xbdc5b6db	-0.096540175
53	0x3e904ed2	0.28185135
54	0xbdaa62bd	-0.08319614
55	0x3d499626	0.04921546
56	0x3e4efa8e	0.20212767
57	0x3e5c6889	0.21524252
58	0xbe632741	-0.22182943
59	0x3ed32034	0.41235507
60	0x3cff7707	0.031184686
61	0xbe849621	-0.2589579
62	0x3e8eb7bf	0.27874562
63	0x3e611a67	0.21982728
64	0xbdc67a38	-0.0969128
65	0x3e56c2b4	0.20972711
66	0x3d7cc06b	0.06170694
67	0x3e7b7e00	0.24559784
68	0xbe1d9541	-0.15388967
69	0xbe159d93	-0.14610891
70	0x3efc8a1e	0.49324125
71	0xbdebc027	-0.115112595
72	0x3eace07b	0.33765015
73	0xbe042eb3	-0.1290844
74	0x3c865dc8	0.01640214
75	0x3d904c52	0.07045807
76	0x3dbf0543	0.093271755
77	0xbd84aa4e	-0.064777955
78	0x3d9ec995	0.077532925
79	0xbdcd375c	-0.100203246
80	0xbe82a882	-0.25519186
81	0x3d86a0e6	0.06573658
82	0xbdbe4b4b	-0.09291705
83	0x3e42bd20	0.19017458
84	0xbdbe8c49	-0.09304101
85	0xbd2e36b9	-0.042532656
86	0xbe409c61	-0.18809654
87	0x3bc2f58f	0.005949683
88	0xbe01b8e7	-0.12668191
89	0xbdaba527	-0.0838111
90	0x3e07e578	0.13271129
91	0xbe07a344	-0.13245875
92	0x3e228b6f	0.15873502
93	0x3dcf6ea9	0.101285286
94	0x3d5c4928	0.053780705
95	0x3da492f6	0.08035843
96	0x3d8a8fb5	0.06765691
97	0x3dbd8b1b	0.09255048
98	0x3e169d29	0.1470839
99	0xbe5449e2	-0.20731309
100	0xbc6d2e0f	-0.014476313
101	0x3daba692	0.0838138
102	0xbcebcd2d	-0.028784359
103	0xbce35756	-0.027751606
104	0xbdc32692	-0.09528841
105	0x3d1cabaa	0.03824965
106	0xbd49a9fe	-0.049234383
107	0xbe4b2d57	-0.19841515
108	0x3b322b50	0.002718646
109	0xbe1345a7	-0.14382039
110	0xbd50bd12	-0.05096156
111	0x3e22d734	0.15902406
112	0x3df443cb	0.11926993
113	0x3d3e05e5	0.04639234
114	0x3e69fef0	0.22851157
115	0xbda1d819	-0.079025455
116	0x3dfbdf3b	0.12298437
117	0x3e1634c7	0.1466857
118	0xbdd00dfc	-0.10158917
119	0xbdb0dcbe	-0.08635853
120	0xbd80bb7a	-0.06285758
121	0xbcfd9ca5	-0.030958483
122	0x3bb036cb	0.0053776256
123	0x3d4ac655	0.04950555
124	0x3d19e269	0.037569437
125	0x3e6b3f1e	0.22973296
126	0xbdb8f084	-0.0903025
127	0x3e7442e9	0.23853649
128	0xbe3bbb1c	-0.18333095
129	0xbedb01cb	-0.42774805
130	0xbda94c8e	-0.08266555
131	0xbe3b3c8c	-0.18284816
132	0x3db13d20	0.08654237
133	0x3dd87e98	0.10571021
134	0x3e94e69d	0.29082194
135	0x3e653090	0.22381806
136	0x3c62f943	0.013853374
137	0xbd4bb2eb	-0.049731176
138	0x3d4f60cd	0.050629426
139	0x3e6eaf22	0.23308995
140	0xbeda5519	-0.4264305
141	0x3e0137b0	0.126189
142	0x3d9ecf7e	0.0775442
143	0x3e86d540	0.26334572
144	0xbdf95278	-0.12173933
145	0x3ee1980c	0.44061315
146	0xbd9ba00d	-0.07598887
147	0x3dc9a6cc	0.09846267
148	0x3da61e2c	0.081112236
149	0xbe72c1e0	-0.2370677
150	0xbe78bdad	-0.24291106
151	0xbd1319e8	-0.035913378
152	0xbe80976a	-0.2511552
153	0xbc4f3d15	-0.01264884
154	0xbb0844ac	-0.0020792885
155	0x3e09e6b0	0.13466907
156	0x3d053e55	0.032530148
157	0xbda799c9	-0.08183629
158	0xbd487b11	-0.04894549
159	0x3ea4383d	0.32074156
160	0x3e22c82d	0.15896674
161	0x3daa9cd8	0.08330697
162	0x3eba64cc	0.36405027
163	0xbd152871	-0.03641552
164	0x3dd5c3e8	0.10437757
165	0x3d924b43	0.07143261
166	0x3e7de0d9	0.24792804
167	0xbd7bb037	-0.06144735
168	0x3e070139	0.1318406
169	0x3e38ae57	0.18035255
170	0x3ecc4b56	0.39901227
171	0x3e274659	0.16335429
172	0x3df5ae54	0.11996141
173	0x3e3dabfe	0.18522641
174	0xbea26eee	-0.31725258
175	0x3dc483ae	0.095954284
176	0xbe53a348	-0.20667756
177	0xbd9f2a9e	-0.077718005
178	0xbe30e8e6	-0.17276344
179	0x3e41109d	0.18853994
180	0xbd2d12ee	-0.04225438
181	0xbda6a2e6	-0.08136539
182	0x3e8b00e8	0.2714913
183	0x3d85b314	0.06528297
184	0x3e24c1a9	0.160895
185	0x3dd29538	0.102823675
186	0xbe0ba05b	-0.1363539
187	0x3e6ec3e0	0.23316908
188	0xbe5b32fe	-0.2140617
189	0xbdd5c224	-0.1043742
190	0xbd16849e	-0.036747567
191	0xbd24721c	-0.040147886
192	0xbde0fb0e	-0.10985385
193	0x3d4cfe9d	0.050047506
194	0x3e20fced	0.15721484
195	0xbe27f13c	-0.16400617
196	0x3e0e09b3	0.13870887
197	0xbd3d36ec	-0.046194956
198	0xbd7199be	-0.05898451
199	0xbe2ca820	-0.1686101
200	0x3e07f741	0.13277914
201	0x3e37fa79	0.17966641
202	0x3dbc0638	0.09180874
203	0x3e1f8413	0.15577726
204	0xbe11e2db	-0.14246695
205	0x3df60aa7	0.120137505
206	0x3d7c45dd	0.061590064
207	0x3d6d9c7a	0.058010556
208	0xbd9cbed1	-0.07653583
209	0xbdd7c636	-0.105358526
210	0xbe50d565	-0.20393904
211	0x3dc719ab	0.09721693
212	0xbe0c10ea	-0.13678327
213	0xbe06be8c	-0.13158625
214	0x3e0145c2	0.12624267
215	0xbe595a65	-0.21225889
216	0x3def3f5c	0.11682007
217	0x3eb7669b	0.3582047
218	0xbdee163c	-0.116253346
219	0x3e4712b9	0.19440736
220	0xbe1c18e2	-0.15243867
221	0x3e531c10	0.20616174
222	0x3e569f7e	0.20959279
223	0x3d9d5da1	0.07683874
224	0x3e455025	0.19268854
225	0x3e25dcd2	0.16197518
226	0x3d9b0612	0.07569517
227	0xbe74bcf5	-0.23900206
228	0xbd4cc854	-0.049995735
229	0xbe5f343e	-0.21797273
230	0xbe07d14e	-0.13263437
231	0xbea36ad5	-0.31917444
232	0x3e0d3372	0.13789156
233	0xbd184a09	-0.03717998
234	0x3e08161f	0.13289689
235	0xbde79ded	-0.11309419
236	0xbe5baae4	-0.21451908
237	0xbe02ad61	-0.12761451
238	0x3ddacf2a	0.10684045
239	0x3dfa891c	0.12233183
240	0x3e6dfcb2	0.23240927
241	0x3dafffb5	0.08593694
242	0xbd71a707	-0.05899718
243	0xbd898dc5	-0.067164935
244	0xbcac1378	-0.021005377
245	0x3e0894a4	0.13337952
246	0x3e43b018	0.19110143
247	0xbe069f45	-0.13146694
248	0xbd9b85b9	-0.07593865
249	0xbe17817d	-0.1479549
250	0xbe4bd402	-0.19905093
251	0x3dcc8089	0.09985454
252	0xbd9d1367	-0.07669716
253	0x3e0ec729	0.13943161
254	0x3e0767b6	0.13223156
255	0x3e01d0f2	0.12677363

down2.bias f4 [20]
0	0x3d8b900b	0.068145834
1	0xbdc03258	-0.09384602
2	0x3e2ff984	0.17185026
3	0xbd5f9417	-0.05458459
4	0xbcd95d5d	-0.026533777
5	0xbe7b302c	-0.24530095
6	0x3d4e6b5f	0.050395366
7	0x3d891d80	0.0669508
8	0x3df5fcb1	0.12011088
9	0xbc62a232	-0.013832616
10	0xbdc029f7	-0.09383004
11	0x3da03d6b	0.078242145
12	0x3d2df73c	0.04247211
13	0xbe170eef	-0.1475179
14	0x3ce260c7	0.027634038
15	0xbd3c53db	-0.04597841
16	0x3e490793	0.19631796
17	0x3d8039a6	0.062609956
18	0x3d17c2b6	0.037050925
19	0xbe0e99e0	-0.13925886

down3.weight f4 [12, 20]
0	0x3e947483	0.2899514
1	0xbccbfa01	-0.024899485
2	0x3e065693	0.13118963
3	0xbe4f9aae	-0.2027385
4	0x3d80aa30	0.06282461
5	0xbe1381f9	-0.1440505
6	0xbe3a1878	-0.18173397
7	0xbdcad4f0	-0.09903896
8	0xbe135763	-0.14388804
9	0xbe29e0f9	-0.16589727
10	0x3e2f717f	0.17133139
11	0xbe297a9b	-0.16550677
12	0xbe99d042	-0.300417
13	0x3e72bd29	0.23704971
14	0xbdb6a3c5	-0.08917955
15	0x3e4a4dc5	0.19756229
16	0x3e08ce48	0.1335994
17	0x3e7a9182	0.2446957
18	0xbdb4e8a8	-0.08833438
19	0xbd9b12ed	-0.07571969
20	0x3d715d66	0.058926962
21	0xbe196df6	-0.14983353
22	0xbe495c0c	-0.1966402
23	0xbe0f6e46	-0.1400691
24	0xbd661779	-0.05617473
25	0xbd9364b2	-0.071969405
26	0x3e48d960	0.19614172
27	0xbe0d49b1	-0.13797642
28	0x3ef52498	0.4787948
29	0xbd6787c3	-0.056525957
30	0xbe28c3ed	-0.1648099
31	0xbe3f4203	-0.18677525
32	0x3e95d205	0.29261795
33	0x3eb62f9e	0.35583204
34	0xbdfb6d9c	-0.12276766
35	0xbdd4fc3c	-0.103996724
36	0x3e76721e	0.2406697
37	0x3d7259ad	0.059167553
38	0xbdb58662	-0.08863522
39	0xbd00a353	-0.031405758
40	0x3dd802c8	0.105474055
41	0x3df84009	0.12121589
42	0xbe2bb79c	-0.1676926
43	0xbdba99c3	-0.09111359
44	0x3e8b4ade	0.27205557
45	0x3e9de7fb	0.3084105
46	0xbd973dde	-0.07384847
47	0xbe5616fd	-0.20907207
48	0x3dd1a042	0.10235645
49	0x3ed6e331	0.41970208
50	0xbe55889d	-0.20852895
51	0x3d11d4db	0.035603385
52	0xbe11237b	-0.14173691
53	0x3e2a578e	0.16634962
54	0x3df590e9	0.1199053
55	0xbed1dab4	-0.4098717
56	0xbd813d20	-0.06310487
57	0x3ec90a5d	0.3926572
58	0xbe2cc43d	-0.16871734
59	0x3cf200f4	0.02954147
60	0x3e9794c6	0.29605693
61	0xbee66f54	-0.45006812
62	0x3e4ddb27	0.20103131
63	0x3d4a17bc	0.04933904
64	0xbce63d42	-0.028105382
65	0x3d9304a7	0.07178622
66	0x3dbd8c24	0.09255245
67	0xbdde00c0	-0.10839987
68	0x3df73d6b	0.120722614
69	0xbe2fbba3	-0.17161421
70	0x3e7adb6d	0.24497767
71	0xbd17607b	-0.036957245
72	0xbe5c9a29	-0.21543182
73	0xbd6110a2	-0.054947503
74	0xbbacfff4	-0.0052795354
75	0xbebcfe1c	-0.3691262
76	0x3d8dad0d	0.069177724
77	0xbe118689	-0.14211477
78	0x3e879379	0.264797
79	0x3e509a62	0.20371392
80	0x3e11f0cf	0.14252017
81	0x3e722c15	0.23649628
82	0x3e83004c	0.25586164
83	0xbdd1423d	-0.10217712
84	0x3e439e72	0.19103411
85	0x3d9b3998	0.075793445
86	0x3e398600	0.18117523
87	0x3eb33f2e	0.3500914
88	0x3cd39735	0.025828937
89	0xbebddd7a	-0.37083036
90	0xbe4a3914	-0.19748336
91	0xbe09cc8f	-0.13456939
92	0x3d4beb87	0.049785163
93	0x3e80bae2	0.2514258
94	0x3df20a39	0.11818356
95	0xbde0eba0	-0.10982442
96	0xbeb7bdfc	-0.35887134
97	0xbc6bf7f1	-0.014402376
98	0xbe093949	-0.13400759
99	0x3de88792	0.11353983
100	0xbe16397c	-0.14670366
101	0xbd56e666	-0.05246582
102	0x3d5cce2e	0.053907566
103	0x3e5dfdfb	0.21678917
104	0x3e1d98e4	0.15390354
105	0xbd5fabc6	-0.054607175
106	0xbe2c3229	-0.1681601
107	0x3e3d7710	0.1850245
108	0xbdf2bcf1	-0.11852444
109	0x3d75c254	0.05999978
110	0x3e7ce2d7	0.24695908
111	0x3e363a56	0.17795691
112	0xbdd82cb8	-0.105554044
113	0x3e897a7b	0.26851258
114	0xbd387855	-0.045036633
115	0xbd3ab625	-0.045583863
116	0xbe437618	-0.19088018
117	0x3cbe218f	0.023209361
118	0xbbc22555	-0.0059248605
119	0x3e019189	0.12653174
120	0xbd221876	-0.03957411
121	0xbea89e41	-0.32933238
122	0xbea14eb7	-0.31505367
123	0x3de0ccf2	0.1097659
124	0x3e134f92	0.14385822
125	0x3ed60e82	0.41807944
126	0x3e3e22c8	0.18567955
127	0xbcba01ff	-0.02270603
128	0xbe11a7fd	-0.14224239
129	0xbdb185ff	-0.08668136
130	0x3de59575	0.11210147
131	0x3d5bbc84	0.05364658
132	0xbd189280	-0.03724909
133	0x3e88c77e	0.267147
134	0xbe5e232b	-0.21693103
135	0x3ec352db	0.3814915
136	0xbde88729	-0.11353905
137	0xbd0b0d13	-0.033948015
138	0x3c507f87	0.012725717
139	0xbdad999e	-0.08476566
140	0x3d6d2bcf	0.057903107
141	0x3ddbc621	0.107311495
142	0xbc3634aa	-0.0111209545
143	0x3e1e62ee	0.15467426
144	0x3e70579d	0.23470922
145	0xbd941f70	-0.07232559
146	0x3c8c335d	0.017114336
147	0x3dedd38d	0.11612616
148	0xbc17294d	-0.0092261555
149	0x3e30dad3	0.17270975
150	0x3e717493	0.23579626
151	0xbedf7909	-0.4364703
152	0xbe1b7908	-0.15182889
153	0x3dab933c	0.08377692
154	0xbd818a49	-0.06325204
155	0xbe1bdfc6	-0.15222082
156	0x3da66be5	0.08126048
157	0xbe2bc96d	-0.16776057
158	0x3e195fa8	0.14977896
159	0x3e1ec494	0.15504676
160	0xbcafb040	-0.021446347
161	0x3e5ae74c	0.21377295
162	0xbea23265	-0.31679073
163	0x3d81b5b4	0.06333485
164	0x3d498469	0.04919854
165	0x3e3224fd	0.17396922
166	0xbe823e79	-0.25438288
167	0x3e7b883e	0.24563691
168	0xbe87b162	-0.2650252
169	0xbe8f3f8a	-0.27978164
170	0x3c872eb9	0.016501771
171	0x3dcd945b	0.10038062
172	0x3e1d185b	0.15341322
173	0x3e246554	0.16054279
174	0x3e65c6d9	0.22439136
175	0xbeba33b9	-0.36367586
176	0x3e1c82a2	0.15284207
177	0x3dc1a289	0.09454829
178	0x3eb6f97a	0.3573721
179	0x3def2455	0.11676852
180	0xbe4d732a	-0.20063463
181	0xbcfca171	-0.0308387
182	0x3e43d8a2	0.19125608
183	0xbe3b21d2	-0.1827462
184	0xbed7fbcb	-0.4218429
185	0x3db16a4b	0.08662852
186	0x3e693d6f	0.22777341
187	0xbe7f45ca	-0.24928966
188	0xbd2cb5a4	-0.042165413
189	0x3d2a6323	0.04159845
190	0xbe03b4ac	-0.1286189
191	0xbe7d4d9a	-0.24736634
192	0x3e34860c	0.1762926
193	0x3d2ac78b	0.041694205
194	0x3e9f67be	0.31133837
195	0x3e6c798a	0.23093238
196	0xbd8a8357	-0.06763332
197	0x3e52ed8b	0.20598428
198	0x3e35728b	0.17719476
199	0xbcea7133	-0.02861843
200	0x3e3048b8	0.1721524
201	0xbe423c7e	-0.18968388
202	0xbd9dd2ab	-0.07706197
203	0xbe2983d5	-0.16554196
204	0x3e4ce855	0.20010503
205	0xbe15f857	-0.14645515
206	0xbdb2c34f	-0.087286584
207	0x3e571cfe	0.21007153
208	0xbe58df59	-0.2117895
209	0x3e139180	0.14410973
210	0xbc94192a	-0.018078405
211	0x3d5365b3	0.05161066
212	0x3e5b09d8	0.21390474
213	0x3e02673f	0.12734698
214	0xbe510bf1	-0.20414712
215	0xbde20d6a	-0.11037715
216	0xbd57be7f	-0.052671906
217	0x3d89d5a4	0.06730202
218	0x3ceba3e3	0.02876467
219	0x3cbcb47c	0.02303528
220	0x3e3eb64f	0.18624233
221	0x3ee18a45	0.44050804
222	0xbc81a35d	-0.015824968
223	0x3e013a4a	0.12619892
224	0xbdc618b2	-0.09672679
225	0xbd25be17	-0.040464487
226	0x3e09185f	0.13388203
227	0xbe292ca8	-0.16520941
228	0x3dc247de	0.09486364
229	0x3c026268	0.007958032
230	0x3eb97ddc	0.36228836
231	0x3d85f8b7	0.06541579
232	0x3e19a74f	0.1500523
233	0x3d8ed5a8	0.069743454
234	0xbeb31da4	-0.34983552
235	0xbe8743ae	-0.26418823
236	0xbe7b1a41	-0.24521734
237	0x3e205580	0.15657616
238	0xbc9e7380	-0.019342184
239	0x3e120f53	0.14263658

down3.bias f4 [12]
0	0xbe3e385a	-0.18576184
1	0x3e963184	0.29334652
2	0x3dc50af7	0.09621232
3	0x3d1093fe	0.035297386
4	0x3e0e18be	0.13876626
5	0xbcdab314	-0.02669672
6	0xbe149ca0	-0.14512873
7	0xbce90b54	-0.028447784
8	0xbc6250b8	-0.01381319
9	0x3e1b5bef	0.15171789
10	0xbdd5d815	-0.10441605
11	0xbb605a8a	-0.0034233653
