3/model_Plate 36841.pt (torch, 6482 bytes, 12 tensors)

down1.weight f4 [12, 15]
0.05181952 -0.037995756 0.00051613804 0.1636677 0.045789767 0.07509607 0.16203012 0.08349791
-0.24994655 -0.066119745 0.6709903 0.18772332 0.5088041 0.4152925 0.085166715 0.04260136
-0.020780768 -0.074536644 0.31391057 0.07289195 0.034508955 0.5443141 0.46877024 0.48098126
-0.06982327 0.07691164 0.19801687 0.7535055 0.052614372 0.0501489 -0.10694228 0.23079027
0.21430092 0.25082102 -0.10516149 0.043126818 0.20030063 0.16924657 -0.078265905 0.4519709
0.14664958 -0.31991252 0.24159166 -0.26526308 0.58584917 0.010634598 -0.1742061 -0.3447495
0.008425959 -0.17174664 -0.22200313 0.3751294 -0.065568246 0.0929222 0.99532455 0.60855126
-0.38576663 0.34516644 -0.04384978 0.4703617 0.08291875 0.18932298 0.20756215 0.096711345
0.17286164 0.30899867 -0.011532825 0.11926658 0.059404455 -0.5823436 0.43593043 -0.45639193
0.39053744 0.15992588 -0.1219691 -0.011194079 0.1499155 0.15341629 0.12575278 0.12296827
0.18246298 0.3546049 0.16500394 0.43817034 0.1864663 0.9603573 -0.23013312 0.31238598
0.35423368 -0.0505679 0.02978276 -0.24006392 -0.21070118 -0.06589797 0.0038574669 -0.23310705
0.0019695333 0.06599642 -0.16935311 -0.18698771 -0.11165905 -0.15937452 0.21619064 0.14274327
-0.17851241 0.12279825 0.32766107 0.22943674 0.15916783 0.04873791 0.43964964 -0.040083434
0.018934347 0.0037604403 0.52221453 -0.09496532 0.39064065 0.66682506 -0.17753424 0.30986816
-0.016873404 -0.2892698 -0.46372098 0.009139975 -0.09431856 -0.2618287 0.015634842 -0.0060659894
-0.11132319 0.65024364 -0.12997673 0.26797426 -0.5291071 0.58854854 0.10583612 0.17500578
0.15830426 0.086367905 0.19870383 -0.028588645 0.32296652 0.26609156 0.4826779 0.13911065
0.7518209 0.45314682 -0.14337832 -0.28176084 0.046909273 0.2737416 -0.058921963 0.0019988115
0.06921947 -0.34934983 -0.12737498 -0.085349955 0.31528637 0.22280934 0.5604415 -0.41952777
0.70196366 -0.44522545 1.1631867 -0.027570523 0.41647875 0.06440442 0.095706046 0.14046776
0.029499194 0.16907005 0.22410032 0.13078012 0.27212292 0.28537434 -0.35486814 -0.48626825
-0.55304813 0.36470816 0.25418758 0.5759109
00000000: b440 543d 70a1 1bbd 704d 073a 8198 273e
00000010: 0d8e 3b3d f8cb 993d 39eb 253e f400 ab3d
00000020: fdf1 7fbe ca69 87bd 05c6 2b3f 8b3a 403e
00000030: fc40 023f 38a1 d43e e36b ae3d c37e 2e3d
00000040: 6e3c aabc aba6 98bd e3b8 a03e 6048 953d
00000050: 4359 0d3d 2b58 0b3f a702 f03e 2d43 f63e
00000060: 81ff 8ebd da83 9d3d efc4 4a3e bde5 403f
00000070: 2b82 573d ef68 4d3d 8e04 dbbd 4954 6c3e
00000080: b371 5b3e 9d6b 803e e85e d7bd bfa5 303d
00000090: 9c1b 4d3e f94e 2d3e e049 a0bd bb68 e73e
000000a0: 4f2b 163e 93cb a3be ce63 773e 90d0 87be
000000b0: 36fa 153f bd3c 2e3c 1563 32be 0283 b0be
000000c0: 090d 0a3c 5ade 2fbe ca54 63be f610 c03e
000000d0: a548 86bd ff4d be3d 97cd 7e3f 04ca 1b3f
000000e0: 3483 c5be a8b9 b03e d49b 33bd 40d3 f03e
000000f0: 4ed1 a93d e2dd 413e 2c8b 543e 9910 c63d
00000100: a402 313e 1335 9e3e 2df4 3cbc 0942 f43d
00000110: 1652 733d 7814 15bf 4632 df3e 34ac e9be
00000120: 86f4 c73e 9cc3 233e efca f9bd 5f67 37bc
00000130: 7383 193e 2919 1d3e 56c5 003e cad6 fb3d
00000140: 93d7 3a3e c68e b53e cbf6 283e dd57 e03e
00000150: 06f1 3e3e fad9 753f 04a8 6bbe 0ef1 9f3e
00000160: 1e5e b53e 4920 4fbd fafa f33c 51d3 75be
00000170: 0dc2 57be 84f5 86bd 8ecd 7c3b 9db3 6ebe
00000180: 4913 013b 2229 873d e76a 2dbe b579 3fbe
00000190: 80ad e4bd 1333 23be 1461 5d3e 4b2b 123e
000001a0: f5cb 36be a67d fb3d 31c3 a73e 77f1 6a3e
000001b0: e4fc 223e 67a1 473d c219 e13e 872e 24bd
000001c0: 341c 9b3c b871 763b daaf 053f 2d7d c2bd
000001d0: 0d02 c83e 0cb5 2a3f 89cb 35be 0aa7 9e3e
000001e0: 183a 8abc 2c1b 94be d66c edbe d5bf 153c
000001f0: 172a c1bd 690e 86be a414 803c 35c5 c6bb
00000200: 6afd e3bd 5e76 263f 9f18 05be ec33 893e
00000210: 9073 07bf 1eab 163f 9cc0 d83d b734 333e
00000220: 831a 223e a8e1 b03d 0479 4b3e bc32 eabc
00000230: de5b a53e 273d 883e 8f21 f73e 0673 0e3e
00000240: 5677 403f dc02 e83e c4d1 12be f542 90be
00000250: f023 403d dc27 8c3e 2858 71bd 7efe 023b
00000260: f0c2 8d3d fbdd b2be 966e 02be f5cb aebd
00000270: 376d a13e 2228 643e 1879 0f3f 58cc d6be
00000280: e4b3 333f 97f4 e3be 4de3 943f 94db e1bc
00000290: b43c d53e 77e6 833d 8801 c43d c8d6 0f3e
000002a0: 4ba8 f13c b320 2d3e 8e7a 653e 39eb 053e
000002b0: b253 8b3e 961c 923e 47b1 b5be 27f8 f8be
000002c0: 9094 0dbf 07bb ba3e e024 823e e66e 133f

down1.bias f4 [12]
0.22849451 0.10600797 0.30186307 0.46501413 0.19586472 -0.00041697457 -0.114627436 0.05783605
-0.45961225 0.28862223 0.29272494 0.28516793
00000000: 77fa 693e b51a d93d cc8d 9a3e 5516 ee3e
00000010: c390 483e 619d dab9 cac1 eabd 7ee5 6c3d
00000020: 4c52 ebbe 4bc6 933e 0be0 953e 8801 923e

down2.weight f4 [9, 12]
-0.24145636 0.032977883 -0.022591045 -0.23120727 -0.26488656 -0.21632046 -0.115613095 -0.23778516
-0.2090941 -0.09532282 0.047185466 -0.2728143 0.18203108 0.2660667 -0.6427189 -0.43149588
-0.26407483 0.12756862 -0.018978223 -0.13681193 0.36397406 0.06412128 -0.06747791 -0.25188902
0.4186707 0.29932395 0.48728427 0.6753651 0.37882254 0.037671812 -0.035492476 0.4511092
-0.44988397 -0.24975537 0.5259764 -0.3041043 0.1759645 -0.21030496 -0.092735 0.34126857
0.63640153 0.54352784 -0.0833791 -0.44787404 0.1800025 0.30608815 0.06877977 -0.19163904
0.5619046 -0.34847292 -0.24663694 0.52136683 -0.70677996 0.046076078 -0.19250311 0.37618884
0.9296893 0.36329085 -0.25891894 0.22985666 0.5664798 0.4648617 -0.49742374 -0.11666071
-0.20255572 0.37715718 0.19078945 0.079433456 0.7854703 -0.16773124 0.7528488 0.58124846
-0.06596987 -0.20544088 0.643558 0.7687882 -0.17330037 -0.02664277 0.17916337 -0.32428956
0.067127004 0.34636238 0.1484981 0.99261326 -0.2747248 0.5384515 0.19506079 0.114280954
-0.13766417 0.5291791 0.10285399 -0.22446674 -0.1301742 0.6135604 0.5320269 -0.83030623
0.8137393 -0.46469137 0.059988543 0.44319788 0.5047884 0.09118516 -0.13285765 -0.029413613
0.4314353 -0.2061523 0.1643193 -0.0782722
00000000: 5640 77be d113 073d db10 b9bc 99c1 6cbe
00000010: 369f 87be 1c83 5dbe 8fc6 ecbd f47d 73be
00000020: c41c 56be 9c38 c3bd 8c45 413d 51ae 8bbe
00000030: 5b66 3a3e e539 883e 3a89 24bf 07ed dcbe
00000040: d134 87be 59a1 023e 3878 9bbc 6d18 0cbe
00000050: cf5a ba3e 0552 833d dc31 8abd 99f7 80be
00000060: 025c d63e fd40 993e 537d f93e bae4 2c3f
00000070: 07f5 c13e c24d 1a3d 8f60 11bd c9f7 e63e
00000080: 3157 e6be dfbf 7fbe 64a6 063f 8fb3 9bbe
00000090: 0a30 343e 2f5a 57be d9eb bdbd c1ba ae3e
000000a0: 36eb 223f a424 0b3f a9c2 aabd bf4f e5be
000000b0: 9352 383e 96b7 9c3e 68dc 8c3d 063d 44be
000000c0: fbd8 0f3f 0b6b b2be 658e 7cbe 4c78 053f
000000d0: 88ef 34bf 45ba 3c3d 891f 45be d39b c03e
000000e0: 1e00 6e3f 4201 ba3e 0691 84be 8b5f 6b3e
000000f0: d204 113f 5a02 ee3e 53ae febe cfeb eebd
00000100: c46a 4fbe bf1a c13e 4f5e 433e 02ae a23d
00000110: 9514 493f bdc1 2bbe b3ba 403f b3cc 143f
00000120: 361b 87bd 185f 52be 38c0 243f 4ecf 443f
00000130: a775 31be f041 dabc 9a76 373e 4809 a6be
00000140: e279 893d 6956 b13e e30f 183e e71b 7e3f
00000150: bba8 8cbe f5d7 093f 04be 473e 220c ea3d
00000160: d6f7 0cbe 4878 073f 1da5 d23d 9cda 65be
00000170: 634c 05be 4b12 1d3f ea32 083f f38e 54bf
00000180: 3851 503f 07ec edbe 8cb6 753d d5ea e23e
00000190: d039 013f 49bf ba3d d60b 08be d1f4 f0bc
000001a0: 16e5 dc3e 9719 53be 5243 283e 2d4d a0bd

down2.bias f4 [9]
-0.11960288 -0.19447672 0.035389364 0.3756575 0.24628635 -0.15394057 0.26585856 0.17105117
0.096515395
00000000: 5bf2 f4bd e824 47be 70f4 103d 2e56 c03e
00000010: 7d32 7c3e 99a2 1dbe 9d1e 883e 0a28 2f3e
00000020: dda9 c53d

down3.weight f4 [8, 9]
0.0020936332 0.049005747 0.37893263 0.031095454 0.5432502 0.060244847 -0.26091006 0.8502769
-0.40378517 0.26990014 0.39328486 0.32693776 -0.15736052 0.22634876 0.60540164 -0.43906608
-0.12415062 0.6930218 -0.13064131 0.6834484 -0.20200698 0.66686624 0.62178206 0.3147477
0.63354856 0.16397937 0.3773053 -0.27256617 0.062042516 -0.18476348 -0.26488465 0.041073482
-0.13988487 -0.06788862 0.013512334 0.032173276 -0.25568542 0.88947904 0.46467268 0.56995165
-0.3452138 -0.21225098 0.23730572 0.2614854 0.47784075 0.3135559 -0.16622922 0.48971188
-0.18324438 0.067420825 0.13657407 0.64644927 -0.1627351 -0.064367294 0.15882465 -0.29162762
0.052506726 -0.06626209 -0.24970195 0.04042598 -0.07374545 0.013779998 -0.058435082 0.19926095
0.106861494 -0.10938206 0.34361127 -0.6354225 0.56562996 0.09160007 0.23259862 -0.41100892
00000000: 5635 093b 40ba 483d 7503 c23e e5bb fe3c
00000010: 7212 0b3f 4dc3 763d 0196 85be bfab 593f
00000020: eebc cebe 5a30 8a3e a25c c93e 6364 a73e
00000030: 1e23 21be f8c7 673e 9afb 1a3f 45cd e0be
00000040: ae42 febd e069 313f d6c6 05be 79f6 2e3f
00000050: ebda 4ebe bfb7 2a3f 1c2d 1f3f 9c26 a13e
00000060: 3d30 223f 35ea 273e 292e c13e cb8d 8bbe
00000070: 4b20 7e3d a332 3dbe f69e 87be ab3c 283d
00000080: fb3d 0fbe 3009 8bbd d662 5d3c 20c8 033d
00000090: 33e9 82be e6b4 633f 94e9 ed3e 5ae8 113f
000000a0: ddbf b0be 5258 59be 4500 733e 6ae1 853e
000000b0: 8ba7 f43e 668a a03e fe37 2abe 84bb fa3e
000000c0: 6aa4 3bbe ee13 8a3d 13da 0b3e b37d 253f
000000d0: 08a4 26be 00d3 83bd eea2 223e 3750 95be
000000e0: 4b11 573d 6bb4 87bd deb1 7fbe b695 253d
000000f0: db07 97bd 80c5 613c a059 6fbd 100b 4c3e
00000100: 33da da3d b403 e0bd d1ed af3e 0dab 22bf
00000110: 20cd 103f d198 bb3d 552e 6e3e c36f d2be

down3.bias f4 [8]
0.2194209 0.19906722 -0.31293413 -0.28165698 -0.05557295 0.09204019 -0.30580765 0.24557032
00000000: dfaf 603e 47d8 4b3e e738 a0be 5835 90be
00000010: 76a0 63bd 917f bc3d d292 9cbe c976 7b3e

down4.weight f4 [6, 8]
0.12936243 -0.10107559 -0.044088297 -0.0782892 0.26775268 -0.6366116 -0.17862041 0.116169944
-0.2375464 0.22673124 0.84924114 0.15886404 -0.42415375 -0.12817676 0.036172744 0.11271826
-0.69089574 0.30239215 -0.5391995 -0.021038063 0.31167158 0.14255719 -0.21462026 0.16666912
0.43026766 0.62266755 -0.1682984 0.0757738 0.27133176 0.17492788 -0.1752407 0.20555635
-0.18766977 -0.48920813 0.39007849 0.30517277 0.75761825 0.26222003 0.059508905 0.63136476
0.29404098 -0.27211753 -0.27014735 0.25445148 -0.6245693 -0.23903376 -0.31245688 0.8726468
00000000: 9677 043e b800 cfbd ee95 34bd 1756 a0bd
00000010: e116 893e faf8 22bf 45e8 36be 82ea ed3d
00000020: 5d3f 73be 3c2c 683e de67 593f 41ad 223e
00000030: ae2a d9be c540 03be df29 143d d5d8 e63d
00000040: 8bde 30bf 25d3 9a3e fa08 0abf 0458 acbc
00000050: 6b93 9f3e 83fa 113e 6ac5 5bbe 4fab 2a3e
00000060: 0b4c dc3e 2467 1f3f 6a56 2cbe 4b2f 9b3d
00000070: ffeb 8a3e 4b20 333e 4c72 33be 5d7d 523e
00000080: 812c 40be 7d79 fabe 5eb8 c73e 9b3f 9c3e
00000090: 45f3 413f b441 863e 9cbf 733d 1fa1 213f
000000a0: 8a8c 963e fd52 8bbe c150 8abe 7747 823e
000000b0: c6e3 1fbf 44c5 74be 59fa 9fbe c865 5f3f

down4.bias f4 [6]
0.46316072 0.19544934 -0.2773929 -0.26946288 0.31406614 -0.21827294
00000000: 6723 ed3e df23 483e 7106 8ebe 0af7 89be
00000010: 47cd a03e f182 5fbe

up1.weight f4 [8, 6]
0.23593733 0.33518875 -0.15303093 -0.34404787 0.5518108 -0.3625192 0.37539804 0.18854283
0.09904876 -0.38239086 -0.279277 -0.18016383 -0.7312255 -0.018550279 0.31585574 0.09112461
0.20852965 -0.11973805 0.21672322 0.013892509 0.23722579 0.46228057 -0.06963626 -0.5514386
0.49470484 -0.053396422 -0.3841358 0.3669963 0.40516153 0.6937315 -0.5590769 -0.43337905
0.20333767 0.42650437 -0.09118158 -0.16518278 -0.10601956 -0.74537134 -0.00827132 -0.008347203
0.17380047 -0.15720764 -0.46357858 0.031054284 -0.7139622 0.32377666 -0.15949388 0.016710846
00000000: 8e99 713e dc9d ab3e 24b4 1cbe 0b27 b0be
00000010: 7943 0d3f 1e9c b9be 2c34 c03e 5f11 413e
00000020: 14da ca3d bcc8 c3be 65fd 8ebe de7c 38be
00000030: 9831 3bbf c1f6 97bc d8b7 a13e 8a9f ba3d
00000040: cc88 553e 3939 f5bd b1ec 5d3e 689d 633c
00000050: 51eb 723e 0ab0 ec3e 759d 8ebd 152b 0dbf
00000060: f449 fd3e 35b6 5abd 73ad c4be f0e6 bb3e
00000070: 5571 cf3e 6398 313f aa1f 0fbf dce3 ddbe
00000080: c037 503e c85e da3e 69bd babd ad25 29be
00000090: c820 d9bd a8d0 3ebf 6e84 07bc b5c2 08bc
000000a0: c0f8 313e 0afb 20be 2c5a edbe 8e65 fe3c
000000b0: 3ac6 36bf 0ec6 a53e 5d52 23be 2fe5 883c

up1.bias f4 [8]
-0.1245036 -0.29807365 0.30942944 0.16580068 0.18594216 -0.4426512 0.36483207 0.6003017
00000000: befb febd 1c9d 98be 896d 9e3e a7c7 293e
00000010: 9f67 3e3e 2ea3 e2be 45cb ba3e 5fad 193f

up2.weight f4 [9, 8]
-0.01130377 0.11041951 0.16955557 -0.13889886 0.18446878 0.0035351573 -0.036310762 0.17016232
-0.006600047 -0.30389613 0.20827144 -0.24632454 0.2326702 -0.041873302 -0.16136028 0.12758453
-0.0597671 0.039439123 0.2971858 -0.31946847 0.39098266 0.0070589767 -0.15461743 0.119958214
0.10584723 -0.011528975 -0.2037761 -0.12342943 -0.17882907 -0.21179405 0.2889901 0.496358
0.21208857 0.26395985 -0.5602226 0.5050977 0.093178265 0.44192758 0.080691926 -0.1850685
-0.36204547 -0.006427647 -0.2436628 0.14647399 0.008279131 0.51452017 -0.48578346 0.34833068
-0.38502806 0.2030987 0.5406435 0.26505116 0.07024385 -0.4350071 0.17853254 0.114055194
0.0420561 0.23910505 -0.031010702 0.15287839 -0.09557906 -0.493104 -1.8948975 0.09105494
0.08343043 -0.13858639 0.42618158 -0.26943904 -0.17431313 0.8668022 -0.2547783 0.22448069
00000000: 7333 39bc a023 e23d fa9f 2d3e 813b 0ebe
00000010: 62e5 3c3e 19ae 673b 98ba 14bd 083f 2e3e
00000020: 3545 d8bb 4698 9bbe 1c45 553e 803c 7cbe
00000030: 1941 6e3e 5783 2bbd a13b 25be 85a5 023e
00000040: 59ce 74bd eb8a 213d bd28 983e 5f91 a3be
00000050: e12e c83e fd4e e73b 0854 1ebe a7ac f53d
00000060: 6fc6 d83d 07e4 3cbc afaa 50be 92c8 fcbd
00000070: f81e 37be 8ae0 58be 83f6 933e a322 fe3e
00000080: bf2d 593e bf25 873e c06a 0fbf 154e 013f
00000090: 3fd4 be3d 5544 e23e cf41 a53d 9982 3dbe
000000a0: 065e b9be 039f d2bb be82 79be 47fd 153e
000000b0: 31a5 073c 98b7 033f 9cb8 f8be 6658 b23e
000000c0: 6622 c5be 1bf9 4f3e 9d67 0a3f c9b4 873e
000000d0: 02dc 8f3d 40b9 debe 3cd1 363e c595 e93d
000000e0: 0443 2c3d f4d7 743e 280a febc 278c 1c3e
000000f0: f4be c3bd 2178 fcbe 008c f2bf 037b ba3d
00000100: 93dd aa3d 97e9 0dbe 7934 da3e eaf3 89be
00000110: 247f 32be c0e6 5d3f 4d72 82be 44de 653e

up2.bias f4 [9]
-0.17288527 -0.075222 -0.060827807 -0.4097291 -0.34373435 0.38677207 -0.11998595 0.48459274
-0.22327182
00000000: d608 31be fe0d 9abd 9426 79bd 03c8 d1be
00000010: f3fd afbe fd06 c63e 32bb f5bd 8a1c f83e
00000020: 5ea1 64be
