3/model_Panel3.pt (torch, 8002 bytes, 12 tensors)

down1.weight f4 [15, 18]
000000 d3 9b 65 be 63 c5 cf bd ee 0f fc 3b 29 13 79 bd
       -0.22422723 -0.101450704 0.0076923287 -0.06080929
000010 3f 88 e6 bd c9 87 b4 bc 27 76 06 be 1a c2 aa be
       -0.11256456 -0.022037404 -0.13131009 -0.33351213
000020 34 d0 0e 3f 26 11 a1 bc df 65 15 3e 3b b7 63 bd
       0.5578644 -0.019661497 0.14589642 -0.055594664
000030 8c 88 3e 3f 99 f9 43 be c6 23 e5 bb a6 33 54 bd
       0.74427104 -0.19138183 -0.00699279 -0.05180707
000040 1e 26 42 3e da c4 0f bd 45 c6 8c 3e 6b ef 16 3e
       0.18959853 -0.03509984 0.27495018 0.14739768
000050 34 90 37 3d d7 92 52 3e 5c d3 40 3e 30 62 c9 3d
       0.044815257 0.20563827 0.18830627 0.09833181
000060 fa 70 3f be d0 dd d2 3d 5c 76 1c 3f 8f c7 6b 3d
       -0.18695441 0.102962136 0.611181 0.05756336
000070 aa fe 0c 3e 94 a6 e4 3c 00 0f 50 be 02 c9 ae 3e
       0.13769022 0.027911462 -0.20318222 0.34137732
000080 ad 6a 7f be 60 ed 93 3e 66 b7 54 be 92 59 38 3e
       -0.24943037 0.2889204 -0.20773086 0.18002918
000090 17 d5 01 3e 40 73 a2 3e 47 9e 2b 3c 0d 34 fe 3d
       0.12678944 0.31728554 0.010474748 0.12412272
0000a0 a2 79 b4 3d bc ed 64 3e b2 4f 79 bd 42 53 01 3f
       0.08812262 0.22356313 -0.06086702 0.50517666
0000b0 07 c5 6c 3e 6c 6b 61 3c b4 1e 7e 3c ca 06 17 3d
       0.23122035 0.0137585215 0.01551025 0.03687171
0000c0 87 c4 11 3f c5 5a 2d be ac c8 6e 3e 60 2d e4 3d
       0.569405 -0.16929157 0.23318738 0.11141467
0000d0 38 21 f3 3d 83 2d 3f 3d 0e 43 6b be bf 36 32 3e
       0.1187157 0.046674263 -0.22974798 0.17403696
0000e0 f2 85 22 be 32 b9 04 3d f1 6f f6 bb ef 38 38 be
       -0.15871409 0.03240318 -0.0075206687 -0.17990468
0000f0 fe f3 e9 3e cb 2e 81 be 6e 41 3a 3f 4a 75 99 3e
       0.45693964 -0.25231013 0.7275609 0.29972297
000100 00 bc e0 bd 56 2b 03 3e 7e 00 22 be af 91 96 3e
       -0.10973358 0.128095 -0.158205 0.29408023
000110 3b b8 c6 bc b4 eb 82 3e ef df 0b 3e cf dc 4f 3d
       -0.02425777 0.25570452 0.13659643 0.05074769
000120 7c cd 45 3e 30 0f 24 3e 85 14 5b bd fb e2 d7 bd
       0.19316667 0.16021419 -0.053486366 -0.1054134
000130 85 93 54 3e e3 d6 49 3e f8 af 03 3f 3e e3 5d 3e
       0.20759399 0.19710879 0.5144038 0.21668717
000140 63 5e 06 ba a1 49 24 bc e5 45 92 bc f1 53 42 bc
       -0.0005125759 -0.01002732 -0.017855594 -0.0118608335
000150 fa bd 1d 3c 02 b6 e9 bd c9 5e 7b be f4 f1 b0 3e
       0.0096278135 -0.11411668 -0.24547876 0.34559596
000160 17 36 d0 bd 24 e7 a9 be be 02 64 be b5 4f 6a be
       -0.10166567 -0.3318416 -0.22266671 -0.22881968
000170 6b 8b fa bc 75 af 5f 3d c1 9f a9 bd 28 c9 39 3c
       -0.030584058 0.05461069 -0.08282424 0.011339463
000180 88 f7 61 3f 15 4c 55 3f 83 c4 4a 3e dc d0 9a bd
       0.8826833 0.83319217 0.19801526 -0.07559368
000190 4f 4e f0 be 0b bd 1d be 3b 28 33 3f c9 68 74 be
       -0.46934745 -0.15404145 0.6998326 -0.23868097
0001a0 7f d0 bd 3d c2 39 bf bc 4a b1 82 3e ee 05 a7 bd
       0.09268283 -0.02334297 0.25525886 -0.08155428
0001b0 f0 42 54 3e 4c 74 96 3d 29 3b 9f 3d 63 87 ee bc
       0.2072866 0.073464006 0.07774956 -0.029117292
0001c0 6f 5f 1d 3e be a3 1a 3d d7 39 74 be e9 7e 0d 3e
       0.15368436 0.037753813 -0.23850189 0.13817944
0001d0 0b 2d 04 bd a4 f9 ed bd 3a 2b 64 be 83 93 37 3e
       -0.03226952 -0.11619881 -0.22282115 0.17927365
0001e0 58 c7 ca 3e 59 94 d0 3e 5b d3 9b be 5f aa ae 3e
       0.39605212 0.4073818 -0.3043469 0.34114358
0001f0 7a 10 97 be d1 21 62 3e 9f b9 53 3e d6 e9 ca bc
       -0.29504758 0.22083212 0.20676278 -0.024769705
000200 8c 74 ba bc 64 5c b3 3d be 62 90 3e f8 f0 a3 3c
       -0.022760652 0.087578565 0.28200334 0.020012364
000210 a6 c2 8f 3c 4b 46 be be cc a6 ef bc 92 fd 87 3e
       0.01754887 -0.37163004 -0.02925434 0.26560646
000220 3e 96 15 3e 4d 65 82 bb dd 70 dc 3e 70 a6 5a be
       0.14608094 -0.003979361 0.43054858 -0.21352553
000230 65 0c 29 3e 2f 66 a2 3e 1b dc b8 be a1 70 20 be
       0.16508634 0.31718585 -0.36105427 -0.15667965
000240 d8 84 1f 3e d5 0f 2e 3e e2 b8 70 be ba f2 63 be
       0.1557802 0.16998227 -0.23508027 -0.22260562
000250 d2 fa 7b 3d 35 8f f2 bd dd 86 16 3e 72 f4 48 3e
       0.061518498 -0.11843721 0.14699884 0.19624498
000260 b9 2b 29 be b2 b6 9f bd 21 e7 04 3c 33 c7 91 bd
       -0.16520585 -0.07798518 0.008111746 -0.07118072
000270 ee 12 e2 bd d1 a1 20 be 4f 9d 2e be ef e8 f4 bd
       -0.11038767 -0.15686728 -0.17052196 -0.11958491
000280 38 82 48 be e9 66 45 be 56 49 4d 3e 97 84 6a 3e
       -0.19580925 -0.19277538 0.20047507 0.22902142
000290 52 8a c3 3d 86 45 08 3e f6 da c0 3d 1b 2d ea 3d
       0.09547867 0.13307771 0.094167635 0.114343844
0002a0 fa bb 64 3e 78 b3 a3 3d 61 cf ae be 42 ae fe 3e
       0.22337332 0.07993215 -0.34142593 0.49742323
0002b0 a7 ee 5f 3e e8 7d 24 3e 12 57 6a 3e 36 a4 be 3e
       0.21868382 0.16063654 0.22884777 0.37234658
0002c0 db e1 87 3e a3 da 7b 3e 5f fb 31 be 82 b4 da 3e
       0.26539502 0.24595122 -0.17381047 0.42715842
0002d0 7d 90 9a bd 1c c2 fa 3d 17 8c 3e 3e 6c 41 6f bd
       -0.0754709 0.12244055 0.18608128 -0.058412
0002e0 93 56 7d bc c1 a5 de 3d a0 e4 e3 3e 6f da d4 be
       -0.015462535 0.10871459 0.44510365 -0.41572902
0002f0 e9 e5 82 3e 7f b6 d9 3e 6d 09 df 3d 10 f8 2c bc
       0.25566033 0.42522046 0.1089047 -0.01055719
000300 d6 20 6a 3d d3 38 7c 3d ea ea ec be c3 89 ba bd
       0.05716022 0.06157763 -0.46272975 -0.09108307
000310 18 79 48 be 4e c6 18 3f 48 5a fe bd fb 11 54 be
       -0.19577444 0.5967759 -0.124195635 -0.20709984
000320 2b 8d 49 3d 85 34 53 3d d1 3a cb bd 82 c5 03 3d
       0.049206894 0.05156376 -0.09923328 0.03217078
000330 60 57 7a 3d 23 24 68 3e 04 a9 c1 bd 80 59 8d 3e
       0.061118484 0.22670035 -0.09456065 0.27607346
000340 23 ff 97 3e 5c 18 f5 3c 74 47 7f be 69 71 5b 3e
       0.2968684 0.029918842 -0.24929601 0.21429981
000350 1f 0a 16 be 74 04 37 3f 2f f0 b1 3b 0b b0 41 3e
       -0.14652298 0.7149117 0.0054302434 0.18914811
000360 a6 bb 54 bd 3f f0 dd bd 3a 40 be bd 4c 36 32 be
       -0.051936768 -0.10836839 -0.09289594 -0.17403525
000370 8c 4a 13 3e 7d 07 f2 bd b8 c9 5d 3e 00 10 40 be
       0.14383906 -0.118178345 0.21658981 -0.18756104
000380 2d 1a 29 3e 63 88 58 bd 10 da 4e 3f a4 de f4 3d
       0.16513892 -0.052864444 0.80801487 0.11956528
000390 84 fa df 3e 56 45 9f be 6e 37 45 be 5d 4f ac 3e
       0.43745816 -0.31107587 -0.19259426 0.336543
0003a0 ac d1 b1 3e 3e 7f b6 3b f6 9d a0 3d 34 d7 22 be
       0.3473028 0.0055693677 0.07842629 -0.15902406
0003b0 b1 ae 28 3e bc 11 ac bd 56 ad 76 bd 0f 45 06 3e
       0.1647289 -0.0840182 -0.0602239 0.13112281
0003c0 ca 2d 17 3f e6 46 41 be 1c 61 ac 3e f4 25 55 3d
       0.59054244 -0.18874702 0.3366784 0.052038148
0003d0 a5 43 b2 3e 1a 5f 93 3e ef bb 3d bd d1 02 93 bd
       0.34817234 0.28783494 -0.046321806 -0.071782716
0003e0 7d b1 d8 3e c9 e1 25 3f c5 7c 56 3e 95 22 06 be
       0.42322913 0.64797646 0.20946033 -0.1309913
0003f0 0a 2b 98 bd 15 1e 12 be f2 dc 88 3e 68 d3 b5 be
       -0.07430084 -0.14269288 0.26731068 -0.35512853

down1.bias f4 [15]
000000 55 40 3b 3e e2 88 ae 3b a8 7d ba 3d 8e 06 7a 3e
       0.1828626 0.0053263763 0.09105998 0.24416563
000010 6c a8 83 3e 09 d9 c6 3e 02 57 52 3e 2e 50 87 3e
       0.25714433 0.3883746 0.20541003 0.2642836
000020 72 2b 30 be ea ec d9 3d 0d de 85 3e f0 29 67 3d
       -0.17204073 0.10640891 0.26145974 0.05643648
000030 e8 6d 83 3e 5e d0 2e 3e 65 4a 0a 3e
       0.2566979 0.17071673 0.13504942

down2.weight f4 [12, 15]
000000 e1 ba d5 be 8e 33 9b be 3c 43 2f be 6e bf b8 3e
       -0.4174414 -0.3031277 -0.17115492 0.3608355
000010 17 a6 1d 3f 9c 88 a6 3e 67 76 8b bb a0 01 18 3f
       0.6158156 0.325261 -0.004256058 0.5937748
000020 42 72 f3 bd c2 31 24 3f 2e 25 a9 3e b6 13 d4 3e
       -0.11887027 0.64138424 0.33036178 0.41421288
000030 93 5f 84 be a0 2a 71 3e e6 6e d6 3d 4a 4c 03 bf
       -0.25854167 0.23551416 0.10470371 -0.5128828
000040 02 5c 8f 3e 93 42 44 be 91 f5 ec 3e ea 8d 5b 3b
       0.27999884 -0.19166021 0.46281102 0.0033501335
000050 82 bd a8 bd 62 c8 81 be ff 9d 41 be e0 fd 0b 3c
       -0.08239271 -0.25348192 -0.18907927 0.008544415
000060 3e c0 59 3e cb 69 0c 3f 11 e5 dd 3e de 58 d1 3e
       0.21264741 0.5484893 0.43338826 0.40888113
000070 9f a4 c1 3e b1 27 90 3d 91 50 28 3f a1 55 24 bf
       0.37820908 0.070388205 0.65747935 -0.6419316
000080 d8 c6 36 3d 55 c0 5f 3e bd 65 a6 3e c2 37 b1 3e
       0.044623226 0.21850713 0.32499495 0.34612852
000090 28 4c 45 be 45 f8 15 3f db 67 8d 3d 76 53 17 be
       -0.19267333 0.58581954 0.069045745 -0.14777932
0000a0 d7 c2 34 3e 70 f1 ce be 9c b4 b9 3e 32 7a 87 3e
       0.1765245 -0.40418577 0.36270607 0.26460415
0000b0 a8 26 9e be 18 4f ec 3d d0 1b b7 3e 88 20 72 3e
       -0.30888867 0.115385234 0.35763407 0.23645222
0000c0 24 17 1b 3f ef be 10 be ab 3c 9f 3e a4 42 1c 3e
       0.60582185 -0.14135335 0.31100973 0.15259796
0000d0 34 5c 3c 3d df 41 e0 3d d8 64 9b be 56 ac 58 be
       0.04598637 0.10950064 -0.30350375 -0.21159491
0000e0 3a 0d a4 be bc 36 ba be 11 b8 8b 3e f9 a5 b9 3e
       -0.3204134 -0.36369884 0.2728887 0.3625944
0000f0 67 fe 0f 3e 4e 30 0e 3e 9a da dd 3e 93 b9 a9 3e
       0.1406189 0.13885614 0.43330842 0.33149394
000100 f2 fe 2b bb 24 a3 a9 3e bc ba 69 be ea be 6d be
       -0.0026244489 0.3313228 -0.2282514 -0.23217359
000110 fd d9 90 3d 69 77 07 3e 3d dc 82 bd f3 39 f7 bd
       0.07072828 0.13229145 -0.06389663 -0.120716
000120 4d b1 a1 3e 02 77 ba bc 53 6e 48 3e ea bd 41 bd
       0.31580582 -0.022761825 0.19573335 -0.047300257
000130 6a a6 4c be c8 dd ff bd f9 6f 2c 3c 8a 60 7e 3e
       -0.19985357 -0.12493473 0.010524743 0.24841514
000140 99 ea 94 bd eb 1a a5 3c ac 2c 8b bd f3 97 b8 bc
       -0.072713085 0.020154437 -0.0679563 -0.022533393
000150 b5 0a 74 be 6f 16 67 be 2a c8 73 be ba 8b 21 3b
       -0.2383221 -0.22567151 -0.23806825 0.0024649934
000160 1e bc 68 be 80 79 71 3e f4 79 80 be 33 ab 93 3d
       -0.22728011 0.23581505 -0.25093043 0.07210388
000170 f1 37 e4 3d 48 01 7b be 6b e3 19 3f 21 f5 76 3e
       0.111434825 -0.24512208 0.6011264 0.24116947
000180 e0 d5 c3 3d cc 81 47 3e 88 fa 82 3e 6b 0f 12 be
       0.09562278 0.19483107 0.25581765 -0.14263694
000190 86 bf 23 bf d0 cf e4 3e 3e a9 ba 3e 8b 50 64 3e
       -0.63964117 0.44689798 0.36457247 0.2229635
0001a0 ef 5c 90 3e 49 17 d8 3e 43 9d 15 be 7c aa 46 3e
       0.28195903 0.42205265 -0.14610772 0.19400972
0001b0 6b dc 3a 3d 2a ef f8 be 16 34 e4 be 42 f8 80 3e
       0.045620363 -0.48619968 -0.44570988 0.25189406
0001c0 c7 80 62 3f 49 77 ba bd 30 c4 ea 3e 63 ee 94 bc
       0.8847775 -0.09104783 0.45852804 -0.018180078
0001d0 38 9f 2b 3e cf 37 42 3e 85 48 58 3e 8e 4c 10 3f
       0.16759956 0.18966602 0.21121414 0.56366813
0001e0 a2 63 34 3f c0 3e ed 3e 5e e8 c1 3d a5 4a 05 3e
       0.7046453 0.46336937 0.09468149 0.13016756
0001f0 47 23 2a 3e b5 e4 02 3e 51 d5 35 3f 91 e0 dc 3d
       0.1661502 0.12782557 0.7102862 0.1078502
000200 ca 4c ca 3d 9a 26 35 bc e5 62 11 3f e6 79 74 3e
       0.098779276 -0.011056567 0.56791526 0.23874626
000210 5f f2 22 3f 3a ec 03 bd 01 26 a7 bc c4 da c4 bb
       0.6365108 -0.032207705 -0.020403864 -0.006007524
000220 8d 34 00 3f f8 d0 16 3e 6f 94 bd 3e c1 6f 4e be
       0.50080186 0.14728153 0.37027308 -0.20159818
000230 e2 42 9a be 06 a8 5c bf 7d 12 ad 3e e1 0a ec 3d
       -0.30129153 -0.86193883 0.33803168 0.115255125
000240 e4 c4 de bd 61 80 d9 bd ca 74 e2 3c de 3d 16 3f
       -0.10877398 -0.106201895 0.02764358 0.5868815
000250 0f 25 d4 3e be 99 58 3e d1 44 78 3e 5f af 45 bd
       0.41434523 0.21152398 0.24245001 -0.04826295
000260 62 ed 8f bd 3b 21 a6 bd 47 59 64 be 58 25 67 be
       -0.07027699 -0.08111807 -0.22299682 -0.2257284
000270 2b 06 8f bd f9 59 42 be 36 3a 07 3d 76 71 f6 bd
       -0.06983598 -0.18979634 0.0330145 -0.1203336
000280 7e 17 5c 3e 32 2a 43 bd c5 9c 9c 3d bc 2b 3b 3e
       0.21493337 -0.047647662 0.07647089 0.18278402
000290 32 df 81 be 4d 98 43 be 38 1b 66 bd 60 36 bb 3e
       -0.25365597 -0.19101067 -0.0561783 0.36564922
0002a0 b2 c0 01 be 8d 9d a3 be ab 0f cc 3e 6b 4c 14 be
       -0.12671164 -0.3195614 0.39855704 -0.14482276
0002b0 b2 b3 38 3d ca 87 05 be bd 5d d2 3e b9 df e9 3c
       0.045093246 -0.1304008 0.41087142 0.028549062
0002c0 ba 81 67 be bb e2 c4 3e 3b 76 c6 bc ce a7 26 3e
       -0.2260808 0.38454232 -0.024226299 0.1627495

down2.bias f4 [12]
000000 df a0 26 3e c3 24 99 3d 32 78 eb 3b b2 d5 8c 3d
       0.16272305 0.07477715 0.0071859593 0.06876697
000010 f1 67 90 3e d6 37 02 be 28 70 0e 3e 50 4f 31 3e
       0.282043 -0.12716612 0.13909972 0.17315412
000020 9c da 60 be 2b 3d d1 3d a4 cb 54 be 9a f8 c2 3e
       -0.21958393 0.10216745 -0.20780808 0.38080293

down3.weight f4 [11, 12]
000000 aa 3a 6a be dc ba 8c 3e c7 d2 33 be b8 ed c2 bd
       -0.22873941 0.27486312 -0.17560874 -0.095179975
000010 48 da b2 3e ef 8a 6d be a3 9b 86 be f5 1b 63 bd
       0.3493216 -0.2319753 -0.26290616 -0.055446584
000020 aa 28 e1 3e 46 b8 46 3e f0 e2 8a 3e 0b 70 c7 3e
       0.43976337 0.19406232 0.27126265 0.3895267
000030 28 83 85 be 9e 82 7e 3e 95 ea 14 3d 9a 7b 69 3e
       -0.26076627 0.24854514 0.036356527 0.22801057
000040 33 8b 1f be c4 04 ff 3d e7 df ad bc 11 3b 43 be
       -0.15580444 0.12452081 -0.021224929 -0.19065501
000050 48 f3 7e bd 86 2e 02 3e 43 22 49 3e 36 22 82 be
       -0.06224373 0.1271306 0.19641976 -0.25416726
000060 f2 9d 7c 3c 1c 54 8a 3e 1e f9 41 3f 78 4f c7 3e
       0.0154185165 0.27017295 0.7577075 0.38927817
000070 38 18 a2 3e 02 f8 13 3e 9e ef 63 be d2 7c c2 be
       0.31659102 0.14450076 -0.22259375 -0.37985855
000080 d7 72 d4 3d 63 18 00 3f 6c 60 eb 3d 17 bc db bd
       0.103734665 0.5003721 0.114930004 -0.10729235
000090 06 4d 18 3e f6 76 57 be 25 3a 9f 3e 27 04 2d 3e
       0.14873132 -0.21041474 0.31099048 0.16896115
0000a0 fa e2 d9 bd 5b f1 53 3d d9 16 41 3f 54 d3 ec 3b
       -0.106389955 0.051743846 0.7542549 0.0072273407
0000b0 6f ec 42 3e db e4 05 3e 07 38 88 3e e0 0d db be
       0.19035505 0.13075583 0.26605245 -0.42784023
0000c0 7b 64 3b 3e b0 da 8d 3e 19 43 0d 3e 70 b6 7a be
       0.18300049 0.27705908 0.13795127 -0.24483657
0000d0 a7 f2 6d 3e 3d 7f 46 3e 51 10 4c 3e 0b bd b9 be
       0.23237096 0.19384475 0.19928099 -0.3627704
0000e0 2e df 33 3f 96 37 cf be d5 62 f8 bd e0 ef 39 3e
       0.7026242 -0.40472096 -0.12128226 0.18157911
0000f0 8f 89 94 be fa 2b ea 3d c9 98 dd 3d 43 ac 11 be
       -0.290112 0.11434169 0.10820157 -0.14225869
000100 15 2b cc 3c 97 2e 20 3c a7 7b 14 be a6 7c 29 be
       0.024922887 0.009776733 -0.14500295 -0.16551456
000110 89 e1 76 bc 0e 52 42 bd ba 21 60 be f8 5e 09 3e
       -0.01506842 -0.047441535 -0.21887866 0.13415134
000120 ce 60 82 3e 06 8e 30 3e b2 b6 9b 3e 2d 23 aa bd
       0.2546448 0.17241678 0.30412823 -0.083074905
000130 c2 20 9e be 76 27 5d be 26 9e 9a be 95 5d db 3e
       -0.30884367 -0.21597084 -0.30198783 0.42844835
000140 d1 0d 2c 3f 4f b5 85 3d b7 18 54 3e 70 23 fd be
       0.6720858 0.065287225 0.20712553 -0.494411
000150 71 31 fc 3e f7 2f e8 3e 24 f9 4c be 15 f2 84 be
       0.4925647 0.45349094 -0.20016915 -0.25965944
000160 2b d7 46 3e 6b 7d 8c 3c 96 10 36 3e ba c6 c1 3e
       0.19418018 0.017149648 0.17779765 0.3784693
000170 5f 68 b2 be 61 52 ae 3e 48 c5 24 bd d1 59 b0 3e
       -0.34845254 0.34047225 -0.040227205 0.34443524
000180 36 5b 43 be b2 e9 2f 3e 1e d0 fa be f3 62 a1 3e
       -0.19077763 0.17178991 -0.48986906 0.31520805
000190 ca 98 a3 3e 81 cb 8d 3e b7 38 0d 3d 73 1e e2 3e
       0.31952506 0.27694324 0.034477916 0.44163856
0001a0 5e 3b b8 3e be 93 ed 3e e6 4e b2 3d 1c 77 85 bd
       0.35982794 0.4640178 0.08706455 -0.06516859
0001b0 65 cb a8 3e 74 88 68 be d8 70 d9 3e d9 17 ea 3e
       0.32967678 -0.22708303 0.42468905 0.4572132
0001c0 61 cf 92 3e b1 b1 42 3e 91 e2 9e be f3 c2 ea 3e
       0.28673843 0.19013096 -0.3103223 0.4585186
0001d0 3c b0 ca 3e be 27 6a be 54 c2 45 be da b7 50 3e
       0.3958758 -0.22866723 -0.19312412 0.20382634
0001e0 14 97 c4 bd f3 ea 7f be 4f 44 01 3f 93 69 fb be
       -0.09599128 -0.2499197 0.50494856 -0.49103984
0001f0 a5 0d df bc 91 44 87 bd aa 1f 59 3e 5f 59 e3 3e
       -0.027228186 -0.06604875 0.21203485 0.44404122
000200 5f f2 91 3e 2a 8a d6 3d af 36 16 be 93 f1 17 3e
       0.28505227 0.104755715 -0.14669298 0.14838247

down3.bias f4 [11]
000000 06 1e a7 3e 04 e2 18 be 18 90 b5 3d c9 65 da bd
       0.32640094 -0.14929968 0.08865374 -0.10663945
000010 36 99 9c 3d 5e 70 ba bd 1f 4d 80 3e 74 b4 92 bd
       0.0764641 -0.091034636 0.2505884 -0.07163325
000020 17 a6 76 3d 46 91 83 be 20 88 13 be
       0.06021699 -0.25696772 -0.14407396

down4.weight f4 [9, 11]
000000 9f 9c 03 be 71 26 2a bc bc a8 e0 be 30 db 9b 3c
       -0.12852715 -0.010385142 -0.43878734 0.019025415
000010 c1 26 9a bd 84 27 99 3e ae ef d7 3d 90 e2 79 be
       -0.07526923 0.2991296 0.10543762 -0.24402833
000020 d3 78 4d be c6 fa ca 3e f6 cf 41 3f 54 13 ac be
       -0.20065622 0.3964445 0.7570795 -0.33608496
000030 c0 eb 4a 3e d4 8b 05 3d 54 35 2a 3e a0 76 ae 3d
       0.19816494 0.032604054 0.16621906 0.0851872
000040 b1 b7 9a 3d 85 49 e9 3e 4a 8d 94 bd ad 5e 96 be
       0.075545676 0.45563903 -0.07253511 -0.29369107
000050 16 a7 de be 36 59 e8 3e 89 f0 88 be c7 cb 62 3e
       -0.4348685 0.45380563 -0.26746014 0.22148047
000060 6e 5a a2 3e 91 6b a7 3e c8 0a c0 bd 61 6c 1b 3d
       0.31709617 0.32699254 -0.09377056 0.037945155
000070 28 23 a5 be 9e b8 a1 3e d5 b1 7a bc d4 bc df 3e
       -0.32253385 0.31586164 -0.0153011875 0.43698752
000080 b7 e1 18 3f 4e d2 40 3e cf 7a 8f be c3 05 e4 bd
       0.59719414 0.18830225 -0.28023383 -0.111339115
000090 0d 66 59 bf 17 91 31 3e 09 79 6e bc fa 53 84 bd
       -0.8492134 0.17340504 -0.014555224 -0.0646133
0000a0 1f 57 8a 3e 91 47 f6 be 36 17 2d 3e 46 56 0f 3b
       0.27019593 -0.48101476 0.16903386 0.0021871491
0000b0 f8 8d 05 3e e1 76 b0 bd 7b 14 90 3e e6 02 83 be
       0.13042438 -0.08616424 0.28140625 -0.2558815
0000c0 5a 92 1f be 8f 40 67 3e db e7 0b bf 59 8e 26 be
       -0.15583172 0.22583221 -0.5465066 -0.16265239
0000d0 ab 35 39 be 72 80 d6 be 41 56 ad 3e e4 c2 de 3e
       -0.18086879 -0.4189487 0.3385487 0.43508065
0000e0 26 2f da 3d 7e 36 ea 3e bb 6c fe be d0 9b 95 bd
       0.10653524 0.457447 -0.4969233 -0.073051095
0000f0 b1 f8 32 be 49 1f 1c 3e b8 b0 63 be 41 58 ad 3e
       -0.1747768 0.1524631 -0.22235382 0.33856395
000100 00 92 ef 3e a5 1e 6c 3e 3a 99 98 bc db 7e 45 3d
       0.46791077 0.23058565 -0.018627752 0.048216682
000110 5a 3a ba be 10 56 19 be aa 68 ea be be 75 0c 3e
       -0.36372644 -0.14974236 -0.45782977 0.1371679
000120 15 49 bb bd 68 2a 2f be bc 3f c7 3d ee 8a d0 be
       -0.09144799 -0.1710602 0.09728953 -0.40730995
000130 d1 fe 2b be 92 5b 91 be e3 58 a0 bc bc 60 00 3d
       -0.16796423 -0.28390175 -0.019573634 0.031342253
000140 ba ba 58 3e d9 c3 64 3e 52 69 47 be 9b ce 56 3c
       0.2116498 0.22340335 -0.1947377 0.013110782
000150 56 2d fb be 1f 52 44 be b2 ea 37 3e c7 e1 8b be
       -0.49058026 -0.19171952 0.17960623 -0.27320692
000160 2a 54 c3 3e 39 51 c9 3d 79 b6 6a be 05 28 96 3e
       0.3815015 0.09829945 -0.2292117 0.29327407
000170 83 46 83 3e e1 af a4 bd 02 bd 19 bf 42 b3 1f be
       0.25639734 -0.08041359 -0.6005403 -0.15595725
000180 4d 29 7f 3e 86 23 ec be cf 33 f2 3e
       0.24918099 -0.46120852 0.47305152

down4.bias f4 [9]
000000 36 04 44 be ee f3 0a 3e d6 89 55 3e 4b 69 96 be
       -0.19142231 0.13569614 0.20853361 -0.29377207
000010 e9 48 3c be 02 87 aa bd ce 61 12 3d 97 67 91 be
       -0.18387188 -0.08326532 0.035737805 -0.28399345
000020 2b 94 e4 3c
       0.027902683

up1.weight f4 [11, 9]
000000 25 f4 c0 be 0c fd c2 bd fe 5d 0a 3d b7 3c 2a be
       -0.37686267 -0.09520921 0.033781044 -0.16624723
000010 e3 d4 19 be 0f da ec bd 7c f9 50 be 07 fc e3 bd
       -0.15022616 -0.11565029 -0.2040767 -0.11132055
000020 1c 04 92 3e 04 45 8e 3e 4a 20 ac be 6d 94 d0 3d
       0.2851876 0.2778703 -0.33618385 0.1018456
000030 4e f3 0e 3f e7 26 57 be 89 d4 4f 3c 83 47 d5 be
       0.55840003 -0.21010934 0.01268495 -0.41656122
000040 b5 42 47 be ab a9 dd 3e 84 36 50 3e 0c e8 b5 be
       -0.1945904 0.4329351 0.20333296 -0.355286
000050 0f ce 90 be 0b ee c4 be 0f db 1e 3c ec 6c b8 3e
       -0.2828221 -0.38462862 0.009695782 0.360206
000060 d0 8f 30 be 90 22 1f 3e 7f 38 10 3f e9 9c 93 be
       -0.1724236 0.15540528 0.56336206 -0.2883065
000070 97 46 3a be 41 c2 98 be cf 66 bc 3d ba f7 c5 be
       -0.1819099 -0.29835704 0.09199297 -0.38665563
000080 45 8c 03 3e 2d c9 5b be 91 14 4c be fa fd b7 bd
       0.12846477 -0.21463461 -0.1992972 -0.08983989
000090 56 21 26 bc 0a 3e 43 3e 87 1a c0 3b 17 9c da be
       -0.010139784 0.19066635 0.0058625373 -0.42697212
0000a0 9b 80 14 bf 9c 23 82 3e fc a1 58 be d4 64 b8 3e
       -0.58008736 0.25417793 -0.21155542 0.36014426
0000b0 7b 4e 60 be dd 01 9f 3e 49 ca cf bd 7b 77 09 bd
       -0.21904938 0.3105611 -0.10146005 -0.03356121
0000c0 82 a4 a0 bd b1 d0 85 3d 96 34 e9 3e 2a 71 21 3e
       -0.078438774 0.06533945 0.45547932 0.15765825
0000d0 f5 07 c2 be 8f 04 ed be 6e b4 b7 be 11 ea d4 bd
       -0.37896696 -0.4629254 -0.35879844 -0.10396207
0000e0 05 7c ae 3d bd e2 66 3e ef c8 57 3e 92 8a 91 3e
       0.085197486 0.22547431 0.21072744 0.28426033
0000f0 02 13 a0 be 24 fb 8e 3e bf cc 1e be 7a 67 06 3e
       -0.31264502 0.2792598 -0.15507792 0.1312541
000100 5e 17 03 bf 15 a3 9a be 6c b0 00 3f cd b9 3c 3e
       -0.5120753 -0.30202547 0.502692 0.18430252
000110 36 86 64 3e 2d 5a 17 be 5a 43 e1 bc 61 da 4f bc
       0.22316822 -0.14780493 -0.027497936 -0.012686343
000120 5d 5e 9c be 4f cd ad be c4 ff 81 3e 22 b5 b0 bd
       -0.30540743 -0.339457 0.25390446 -0.08628298
000130 03 4b cf 3d 2e 67 d1 3e 5a 2c 23 bd 93 3b 26 be
       0.10121729 0.40899032 -0.03983722 -0.16233663
000140 63 c3 38 3e cc 9d 20 3c 65 8e 2c bf 00 3c ec 3e
       0.18043284 0.009803247 -0.67404777 0.46139526
000150 3a 0c 89 be 19 d2 fd bd e7 75 0a be 78 b4 02 3e
       -0.2676714 -0.123935886 -0.13521539 0.12764156
000160 d1 c3 5b 3e c5 0b dc be 88 01 1e be cc 99 33 bc
       0.21461417 -0.4297773 -0.15430272 -0.010961961
000170 da a4 8c 3e e1 22 a6 be 16 bc 55 be 33 96 0c bd
       0.27469522 -0.32448485 -0.2087253 -0.03432293
000180 4a 1c 20 be ba b7 7f be d2 2a 3c 3e
       -0.15635791 -0.2497243 0.1837571

up1.bias f4 [11]
000000 c1 ab c1 bd 1f 02 b6 bd a9 1b 25 3e e2 8e 2a be
       -0.094565876 -0.08887123 0.16123833 -0.16656068
000010 c5 24 a7 bc 93 70 17 3e 3f 09 48 3e 90 c5 f9 3c
       -0.020403275 0.14789037 0.19534777 0.030489713
000020 83 28 a3 3b cd 11 d0 bd cc 84 b5 bd
       0.0049791946 -0.10159645 -0.088632196

up2.weight f4 [12, 11]
000000 46 03 e7 bc 49 41 76 3e b8 c7 f8 be 63 0c b2 3d
       -0.028199803 0.24048342 -0.48589873 0.08693769
000010 53 b8 32 3e d8 e5 c6 be 4a dd cb 3e b0 c2 cf bd
       0.17453127 -0.38847232 0.39817268 -0.101445556
000020 a2 07 a4 3d 3b b6 8c bd d0 f9 9d bc 37 45 59 3e
       0.08009268 -0.06870695 -0.019284159 0.2121781
000030 f1 e3 ad 3e 7c 15 c4 3e be 6d 61 3d 29 cc 8f be
       0.33962968 0.3829764 0.0550363 -0.2808545
000040 5a a6 c2 be 25 92 d5 3d eb 61 1d 3d 71 2d 9c bd
       -0.3801754 0.104282655 0.03842346 -0.07625855
000050 eb 24 92 3e 75 8e 63 3b a2 9b 85 be 1e a1 8d be
       0.2854379 0.0034722362 -0.260953 -0.27661985
000060 53 8b e6 3e 28 d9 cd 3e 6b f7 6a bd 69 f4 95 bd
       0.4502817 0.4020474 -0.057364862 -0.07322008
000070 2c 5a d6 3d 10 6a bd be 84 e4 76 3e 65 3a a2 3e
       0.10466418 -0.36994982 0.2411061 0.31685176
000080 e3 24 61 be 85 46 80 be 1e 62 1b 3e 9d 82 c6 be
       -0.21986727 -0.25053802 0.15174147 -0.38771525
000090 c8 de 6f 3e 8d ae 29 bd 05 a5 4c 3d e5 f1 eb bc
       0.23424828 -0.04142623 0.049962062 -0.028801868
0000a0 d3 ed 67 be 37 cd 9a 3e ec 03 22 3d d6 01 e4 bd
       -0.22649316 0.30234692 0.03955452 -0.11133163
0000b0 98 02 aa 3e cb 46 4e 3e df 41 8a 3c 3b 2d 91 bd
       0.33205104 0.20144193 0.016877113 -0.07088705
0000c0 1f e6 7d be ab 10 b3 3e b6 4e 46 3c 53 3c 9f be
       -0.24794815 0.34973654 0.012103727 -0.3110071
0000d0 0a 1d 03 3e 7b 47 1f bf c9 8b 8d 3e 56 40 01 3e
       0.12804046 -0.62218446 0.2764571 0.12622198
0000e0 7d 2e 1a bd 7f 50 cf bb d6 2a 2c bd e4 c8 ae bc
       -0.03764199 -0.0063267346 -0.04203304 -0.021336026
0000f0 f7 e4 e0 3d 79 69 49 3d e0 55 f1 3c fb 89 93 bd
       0.109811716 0.049172852 0.029459894 -0.07204052
000100 1f df dd bc 72 7b 88 3d 71 29 6c be 7d f7 e0 3e
       -0.027083931 0.0666417 -0.23062684 0.4393882
000110 65 bd 5c 3e b9 8b 78 be b3 48 36 3e 1b 40 2e bd
       0.21556623 -0.2427205 0.1780117 -0.042541604
000120 34 91 a3 bd a8 e6 18 bc 33 c4 41 bd 1d 0c 30 3e
       -0.0798668 -0.0093323365 -0.04730625 0.17192121
000130 74 81 3f be 18 b5 2e 3e a3 30 c2 bd 8e d2 48 3d
       -0.18701726 0.1706127 -0.09481933 0.049028926
000140 26 e0 46 3e eb a7 a3 3d 25 d4 8c ba fd f5 16 be
       0.19421443 0.07991012 -0.0010744376 -0.14742275
000150 e5 d7 61 3e 00 22 0d bb f5 ce 11 3e 30 fd 70 be
       0.22055013 -0.0021535158 0.14239104 -0.23534083
000160 7d 19 71 bd aa b1 ad 3c 53 ad 8b be 50 93 7b be
       -0.0588622 0.02120288 -0.27280673 -0.24567914
000170 ce 81 dc be 77 69 9e 3e 37 1a cc bd 96 10 99 3d
       -0.43067783 0.30939838 -0.099659376 0.07473867
000180 94 39 8d 3e 26 3f 3c 3f 21 25 40 3e ea 9b e5 3c
       0.2758299 0.73533857 0.18764164 0.028028447
000190 e2 e3 05 be 8b 90 33 be 8b 4b 1d 3c 1a 51 c2 3e
       -0.13075212 -0.17535608 0.00960053 0.379525
0001a0 86 68 be be 10 75 06 bf 29 7b c2 3e 55 41 31 3e
       -0.3718912 -0.52522373 0.3798459 0.17310078
0001b0 68 f5 8c 3b cd 9d b9 3e 2b 15 2a bd e0 54 bb 3d
       0.0043017156 0.36253205 -0.041524094 0.09147048
0001c0 7d 55 a3 3d 49 77 7e bd 5b 63 43 be dd 10 b7 bd
       0.0797529 -0.062125478 -0.1908087 -0.08938763
0001d0 39 db 34 3e 71 c1 ca bd e9 b2 8b 3e ac c9 3f be
       0.17661752 -0.09900177 0.27284935 -0.18729275
0001e0 2d 37 fc 3d 31 4e c0 bc 5e 02 31 3e 75 71 a4 3d
       0.123152114 -0.023474785 0.1728606 0.08029453
0001f0 cb 27 52 3e ac fa 42 be 5d 99 fb 3d 24 66 2f 3d
       0.20522992 -0.19040936 0.12285111 0.04282202
000200 4e f4 1e 3f 0d 50 29 be d1 0b 07 be c1 d5 81 3e
       0.6209153 -0.16534443 -0.13188101 0.25358394

up2.bias f4 [12]
000000 b3 4d 68 be ea 7f 6d 3d 04 9b 10 be 9d f8 c0 bd
       -0.2268589 0.057983316 -0.14121634 -0.09422419
000010 b1 02 a1 be 82 74 1e 3c 65 28 7b bd c4 1f bd 3d
       -0.31447366 0.009671332 -0.06131782 0.092345744
000020 7d 27 a3 3b 56 dd d7 bd a2 67 fa bd 54 50 48 be
       0.0049790726 -0.10540263 -0.12226798 -0.19561893
