6/model_Plate 36841.pt (torch, 6098 bytes, 12 tensors)

down1.weight f4 [12, 15]
00000000: 61cd 7f3c 5874 873e 6280 1b3e dbe8 773e
00000010: 4c39 e73d 18c7 933e 2912 8cbd 4838 cabc
00000020: d5e1 8bbe 7d6f 943d 0340 163d c917 8c3e
00000030: 6dce 203d 3df6 9ebe ddc7 623d 337c 813d
00000040: 1473 893e d88a ce3d 8284 393e 79e7 a4bd
00000050: f7a1 5a3e 59ea 1c3f 439a e73e 3f55 fa3e
00000060: 12e8 833e 96c3 4f3e bd9a afbd 2e33 123e
00000070: 8fdb 5d3e 065d 03bd 0ff8 4d3d 1876 3b3d
00000080: bf45 45be ac15 073e 47a2 b63d 33b8 213e
00000090: 52ea cc3d 4775 203e b727 da3d efd9 833e
000000a0: 9528 1e3d 545c 19bc 0ce6 893d aecf 2c3f
000000b0: 2dc2 863d 4a43 0c3e 3aed 80bc 8aa2 213d
000000c0: f27a 733d 7264 56bd 1129 043d f12a 803e
000000d0: fa76 a63e 197c c13e 9941 423e 7772 943d
000000e0: 202f 57bd 3f4f f6be 69f7 523e 975f d23d
000000f0: e084 b4bd 1b21 5f3e 522d 4e3e e679 3a3e
00000100: 59c5 ed3d b98c 183d 9847 e93d 1fb4 913d
00000110: e04d e6bd 02d0 b33e 9ddf 693e 2a48 cd3c
00000120: c9d9 973d 3948 98bc 55e7 cf3d 353f e83d
00000130: 20f1 493d 3dae aa3c 00a4 c73d 8e7a a53c
00000140: da15 8e3d eea5 7c3e 9639 65bd 1b09 a2bc
00000150: 1817 f63e da28 263e 6e7e e63e ac47 093f
00000160: 9829 a2be 1514 443e f371 9939 8fa6 933d
00000170: 8093 343e d1f2 283d 6d63 0f3e 8046 233e
00000180: b683 a0be a861 f7be 70dc 2cbf 7e78 693d
00000190: 41b1 113e 77fa 873d acc4 223e 6270 c73d
000001a0: ee62 033e 792c 4c3d a11a 6dbd a907 57bd
000001b0: d1f2 c2bc ec16 743a 09e1 12bc 18ef ffbc
000001c0: 978e cdbc de23 52bc d61a b5bd 833a 04be
000001d0: 556c 953e cfe2 673e bf98 54bf e356 2cbd
000001e0: e0c4 0a3e 3465 1f3d 72af 973e 757f 8cbd
000001f0: 9ced 41bc 1ff9 a23e fb50 c23d 5fe6 9dbe
00000200: 3ef1 b5be d6a2 1b3e b806 c53e b8a6 b63d
00000210: 505d 383d 3044 f03e 5b2f 043e ddf4 e63c
00000220: f93b 06bd 9ec1 393c 47d2 10bc 7190 393d
00000230: 70d5 603d 6246 923d 9992 f23c 34bc cbbb
00000240: 32a1 793e 53ff 833e 05ee dabe f4be b6be
00000250: e876 6f3f 6d67 f93d 65f0 1cbb dc8e 33be
00000260: 69eb 84be c5e5 8bbe eca1 48be c233 bfbe
00000270: 729c 563f d346 a13f 280b e23f b484 a0bd
00000280: 4b5a babe d926 dbbd 71ed d8be adc1 5abe
00000290: 2917 a8be fc70 2fbd de5b 1bbd 726b 153e
000002a0: 4b17 1dbe f20e c6bd acd1 eb3c 6115 5a3e
000002b0: 79be 203e 2f90 533e 7cdc 4bbd c5aa 423e
000002c0: b38b 003d d987 38be ad35 e53d a44b c1bd
0.015612931 0.2645595 0.15185693 0.24209921 0.112902254 0.28862834 -0.06839401 -0.02468504
-0.27320734 0.07247827 0.03668214 0.27361897 0.039259363 -0.3104724 0.055366386 0.06322517
0.2684561 0.10085076 0.18116954 -0.080519624 0.21350847 0.61295086 0.4523488 0.48893163
0.25762993 0.20289454 -0.08574436 0.14277336 0.21665786 -0.032071136 0.050285395 0.04576692
-0.19264887 0.13191861 0.08917671 0.15792923 0.100056306 0.15669738 0.10652106 0.25752208
0.03861292 -0.009360392 0.06733331 0.67504394 0.06580005 0.13697544 -0.015738118 0.03946165
0.05944342 -0.052341886 0.032265726 0.25032762 0.32512647 0.37789991 0.18970336 0.07248395
-0.052535176 -0.48107335 0.20602192 0.102721386 -0.088144064 0.21789972 0.20134476 0.18210563
0.11609907 0.03724358 0.113906085 0.071144335 -0.11245322 0.35119635 0.22839208 0.025058825
0.07414586 -0.018589126 0.10151545 0.11340181 0.04930222 0.020835036 0.097480774 0.02020004
0.069377616 0.24672672 -0.05596312 -0.019779732 0.48064494 0.16226521 0.45018333 0.5362499
-0.3167236 0.19148286 0.00029267333 0.07209503 0.17634392 0.041247193 0.14002772 0.15944862
-0.31350487 -0.48316693 -0.6752386 0.056999676 0.14227773 0.06639569 0.15895337 0.09738232
0.12830707 0.0498471 -0.057886723 -0.05249754 -0.023797425 0.0009311277 -0.008964785 -0.031241938
-0.025092406 -0.012825934 -0.08843009 -0.12912945 0.29184213 0.22645114 -0.8304557 -0.04207505
0.13551664 0.038914874 0.29626042 -0.06860248 -0.011836436 0.3183069 0.09488102 -0.30839822
-0.35535616 0.15198836 0.38481688 0.08918518 0.045010865 0.46927023 0.1290869 0.028192932
-0.032772038 0.011337666 -0.0088391965 0.045303766 0.05489105 0.07142331 0.029610919 -0.006217504
0.24377897 0.25780734 -0.4275972 -0.3569256 0.9354081 0.1217793 -0.0023946997 -0.17534965
-0.25960854 -0.27323738 -0.19593018 -0.37344176 0.83832467 1.2599739 1.7659655 -0.07837811
-0.36397013 -0.10700769 -0.42368653 -0.21362944 -0.3283017 -0.04283236 -0.03792941 0.14591768
-0.15340917 -0.09670819 0.028786503 0.21297218 0.1569766 0.2066047 -0.049770817 0.19010456
0.031383228 -0.18020572 0.111918785 -0.094382554

down1.bias f4 [12]
00000000: 2582 943e 0f93 e43d 9c74 af3d 295f b53e
00000010: 54bc a63e 0df3 913e dc99 533e 44e4 943e
00000020: ed6c 813e 0301 7dbe e49e 34bf d1f5 013f
0.29005542 0.11160862 0.08567163 0.35424164 0.32565558 0.28505746 0.20664161 0.29080403
0.25278416 -0.24707417 -0.7055495 0.5076571

down2.weight f4 [9, 12]
00000000: d2f7 94bd 7e08 e6bd d4fb 5bbd 84c9 003e
00000010: 70a2 3a3e 0e21 85be af35 b73d bc88 75be
00000020: ae45 2f3d 8ad3 063d e111 15bd b0dd 12bd
00000030: 10c7 ec3d 069c 36be 9a02 873e 176e fcbd
00000040: 7bd0 d7bd 3db6 3e3e b577 15bd 6233 093d
00000050: 391c 8a3d 63c2 553e de9b 92bf f69b 513e
00000060: f4b9 1e3e cfdc 5e3e 79b9 ba3d 8e6d 673e
00000070: edfc 08bf c511 4d3e be61 2c3f 74ef 213e
00000080: 70f7 c6be 0a20 45be 5fc6 b73f e7c3 043f
00000090: ab32 ab3e 0cbc e6be 7626 a53d d724 adbe
000000a0: 7cf4 a73e 9bdc c83d 6db4 84bf d992 3abe
000000b0: 3476 1b3f 9f94 1b3e 272a c4c0 502c b2be
000000c0: f871 14bf cc2e 4c3e 0b23 aa3e f05d bb3e
000000d0: c4e7 913e 3be6 6bbe c3fc 4e3f 55d3 363f
000000e0: bafb afbe fc1a 30bf f03e 1c3f 8831 483e
000000f0: 0768 e23e 8ee3 79bd ddc1 55be bca0 48be
00000100: 33b4 87be 8ca6 103f 9c10 fb3e d84c 38bf
00000110: 5b11 e3be 67b9 093f d73c 073f 2d5c a13e
00000120: 0481 bdbd 4758 a3bd ebb7 043f 0030 b33e
00000130: 946d 5d3e 3123 823d 0481 a83e 0805 483f
00000140: 671e e23e bb9f 56bf 89f5 cb3d b9e0 d4be
00000150: dfd7 ee3e 79ac 9d3d 1521 3b3e c1d1 a33e
00000160: 0939 00bf d1bc 143f 37e0 cc3e a4c4 18bf
00000170: a779 81be 97db 4b3e c7b0 153f de88 1abd
00000180: 16f1 a9bd df97 aa3e 3387 493d 2228 a23e
00000190: 78e2 74be 5b01 113d c88d d1bf 0ed6 013e
000001a0: d767 fcbe b305 a2be b680 8b3f 43cc 2f3e
-0.072738305 -0.112320885 -0.05370696 0.12576872 0.18226027 -0.2600178 0.08945786 -0.23977941
0.04279106 0.032916583 -0.036394004 -0.03585595 0.11561406 -0.17832956 0.26369172 -0.123256855
-0.10537811 0.18624206 -0.036491115 0.033496268 0.06743664 0.20874934 -1.1453817 0.2046965
0.15500623 0.2176392 0.09117407 0.22600386 -0.53510934 0.2002631 0.6733664 0.15814
-0.38860655 -0.19250503 1.4357413 0.51861423 0.33437094 -0.45065343 0.080639765 -0.3381717
0.32803714 0.09807702 -1.0367562 -0.1822008 0.6072724 0.15193413 -6.1301455 -0.34799433
-0.579864 0.19939727 0.3322986 0.36595106 0.28497136 -0.23037045 0.80854434 0.7141622
-0.3437174 -0.68791175 0.61033535 0.19550145 0.44219992 -0.06100803 -0.20874734 -0.19592565
-0.2650467 0.5650413 0.4903611 -0.71992254 -0.4434918 0.53798527 0.5282721 0.31515637
-0.092531234 -0.07975822 0.51843137 0.3499756 0.21623832 0.063543685 0.3291093 0.7813268
0.4416382 -0.8383748 0.099589415 -0.415777 0.46649072 0.07698912 0.18274339 0.31995967
-0.5008703 0.5810061 0.40014812 -0.5967505 -0.25288126 0.19907986 0.58472866 -0.037728183
-0.082979366 0.33318993 0.0492012 0.31671244 -0.23914516 0.035401683 -1.6371393 0.12679312
-0.49297974 -0.31644973 1.0898654 0.17167763

down2.bias f4 [9]
00000000: e4a0 3dbe 1851 8bbe cf55 e7bd 2ded a33e
00000010: a6a3 a43e a157 bf3e 0ada c63e c321 a83e
00000020: dde5 71be
-0.18518406 -0.27210307 -0.112956636 0.32016888 0.32156104 0.37371543 0.38838226 0.32838258
-0.23622842

down3.weight f4 [6, 9]
00000000: c861 50be cb17 ee3d 4402 ae3c 492c 24be
00000010: 3be8 adbe 0ce6 663e de4d 61be ee26 bcbe
00000020: dd07 89be 7132 3bbd 3d3f e13e 2ecd 703e
00000030: c1fb 0bc0 e41f 423e e6e3 fb3e f564 b0be
00000040: ad97 f43e 8734 49bf 9e8b 5dbe 36cc c5bd
00000050: e78f 153d 9619 4fbe c2c1 a9be c510 923d
00000060: daff 5bbd 833b 11bd ab00 f3bc e00e 7abd
00000070: f890 103e 93c3 213e 0836 24be eb50 d4bc
00000080: 86e3 8ebe 80d6 87bd 8054 c43c 009b c7bd
00000090: dec1 92be 1006 8abe 00c9 913d 1c1c 2c3d
000000a0: 2df2 f83d b788 53be 69db 853d 2cf5 2dbe
000000b0: 4214 c2bd 3fb9 9fbe 1904 3c3f b185 af3e
000000c0: f826 bdbf e92a 493f 8915 a7be cfad 113f
000000d0: 5f0d 65be 45ba 3abf
-0.203498 0.11625632 0.021241315 -0.16032518 -0.3396624 0.22548693 -0.2200236 -0.3674845
-0.26763812 -0.0457024 0.4399356 0.2351577 -2.1872408 0.18957478 0.4919731 -0.34452024
0.4777197 -0.78595775 -0.21635291 -0.09658091 0.03651419 -0.20224604 -0.33155638 0.07132105
-0.053710796 -0.035457145 -0.029663404 -0.061049342 0.14117801 0.15797262 -0.16036236 -0.025917491
-0.27907962 -0.066327095 0.023966074 -0.09746361 -0.28663534 -0.2695775 0.07118416 0.042018995
0.12155566 -0.20657621 0.0653599 -0.16988057 -0.0947652 -0.3119602 0.7344375 0.34281686
-1.4777517 0.785811 -0.32633618 0.56905836 -0.22368382 -0.72940475

down3.bias f4 [6]
00000000: 3ab4 823d b7d5 193e 899d b1be f3ed 38be
00000010: c5ee 50be 9660 a03e
0.06382032 0.15022932 -0.34690502 -0.1805952 -0.20403583 0.3132369

down4.weight f4 [3, 6]
00000000: 6247 dbbd 2a7a d83f 1d4f 8cbe f3c0 12bd
00000010: d3c2 abbd 72aa 22bf 18bd 35be 7388 5f3f
00000020: 497f bbba c142 423e 7760 0c3e e8c4 9a3e
00000030: 9947 aebe 6bf5 193f a7f5 be3e f489 f0bd
00000040: 1bf0 0dbe 717b 993f
-0.107069746 1.6912282 -0.2740411 -0.035828542 -0.08386769 -0.6354133 -0.17747915 0.8731758
-0.0014304902 0.18970777 0.13708673 0.30228353 -0.34039 0.60140103 0.37296793 -0.117450625
-0.13861124 1.1990796

down4.bias f4 [3]
00000000: 29f5 0bbe 4c46 913e d961 b9bf
-0.1366774 0.28373945 -1.4482986

up1.weight f4 [6, 3]
00000000: 88c5 a1bf c9de 443e d09c 903f e6e1 db3e
00000010: 3fdc cd3e 14b8 31c0 476a c13f e66a 9c3f
00000020: 747d f83f 95d2 dbbd b3d6 62be fc94 803e
00000030: 00cf c9bf e3eb a0be b1ff 0fc0 6e1b ecbe
00000040: e6a9 b1be f2e7 943c
-1.2638407 0.19225611 1.1297855 0.42945784 0.40207097 -2.7768602 1.5110558 1.2220123
1.9413285 -0.10733525 -0.22152214 0.25113666 -1.5766296 -0.31429967 -2.2499812 -0.46114677
-0.34699935 0.018177006

up1.bias f4 [6]
00000000: 6278 94be 3e4d 043f 3edd ca3e eb68 d8be
00000010: 5519 d83e 92e8 b8be
-0.28998095 0.5168036 0.3962192 -0.42267546 0.42206827 -0.36114937

up2.weight f4 [9, 6]
00000000: 3e4c 8d3e 8414 833d 5a49 993e 79a8 94bd
00000010: a914 a43e 7158 443d ca66 ee3d a7a0 d13d
00000020: 7d68 6d3e 84b8 89be 5efe cd3d e390 863e
00000030: 3674 95bd a2db 80bb db50 863e a4b9 2dbe
00000040: bb18 113e a5b3 813e 1ced 7d3f 8813 7b3e
00000050: bb75 073f 9ea6 ad3e 9a7a 3b3f ef02 78be
00000060: 2bec 473f 1d62 bb3e b05d 823e 554d 94bd
00000070: 1aaf 393e ff06 52be 8201 8fbf f227 8cbf
00000080: 3151 873e e308 013e 63eb bb3f 1ebc e6be
00000090: c531 64bf 4cad 6fbf 112c 74bc 7239 aa3c
000000a0: 8178 633f 736a 453e 1594 aebf a267 2a3e
000000b0: c800 773e 65f0 8fbe e656 b53e 4e6f 0cbe
000000c0: 31f8 123f 6cc1 5b3e 5897 343e 5c5f b3bd
000000d0: fda3 253e 4759 89bd
0.2759723 0.064003974 0.29938775 -0.07258696 0.32047012 0.047935907 0.11640699 0.1023572
0.2318439 -0.26898587 0.10058282 0.26282415 -0.07297556 -0.0039324323 0.26233563 -0.16965348
0.1416959 0.2533237 0.99189925 0.2451917 0.5291402 0.3391618 0.7323395 -0.24219869
0.7809474 0.36598292 0.25462103 -0.072413124 0.18133202 -0.20510481 -1.1172335 -1.094969
0.26429132 0.12601046 1.4681209 -0.45065397 -0.8913844 -0.93623805 -0.014903084 0.020779345
0.8885575 0.19278888 -1.3638941 0.16641095 0.24121392 -0.28113094 0.3541786 -0.13714334
0.5740996 0.21460503 0.17635858 -0.08758423 0.16175838 -0.067064814

up2.bias f4 [9]
00000000: f9cb d3be 2e2b 58be fdb0 62bd 7cc3 c9bf
00000010: f57d 39bf 8d78 84be c477 1f3f 8205 75be
00000020: 4238 0fbf
-0.41366556 -0.21110222 -0.05534457 -1.5762782 -0.7245782 -0.25873223 0.6229212 -0.23927882
-0.5594522
