5_3/model_Panel2.pt (torch, 9482 bytes, 16 tensors)

down1.weight f4 [15, 18]
00000000: dc88 003e 3860 44bb 9d25 06be 4296 2cbd
00000010: 957f d43d 0205 00bb 3250 00be f47a 823e
00000020: c6ee ea3e ec57 873e 43b2 2c3e 17c3 423e
00000030: 0cf8 133e 39a2 44bd e140 483f c2ff b6bb
00000040: df2f 893d 81e1 873e 7973 713e 1b7c a8bd
00000050: 4182 3b3d bf5e e63c ab9e 453e d894 2e3d
00000060: 43dd 6a3e 3f68 9a3e bcff cdbd be38 1cbe
00000070: 09d7 973e 510a 993e 209d 8bbe ee1e 8a3d
00000080: b586 b93e 68d7 083f 9795 b03e 9292 8abe
00000090: e48d 9ebe 36fd 113e 94d5 203e f6d3 003e
000000a0: 3f70 9c3e 5168 9f3e bb2e 1d3e 8f7d edbd
000000b0: 570a 9dbd 3070 3a3e 3053 043e 1888 3b3e
000000c0: 3b6b 77bc 14de 17be d152 0dbf 7e81 80be
000000d0: 7188 593d c7d1 0f3d bddf 4f3d ccc3 d1bb
000000e0: 416b 193e a9ae c7bc 4b16 34bd 88f1 49bc
000000f0: f4a8 7c3f 2d5b c4bd 9520 a9be e086 173e
00000100: 500b 29be c17d 693e dd17 d3ba 2b5d b23d
00000110: e264 1a3e d308 173f 5dde 6f3d 1c72 b93c
00000120: a28d ae3d 7a4a 27bd 665e 8a3e ea0a 863e
00000130: 848c 3f3e 3b92 973e 4ae2 cd3e 536f b43e
00000140: 3a6e 663e 81d7 13bd 1d88 d4bd 6ddb 0dbe
00000150: 5f59 cabc c959 33be 7b39 2f3f 5c27 1a3f
00000160: 5f5b 3b3e ae49 b6bb 73a9 57be 2d38 8b3e
00000170: 2e83 403d bd8b 1c3e c200 b8bd 7146 293e
00000180: a429 e93e 39d0 5abd b9f0 5fbe 06e7 473e
00000190: 4c11 23be 8798 1dbd 1c36 c93c 8c3d 2bbc
000001a0: 5c91 39bd 4f84 5dbe 71da 49bd 6bde ba3e
000001b0: 5dbe 2abd 8509 b8bc 7467 6a3c c487 85be
000001c0: f1ee 993e df96 2e3e 9b67 223f f797 1b3d
000001d0: 3082 b83e 63cf 353e 2769 a9be 5d3f 113e
000001e0: 4e40 933e a2b0 163e 0d3e d23e f547 543f
000001f0: 2ee4 efbe eb40 47bd 82d1 3a3e 15d7 8c3e
00000200: b0ad b23e 78d3 6d3e 4c5c ce3e d16b 71ba
00000210: adc0 44bb 44a0 debe ded6 5f3e 9956 08bd
00000220: 9c62 90be 300b d33d 6f5b 643e af0f 6b3d
00000230: eaff 9d3e dfc9 153e 93c7 11bd 3196 14be
00000240: d028 4ebd 4f02 bcbe c0a9 f33d ff2d 03be
00000250: 0045 913d 49ee f43c 730e 3a3f 12e0 8b3e
00000260: 2dae cd3e 7a4f 223e 8d31 b83e eed0 57bd
00000270: 4160 d43e 9314 23be 6ece b13e 0cbd 673f
00000280: ef2e 653e ce7a 173d 8644 583e 5472 b63e
00000290: b385 c83d 77cf 9d3d fe5d 883e 3aa2 b43e
000002a0: c625 683e 52e6 18be 8296 e53e a4d6 a23e
000002b0: 89e9 bdbd c79a bf3e 11a9 d83e f0c8 2b3e
000002c0: 004f 793e 316e 023e 434d 6c3c c7d6 533e
000002d0: 4c1b 62be ac0d 6d3e b4f7 ed3c 7325 f9bc
000002e0: df7a 8fbc e0ca 943e 7efe 2cbe 0562 0fbe
000002f0: fdf0 b93d 3d35 5abe d6c1 dfbe e5cb b33d
00000300: 3ea8 cf3e 60de 363d 9617 14be 1191 233e
00000310: b120 84be 1b1f 0abe 652c e5bd 36ca 143e
00000320: faec 933d ef34 92be 7b92 87bd a554 213e
00000330: f12d 283e a76c cbbd 9710 273d 4bc5 513e
00000340: ad94 2cbd 6428 ee3d eae7 9ebe ed94 563c
00000350: 4e68 073f 9354 123f 84f0 643d 8fd6 a0be
00000360: fac9 ce3e 49c2 2a3e 635f 943e bba2 b63e
00000370: 6c71 9d3e 25ad 013e 06be 83bd 25b9 4cbe
00000380: 7295 533e 8e71 2dbb 5011 6f3e 1b5d 813c
00000390: 8465 21bc ee42 dfba 6176 1bbf 2d3c 423e
000003a0: 690d bd3e f644 96bc 3768 273e 8681 7b3d
000003b0: 3fd0 063e f75d 8a3e e404 7e3e a6c3 a43e
000003c0: 7183 6b3d 37c5 9bbd 6f2a 673e 4821 893e
000003d0: 85ea 88be 2a91 773e 367e d73e 1e60 9f3d
000003e0: cfab 3f3f 26c6 a8bd 080b 833e dadf 19bd
000003f0: 9600 a9bb 6fbc d63c 4724 8b3e fe95 9cbd
0.12552208 -0.0029964577 -0.13100286 -0.042135485 0.10375897 -0.0019534235 -0.12530592 0.2548443
0.45885295 0.26434267 0.16864876 0.19019733 0.14450091 -0.04800627 0.78224 -0.005584688
0.06698584 0.26539233 0.23579206 -0.08226796 0.045778517 0.02812135 0.19298808 0.042622417
0.22935967 0.30157658 -0.10058543 -0.1525602 0.29656246 0.29890683 -0.27268314 0.067441806
0.36235586 0.53453684 0.34489128 -0.2706495 -0.3096763 0.14256749 0.15706474 0.12580857
0.30554387 0.31134275 0.15349858 -0.11596214 -0.07667988 0.18206859 0.12922359 0.18313634
-0.015101249 -0.1483081 -0.5520449 -0.25098795 0.053108636 0.03511217 0.050750483 -0.0064015146
0.1498232 -0.024375277 -0.043966573 -0.012325652 0.986953 -0.09587703 -0.3303267 0.14797544
-0.16508222 0.22801878 -0.0016105134 0.08709177 0.15077546 0.5899784 0.05856167 0.02263742
0.08523108 -0.04084251 0.27025145 0.26180202 0.18705946 0.29603752 0.40211707 0.35241184
0.22502986 -0.036094192 -0.10377524 -0.13853236 -0.024700819 -0.17514719 0.68447083 0.6021631
0.18296574 -0.0055629825 -0.21060733 0.27191296 0.047000103 0.15287681 -0.089845195 0.16530778
0.45539582 -0.053421233 -0.21869172 0.19521722 -0.15924567 -0.03847554 0.024561934 -0.010451686
-0.04530464 -0.21632503 -0.049280588 0.36497816 -0.04168545 -0.022465477 0.014306892 -0.26080143
0.3006511 0.1704974 0.6343934 0.03798672 0.36036825 0.17754893 -0.33088037 0.14184327
0.28759998 0.14715818 0.41062966 0.829223 -0.46853775 -0.048645895 0.18243983 0.27507845
0.34898138 0.232252 0.40304792 -0.00092094863 -0.003002207 -0.43481648 0.21859309 -0.03328571
-0.28200233 0.10304868 0.22300504 0.057388004 0.3085931 0.14627789 -0.03559072 -0.14510418
-0.05033189 -0.3672051 0.118976116 -0.12810515 0.07093239 0.02989878 0.726783 0.2731939
0.40171948 0.1585063 0.35975304 -0.052689485 0.41479686 -0.15925817 0.34727806 0.9052284
0.22381185 0.03698235 0.2111989 0.356341 0.09791126 0.077055864 0.2663421 0.3528002
0.2267066 -0.1493161 0.4484139 0.31804383 -0.09273059 0.37422773 0.42316487 0.1677587
0.24346542 0.12737347 0.0144227175 0.206874 -0.22080725 0.23149747 0.029048778 -0.030413365
-0.017514644 0.2906103 -0.16893956 -0.14002235 0.09079168 -0.21309371 -0.43702573 0.08779124
0.40558046 0.044645667 -0.14462122 0.15973307 -0.25806192 -0.13488428 -0.11190108 0.14530262
0.07222934 -0.2855601 -0.06619736 0.15754946 0.16423775 -0.09932833 0.040787306 0.20485418
-0.042133976 0.11628798 -0.3103631 0.01309703 0.5289353 0.571603 0.055893436 -0.31413695
0.4038847 0.16675676 0.28979024 0.35671028 0.30750597 0.12663706 -0.064327285 -0.19992502
0.20662478 -0.002646539 0.23346448 0.015791466 -0.009850863 -0.0017033496 -0.60727507 0.18968268
0.36924294 -0.01834343 0.16348349 0.06140282 0.13165377 0.27024814 0.24806553 0.32180518
0.0574984 -0.07605975 0.22574781 0.26783204 -0.26741424 0.2417647 0.4208848 0.07782005
0.74871534 -0.08240919 0.25594354 -0.037566997 -0.0051575406 0.026212899 0.27176115 -0.07645796

down1.bias f4 [15]
00000000: 2a6b 373d 9423 163e 9a58 8c3e 69b1 823e
00000010: 023e ac3e 4adb 9b3d cda6 e53e 5d8c b53e
00000020: f951 8f3e 8253 223e 7193 903e cebf 973e
00000030: 2e61 853d 4fc9 373e ddde e53d
0.044779934 0.1466201 0.27411348 0.25525978 0.33641058 0.076101854 0.4485382 0.3545865
0.27992228 0.15852168 0.2823749 0.29638523 0.06512676 0.17947887 0.112241484

down2.weight f4 [12, 15]
00000000: 38c5 0d3e 006c 4d3d 1cbb 71be d88f 4f3d
00000010: 074b 06be 4287 6e3e fd60 20be 6c3e c23d
00000020: 186c 933d 4ebc 96bd 8628 31be a01e 85bd
00000030: fa60 a4bd e3b1 06be 2ad2 12be 3744 93be
00000040: f24e 69be b080 8a3e 404a 363f 72ab 74be
00000050: 770c b33e 560f e03e 309c d43d 44a4 943e
00000060: d545 3a3d 4c47 a23e 7b92 8cbe dce9 e93e
00000070: f6e3 e5bd 8d83 013e b9c3 b13d 89c2 3fbd
00000080: 80de 133e 7803 f33e e04f 283e dfb2 e13e
00000090: d60b 6bbd 4e48 e53b 3bef 37be 4700 283c
000000a0: 4665 94bc 6684 ab3d f328 02bf f180 243e
000000b0: 2ba3 393e 796f 9abd 5ca6 a83e ff9f 32be
000000c0: f9d8 cd3e 69a2 953e 8421 f93d dc2d f63e
000000d0: 04f6 f23e 49bc 5cbd 1492 88be e929 043f
000000e0: e709 243f 54a9 f4bd ec47 fa3d 2297 d0be
000000f0: e988 efbc 4fe6 61be f8f8 babb c07b 18be
00000100: 28ad 773d 1880 353d 31a8 8c3d 56e7 aebd
00000110: 8123 60be a7ad 40bd aa37 21be adf7 913b
00000120: 5862 1b3d 9485 5dbd b9fa 54bd 820d 143f
00000130: 70ed 253e 0261 01bf 5bdd febe 2bfb cc3e
00000140: 9e68 e9be 1279 7a3e 6513 413e f2b0 f93e
00000150: abd7 1b3f b32f c73e 2b06 d93d 2929 c63d
00000160: 218a ee3e 9218 4f3e c272 d23e bc60 66be
00000170: 486b 1abf 79ad 23be 5a1d d53c 2caa 8dbe
00000180: 60a8 e63e 6603 223f 5b4b a63e be14 943e
00000190: 07a9 e33e 8aa1 b03e 0f5c 1abf ed09 063f
000001a0: a1af a63e aeda 3d3e e974 81be 3a2d c33b
000001b0: c082 153f 0929 013e 724a a13e c45e 7d3e
000001c0: c163 61be 46ad 683e 21ef 413e 702e d13e
000001d0: 3c3a 043e 48b4 88be cb11 9d3b f512 2fbd
000001e0: 2130 b4be 1341 1dbf cdef 8f3e 2e7b 943e
000001f0: 9355 cdbd e378 953e 4161 453e 0641 103f
00000200: aac7 80be 372e 2f3e a044 113f 5ef3 b43e
00000210: f4f2 a03c 7e7a 303e d884 bebe 22a6 e63d
00000220: f6c5 053f a416 0bbe cec3 593e 3df2 be3e
00000230: e9b5 a9ba cdeb 2b3e 51ea 2bbe 8450 893e
00000240: 8660 a33e 83b8 1dbf 5f2c c53d d12e a2be
00000250: 0bbe e9bd 2e61 bb3e 5466 163e c84f eebd
00000260: b894 91bd 2f5a 55be 70f8 56be 7e57 99bd
00000270: 2054 1e3d 999c 29be 5039 7abe 479b 3fbe
00000280: e492 43bd 2f20 51be 102b e5bd faad 18be
00000290: 11e2 55be efe7 4a3e b329 d1bb 6da0 0cbe
000002a0: 364a 6d3e 88a9 763e e772 c2be fdcf ad3e
000002b0: 946e 08be 412b d13e d669 8e3e 5aea 14bf
000002c0: 2902 c9bd df81 93be 37bc 5b3c c146 da3e
0.13844764 0.050151825 -0.23606533 0.05067429 -0.13114558 0.23293784 -0.15661998 0.09484562
0.071983516 -0.07360135 -0.17300615 -0.06499982 -0.08026309 -0.13153796 -0.14337984 -0.2876298
-0.22784021 0.27051306 0.71207047 -0.23893526 0.34970447 0.437617 0.10381353 0.29031575
0.045476753 0.3169502 -0.27455506 0.45686233 -0.11225121 0.12647839 0.08679909 -0.046816383
0.14440346 0.47463584 0.1643672 0.4408178 -0.057384335 0.006997145 -0.17962353 0.010253972
-0.018114697 0.083748624 -0.50843734 0.16064812 0.1812865 -0.07540793 0.32939422 -0.17443846
0.402046 0.29225472 0.12164596 0.48081863 0.4745332 -0.0538905 -0.2667395 0.5162645
0.6407761 -0.11946359 0.12220749 -0.40740305 -0.029240089 -0.22060512 -0.005705949 -0.14890957
0.06046787 0.044311613 0.068680175 -0.085402176 -0.21888544 -0.047040608 -0.1574389 0.004454574
0.037935585 -0.05408247 -0.05199692 0.5783311 0.16203856 -0.5053865 -0.49778256 0.40035376
-0.4558763 0.24460247 0.18855055 0.4876781 0.6087596 0.3890358 0.105968796 0.096758194
0.4658976 0.20224217 0.41103178 -0.22497839 -0.6031995 -0.15984143 0.026014972 -0.27668893
0.45050335 0.63286436 0.32479367 0.28922075 0.44464895 0.34498245 -0.6029672 0.52358896
0.3255587 0.18540451 -0.25284508 0.005956319 0.58402634 0.1261331 0.3150211 0.24743181
-0.2201071 0.22722349 0.18938877 0.40855742 0.1291284 -0.26700044 0.004793381 -0.04274269
-0.3519297 -0.6142742 0.2811264 0.2900023 -0.100260876 0.29193792 0.1927538 0.5634922
-0.25152332 0.17107473 0.5674534 0.35341924 0.0196471 0.17234227 -0.37210727 0.11262156
0.5225519 -0.13582855 0.212661 0.37294188 -0.001294789 0.1678917 -0.16788603 0.2681924
0.3190958 -0.6160967 0.09627604 -0.31676343 -0.11413201 0.3659758 0.14687473 -0.11636311
-0.07108444 -0.20835184 -0.20993209 -0.07487391 0.038654447 -0.16563644 -0.24435925 -0.18711577
-0.047747508 -0.20422433 -0.11189854 -0.14910117 -0.20887019 0.19815038 -0.0063831448 -0.13733073
0.2317284 0.24088109 -0.3797829 0.33947745 -0.13323432 0.40853313 0.2781512 -0.5817009
-0.09814865 -0.2881002 0.013411573 0.42632106

down2.bias f4 [12]
00000000: c27d 12be 6809 a03d a069 f53c b1f1 d23d
00000010: 3900 98bd 5b3f 953d 11d0 3a3e f4d9 dabd
00000020: fbac 0b3e 1db6 d93d c209 18be adfa 6a3e
-0.14305785 0.07814294 0.029957592 0.10300005 -0.074219175 0.07287475 0.18243434 -0.106861025
0.13640206 0.106304385 -0.14847472 0.22947188

down3.weight f4 [11, 12]
00000000: 2925 88be 9d93 77be 0c91 cfbe dc27 a4be
00000010: 8219 23be 9ff3 093f 81c6 873e 4f93 e63d
00000020: de55 0bbd 2ca0 ec3e 7c4e 86be 56ca bf3e
00000030: a840 033d b0e1 80be 7251 b2be 1aae 2b3e
00000040: 88bc 8cbd 7c52 003e 4b46 72be 9e69 77be
00000050: 0cad 85be c20a 643e f484 8cbe ec01 a93e
00000060: 3051 803e e324 31bf 5fd1 d4be 1e49 ce3d
00000070: 8b9a 273d db4a a53e 4615 c7bd 03d7 9cbe
00000080: e424 ff3e 758e d63e 60e9 003e 9def 3f3e
00000090: 06da 1cbe 682d 0fbf 0e2d ec3e d7b9 e33e
000000a0: 2289 9ebb 78b7 833d 6e50 d63e 82c5 f8bd
000000b0: e337 6f3e dada c93e b678 22be e362 87bc
000000c0: 787d 5fbe a375 94be 26c4 fc3e e753 a4be
000000d0: 5bae 043e 85ee 073f 5d39 213f 2850 833d
000000e0: cf2c a03e cd78 123e f497 923e 4cc5 e53e
000000f0: 6c71 7b3e 0d5a b6be f045 593e aa57 03bd
00000100: c6fd 623e fe42 173e d661 babe 6bda 1cbe
00000110: 4733 273f 37d4 ee3e 02d3 88be e3a7 eb3e
00000120: faaf 76be 0411 073e ddef d83e 11ca f2be
00000130: f5cd f73d fc8f 733c 64aa 8cbd 7124 783e
00000140: e16b 483f 0cee c23e 86db 88bd 3d0a d73e
00000150: 0e4a 90bd fc75 03bf 4cb1 6b3e 8dc6 74be
00000160: a85f 28be 7db1 d63c 5d36 c83d 02e4 af3d
00000170: 7d78 ef3e 96f0 873e 4026 193e 63a6 0e3d
00000180: 70d6 333d 02b0 6d3d 064c e33d a009 e1bd
00000190: 9cea 6f3e dedd b9be d0cc 213d ff2c a43e
000001a0: 748a 013e f144 8dbe 48a0 23bd 7132 93bc
000001b0: d478 58be 9c1d af3e f7b6 dbbd 8ee8 6f3e
000001c0: 62ec 523e 80dc 7fbe df6b e8bd 23c9 493e
000001d0: 557f 3b3d 24f7 e03e d401 913d 967c 4a3e
000001e0: 918e 2dbe 09a0 0f3e f27a 9f3d dba1 303f
000001f0: 1c89 183e 9219 be3e 8a43 323f 2de4 203f
00000200: f03e c2bd cb7f 7b3d 208d 6f3e bce7 a13d
-0.2659085 -0.24177404 -0.4054035 -0.3206166 -0.15927699 0.5388736 0.26518634 0.11258566
-0.034017436 0.4621595 -0.26231754 0.37459058 0.032044083 -0.25172186 -0.34827763 0.16765633
-0.06871897 0.12531465 -0.23659627 -0.24161384 -0.26108587 0.22269729 -0.27445185 0.3300928
0.2506194 -0.6919691 -0.41565987 0.1007254 0.040918868 0.32283673 -0.097208545 -0.3063279
0.49832833 0.4190556 0.12589025 0.18743749 -0.15317544 -0.5592866 0.46128124 0.44477722
-0.004838125 0.06431478 0.41858238 -0.121470466 0.23361163 0.39424783 -0.1586636 -0.016526645
-0.21825206 -0.28996 0.493684 -0.32095262 0.12957136 0.53098327 0.62978154 0.06411773
0.31284186 0.14303894 0.28631556 0.44877088 0.24554986 -0.35615578 0.21218085 -0.032066025
0.2216712 0.14771649 -0.36402768 -0.15317695 0.6531262 0.46646282 -0.26723486 0.46026525
-0.24090567 0.13190085 0.423705 -0.4741979 0.1209983 0.0148658715 -0.06868437 0.24232651
0.7828961 0.3807224 -0.06682496 0.42 -0.07045375 -0.51351905 0.23016852 -0.23903866
-0.1644274 0.02620768 0.09775994 0.08588411 0.46771613 0.2655074 0.14955997 0.034826647
0.043905675 0.058029182 0.11098485 -0.10988164 0.2342934 -0.36302084 0.039501965 0.3206558
0.12650472 -0.2759166 -0.039947778 -0.017968388 -0.21139842 0.34202278 -0.10728257 0.23428556
0.20597985 -0.24986458 -0.113487 0.19705634 0.04577573 0.43938553 0.07080427 0.19774088
-0.16948916 0.14025892 0.07787122 0.6899697 0.14896053 0.37128884 0.69634306 0.6284817
-0.094846606 0.06140117 0.23393679 0.07905528

down3.bias f4 [11]
00000000: 804f 8a3e a353 b83e 0eaa 623e 4e86 463e
00000010: 7bc1 a93e 6b3c 833e e2a1 0f3d 9f4f 223e
00000020: 385f 9a3c ca13 efbc 9528 a43e
0.2701378 0.3600131 0.22135183 0.1938717 0.33155426 0.25632033 0.035066493 0.15850686
0.018844232 -0.02918424 0.32062212

down4.weight f4 [9, 11]
00000000: 27a1 1bbd 6026 b0bd 11a1 0fbe a56d 893e
00000010: 5a93 6a3e 45c2 aebe 8ab9 b2be d8b2 91be
00000020: f5a1 a1be 7d3e 94be 5379 3f3f 8cab 923d
00000030: 31ef a13e ace2 003f 1a8f dc3e 12ee bb3e
00000040: 9442 a43e e572 8b3e 0ad8 a33e 4399 a63d
00000050: c599 d43d aa3b 65be 861b 8cbe 9e34 6d3e
00000060: b7a1 513e fccc 363e a21c 2bbe b90a c1be
00000070: 9074 ce3d bd00 8dbe 31e2 62bd 4285 2f3e
00000080: beda be3a c048 22be f0de e6be d850 9ebe
00000090: b539 07be 40a1 ca3d cca9 883e 8b3b 953e
000000a0: 551f 3a3f ed40 b63c 0328 0d3f 9d77 b33d
000000b0: 4374 e03e b164 0ebe d570 7f3e c864 473e
000000c0: 8c70 343e e0f2 693e 172c 743d f778 b7be
000000d0: 6b8c cdbd 5629 f23e 541c d43e cbde ae3e
000000e0: 8654 4b3e 3265 bfbe 2a2d 2fbf a74c a43e
000000f0: 3385 93bc f4a9 2d3e 3518 c2bd e495 b33e
00000100: c8d3 d03e 3657 453d d14e 3e3e bff0 253d
00000110: bda9 6dbc f120 ee3d 3fcc e63d 3cd1 8d3d
00000120: 1c1d 1a3f e833 7f3e f93b 3a3e a84b f33d
00000130: 75c5 533d f994 7a3e 3acf 5a3e 2f18 d23e
00000140: 3302 0c3f f5d7 2b3e 08f7 b93e 7c3c ecbc
00000150: 632c 033f 6d45 87be f0e0 ffbe e120 bf3d
00000160: b320 273e 4ad9 3cbe 9493 383d b2bf babc
00000170: 34b3 0d3f dac3 afbe ed70 1e3e 8a12 c83e
00000180: e484 2c3e aebe 5bbf 8abf c93c
-0.037995484 -0.086010695 -0.14026286 0.26841465 0.22907773 -0.3413259 -0.3490718 -0.2845676
-0.31568876 -0.28953925 0.747945 0.07161626 0.316278 0.50345874 0.43077928 0.3670507
0.32082045 0.27236095 0.32000762 0.08134701 0.10380892 -0.22386041 -0.2736475 0.23164603
0.20471846 0.17851633 -0.16710141 -0.37703493 0.10080826 -0.27539626 -0.055391494 0.17140678
0.001456104 -0.15848064 -0.45091963 -0.30921054 -0.13205607 0.09894037 0.26692045 0.2914699
0.7270406 0.022247756 0.5513918 0.08763049 0.438387 -0.13905598 0.24945386 0.19472039
0.17621058 0.22846556 0.05961236 -0.35834476 -0.10036548 0.47297162 0.41427863 0.34154353
0.19856462 -0.37381893 -0.6842829 0.3208973 -0.01800785 0.16959363 -0.094772734 0.35075295
0.40786576 0.048178874 0.18584754 0.040512796 -0.014505801 0.11627377 0.112694256 0.06924674
0.6020067 0.24922144 0.1818694 0.11879665 0.05170198 0.24470891 0.21368113 0.41034076
0.54690856 0.167816 0.36321282 -0.028837435 0.51239604 -0.26420155 -0.499763 0.09332443
0.16321068 -0.18442264 0.045062616 -0.022796486 0.5535157 -0.3432911 0.15472765 0.39076644
0.16847569 -0.8583783 0.024627466

down4.bias f4 [9]
00000000: 08cb 883e bbf1 b33d 633e bbbe 8382 00be
00000010: 3885 37be 9299 5b3e c429 2ebc 68d3 763e
00000020: 343d 953d
0.267174 0.08786341 -0.36571035 -0.12549786 -0.17921913 0.21445301 -0.010630075 0.24104083
0.07287064

down5.weight f4 [7, 9]
00000000: 128a aa3e f46d 763d 66aa 03bd a736 2dbf
00000010: defc 81be 5e00 5cbe 91a7 eebe a547 44be
00000020: a4a2 ddbe a2c8 7ebd 8154 96be fe2b 88bd
00000030: 4884 443f dbfb cbbe 6066 f63b cab5 63be
00000040: 30e7 cabe 2df3 2a3e 76ea 19bf e40d 80bd
00000050: 7452 b43d 1705 29be bde8 a23d 2851 01bd
00000060: 0507 2abd cf45 7b3d d9f9 ac3e f716 0dbf
00000070: 15b9 7e3e 5e3a 253e 8210 94be 01f0 bbbc
00000080: 4633 5a3e 4d46 533d 5c32 9f3d 0468 2d3f
00000090: fef0 03bf 8038 04bd 6d2e 52be 7358 ffbe
000000a0: c47f 423e dab4 ff3e b3f6 cf3e 81c5 52be
000000b0: 2b42 a1be 22b4 3e3f 4a48 90be 7627 4e3c
000000c0: 1579 1abf 51dc 0f3f 6b87 1f3e d3ff f6bd
000000d0: 14dd a4be 76e6 f33e 5a8c ec3d 6926 e3be
000000e0: 74cd 01be 81c8 bbbe 1e6b 8abe 0221 d13e
000000f0: 84ee 31be d1c3 45be ad78 803e
0.33308464 0.060163453 -0.032144926 -0.6766152 -0.25388235 -0.21484515 -0.46612218 -0.19167955
-0.43288147 -0.062203057 -0.29361346 -0.06649016 0.76764345 -0.39840588 0.0075195283 -0.22237316
-0.39629507 0.16694327 -0.60123384 -0.062526494 0.08804789 -0.16505848 0.079545476 -0.031571537
-0.0415106 0.06134587 0.3378437 -0.55113167 0.2487529 0.16135547 -0.28918844 -0.022941591
0.21308622 0.051580716 0.07773277 0.6773684 -0.515396 -0.032280445 -0.20525523 -0.4987217
0.18994051 0.49942666 0.40617904 -0.20583154 -0.31495795 0.7449361 -0.28180152 0.01258265
-0.60341007 0.5619555 0.15579002 -0.12060513 -0.3219992 0.47636765 0.115502074 -0.44365242
-0.1267603 -0.3667641 -0.2703485 0.40845495 -0.17376143 -0.1931298 0.25092068

down5.bias f4 [7]
00000000: 117a 5e3e c9aa 86be e366 a1be 3077 0f3e
00000010: e387 64b8 a11f 12be 0787 b23d
0.21726252 -0.26302174 -0.3152381 0.1401031 -5.448599e-05 -0.14269878 0.08717161

up1.weight f4 [9, 7]
00000000: 5fb6 113c a813 87be eb4f 1fbe 8b75 5b3d
00000010: f09c 47be 4d8c 433f 4d50 203e c187 f3be
00000020: 068e 9fbe 0261 c33e 12e2 303f 727b 17be
00000030: 5aa8 5e3d 20ac cbbe 988e 78be fc9d 773e
00000040: 9123 07be 2d85 57be c839 693f d70d 9d3e
00000050: 6a62 31be 98d7 22bb 80ab eabe 94bc 4fbe
00000060: aeb5 223e 8eaf 333f 3ce4 26be f725 103b
00000070: c0ad bebb a031 f83c b0ce c03c 0070 a2bc
00000080: 2876 6d3d a9ed 6fbe da34 4a3e d792 ecbe
00000090: 75c7 4d3e cb9c 84be 89c7 693d 2e0f 193e
000000a0: 3149 de3d 70ab bdbe 0eb2 9d3e 973c ffbe
000000b0: 7a34 58bd 8dbc 8ebe 1a5d eebe 77b6 1dbd
000000c0: 02ec 14bf 1a19 5a3c 0986 4d3e 5372 43bf
000000d0: b885 fdbe 958e 82be 8453 4a3d ea06 cd3e
000000e0: 29af bf3e cb8b a73e e81c 3b3d 98cc 083d
000000f0: 75c0 66be a284 133e c012 e9bd
0.008893578 -0.26382184 -0.1555783 0.053578895 -0.1949346 0.76385957 0.15655632 -0.4756451
-0.31163043 0.3815995 0.69094956 -0.14793184 0.05435977 -0.39779758 -0.24273145 0.2418136
-0.13197161 -0.21046896 0.9110379 0.3067462 -0.17322698 -0.0024847742 -0.4583397 -0.2028678
0.15889618 0.7018975 -0.16298002 0.0021995285 -0.0058190525 0.0302971 0.023536056 -0.019828796
0.05797401 -0.23430504 0.19746724 -0.4620578 0.20095618 -0.25900874 0.057075057 0.14947197
0.10853804 -0.3704486 0.30799907 -0.49850914 -0.05278442 -0.27878228 -0.46555406 -0.03850409
-0.5817262 0.013311649 0.20070662 -0.7634632 -0.49516082 -0.25499406 0.049396053 0.40044338
0.37438324 0.3272384 0.045681864 0.03339824 -0.22534354 0.14406064 -0.113805294

up1.bias f4 [9]
00000000: 4a1e 413e 4ff6 1b3e 7b00 e2bd 3c81 aa3d
00000010: b6c0 15be 73a8 3ebd 0827 ba3d 7656 cd3e
00000020: d42c 70be
0.1885921 0.15230678 -0.11035248 0.08325431 -0.14624295 -0.046547364 0.09089476 0.40105027
-0.234546

up2.weight f4 [11, 9]
00000000: 48fe 503d 2f11 bf3e 2f25 b03e b7ec 4e3e
00000010: 36be 423e feae 80be fc59 473e a120 eebd
00000020: 2628 41be 081d 0abe 16a4 3d3e 6184 41bd
00000030: f887 96be dfa0 8e3e a94d 863e 5a87 993d
00000040: b1af b33e 7839 3fbe 12bc 713d d21a 943e
00000050: 1d34 023d d356 b0be fbc3 60be a8f3 96be
00000060: 8f9f 1fbe ce78 d43e 0c8a 8ebd a18f 143f
00000070: 1713 c0bd 6d8c 37bd 2f1e 34be d066 83bc
00000080: 7a6f d33e a5cb babe 754c 2a3f c01a 193d
00000090: dacb 823e 28a5 2f3e 6ec4 153f 6878 4ebe
000000a0: b08d 87be c366 34be 9218 dc3c 88d2 83bd
000000b0: 58d8 3ebe 7910 d13e 0fef 2ebe d56d 15bc
000000c0: c92c 65be 9b0f 6dbe 5cec 34be ffde 1cbe
000000d0: c2ab 123f 1822 85be 0d01 5dbe 1a7c 9e3c
000000e0: 159e 2abd 9517 cb3d 45e3 8e3e 9df0 38bd
000000f0: 80af a43e 5e9a ebbd e3ef 02be 8b10 9dbc
00000100: 00e6 b33d 2782 c9bd 3bce f83d 74e7 95be
00000110: d5f9 59be 34d1 f23e a045 8e3e 48b2 2fbd
00000120: 6bed 09be 0ff5 6b3e 2b2e 973e 0c48 ff3e
00000130: ca3e 343e 60b3 733d a89b 533d 2a18 f13c
00000140: 4e9f 583e 2568 ffbd ca08 68bd 0df7 b7bd
00000150: 5a4e bd3b a8ef 72bd 2c6d 403e eae6 9d3e
00000160: a206 563f 9e97 443e fc89 13bd cde6 b33e
00000170: efdd bfbe 1133 a93e 4d93 973e 50cf 823e
00000180: a569 6abe 3e67 8d3e 449e af3d
0.05102375 0.37317798 0.3440337 0.20207487 0.19017872 -0.25133508 0.1946792 -0.11627317
-0.18862972 -0.13487637 0.18519625 -0.047245387 -0.2940061 0.2785711 0.26231125 0.074965194
0.3509498 -0.18674266 0.05901725 0.28926712 0.03178798 -0.34441242 -0.2194976 -0.2948277
-0.1558821 0.41498417 -0.06959924 0.5803166 -0.09378641 -0.044811655 -0.17589639 -0.016040236
0.41295987 -0.36483493 0.66522914 0.037379026 0.2554615 0.17152846 0.5850285 -0.20163119
-0.26475286 -0.17617325 0.026867185 -0.0643664 -0.18637216 0.4083288 -0.17083381 -0.009120424
-0.22380365 -0.23150484 -0.17668289 -0.15319441 0.5729333 -0.26002574 -0.21582432 0.019346286
-0.041654665 0.09916607 0.27907768 -0.04515134 0.32165146 -0.115040526 -0.12786822 -0.019172927
0.087841034 -0.09839278 0.1214871 -0.29278147 -0.2128671 0.47425234 0.27787495 -0.04289463
-0.13469474 0.23042701 0.2952741 0.49859655 0.17602077 0.059497237 0.051662117 0.029430468
0.2115452 -0.12471036 -0.056649007 -0.08982668 0.0057771625 -0.059310585 0.18791646 0.30840236
0.8360387 0.19198462 -0.036020264 0.35137025 -0.3747401 0.33046773 0.2960457 0.25548792
-0.22891863 0.2761783 0.08575109

up2.bias f4 [11]
00000000: b992 1fbe e757 a03b 5a21 cf3e b145 873e
00000010: bffc bd3d 7ef1 b23e aa48 a8be bd76 343e
00000020: eca7 b43c 31fe 923d 11de 083e
-0.15583314 0.0048932913 0.40455133 0.26420358 0.09276723 0.3494987 -0.32867938 0.1762342
0.022052728 0.071773894 0.13365962

up3.weight f4 [12, 11]
00000000: ea45 80be 3c20 e73c 2144 d1be bbd5 923e
00000010: e671 803d b0fc f5be 5374 e43d fe70 70be
00000020: 4cf1 613e 0bfc b93e 2279 653d bedd c83e
00000030: 4f8d af3c 3025 cebe 534b 97be 00d1 6abc
00000040: 2d0e 123f 9675 473d 24f1 89be 8264 143d
00000050: 9969 af3d b52c 283e fa61 6f3e 076d c03d
00000060: 31a1 373c 7298 cebc 2ed2 5e3e 58e5 b73e
00000070: f22f 3c3e 797b aebd e37a 8dbd 77ed f4be
00000080: 2f32 30bd ea9f 973d f94b 3a3e 28fd a73e
00000090: b20e 8d3e 0c94 66be 101a 22bf bba1 d1be
000000a0: 69dc a4bd 9188 303e 93fa 0f3d 0dcb 56be
000000b0: 24db 36be dfb9 d4be 6669 4dbe 663c d1bc
000000c0: df94 79bc 5478 163e 402d 2c3d ccef 1a3e
000000d0: ba11 c83e 6698 21be 058c 703e 2902 a33d
000000e0: 66a7 d43c e5f3 4e3c 04d7 cfbc 5493 ee3b
000000f0: 4b15 8f3c 1288 9bbd d53e d7bc 9f7b 023c
00000100: 07a0 d13b da9e 89bd d5cf b43d 56e4 353d
00000110: 01be 473e 5d29 393e 65ca 033e e8e4 ae3e
00000120: aecf 133e 10f5 aabe fee4 d1bd 7aa9 b9be
00000130: 6f58 653e cc0d e339 7113 17bd a39c e2bd
00000140: 0d0b da3c 2a13 6e3d da27 46bd 77ce ecbd
00000150: eb26 b7bc 4191 12be c261 093c 3537 f03d
00000160: 6fe3 76bd ba6e 9a3e c16b 91bd ab4b e9bb
00000170: a33c 753d ca5e e9be 9259 82bd 65ae c13e
00000180: cb73 89be 5a96 4e3d 3ac1 283e 5e07 92bc
00000190: aaee 73be 4083 02bf a949 463d 5471 ae3d
000001a0: 20d4 0a3f d9bd 82bd 88ef 833e ab2d 983e
000001b0: c0cc b4bc ff43 2fbe 6f26 95bc e0f0 d1bd
000001c0: dd87 16bd 33e3 44be 6017 303e 7d8d 123e
000001d0: d9fe 573d 5f88 57bd 05f8 f63d 2456 17bc
000001e0: d3df 233e 3281 1cbe 1c12 863e a206 9dbd
000001f0: 7e79 523e 28d3 a2be 182a 40bb 640d 9bbe
00000200: cebd 16be 2201 473e 0d37 91be 9ada bd3e
-0.2505334 0.028213613 -0.4087229 0.28678688 0.062717244 -0.48044348 0.111549996 -0.23480603
0.22064704 0.36325106 0.056023724 0.39231676 0.021429686 -0.40262747 -0.29549655 -0.014332056
0.5705288 0.048696123 -0.26941788 0.036228664 0.08565063 0.16423304 0.23377219 0.09395795
0.011207865 -0.025219176 0.21759865 0.35917163 0.18377665 -0.08519644 -0.069082044 -0.4783742
-0.04301661 0.07403548 0.18193044 0.3281033 0.27550274 -0.22517413 -0.6332102 -0.40943703
-0.080498524 0.17239596 0.035151076 -0.20975895 -0.17857033 -0.41548058 -0.20059738 -0.025541496
-0.015233248 0.14694339 0.04203534 0.15130538 0.39076024 -0.15780792 0.23490913 0.079593964
0.025958728 0.012631391 -0.025371082 0.0072807465 0.017466208 -0.07594313 -0.026275078 0.007964044
0.0063972506 -0.06719752 0.08828703 0.04440721 0.19506074 0.18082185 0.12870176 0.34159017
0.14434692 -0.33390093 -0.10248755 -0.36262113 0.22397016 0.00043307093 -0.036883775 -0.11065032
0.026616598 0.058123745 -0.04837785 -0.115628175 -0.022357425 -0.14313222 0.008385124 0.1172928
-0.06027549 0.30162603 -0.071006306 -0.007119616 0.05987228 -0.4558013 -0.063647404 0.37828365
-0.26846156 0.050436355 0.1647996 -0.017825779 -0.23821512 -0.5098152 0.04841009 0.085177094
0.5422993 -0.06383867 0.25768685 0.29722342 -0.022070289 -0.17115782 -0.018206803 -0.102510214
-0.036750663 -0.19227295 0.17196417 0.14311786 0.052733276 -0.052620288 0.12059025 -0.009236846
0.16003351 -0.15283659 0.2618569 -0.07667281 0.20554158 -0.31801724 -0.0029321965 -0.30283654
-0.14720842 0.19434026 -0.28362313 0.37080842

up3.bias f4 [12]
00000000: 05db 48bd aeb3 473d 2af8 4c3e 3fb9 693d
00000010: 5dad 313c bcd8 df3d ca0e 48bd ae04 fc3d
00000020: 6e33 aebe 7719 90be 5858 253d 1453 803d
-0.049037 0.04875534 0.20016542 0.05706143 0.010844556 0.10930011 -0.04884223 0.1230558
-0.34023613 -0.28144428 0.040367454 0.06265846
