4_3/model_Plate 36841.pt (torch, 7726 bytes, 16 tensors)

down1.weight f4 [12, 15]
0	0x3ca07f95	0.019592086
1	0x3d1a2dd0	0.037641346
2	0x3ba01a71	0.0048859646
3	0x3c6cd6b8	0.01445549
4	0xbd019a70	-0.031641424
5	0x3bc7b9d9	0.006095153
6	0x3db05ccc	0.086114496
7	0xbdf3a369	-0.118964024
8	0xbdfd8129	-0.12378151
9	0x3c9fc193	0.019501483
10	0x3c730ab6	0.014834097
11	0x3cab7811	0.020931276
12	0x3f4703ed	0.77740365
13	0xbf3312de	-0.69950664
14	0x3e0530c8	0.1300689
15	0xbd0af6e3	-0.033926856
16	0xbc03d342	-0.008045973
17	0x3d0f6738	0.035010546
18	0xbdf10592	-0.117686406
19	0x3dd1e76e	0.1024922
20	0x3e25ef14	0.16204482
21	0x3ebc32ab	0.36757407
22	0x3ef9fd46	0.48826045
23	0x3e58191a	0.21103325
24	0x3f64f528	0.8943658
25	0x3ec9ea5f	0.39436623
26	0xbe73d9c0	-0.23813534
27	0xbe2dc27a	-0.16968718
28	0x3f53d389	0.8274465
29	0x3f1eedea	0.6208178
30	0xbc559fd8	-0.013038598
31	0x3dc12143	0.09430172
32	0x3d850d37	0.06496661
33	0x3e70e91d	0.23526426
34	0x3d2bb3a2	0.041919358
35	0xbda39287	-0.07986932
36	0x3db65aef	0.08904063
37	0x3e4f8639	0.20266046
38	0x3e860b9e	0.26180738
39	0x3edaec61	0.42758468
40	0x3df07ff1	0.11743153
41	0x3e5eb9bb	0.21750538
42	0x3e5b8aa3	0.21439604
43	0x3dfa7991	0.12230218
44	0x3eaf2578	0.34208274
45	0xbd98490e	-0.07435809
46	0x3b9133e9	0.004431237
47	0x3dba0201	0.090824135
48	0xbdd34536	-0.10315935
49	0xbe315e71	-0.17321183
50	0xbd85bb7f	-0.06529903
51	0xbe1c3c49	-0.15257372
52	0xbe23816d	-0.15967341
53	0xbe5d9d5f	-0.21642064
54	0x3caaa02f	0.020828335
55	0xbe52de9f	-0.20592736
56	0xbd5a4158	-0.053284973
57	0x3e0aa186	0.13538179
58	0xbd870f7b	-0.065947495
59	0x3d680e59	0.056654308
60	0x3d297c7a	0.041378476
61	0x3e29e9a2	0.1659303
62	0xbcc7d7c3	-0.024394875
63	0xbb6b2739	-0.0035881533
64	0xbe7faf79	-0.24969281
65	0xbe68e72a	-0.22744432
66	0x3e8a959a	0.27067262
67	0x3db3474e	0.08753835
68	0x3e1b06e6	0.1513935
69	0x3f3af057	0.7302298
70	0x3eabd5d0	0.33561563
71	0xbea3e791	-0.3201261
72	0x3f2294c8	0.6350827
73	0xbda1cda8	-0.07900554
74	0x3ec7705c	0.3895291
75	0xbd081ed9	-0.033232544
76	0x3e1f22bc	0.15540594
77	0x3d1633d5	0.036670525
78	0x3d28f33e	0.0412476
79	0x3d87a8d0	0.06623995
80	0x3e388540	0.18019581
81	0xbefbc1f5	-0.49171415
82	0xbf1ee03f	-0.6206092
83	0xbf751a51	-0.9574328
84	0x3d3b4089	0.045715842
85	0xbecbf8df	-0.3983831
86	0xbc4e5e9c	-0.012595799
87	0x3e15e715	0.14638932
88	0x3e83a62f	0.25712726
89	0x3f1edea2	0.6205846
90	0xbdc8bcea	-0.098016575
91	0x3d6cbe7f	0.05779886
92	0x3be75e81	0.0070608263
93	0xbdf4621a	-0.11932774
94	0xbde7d352	-0.11319603
95	0x3dba4030	0.09094274
96	0x3e685bae	0.22691223
97	0x3edf46e3	0.4360877
98	0x3ea9a112	0.331307
99	0x3dcd2e6c	0.1001862
100	0xbe396a5f	-0.18106984
101	0xbda3834a	-0.07984026
102	0xbe817ed9	-0.2529209
103	0xbdb3a56a	-0.087717846
104	0x3e25a9b9	0.16178025
105	0xbc435881	-0.011922956
106	0xbd5fdddd	-0.054654945
107	0xbc3f5c8d	-0.011679781
108	0xbcf85fff	-0.030319212
109	0x3d806e5c	0.062710494
110	0xbc491d9b	-0.012275125
111	0xbe09a9af	-0.13443635
112	0x3e28d423	0.16487174
113	0x3e001f7e	0.12512013
114	0x3e39d2fd	0.18146892
115	0xbc53db6b	-0.012930731
116	0x3d1e7aa8	0.038691193
117	0xbfb800f5	-1.4375292
118	0x3f220932	0.6329528
119	0xbdb468cb	-0.0880905
120	0xbcc3d1c1	-0.02390373
121	0xbc45abb8	-0.012064867
122	0x3de8713a	0.11349721
123	0x3c1b40a0	0.009475857
124	0x3e58ad63	0.21159892
125	0x3dd17d10	0.10228932
126	0x3e7ff71a	0.24996606
127	0xbe18c5bf	-0.14919184
128	0xbe9675b6	-0.2938668
129	0x3f0e3248	0.55545473
130	0x3e545d52	0.20738724
131	0x3e7720cc	0.24133605
132	0x3f85d113	1.0454429
133	0xbb66ff22	-0.0035247286
134	0x3ee96d15	0.45591035
135	0xbd149203	-0.03627206
136	0x3ca7a340	0.020463586
137	0x3c4b62f0	0.012413725
138	0xbe841172	-0.2579456
139	0xbce7db13	-0.028302705
140	0xbd408b0e	-0.047007613
141	0x3e660ba6	0.22465381
142	0x3d98a6c6	0.074536845
143	0xbd685acb	-0.056727212
144	0x3f6b5f9b	0.9194276
145	0x3c05da5c	0.008169737
146	0x3f9058a2	1.1277049
147	0x3df22933	0.118242644
148	0x3f29eea6	0.66379774
149	0x3e315cd2	0.17320564
150	0x3cd90a6a	0.026494224
151	0x3d3d83b5	0.046268184
152	0xbca019a9	-0.019543486
153	0x3dad67d5	0.0846707
154	0x3c1fd18b	0.009754549
155	0x3e2803ce	0.16407701
156	0x3e086b99	0.13322295
157	0x3eca0da3	0.3946353
158	0x3e5aa544	0.21352106
159	0x3ee7ebf8	0.45297217
160	0xbd01a758	-0.031653732
161	0x3f5f75b2	0.87288964
162	0x3f143ed4	0.5790837
163	0xbc8c8d57	-0.01715724
164	0x3ee51f72	0.44750553
165	0xbe6fca76	-0.23417076
166	0x3e17ee9f	0.1483712
167	0x3e75b176	0.23993477
168	0x3ce3b1c4	0.027794726
169	0x3dfdc5cc	0.123912424
170	0x3d41b371	0.04729027
171	0x3f13f459	0.5779472
172	0x3ec0eef3	0.37682304
173	0x3eab4b3e	0.33455843
174	0x3f30d9e4	0.69082475
175	0x3e71cecf	0.23614047
176	0xbd65d1cc	-0.05610828
177	0x3ec843a4	0.39114106
178	0x3d1c2cf7	0.03812882
179	0x3ebd7255	0.3700129

down1.bias f4 [12]
0	0x3db6c6b3	0.089246176
1	0x3ecfdafd	0.40596762
2	0x3e5cf984	0.21579558
3	0xbde9dd9c	-0.11419222
4	0x3e99e518	0.30057597
5	0x3f272a13	0.65298575
6	0x3c2d1a47	0.010565347
7	0x3e9bcbac	0.30428827
8	0x3ebb9800	0.36639404
9	0x3f5fdeae	0.8744916
10	0x3ec1dd45	0.37864128
11	0x3e489072	0.19586352

down2.weight f4 [9, 12]
0	0xbf21854b	-0.63094014
1	0xbe300b57	-0.17191826
2	0x3ee21ca3	0.44162473
3	0x3e732923	0.23746161
4	0x3e54e14f	0.20789073
5	0xbf98f88f	-1.1950854
6	0x3dde7f4f	0.10864126
7	0x3f086022	0.5327169
8	0x3f04658a	0.51717436
9	0x3e4fae24	0.20281273
10	0x3f0cfdc0	0.5507469
11	0x3ec1d406	0.37857074
12	0x3f8153c3	1.0103687
13	0x3eb6bc60	0.35690594
14	0x3f3133a2	0.6921941
15	0x3ddfdf38	0.109312475
16	0xbe909cfa	-0.28244764
17	0xbeef0731	-0.46685174
18	0x3e15953e	0.14607713
19	0xbf35dcfd	-0.71040326
20	0xbe15b98d	-0.14621563
21	0x3ef2518c	0.4732784
22	0xbe75ad3b	-0.23991863
23	0x3d3600ac	0.044434234
24	0xbab9b800	-0.0014169216
25	0x3d473198	0.04863128
26	0x3e2d95ce	0.16951677
27	0xbe80434b	-0.2505134
28	0x3cbe015c	0.023194008
29	0xbe939649	-0.28825596
30	0xbde5d236	-0.11221735
31	0xbd644885	-0.055733223
32	0xbe943aa1	-0.2895098
33	0xbe8eb9e4	-0.27876198
34	0x3e326492	0.17421177
35	0x3d6f04a3	0.05835403
36	0xbcd8d234	-0.02646742
37	0x3f3de08c	0.74170756
38	0xbc5b432f	-0.013382717
39	0x3e17d979	0.14829053
40	0x3f33fcde	0.7030772
41	0x3e2e4cba	0.17021456
42	0xbe9407ac	-0.28912103
43	0x3e2a9530	0.16658473
44	0x3ee4b09d	0.44665995
45	0xbe36d4cf	-0.17854618
46	0xbe2c7137	-0.16840063
47	0x3eddcbcd	0.4331955
48	0x3df937bf	0.12168836
49	0xbe9e3264	-0.3089782
50	0xbe33674b	-0.17519872
51	0xbe30f9a6	-0.17282733
52	0x3deffde5	0.117183484
53	0x401b8296	2.4298453
54	0xbe7bd0ae	-0.24591324
55	0x3e83a4ff	0.2571182
56	0x3da6ef8e	0.0815116
57	0x3f3271d6	0.6970495
58	0x3f0f5f3f	0.5600471
59	0x3ee85c8e	0.45383114
60	0xbe239ff3	-0.15978985
61	0xbe3d8ced	-0.1851079
62	0x3ec84f35	0.3912293
63	0xbdc024e0	-0.09382033
64	0x3e559833	0.2085884
65	0xbfc50500	-1.5392151
66	0x3b25d782	0.0025305455
67	0x3e27a55d	0.16371675
68	0x3f077019	0.5290542
69	0x3f5656f2	0.8372642
70	0x3df8217c	0.12115762
71	0xbe059e6d	-0.13048716
72	0x3e8e995d	0.27851382
73	0xbe656a16	-0.2240375
74	0x3da8cf46	0.08242659
75	0x3e0efcc8	0.13963616
76	0x3d484dfd	0.0489025
77	0xbd6304a5	-0.05542435
78	0xbe5ff100	-0.21869278
79	0x3e4d4308	0.20045102
80	0x3ce26acd	0.027638817
81	0xbe0814e0	-0.13289213
82	0xbe778660	-0.24172354
83	0xbdcd58d4	-0.10026708
84	0xbb12054c	-0.002228099
85	0x3ef1bd80	0.4721489
86	0x3edb90cb	0.42883906
87	0x3cdc3f0e	0.026885536
88	0x3ed30659	0.4121578
89	0x3fb5c751	1.4201452
90	0xbf2dc24f	-0.67874616
91	0xbe0d6eab	-0.13811748
92	0x3dc8b781	0.098006256
93	0x3f409bb5	0.7523759
94	0x3f111c29	0.56683594
95	0x3f042880	0.516243
96	0xbef7014f	-0.48243186
97	0x3ea49f41	0.3215275
98	0x3e7f1d12	0.24913433
99	0x3e54ffed	0.20800753
100	0x3ece0199	0.40235594
101	0xbf49124b	-0.7854354
102	0x3eeb3dbb	0.45945534
103	0x3e250a43	0.16117196
104	0x3eec47f7	0.46148655
105	0x3ed450a9	0.4146779
106	0x3dbf45ea	0.09339507
107	0x3dc69d55	0.096979775

down2.bias f4 [9]
0	0x3f2698b2	0.65076745
1	0x3efe2e7b	0.49644837
2	0xbe4d4680	-0.20046425
3	0x3ea19c69	0.31564644
4	0x3e4616d8	0.19344652
5	0x3eaed178	0.34144187
6	0xbe2acf4e	-0.16680643
7	0x3e44bfcd	0.19213791
8	0x3c306d3d	0.010768232

down3.weight f4 [8, 9]
0	0x3da33248	0.07968575
1	0xbf2c6b18	-0.6735091
2	0xbe2f6d45	-0.17131527
3	0x3f195711	0.5989848
4	0x3f1b7d3e	0.6073798
5	0xb831ed4b	-4.2421085e-05
6	0xbda4448b	-0.08020886
7	0x3f13d846	0.5775188
8	0x3e4566bd	0.19277473
9	0xbe3a35f8	-0.1818465
10	0x3d5813e0	0.05275333
11	0x3dbcecb0	0.09224832
12	0xbcd4fd90	-0.025999814
13	0x3d4b6d28	0.049664646
14	0x3e8cbea1	0.27489188
15	0x3ea1ecdb	0.3162602
16	0xbdc1cfcc	-0.09463462
17	0xbea28013	-0.31738338
18	0xbd5db1e0	-0.054124713
19	0x3e2afd6d	0.16698237
20	0xbe64e6bb	-0.22353642
21	0x3eb87239	0.36024645
22	0x3e85fc22	0.26168925
23	0xbdc20377	-0.09473317
24	0xbe69d0ce	-0.22833559
25	0x3f252b6a	0.6451937
26	0xbc020913	-0.007936734
27	0x3ea5cf71	0.32384828
28	0x3f2c3b84	0.67278314
29	0x3b2af52e	0.002608608
30	0x3ec8f229	0.39247254
31	0xbec7723f	-0.3895435
32	0x3eed67e3	0.46368322
33	0xbabaeb5f	-0.001426082
34	0xbd848ee2	-0.06472565
35	0x3eb349e0	0.350173
36	0x3e6b6991	0.22989489
37	0x3f272555	0.6529134
38	0xbe19b758	-0.15011346
39	0xbf133306	-0.5749973
40	0x3ef0ebc4	0.47054875
41	0x3f097619	0.5369583
42	0xbe4c4b61	-0.1995063
43	0x3edf4170	0.43604612
44	0xbe6569d2	-0.22403648
45	0xbc0d86e0	-0.008638114
46	0x3dca80e4	0.09887865
47	0x3e941415	0.2892157
48	0x3d2eb8c0	0.04265666
49	0xbdd59f1c	-0.10430738
50	0xbe73368b	-0.23751275
51	0x3ea2242b	0.3166822
52	0xbd99994c	-0.07499942
53	0xbdc36c26	-0.09542112
54	0x3f24caf5	0.6437219
55	0xbf5d5739	-0.86461216
56	0x3e18c272	0.14917925
57	0xbdf8578c	-0.12126073
58	0x3e7de08d	0.2479269
59	0x3ec4bc60	0.3842497
60	0xbe507018	-0.2035526
61	0xbdc94bee	-0.098289356
62	0x3e3a8f16	0.18218645
63	0x3ee829e5	0.45344463
64	0x3db608a3	0.08888366
65	0xbe0b9ad5	-0.13633282
66	0x3ea475cf	0.3212113
67	0xbeb7d025	-0.3590099
68	0x3f39c0ce	0.7255982
69	0xbe45cc11	-0.19316126
70	0xbd4f045b	-0.050541263
71	0x3f05c4c5	0.5225337

down3.bias f4 [8]
0	0x3e10e557	0.14149986
1	0xbe2cf2b0	-0.16889453
2	0xbde0581b	-0.10954305
3	0x3ebe3de9	0.3715661
4	0x3e08c6a7	0.1335703
5	0xbe3c2a5e	-0.18375537
6	0x3f259c31	0.64691454
7	0x3de68eb9	0.11257691

down4.weight f4 [7, 8]
0	0x3bffcf33	0.0078066825
1	0xbd87e168	-0.0663479
2	0x3d023478	0.03178832
3	0xbeca3e9e	-0.39500898
4	0xbe901c72	-0.28146702
5	0x3e457266	0.19281921
6	0x3d64299e	0.05570375
7	0x3e706773	0.23476963
8	0xbe791704	-0.24325186
9	0x3e1b9a5e	0.15195605
10	0x3eee6347	0.46560118
11	0x3efc69d6	0.49299496
12	0x3e4ee377	0.20203958
13	0xbd70f8a0	-0.058830857
14	0xbf0dcabc	-0.55387473
15	0x3ea1d911	0.3161092
16	0x3f04b564	0.5183928
17	0xbdf10e28	-0.11770278
18	0x3e745ba0	0.23863077
19	0x3e81271c	0.2522515
20	0x3f05f40f	0.5232553
21	0x38e2e000	0.00010818243
22	0xbeb1187b	-0.3458899
23	0xbcdd53ee	-0.02701756
24	0x3ecdb841	0.40179637
25	0xbe85f518	-0.26163554
26	0x3ec57d97	0.3857238
27	0xbecc1e77	-0.39866993
28	0x3efad7a9	0.4899266
29	0xbde23d8c	-0.110468954
30	0x3ecd9810	0.40155077
31	0xbe932087	-0.28735754
32	0xbe3203d5	-0.17384274
33	0x3ac1a600	0.0014774203
34	0xbe2cc448	-0.1687175
35	0x3ea63c8f	0.32468078
36	0x3eb4030e	0.3515858
37	0x3e971843	0.29510698
38	0x3f04f861	0.51941496
39	0x3f320584	0.69539666
40	0x3f383070	0.7194891
41	0x3e9dd589	0.30826977
42	0x3f023c1b	0.50872964
43	0xbe0dd36d	-0.13850184
44	0xbe9524ef	-0.2912974
45	0x3e923319	0.2855461
46	0x3d99f84b	0.07518061
47	0x3cd6be4f	0.026213793
48	0x3e2d8ff0	0.16949439
49	0xbe1d1c09	-0.15342726
50	0xbe8a3cc3	-0.26999483
51	0x3e563879	0.2091998
52	0xbe756bff	-0.23966978
53	0x3e08c224	0.13355309
54	0x3f329bc3	0.69768924
55	0x3f05f7a1	0.52330977

down4.bias f4 [7]
0	0xbda5ada0	-0.08089757
1	0x3dd5ff19	0.10449047
2	0x3ef0411d	0.46924677
3	0x3d8bb603	0.06821825
4	0xbe6349b8	-0.2219609
5	0x3df16f4c	0.11788806
6	0x3ee1ec6c	0.44125688

down5.weight f4 [5, 7]
0	0xbd0757e4	-0.033042803
1	0x3edc1116	0.42981786
2	0xbe1caea9	-0.15301003
3	0xbebd7a66	-0.37007445
4	0x3f27abce	0.6549653
5	0xbf495cb2	-0.78657067
6	0x3e2bfe0a	0.16796127
7	0xbd99b204	-0.07504657
8	0x3f5f81ad	0.87307245
9	0x3ef5db52	0.4801889
10	0xbcea3c1c	-0.028593116
11	0x3e22c03e	0.15893647
12	0x3eed5cde	0.46359915
13	0x3da34e83	0.07973959
14	0xbe9cf194	-0.3065306
15	0x3f3c0074	0.7343819
16	0x3bca8ec8	0.0061815716
17	0xbf512d96	-0.81710184
18	0x3b64c7cd	0.003490913
19	0xbea782ea	-0.32717067
20	0xbece3511	-0.4027486
21	0x3e7bb900	0.2458229
22	0x3e418886	0.18899736
23	0x3e366855	0.17813237
24	0x3e9ec444	0.31009114
25	0xbe17e5d1	-0.14833762
26	0xbea198c0	-0.31561852
27	0xbeebf13b	-0.46082482
28	0xbd0a4d10	-0.0337649
29	0xbe552559	-0.20815028
30	0xbe71efae	-0.23626587
31	0xbf17ac86	-0.59247625
32	0x3eed5cab	0.46359763
33	0x3e9c30b3	0.30505905
34	0x3f0f1d75	0.5590432

down5.bias f4 [5]
0	0xbeb758a3	-0.35809812
1	0x3f0005a3	0.500086
2	0x3ea3ffc3	0.32031068
3	0x3bf38ab9	0.0074323085
4	0xbed9d024	-0.4254161

up1.weight f4 [7, 5]
0	0xbe12edee	-0.14348575
1	0x3ec536f6	0.38518494
2	0xbe91d3b6	-0.28481835
3	0x3e4070ae	0.18792984
4	0xbeb7abcf	-0.35873267
5	0x3f274ef7	0.65354866
6	0x3ee10769	0.43950966
7	0xbdd53a6e	-0.10411535
8	0x3e662899	0.22476424
9	0xbed212f0	-0.41030073
10	0xbda44633	-0.08021202
11	0xbe77c09c	-0.24194568
12	0xbef85d38	-0.4850862
13	0xbe55ef21	-0.20892002
14	0x3eef8ec1	0.467886
15	0x40124dbb	2.2859943
16	0x3ca32212	0.019913707
17	0x3e5027fd	0.20327754
18	0xbf15b5c3	-0.5848047
19	0x3f3a4a1e	0.72769344
20	0xbe87b57c	-0.2650565
21	0x3eb39a12	0.35078484
22	0x3f27f898	0.656137
23	0x3d520ecd	0.051283646
24	0xbe8de180	-0.27711105
25	0xbf2298c2	-0.6351434
26	0x3ef59367	0.47964022
27	0xbe9ae05d	-0.302493
28	0xbf240d3e	-0.64082706
29	0x3ec7cb20	0.3902216
30	0x3f823c47	1.0174645
31	0x3cb964a2	0.022630993
32	0x3e03a196	0.12854609
33	0x3e600600	0.21877289
34	0x3f1d2582	0.6138536

up1.bias f4 [7]
0	0xbea5d11f	-0.3238611
1	0x3e060ac0	0.13090038
2	0x3ebf6cf2	0.37387806
3	0xbf097950	-0.53700733
4	0x3db2dcea	0.08733542
5	0x3e2f6da6	0.17131671
6	0xbf36ed8a	-0.71456206

up2.weight f4 [8, 7]
0	0xbe38160d	-0.17977162
1	0x3e83ab90	0.2571683
2	0xbec899a1	-0.3917971
3	0xbee9dbf6	-0.4567563
4	0x3f00f0c9	0.5036741
5	0x3ec4d3bf	0.384428
6	0xbe533cc6	-0.20628652
7	0x3e3878f8	0.18014896
8	0x3e31e8c1	0.17373945
9	0x3f90917a	1.1294396
10	0xbd541266	-0.05177536
11	0x3f508aeb	0.8146197
12	0xbeb1b199	-0.3470581
13	0xbd89204b	-0.066956125
14	0x3b34022f	0.0027467122
15	0x3e75945a	0.23982373
16	0x3f492a67	0.78580326
17	0x3f2d1a70	0.67618465
18	0xbef87fca	-0.48534995
19	0x3dc60af0	0.09670055
20	0xbf8c4edd	-1.0961567
21	0xbe9b2239	-0.30299547
22	0x3e4b4590	0.19850755
23	0xbcf3287e	-0.029682394
24	0x3eef09e5	0.46687236
25	0xbdce6b58	-0.10079068
26	0x3da8df8a	0.08245762
27	0x3f8b8912	1.0901206
28	0x3d7cfa71	0.061762277
29	0xbc6d42a5	-0.014481221
30	0xbe6d6efd	-0.2318687
31	0x3f0ef0b9	0.55836064
32	0x3e744b4e	0.23856851
33	0xbe59aa9c	-0.21256489
34	0xbf4c1cf8	-0.797317
35	0xbebaaad7	-0.36458465
36	0x3d8fb7e4	0.07017496
37	0xbeadb565	-0.33927456
38	0x3f07a328	0.5298333
39	0x3f0b3405	0.5437625
40	0x3e43f102	0.19134906
41	0xbfc15a32	-1.510565
42	0xbea29c99	-0.317601
43	0xbda4d804	-0.08049014
44	0xbd5a05f8	-0.05322835
45	0xbe9641cf	-0.29347083
46	0x3de1f248	0.110325396
47	0xbe82ca73	-0.25545081
48	0x3e080a82	0.13285258
49	0x3eb93398	0.36172175
50	0x3eeb683f	0.4597797
51	0xbf1010e2	-0.5627576
52	0x3f0f4e8d	0.55979234
53	0xbe43e3cc	-0.19129866
54	0xbe8f2261	-0.27955917
55	0xbeab2ae2	-0.33431154

up2.bias f4 [8]
0	0xbe099a12	-0.1343768
1	0xbe066aa7	-0.13126622
2	0x3d4d5e2a	0.05013863
3	0x3ddba3ef	0.10724627
4	0x3ed9c0c3	0.42529878
5	0x3ebd0e91	0.36925176
6	0xbe8d3eee	-0.27587074
7	0x3f2b3af7	0.6688685

up3.weight f4 [9, 8]
0	0x3d5b64fb	0.0535631
1	0x3daf900a	0.08572395
2	0x3de825d7	0.113353424
3	0xbd6bb94a	-0.057549752
4	0x3e46e080	0.19421577
5	0x3e65fea3	0.22460417
6	0x3ea62835	0.3245255
7	0xbc91805d	-0.017761404
8	0x3c9c56bf	0.019084333
9	0x3cf7d1d2	0.030251417
10	0x3e2271e0	0.15863752
11	0x3c0f98ac	0.008764427
12	0x3ebef167	0.3729355
13	0x3e2dc0f4	0.16968137
14	0x3a598e00	0.0008299053
15	0xbcd9f734	-0.026607133
16	0xbd8eced8	-0.06973046
17	0xbdfd0c00	-0.123558044
18	0x3e0d152e	0.1377761
19	0xbd31e1f0	-0.04342836
20	0x3e0a793b	0.13522808
21	0x3e965089	0.29358318
22	0x3e6bc37e	0.23023793
23	0x3d9c7464	0.07639387
24	0x3e8d7255	0.2762629
25	0x3f036f28	0.51341486
26	0x3e833283	0.25624475
27	0x3e2c6cdf	0.16838406
28	0xbec57736	-0.38567513
29	0xbdd173cd	-0.10227165
30	0xbe2e564e	-0.1702511
31	0xbe4ffe83	-0.20311932
32	0xbd049730	-0.032370746
33	0xbd16bc7a	-0.03680084
34	0x3e5a66e2	0.21328309
35	0xbf274245	-0.65335494
36	0x3e0bb1d6	0.13642058
37	0x3ee5df64	0.44896996
38	0xbe305c29	-0.17222656
39	0xbdf1a8ab	-0.11799749
40	0xbc5c5b18	-0.013449453
41	0xbc98c83f	-0.018650172
42	0x3ebdfde5	0.3710777
43	0xbf005cd3	-0.5014164
44	0x3e2530ae	0.16131851
45	0xbeed23ed	-0.46316472
46	0x3e6040ae	0.21899673
47	0x3f15f52a	0.58577216
48	0x3d08de12	0.033414908
49	0xbea9a5ac	-0.3313421
50	0xbf0664da	-0.5249764
51	0xbc8a3014	-0.016868629
52	0xbe7e63ff	-0.24842833
53	0x3e1662c0	0.14686108
54	0x3e14f422	0.14546254
55	0x3eee0708	0.4648974
56	0x3e16756c	0.1469323
57	0xbfe664ad	-1.7999474
58	0x3c707429	0.014676132
59	0x3c47bdcc	0.012191247
60	0x3e24f8c9	0.16110529
61	0xbdbb7046	-0.09152274
62	0xbdc0aa00	-0.09407425
63	0xbd949cea	-0.072564915
64	0x3ec3e367	0.38259432
65	0x3f235f5c	0.6381738
66	0xbdbc27e9	-0.091873
67	0x3f634c2d	0.8878811
68	0x3e7f8ca3	0.24955992
69	0xbeca31db	-0.39491162
70	0xbe3832fc	-0.17988199
71	0xbe9a5e1f	-0.30149934

up3.bias f4 [9]
0	0xbe4e64b9	-0.2015561
1	0xbe2ba4de	-0.1676211
2	0xbd3ad016	-0.045608602
3	0xbf2e7b02	-0.68156445
4	0xbc2c2735	-0.010507395
5	0xbed88a64	-0.42293084
6	0x3c7e8c05	0.015536313
7	0x3ef006fc	0.4688033
8	0xbededb02	-0.43526465
