Clus/model_Panel1_clust_hist_end.pt (torch, 9802 bytes, 16 tensors)

down1.weight f4 [15, 18]
0	0xbe69ff51	-0.22851302
1	0x3db5bde8	0.08874112
2	0x3d40a7ef	0.047035154
3	0xbdf7af0e	-0.12093936
4	0xbe4dbcd7	-0.20091568
5	0x3e08dc79	0.13365354
6	0x3e20404d	0.15649529
7	0x3d01790a	0.031609572
8	0xbe75f2ff	-0.24018477
9	0x3e471166	0.1944023
10	0xbe5ab5ef	-0.21358465
11	0x3dd1e4b9	0.102487035
12	0x3c0949f5	0.008379449
13	0xbdabba72	-0.08385171
14	0x3e342d47	0.17595397
15	0x3db1c9c8	0.08681065
16	0xbce31a5d	-0.027722532
17	0x3c142877	0.009042851
18	0x3d629e3c	0.055326685
19	0x3dacf0c4	0.0844436
20	0xbc165a43	-0.0091767935
21	0x3e92192d	0.28534833
22	0x3e436857	0.19082771
23	0x3dde11b8	0.10843223
24	0xbe110db3	-0.14165382
25	0x3e617757	0.22018181
26	0x3ead1c6e	0.33810753
27	0x3deddba4	0.11614159
28	0x3ebab1fc	0.36463916
29	0x3cf5d589	0.030009048
30	0x3eaadfc8	0.33373857
31	0x3ea8abd4	0.32943594
32	0x3d73900e	0.059463553
33	0xbe07f013	-0.13275175
34	0xbac979e5	-0.001537141
35	0x3e3efc0c	0.18650836
36	0xbd94989f	-0.07255673
37	0xbe224c80	-0.15849495
38	0xbe26f449	-0.16304125
39	0x3cff1966	0.03114004
40	0xbdddd9e2	-0.108325735
41	0xbe1570f8	-0.14593875
42	0x3e548f48	0.20757782
43	0x3e414f8a	0.18877998
44	0xbe17335d	-0.14765687
45	0x3d7a21dc	0.061067447
46	0x3dd6b052	0.10482849
47	0x3e3d6ede	0.18499324
48	0x3e53939f	0.20661782
49	0x3d32ccba	0.043652274
50	0xbe4256ae	-0.18978378
51	0x3e0feb24	0.14054543
52	0xbe3b135a	-0.18269101
53	0xbcd6b6d0	-0.026210219
54	0xbd99a2dc	-0.07501766
55	0x3cf0a5c6	0.029375922
56	0x3e703d44	0.23460871
57	0xbddf3bb0	-0.10900056
58	0xbe0a72de	-0.13520381
59	0xbe31bd45	-0.17357357
60	0xbe193090	-0.14959931
61	0xbc5b3252	-0.0133786965
62	0xbe840519	-0.2578514
63	0xbe286dbe	-0.16448113
64	0xbddd886f	-0.10817038
65	0xbe5d4686	-0.21608934
66	0x3e13a786	0.14419374
67	0x3e1d0c76	0.15336785
68	0xbc4b8c21	-0.012423546
69	0x3e56532e	0.20930168
70	0xbbe2641e	-0.0069089076
71	0x3d2f1b67	0.042750742
72	0x3e93ca30	0.28865194
73	0x3e790897	0.24319683
74	0x3e7ec23f	0.24878787
75	0x3e9df94b	0.30854258
76	0x3c47486d	0.012163264
77	0x3e6439df	0.22287701
78	0x3e917142	0.2840672
79	0x3e585263	0.21125178
80	0xbdf290bb	-0.118440114
81	0x3e442f5a	0.19158688
82	0x3e8a3ae5	0.26998058
83	0xbd2de463	-0.042454135
84	0x3e4fb57e	0.20284078
85	0xbd95d1cc	-0.07315406
86	0x3e40f54c	0.18843573
87	0x3e433ab3	0.1906536
88	0x3ea581de	0.32325643
89	0x3d75f174	0.06004472
90	0xbe6c1ee9	-0.23058666
91	0xbdfe2387	-0.1240912
92	0xbdaa57bd	-0.08317516
93	0x3ddb2b24	0.10701588
94	0x3db90695	0.090344585
95	0xbe0a25f9	-0.13491048
96	0xbe8b2588	-0.27177072
97	0x3db40255	0.08789507
98	0xbe1d1579	-0.15340222
99	0x3d0ebcaa	0.034847893
100	0x3e366a27	0.17813931
101	0xbced74db	-0.028986385
102	0xbe48f8b5	-0.19626124
103	0xbec67478	-0.38760734
104	0x3d91acbe	0.07113026
105	0x3c9813d4	0.018564142
106	0x3e48e9ff	0.19620512
107	0x3e6d68a5	0.2318445
108	0x3e9640cd	0.29346314
109	0x3e1b0a03	0.15140538
110	0x3d953087	0.072846465
111	0x3e2b9045	0.16754253
112	0x3e7b502e	0.24542305
113	0x3e9e4677	0.30913135
114	0x3e85da0d	0.26142922
115	0x3c35cb59	0.011095845
116	0x3dac8058	0.08422917
117	0x3dc8d206	0.09805684
118	0x3e3649b5	0.17801555
119	0x3ead4f49	0.33849552
120	0x3e8be5a4	0.2732364
121	0x3eb0924c	0.34486616
122	0x3e92c665	0.28666988
123	0x3e35cd1b	0.17754023
124	0x3edf0b3e	0.43563265
125	0x3e5d4ae4	0.216106
126	0x3e292589	0.16518225
127	0x3e735fd9	0.23767032
128	0xbe2808b4	-0.1640957
129	0xbde1b2ee	-0.11020456
130	0xbcd5ae9e	-0.02608424
131	0x3e43205e	0.19055316
132	0xbd295b3c	-0.041346774
133	0xbe47288e	-0.19449064
134	0x3e54253e	0.20717332
135	0x3e291e0f	0.16515373
136	0x3d0f7758	0.035025924
137	0x3e6ee178	0.23328197
138	0x3e8ed60e	0.27897686
139	0x3e381126	0.17975292
140	0x3e91091f	0.2832727
141	0xbe5ce740	-0.2157259
142	0x3e790401	0.24317934
143	0x3e851125	0.25989643
144	0x3e056d99	0.1303009
145	0x3da48982	0.0803404
146	0x3dfa9e3b	0.12237211
147	0xbcb72abc	-0.022359245
148	0xbe4c7e9b	-0.19970171
149	0x3d0dab5a	0.03458724
150	0x3cbe8037	0.023254497
151	0xbc762d8d	-0.015025509
152	0xbb5b411b	-0.0033455554
153	0xbd729c95	-0.05923136
154	0xbda29e3c	-0.07940337
155	0xbe1cd74a	-0.15316501
156	0xbe3aeb07	-0.18253718
157	0xbd4a7259	-0.049425457
158	0x3cf45da7	0.029829813
159	0xbe18b107	-0.1491128
160	0xbe4732ac	-0.19452924
161	0x3e3df934	0.18552095
162	0xbd85a24d	-0.06525097
163	0x3e125ae3	0.14292483
164	0x3ca5094a	0.020146031
165	0x3e8305b0	0.25590277
166	0x3ccc1ac3	0.024915105
167	0x3dea7d74	0.114497095
168	0x3e9930f3	0.29920158
169	0x3c06482c	0.008195918
170	0x3c58dccf	0.013236239
171	0x3ba42852	0.0050096894
172	0xbe13b459	-0.14424266
173	0xbdce8d9f	-0.10085606
174	0x3dc4cb05	0.096090354
175	0xbd50e651	-0.051000897
176	0x3e8ea3e3	0.2785941
177	0xbe1dd929	-0.15414871
178	0x3d3ede86	0.046598934
179	0x3e995fac	0.29955804
180	0x3ea20a16	0.3164832
181	0xbdac7618	-0.08420962
182	0x3eb07b51	0.34469083
183	0x3d06ab67	0.032878306
184	0xbdafc194	-0.08581844
185	0xba626a83	-0.00086370873
186	0x3e979c62	0.29611498
187	0x3d663cd1	0.056210343
188	0x3e817d11	0.2529073
189	0x3e2a75de	0.16646525
190	0x3e87fbcb	0.2655929
191	0x3e0320be	0.12805459
192	0x3d5612ed	0.052264143
193	0x3e57511f	0.21027039
194	0xbd916a4d	-0.071003534
195	0x3e7c613b	0.24646465
196	0x3cb92466	0.022600364
197	0x3e24b76c	0.16085595
198	0x3e2df904	0.16989523
199	0xbd4fb38e	-0.050708346
200	0xbc7dd5ae	-0.01549284
201	0xbe0ef264	-0.13959652
202	0x3ddb7e4c	0.107174486
203	0x3e4db0d2	0.20086983
204	0xbd9b4e6c	-0.07583317
205	0x3e2c35d6	0.16817412
206	0xbe509774	-0.20370275
207	0x3e56cb60	0.20976019
208	0x3e3e61d2	0.18592003
209	0xbe22a349	-0.15882601
210	0xbdca4fce	-0.09878503
211	0x3df538c4	0.11973718
212	0xbc178f04	-0.009250406
213	0xbe4ca3e6	-0.19984397
214	0xbd49dfdc	-0.049285755
215	0x3ca7232d	0.020402515
216	0x3caf84a0	0.021425545
217	0xbdb3d1dd	-0.087802626
218	0x3e97c5c4	0.2964307
219	0x3e9f15af	0.3107123
220	0x3d9b5b2a	0.075857475
221	0xbd699147	-0.057023313
222	0x3d6cb679	0.057791207
223	0xbd335d4c	-0.043790147
224	0x3da836fc	0.082136124
225	0x3e2e7c88	0.17039692
226	0xbdaf2104	-0.08551219
227	0x3d5b5b87	0.053554084
228	0x3e47670d	0.19472905
229	0x3d0ad974	0.033898786
230	0x3e9f119d	0.31068125
231	0x3db3feef	0.08788859
232	0x3e4d376a	0.2004067
233	0x3e4a6e82	0.19768718
234	0x3e01c9b9	0.12674607
235	0xbdd45983	-0.103686355
236	0x3df6290f	0.1201955
237	0xba457e18	-0.0007533743
238	0x3d5ec5f6	0.05438801
239	0x3e5b4c1f	0.21415757
240	0x3d03c77f	0.032172676
241	0x3eb350cc	0.3502258
242	0x3e8318b4	0.25604784
243	0x3eb2088d	0.3477215
244	0x3d58828d	0.052858878
245	0x3e992bb2	0.2991615
246	0xbdf55708	-0.119794905
247	0x3e43cf07	0.19121943
248	0x3ea6f73b	0.32610497
249	0x3e2ad6d7	0.16683517
250	0x3e983f08	0.2973559
251	0x3e80f1f3	0.25184593
252	0x3e47d1c1	0.19513609
253	0x3e8d41cf	0.2758927
254	0xbe31281d	-0.17300458
255	0x3e0dadbc	0.13835806

down1.bias f4 [15]
0	0xbdcfa720	-0.101392984
1	0xbd2eca3e	-0.042673342
2	0xbdcce15a	-0.1000392
3	0xbd4fff62	-0.05078066
4	0xbdec04d2	-0.11524357
5	0xbe04a10e	-0.12952062
6	0x3e2cf54c	0.16890448
7	0xbdb7a9d6	-0.089679405
8	0xbe3a7432	-0.18208387
9	0x3ea00610	0.31254625
10	0x3e800dd7	0.2501056
11	0xbe6092af	-0.21930955
12	0x3e4c07b1	0.19924809
13	0x3e544e0b	0.20732896
14	0x3e2b52fa	0.16730872

down2.weight f4 [12, 15]
0	0xbe834491	-0.2563825
1	0x3d0dac53	0.03458817
2	0xbe5c58f8	-0.21518314
3	0xbe89d46b	-0.26919875
4	0x3ddb6c2f	0.10713994
5	0xbcba4497	-0.022737784
6	0x3eb8ff50	0.36132288
7	0x3e0acf05	0.13555534
8	0xbe27635a	-0.16346493
9	0x3ebe2a71	0.37141755
10	0x3ec059e1	0.37568572
11	0xbe39bd4d	-0.18138619
12	0x3e950e1d	0.2911233
13	0x3ea6edb4	0.32603228
14	0xbd87dacd	-0.0663353
15	0x3d64343f	0.05571389
16	0xbdb10653	-0.086437844
17	0xbe244b7f	-0.16044424
18	0xbe60e471	-0.21962143
19	0x3e0ed6f8	0.13949192
20	0xbe381450	-0.17976499
21	0x3e2cc6ca	0.16872707
22	0xbda5ac92	-0.08089556
23	0xbd0da6db	-0.034582954
24	0x3e875348	0.26430726
25	0x3e4e272f	0.20132135
26	0x3d9f24b3	0.07770672
27	0xbcb96703	-0.022632128
28	0x3ec2302c	0.37927377
29	0x3dccb927	0.099962525
30	0xbe5c084e	-0.21487543
31	0xbd46b842	-0.048515566
32	0x3bea2485	0.0071454667
33	0xbe767e4d	-0.24071617
34	0xbd4f8797	-0.050666418
35	0xbe3de733	-0.18545227
36	0x3e0eb09b	0.13934557
37	0x3e5ee841	0.21768285
38	0xbe6e17d1	-0.23251273
39	0xbe397562	-0.18111184
40	0xbe8dbb93	-0.2768217
41	0xbe4b9f62	-0.19885018
42	0x3e1758c8	0.14779961
43	0xbe74879b	-0.23879854
44	0x3e424c3d	0.18974395
45	0x3e974467	0.29544374
46	0xbe248aad	-0.16068526
47	0xbe1e7cec	-0.15477341
48	0xbe33e032	-0.17565992
49	0xbc059136	-0.008152297
50	0xbe1fb653	-0.15596895
51	0xbd0c69e2	-0.034280665
52	0x3d0aeecf	0.033919152
53	0xbdc18304	-0.09448817
54	0x3e2a6d87	0.16643344
55	0x3e303253	0.17206697
56	0x3daa7bcf	0.08324396
57	0x3dbac8a0	0.091202974
58	0xbe3728e7	-0.17886697
59	0xbd814ee0	-0.06313872
60	0xbe15bec0	-0.14623547
61	0x3ec6ea0e	0.38850445
62	0x3d8f643d	0.07001541
63	0xbcee826c	-0.029114924
64	0x3df38326	0.11890249
65	0xbe36540a	-0.17805496
66	0x3ebc298c	0.36750448
67	0x3d6080e8	0.054810435
68	0xbe6eea7e	-0.23331639
69	0xbd86e064	-0.06585768
70	0x3e93dbfd	0.28878775
71	0x3e16cee2	0.14727357
72	0x3e5dbdae	0.21654388
73	0x3e9b9a29	0.30391052
74	0x3e101eb0	0.14074206
75	0xbdf8a7a1	-0.12141348
76	0x3e6d054b	0.2314655
77	0x3bfb01bb	0.0076601184
78	0xbd8ca5dd	-0.068675734
79	0xbdad5d53	-0.08465066
80	0xbe3f7992	-0.18698719
81	0xbe6ecb68	-0.23319781
82	0xbdd4648d	-0.10370741
83	0xbd478121	-0.04870713
84	0xbe6b9956	-0.23007712
85	0x3e5a8981	0.21341516
86	0x3d3a0787	0.045417335
87	0x3e55b5a6	0.20870075
88	0xbdfba9fb	-0.122882806
89	0x3e44df15	0.19225724
90	0x3d5aa745	0.053382177
91	0xbd898a38	-0.06715816
92	0x3e573d75	0.21019538
93	0x3e10116b	0.14069144
94	0xbc9f053e	-0.01941168
95	0xbe6c5c84	-0.23082167
96	0x3df59e1d	0.11993048
97	0xbd86cccc	-0.06582031
98	0x3e2ac21f	0.16675614
99	0x3a79d37b	0.0009530109
100	0x3eae057b	0.33988556
101	0x3e6a5ca7	0.22886907
102	0x3b909834	0.0044126753
103	0x3ecf264e	0.40458912
104	0x3e184d8d	0.14873333
105	0xbe6866ef	-0.22695516
106	0x3eaefd31	0.34177545
107	0x3dd08ec6	0.10183482
108	0xbdd77a96	-0.10521428
109	0x3eb9fe58	0.3632686
110	0xbc8dda96	-0.017316144
111	0x3e2d583a	0.16928187
112	0x3ec4dfcf	0.38452002
113	0xbe21cf89	-0.15801825
114	0xbdb2c154	-0.08728281
115	0xbdc96f9a	-0.098357394
116	0xbcfbba69	-0.030728536
117	0xbd87471a	-0.066053584
118	0x3ccffc49	0.025388854
119	0x3e76d967	0.2410637
120	0xbe6f1410	-0.23347497
121	0x3d4b6a30	0.049661815
122	0x3e787597	0.24263607
123	0x3e2959a8	0.16538107
124	0xbd02a5ee	-0.031896524
125	0xbe773538	-0.24141395
126	0x3e818e23	0.25303754
127	0x3e0b5ce6	0.13609657
128	0x3e3f1731	0.1866119
129	0xbdeb5457	-0.11490696
130	0x3d9733b8	0.073829114
131	0xbc710661	-0.0147109935
132	0x3e9a85ef	0.30180308
133	0x3e9c82b8	0.3056848
134	0xbe040c8c	-0.12895411
135	0x3d6e6af2	0.05820746
136	0xbe03a9db	-0.12857763
137	0x3e2d9865	0.16952665
138	0xbbf49f92	-0.0074653113
139	0xbe07e1c8	-0.13269722
140	0x3c9555fa	0.018229473
141	0x3ea6395d	0.3246564
142	0xbe20e666	-0.1571289
143	0xbe541ea8	-0.2071482
144	0x3e89018c	0.26758993
145	0x3df91965	0.12163047
146	0xbe56a887	-0.20962726
147	0x3e885b8c	0.26632345
148	0x3ebabf32	0.36473995
149	0x3e822e2d	0.25425854
150	0xbd1a44ed	-0.03766339
151	0x3eaf6568	0.34257054
152	0x3d6f9c2d	0.05849855
153	0xbe455cca	-0.19273677
154	0x3d6a53cf	0.057208832
155	0xbdbb0811	-0.09132398
156	0x3ebcd195	0.36878648
157	0x3e963fcd	0.2934555
158	0x3de5c5f5	0.11219398
159	0xbbdab6a9	-0.006674607
160	0x3e1191a2	0.14215711
161	0x3d2bbd3c	0.041928515
162	0x3da2a930	0.07942426
163	0x3e4ea5ed	0.20180483
164	0x3ecaf027	0.39636347
165	0x3d917281	0.07101918
166	0xbdbd9dea	-0.09258635
167	0x3daa2828	0.083084404
168	0xbe19d1e3	-0.15021472
169	0x3c58f301	0.01324153
170	0xbcfccd57	-0.030859632
171	0x3d2e7703	0.042593967
172	0x3bb28ca4	0.0054488946
173	0x3d9981b2	0.074954405
174	0x3d2ef0ce	0.042710118
175	0xbe4012a1	-0.18757106
176	0x3e26c9f7	0.16287981
177	0xbc86b93f	-0.016445754
178	0x3d20097a	0.039071538
179	0x3db51f7b	0.08843895

down2.bias f4 [12]
0	0xbd0626f9	-0.03275201
1	0x3e9c9710	0.30584002
2	0x3dc5ccab	0.09658178
3	0x3c4e8bc6	0.012606567
4	0x3d288ab5	0.041147906
5	0xbe78c69b	-0.24294512
6	0x3ea45da6	0.32102698
7	0xbc5ed457	-0.01360043
8	0xbe03e584	-0.12880522
9	0x3e481901	0.19540788
10	0x3dfbedfa	0.1230125
11	0xbdb67bff	-0.08910369

down3.weight f4 [11, 12]
0	0xbd226a0e	-0.039651923
1	0xbe3db9ac	-0.1852786
2	0x3cae48df	0.021274982
3	0x3e3a10c2	0.18170455
4	0x3ea47ae4	0.32125008
5	0x3db0782d	0.08616672
6	0xbe01068f	-0.12600158
7	0x3e73308f	0.23748992
8	0x3d99ed9b	0.07516023
9	0xbe84f6e1	-0.25969604
10	0xbd017317	-0.0316039
11	0xbe1a8a74	-0.15091878
12	0xbe248730	-0.16067195
13	0x3d132525	0.035924096
14	0xbe15ce49	-0.14629473
15	0xbd60654c	-0.054784104
16	0xbe0d4015	-0.13793977
17	0x3dd5726f	0.10422217
18	0x3e59c611	0.21266963
19	0x3e245e6d	0.16051646
20	0xbe0aa37e	-0.1353893
21	0x3e47cac8	0.19510949
22	0x3e66ccd0	0.22539067
23	0x3e2b54a4	0.16731507
24	0xbd88ea96	-0.06685369
25	0xbe9616f4	-0.29314387
26	0x3e69e0c4	0.22839648
27	0xbdff9241	-0.124790676
28	0xbe16eb68	-0.14738238
29	0xbdb05710	-0.08610356
30	0xbe0d417b	-0.1379451
31	0x3e8dd4fb	0.27701554
32	0x3de77964	0.1130245
33	0xbe806f77	-0.2508504
34	0x3dfc74f9	0.12326998
35	0xbe629f0a	-0.22130981
36	0xbe55d141	-0.20880605
37	0x3e4fd116	0.20294604
38	0x3e709143	0.23492913
39	0x3e33636c	0.17518395
40	0x3e5fe47b	0.21864502
41	0x3cbce260	0.023057163
42	0xbe3e5168	-0.18585742
43	0xbe9dc39f	-0.3081331
44	0x3cff4d7a	0.031164873
45	0xba33cf06	-0.0006859157
46	0xbb85b03d	-0.004079847
47	0xbd34cb75	-0.044139344
48	0x3de77d93	0.11303248
49	0xbcc8a9e2	-0.024495069
50	0xbe86e362	-0.26345354
51	0x3e5e2e72	0.21697405
52	0xbe3475ed	-0.1762311
53	0x3e6a1c93	0.22862463
54	0xbe8d75b8	-0.27628875
55	0x3e081406	0.13288888
56	0xbe4d3904	-0.20041281
57	0xbe31eefd	-0.17376323
58	0xbdaa8dfd	-0.08327863
59	0xbe6665fc	-0.22499841
60	0x3d9d7386	0.0768805
61	0x3ebdbf37	0.37059948
62	0x3d073f85	0.03301956
63	0xbd8265c4	-0.063670665
64	0x3ea6e703	0.32598123
65	0xbe4d80a3	-0.20068602
66	0xbb9b28d8	-0.0047350936
67	0x3d99ec79	0.07515807
68	0x3e26905a	0.16266003
69	0x3e584cb7	0.21123014
70	0x3ee31ba0	0.44357014
71	0xbe36bbe8	-0.17845118
72	0x3e6379a4	0.22214371
73	0x3d9873ac	0.07443938
74	0xbde2718a	-0.11056812
75	0xbe29a215	-0.16565736
76	0xbe44918f	-0.19196151
77	0xbdbeaaec	-0.093099445
78	0x3e362c33	0.17790298
79	0xbcbcb6b3	-0.023036337
80	0x3e25349e	0.16133353
81	0x3da013e9	0.078162976
82	0xbe8316cb	-0.25603327
83	0x3e87bd87	0.26511785
84	0x3e09711b	0.13422053
85	0x3e29dc0c	0.16587847
86	0x3e06401e	0.13110396
87	0xbe8e39a8	-0.27778363
88	0xbdd827a6	-0.10554437
89	0xbe5bc4c5	-0.2146178
90	0xbe90505a	-0.28186303
91	0x3dbfcdff	0.093654625
92	0x3e2794d5	0.16365369
93	0xbe6b1ce2	-0.22960237
94	0xbe56df7f	-0.20983694
95	0xbe67e268	-0.22644961
96	0x3d325294	0.043535784
97	0xbe2bfa88	-0.16794789
98	0xbdd53a5b	-0.10411521
99	0x3e6c52d1	0.23078467
100	0xbe713c2e	-0.23558113
101	0xbddda6be	-0.10822819
102	0x3d933355	0.07187525
103	0x3de5da83	0.112233184
104	0x3e707685	0.23482712
105	0x3dd75ca8	0.1051572
106	0xbe44b9fd	-0.19211574
107	0x3d83986c	0.064255565
108	0xbdecfe42	-0.11571933
109	0xbcf2b694	-0.029628076
110	0x3e5a8852	0.21341065
111	0x3dac245a	0.08405371
112	0xbd94d636	-0.0726742
113	0x3e03636f	0.128309
114	0x3cc889d7	0.02447979
115	0x3c15cd7b	0.009143229
116	0x3e72195a	0.23642483
117	0xbe3aca8f	-0.18241332
118	0xbdee2e52	-0.11629929
119	0x3e3c4314	0.18384963
120	0x3ed16ab8	0.40901732
121	0x3e700060	0.23437643
122	0xbc9faccb	-0.019491574
123	0xbe821482	-0.2540627
124	0x3eb52b89	0.35384777
125	0xbd6c3d64	-0.057675734
126	0x3e78d67c	0.2430057
127	0x3e2c4b05	0.16825493
128	0x3e564529	0.2092482
129	0x3d9ec8b6	0.07753126
130	0x3cb3191e	0.021862563
131	0x3db2e1d8	0.087344825

down3.bias f4 [11]
0	0xbcfeaafc	-0.031087391
1	0xbe795d53	-0.24352007
2	0x3de8abe4	0.113609105
3	0x3dd775eb	0.10520538
4	0xbddded77	-0.108363084
5	0xbd782536	-0.060582362
6	0xbe97b246	-0.296282
7	0xbe0bc461	-0.13649131
8	0xbda3587d	-0.07975862
9	0xbe67d529	-0.22639908
10	0x3b1792f6	0.0023128367

down4.weight f4 [10, 11]
0	0xbe98e549	-0.2986243
1	0xbe6d409e	-0.23169181
2	0xbe827b53	-0.25484714
3	0x3c041801	0.008062364
4	0xbe7eeef6	-0.24895844
5	0x3d5b5919	0.053551767
6	0xbe82d84d	-0.2555565
7	0xbe506bdd	-0.20353647
8	0x3de99de3	0.114070676
9	0x3e27a70a	0.16372314
10	0xbe83855a	-0.25687677
11	0x3e09bf71	0.13451935
12	0xbcb2c831	-0.021823974
13	0x3e1a1838	0.15048301
14	0x3cbf5576	0.02335618
15	0xbe6f8f1b	-0.23394434
16	0x3e0a63ad	0.13514586
17	0xbe07a8ae	-0.1324794
18	0x3e838ed4	0.25694907
19	0x3db73f3f	0.0894761
20	0x3c6b80b4	0.014373947
21	0xbe8894fc	-0.26676166
22	0xbea959e3	-0.3307639
23	0xbe6768dc	-0.22598594
24	0x3e2700ad	0.16308852
25	0xbd9cfa6c	-0.07664952
26	0xbdd2b071	-0.1028756
27	0x3e58f257	0.21186195
28	0xbe8dd70c	-0.2770313
29	0xbe0b9d12	-0.13634136
30	0x3e54603d	0.20739837
31	0x3e66d2a5	0.22541292
32	0x3e90b322	0.28261667
33	0x3d04c4df	0.032414313
34	0x3e2d41a1	0.16919567
35	0xbe4c4911	-0.19949748
36	0xbe459b2e	-0.19297478
37	0xbc85c001	-0.016326906
38	0x3e3e7c2e	0.18602058
39	0xbc62e461	-0.013848395
40	0xbd97deaa	-0.07415517
41	0xbdfa0c4b	-0.12209376
42	0x3df94a8d	0.121724226
43	0x3ea88ede	0.329215
44	0xbeb0591e	-0.3444299
45	0x3def996d	0.116991855
46	0xbd5b0378	-0.053470105
47	0xbe803f4e	-0.25048298
48	0x3c49cca7	0.012316859
49	0xbd89fba0	-0.06737447
50	0xbde90606	-0.11378102
51	0x3e2ba737	0.16763006
52	0x3dbb873a	0.09156652
53	0xbd8daca1	-0.06917692
54	0x3e98de04	0.29856884
55	0xbe87d40f	-0.26528975
56	0x3e48f789	0.19625677
57	0xbe74d418	-0.23909032
58	0x3e6fabcd	0.2340538
59	0x3db42ada	0.08797236
60	0x3ed25666	0.41081542
61	0xbaa818fc	-0.0012824829
62	0x3d9ca39d	0.07648394
63	0xbd93565c	-0.07194206
64	0xbe120621	-0.1426015
65	0x3e43655b	0.19081633
66	0x3e0080fd	0.12549205
67	0x3c847b5d	0.016172105
68	0x3e6e1713	0.2325099
69	0xbe816f11	-0.2528005
70	0xbc8027fa	-0.015644062
71	0x3e4cf3ea	0.20014921
72	0x3e19699d	0.14981695
73	0x3cc5a2a9	0.024125414
74	0xbd2ad0c8	-0.041703016
75	0x3c4f8b93	0.012667554
76	0xbe60a2bd	-0.2193708
77	0xbdf46ee7	-0.119352154
78	0xbd992b19	-0.07478923
79	0xbe8064ca	-0.25076896
80	0x3dac92ad	0.08426414
81	0xbc417a7a	-0.011808986
82	0x3e18aa8a	0.14908805
83	0xbd692340	-0.056918383
84	0xbd27cce3	-0.04096688
85	0x3e93bac9	0.28853443
86	0xbe364c00	-0.17802429
87	0x3eb8d26e	0.36098045
88	0xbe2a56c7	-0.16634665
89	0xbe402c97	-0.1876701
90	0xbe8be9ae	-0.2732672
91	0xbe8191f7	-0.25306675
92	0x3dde349f	0.108498804
93	0xbdf92694	-0.12165561
94	0x3cb62a4f	0.022236971
95	0xbe571f1d	-0.21007963
96	0xbe851c25	-0.25998035
97	0xbdc63800	-0.0967865
98	0xbc5420c2	-0.012947263
99	0xbda299ec	-0.079395145
100	0x3c74a7bf	0.014932572
101	0xbd27e25f	-0.04098737
102	0xbe471efa	-0.1944541
103	0xbe51842f	-0.2046058
104	0x3e4adbfc	0.1981048
105	0x3da2c94c	0.079485506
106	0x3deb8f8d	0.115019895
107	0xbdd4fd16	-0.10399835
108	0x3cbee4a8	0.023302391
109	0xbe3d4456	-0.184831

down4.bias f4 [10]
0	0xbce98ca5	-0.028509447
1	0xbe25fcc5	-0.16209705
2	0x3e991b2d	0.29903546
3	0xbdbac99e	-0.09120487
4	0x3e8c17db	0.2736195
5	0x3e840f11	0.25792745
6	0x3c74ba43	0.014936986
7	0x3eaccf07	0.337517
8	0xbdbc3e81	-0.09191609
9	0xbe3e05a9	-0.18556847

down5.weight f4 [9, 10]
0	0x3e742837	0.23843466
1	0xbdc03b1f	-0.093862765
2	0xbec0035b	-0.3750256
3	0xbeb79008	-0.35852075
4	0xbea9187b	-0.3302649
5	0xbdcda9b0	-0.10042131
6	0x3dda7ee8	0.10668737
7	0xbe657f54	-0.22411853
8	0x3e9c3549	0.30509403
9	0x3e247c51	0.16063048
10	0x3e8215c5	0.25407234
11	0x3d1ee207	0.038789775
12	0xbdcf0337	-0.10108035
13	0xbe860457	-0.26175186
14	0xbe0e15b1	-0.13875462
15	0xbda7e021	-0.08197046
16	0x3e0fe728	0.14053023
17	0xbe9c9259	-0.30580404
18	0xbe9e06f2	-0.30864674
19	0xbdca62e5	-0.09882144
20	0x3ea1275b	0.31475338
21	0x3e05f4c2	0.13081649
22	0xbc9b59a8	-0.01896365
23	0x3dcb7aad	0.09935508
24	0x3de206b5	0.110364355
25	0x3e104e24	0.14092308
26	0x3dcedbc1	0.101005085
27	0xbdfd5e07	-0.1237145
28	0xbde8459c	-0.11341402
29	0xbd1ef935	-0.03881188
30	0x3c9956b2	0.018718097
31	0x3dacfb19	0.084463306
32	0x3ed09eab	0.40746054
33	0x3ee0693d	0.4383029
34	0x3dc7674c	0.09736499
35	0x3ec9c8ee	0.3941111
36	0x3ebf2fa8	0.37341046
37	0x3d7c0351	0.0615266
38	0x3e048c00	0.12944031
39	0xbe08c390	-0.13355851
40	0xbd906400	-0.070503235
41	0x3e8ce7ee	0.27520698
42	0xbe9694ad	-0.29410306
43	0x3e0f96d6	0.14022383
44	0x3dad1c1c	0.08452627
45	0x3e917f73	0.2841755
46	0xbbd1506c	-0.006387761
47	0xbdf2424b	-0.11829051
48	0x3e48cb47	0.19608794
49	0x3df4626c	0.11932835
50	0xbd4e1c11	-0.050319735
51	0x3dcd34cb	0.10019835
52	0x3e375db7	0.17906843
53	0x3e1e8244	0.1547938
54	0x3d9e3dc5	0.07726625
55	0x3d716c2a	0.058941044
56	0xbe267161	-0.16254188
57	0x3e2613e3	0.16218524
58	0xbe915105	-0.28382125
59	0x3d91f6ea	0.07127173
60	0xbe11f8aa	-0.14255014
61	0x3e259bd2	0.16172722
62	0x3e4f3fe0	0.2023921
63	0xbdc74a2b	-0.09730943
64	0xbe7ad64c	-0.2449581
65	0x3e253228	0.16132414
66	0x3e380746	0.17971525
67	0xbe686c65	-0.22697599
68	0x3e2e4c0b	0.17021196
69	0x3d57012e	0.05249136
70	0x3e0d32b6	0.13788876
71	0x3e0ce9e9	0.13761105
72	0xbeb36699	-0.35039213
73	0xbe9ef10c	-0.3104328
74	0xbe17e9e9	-0.14835323
75	0xbe0ce0b6	-0.13757595
76	0x3e1aa72e	0.15102836
77	0xbe9435d3	-0.28947315
78	0xbe7d333e	-0.24726579
79	0x3e1accbc	0.15117162
80	0x3d7ccfd9	0.061721656
81	0x3cbcf8d3	0.023067867
82	0x3de4c844	0.1117101
83	0x3e2c283f	0.16812228
84	0x3dc123e0	0.09430671
85	0xbd5542b4	-0.052065566
86	0xbd536892	-0.051613398
87	0x3e4d86d4	0.20070964
88	0xbe09a358	-0.13441217
89	0xbe9f5ef3	-0.31127128

down5.bias f4 [9]
0	0xbe1771c4	-0.14789492
1	0xbea0fc86	-0.3144266
2	0x3e0e9c00	0.13926697
3	0x3e870bf0	0.26376295
4	0xbdca2f64	-0.0987232
5	0x3b065887	0.0020499544
6	0xbe5c73cf	-0.21528552
7	0x3e120a3c	0.14261717
8	0x3e3b4578	0.18288219

up1.weight f4 [10, 9]
0	0xbde94fbe	-0.11392163
1	0x3dffc18b	0.12488087
2	0x3eaa8bec	0.33309877
3	0x3dbc67ab	0.091994606
4	0xbdc6af08	-0.09701353
5	0x3e71e033	0.23620681
6	0xbe7cc7c3	-0.24685578
7	0xbd4295fc	-0.047506317
8	0xbe064be6	-0.1311489
9	0xbe8a5314	-0.2701651
10	0xbe4f319c	-0.20233768
11	0xbdc24d60	-0.09487414
12	0x3e984dcb	0.2974685
13	0x3e4ab530	0.1979568
14	0x3eb0fc88	0.34567666
15	0xbd9bd0d9	-0.07608194
16	0xbeab58e8	-0.33466268
17	0x3e8f8fb0	0.28039312
18	0xbe70812e	-0.23486778
19	0xbd4304ee	-0.047612123
20	0xbda72a2b	-0.0816234
21	0x3e55b6b0	0.20870471
22	0x3e0289ba	0.12747851
23	0xbe84df82	-0.25951773
24	0xbe676775	-0.2259806
25	0x3cfd98a8	0.030956581
26	0xbe63eb3b	-0.22257702
27	0x3e870d18	0.26377177
28	0xbe2f34ba	-0.17109957
29	0xbe543ed0	-0.20727086
30	0x3e8f4d67	0.2798874
31	0xbe9df163	-0.30848226
32	0xbe7b3bfe	-0.24534604
33	0x3e7a7f10	0.24462533
34	0x3e7ff0d8	0.24994218
35	0x3e833f70	0.25634336
36	0x3df4d7d6	0.1195523
37	0x3e836f6a	0.2567094
38	0xbea69a54	-0.32539618
39	0xbea04a1b	-0.31306538
40	0x3cd7d0eb	0.026344737
41	0x3e68ea90	0.22745728
42	0x3e5ae758	0.21377313
43	0xbc0959ab	-0.008383195
44	0x3d8514eb	0.064981304
45	0x3e25d670	0.16195083
46	0x3e2a8d6f	0.16655515
47	0xbc491719	-0.012273573
48	0x3d61996d	0.05507796
49	0xbe2f779e	-0.17135474
50	0x3d9fb676	0.077984735
51	0xbd933711	-0.071882375
52	0xbda105c6	-0.07862429
53	0xbdb7f067	-0.089814
54	0x3e0ef8d7	0.13962112
55	0x3e1ddf29	0.1541716
56	0x3e28f685	0.1650029
57	0xbeb0cc6a	-0.34530956
58	0x3e8c8b23	0.27449903
59	0xbe60f1ba	-0.21967211
60	0x3e8a8cfa	0.27060682
61	0x3cfcf3dd	0.030878002
62	0x3d091905	0.033471126
63	0xbea03d92	-0.31296974
64	0xbbe396d3	-0.00694547
65	0x3d271632	0.04079265
66	0x3ea1b02c	0.3157972
67	0x3da324cf	0.07966005
68	0xbe505e7c	-0.20348543
69	0xbcfcd478	-0.030863032
70	0xbbb14262	-0.005409525
71	0xbe65b232	-0.22431257
72	0xbe9310a6	-0.2872364
73	0xbda7ba22	-0.08189799
74	0x3ed54fe2	0.41662508
75	0x3ed8218c	0.42213094
76	0xbe6f313d	-0.23358627
77	0x3e505015	0.20343049
78	0x3d71e512	0.05905635
79	0xbe79db79	-0.24400128
80	0xbbefcf69	-0.0073184264
81	0x3e4d898e	0.20072004
82	0x3dea41cb	0.1143833
83	0xbe5b4a43	-0.21415047
84	0xbe2d93c0	-0.16950893
85	0xbe3b70fe	-0.18304822
86	0xbe965db6	-0.2936837
87	0xbdf2b5db	-0.118510924
88	0xbe9d6d3a	-0.30747396
89	0x3e1c4c88	0.1526357

up1.bias f4 [10]
0	0xbe0390cd	-0.12848206
1	0x3cf39f5d	0.029739076
2	0xbcb4d31c	-0.022073321
3	0xbdc8e412	-0.09809126
4	0x3e58e3c0	0.2118063
5	0x3de54995	0.11195675
6	0x3e5531ec	0.20819825
7	0xbe17048d	-0.1474783
8	0xbe3ee985	-0.18643768
9	0xbc945bd6	-0.018110197

up2.weight f4 [11, 10]
0	0x3d22a134	0.039704517
1	0xbd289604	-0.04115869
2	0x3e295861	0.1653762
3	0x3e631a53	0.2217801
4	0xbe8bcd62	-0.27305132
5	0xbe1d4731	-0.15359189
6	0x3dc53b77	0.09630483
7	0x3e97760d	0.29582253
8	0xbe70c6bb	-0.2351331
9	0xbe55108c	-0.20807093
10	0xbe1e8277	-0.15479456
11	0xbd9b873e	-0.07594155
12	0x3d3c321b	0.04594622
13	0x3d973fe0	0.0738523
14	0x3e8e0a5b	0.27742276
15	0xbdceea96	-0.101033375
16	0xbded573d	-0.11588905
17	0xbe85b437	-0.26114056
18	0xbd80512a	-0.06265481
19	0xbc263f83	-0.010146978
20	0x3eba6efd	0.36412802
21	0x3ea9df91	0.3317838
22	0x3e3e8de1	0.1860881
23	0xbe696276	-0.22791466
24	0xbc351569	-0.011052468
25	0xbe03c398	-0.12867582
26	0xbe06fbf2	-0.13182047
27	0x3e061e3f	0.13097475
28	0x3e2fbe2b	0.17162387
29	0x3e96ca93	0.29451427
30	0xbe4ab6fb	-0.19796364
31	0xbe3ddfaf	-0.1854236
32	0x3e2b31e9	0.16718258
33	0x3e996bac	0.2996496
34	0x3e838875	0.25690046
35	0x3d9d174d	0.0767046
36	0xbe8db987	-0.2768061
37	0xbc645e5f	-0.013938515
38	0x3df0bf03	0.117551826
39	0xbd3b7efd	-0.045775402
40	0x3d994710	0.07484257
41	0xbdd6da53	-0.10490861
42	0xbc92db36	-0.017926794
43	0xbdad5746	-0.08463912
44	0xbe8f490d	-0.2798542
45	0x3db5da1a	0.0887949
46	0xbe29fc64	-0.16600186
47	0xbe3d9c33	-0.18516617
48	0xbdaca042	-0.08429004
49	0x3e387b71	0.18015839
50	0x3e5329aa	0.20621362
51	0xbe08319e	-0.13300177
52	0x3d08e710	0.033423483
53	0x3e2467e9	0.16055264
54	0x3e8d0fd2	0.27551132
55	0xbe175711	-0.14779307
56	0x3e572c23	0.2101293
57	0x3e090420	0.1338048
58	0xbe5fe884	-0.21866041
59	0x3d5a4a59	0.05329356
60	0xbe2e0eec	-0.1699788
61	0xbebcf369	-0.36904457
62	0xbe0714da	-0.13191548
63	0xbe618a60	-0.22025442
64	0x3e61b59f	0.22041939
65	0x3e4b61c7	0.19861518
66	0xbde9a3b7	-0.11408179
67	0x3e81093c	0.25202358
68	0xbdef316f	-0.116793506
69	0x3e266a79	0.16251554
70	0x3df300cc	0.11865386
71	0x3e3cb834	0.18429643
72	0xbe225f4f	-0.1585667
73	0x3e4dc71b	0.20095484
74	0x3e8ba03e	0.27270693
75	0xbd9a20e3	-0.07525804
76	0xbe923fb4	-0.28564227
77	0x3e4ec1e1	0.20191146
78	0x3e07419b	0.1320862
79	0xbe55c978	-0.20877635
80	0x3ddcfe54	0.10790697
81	0x3d5fd0a1	0.054642323
82	0xbbb9e601	-0.0056731706
83	0xbe876431	-0.26443627
84	0x3e8a1e0d	0.26976052
85	0xbdb427e9	-0.08796675
86	0xbceb557a	-0.028727282
87	0x3da04fe2	0.078277364
88	0x3dc8a1a3	0.09796455
89	0xbe4337ad	-0.19064207
90	0x3e8e414a	0.27784187
91	0xbe93077b	-0.28716645
92	0x3e401bee	0.18760654
93	0xbe572f80	-0.21014214
94	0x3d259bab	0.04043166
95	0xbdae3fe6	-0.085082814
96	0xbdc305ec	-0.09522614
97	0xbdcaee77	-0.09908765
98	0x3ea4c4d1	0.3218141
99	0xbe65e933	-0.2245224
100	0xbe326e15	-0.17424805
101	0xbec24918	-0.3794639
102	0xbd9cf6e4	-0.07664278
103	0x3c432042	0.011909546
104	0x3e03f5a0	0.12886667
105	0x3e803595	0.2504088
106	0xbd9830e9	-0.07431204
107	0x3d6569fa	0.05600927
108	0xbdb19ca6	-0.086724564
109	0x3e28e01f	0.16491745

up2.bias f4 [11]
0	0xbd1e168f	-0.038595732
1	0x3d3c3d00	0.04595661
2	0x3d2a64cb	0.04160003
3	0x3ea86071	0.3288608
4	0xbe3491de	-0.17633769
5	0x3e52ae0b	0.20574205
6	0x3e862406	0.2619936
7	0x3e6e823b	0.23291866
8	0x3e99e9f1	0.30061296
9	0xbd8844b5	-0.0665373
10	0x3e34529d	0.1760964

up3.weight f4 [12, 11]
0	0xbe99315f	-0.2992048
1	0xbe33d410	-0.17561364
2	0x3d9f4795	0.07777325
3	0x3d54c965	0.051949877
4	0xbe699a04	-0.22812659
5	0x3c99c954	0.018772759
6	0xbe21a4a9	-0.15785469
7	0xbd397760	-0.04527986
8	0x3d57fd76	0.052731954
9	0xbd241541	-0.04005933
10	0x3db3d521	0.087808855
11	0x3e056041	0.13024999
12	0x3dfa8556	0.12232463
13	0x3e8261d0	0.2546525
14	0x3ea9b847	0.33148405
15	0x3e10bbe2	0.14134172
16	0x3e542ea3	0.20720915
17	0xbe38d073	-0.18048267
18	0x3d65d4d3	0.056111168
19	0x3e89e330	0.26931143
20	0x3de0f892	0.10984911
21	0x3e04f0bf	0.12982462
22	0x3e6a32c0	0.22870922
23	0x3e8e9452	0.27847534
24	0x3e83f806	0.25775164
25	0x3e88eadf	0.26741692
26	0xbe5f50df	-0.21808194
27	0xbe645205	-0.22296913
28	0x3d12b6d6	0.035818897
29	0x3cb82bc7	0.022481812
30	0x3d601d67	0.05471554
31	0x3d3007fa	0.042976357
32	0xbe9018a3	-0.28143796
33	0x3da9203c	0.08258101
34	0x3e319c01	0.17344667
35	0xbdefd660	-0.11710811
36	0x3e0a724f	0.13520168
37	0xbe1d0ffb	-0.15338127
38	0xbcfd7758	-0.030940697
39	0x3e1cf79f	0.15328835
40	0xbe124580	-0.14284325
41	0xbdd493dc	-0.103797644
42	0x3e6f93fa	0.23396292
43	0xbddee5ac	-0.1088365
44	0x3e0b8ad2	0.13627174
45	0x3e51ef3e	0.2050142
46	0xbde779d7	-0.11302536
47	0xbe819479	-0.25308588
48	0x3e517575	0.20454963
49	0x3e06ca54	0.1316312
50	0x3e464de0	0.19365644
51	0x3dbaa5cd	0.09113655
52	0xbd1b791a	-0.03795729
53	0xbdb540f4	-0.088502795
54	0xbe6730d8	-0.22577226
55	0xbdbc4cd1	-0.09194339
56	0xbe94337f	-0.28945538
57	0xbdf19c71	-0.11797417
58	0xbdcb7eb4	-0.09936276
59	0x3e4e7545	0.20161922
60	0xbe7e078d	-0.24807568
61	0x3c0e8a88	0.008700021
62	0x3ea62369	0.3244889
63	0x3e10a5ce	0.1412575
64	0x3e93d2d2	0.2887178
65	0x3bd2c3e9	0.0064320457
66	0xbaecabcf	-0.0018056574
67	0xbd8c4733	-0.06849518
68	0xbdf52484	-0.119698554
69	0xbe8c1092	-0.27356392
70	0xbe44f613	-0.19234495
71	0xbd0730fe	-0.033005707
72	0x3e847709	0.25872067
73	0x3eb2982c	0.34881723
74	0x3dd70b06	0.105001494
75	0xbde5c525	-0.11219243
76	0xbe84c6ce	-0.25932926
77	0xbe52723f	-0.20551394
78	0x3e4dc7bb	0.20095722
79	0x3e830dac	0.25596368
80	0xbe93ac1a	-0.2884224
81	0x3e0e9fea	0.1392819
82	0x3e2d2aa1	0.16910793
83	0xbe28b013	-0.16473417
84	0x3e001b83	0.12510495
85	0xbdc04afd	-0.09389303
86	0x3e7d3944	0.24728876
87	0xbe155269	-0.14582218
88	0x3d6892bf	0.056780573
89	0xbd6d4b75	-0.05793329
90	0x3e761da1	0.2403474
91	0xbe2b6d1b	-0.16740839
92	0xbcc078d5	-0.023495117
93	0xbe835c26	-0.2565624
94	0xbe7ab1c0	-0.24481869
95	0xbe0f1c9f	-0.13975762
96	0x3e3704c7	0.17872916
97	0x3e285371	0.1643808
98	0x3e72ef48	0.23724091
99	0x3c77091e	0.015077857
100	0x3e49573b	0.19662182
101	0xbe206b45	-0.1566592
102	0x3e0b56a3	0.13607268
103	0xbe6281d0	-0.22119832
104	0x3de13754	0.10996881
105	0xbd14bded	-0.03631394
106	0x3d06066b	0.032720964
107	0xbe1a6cac	-0.15080518
108	0x3e7982b2	0.24366263
109	0xbe4b2389	-0.19837774
110	0x3d895def	0.067073695
111	0xbe8b7ced	-0.27243748
112	0x3e9d706f	0.30749843
113	0xbd226328	-0.039645344
114	0xbe27f72d	-0.16402884
115	0x3e06f0af	0.13177751
116	0xbe4d5859	-0.20053233
117	0x3e8ab4d4	0.27091086
118	0x3c86d028	0.016456679
119	0x3e081179	0.13287915
120	0xbe9a5344	-0.30141652
121	0x3df25ad9	0.11833734
122	0xbdebb1cc	-0.115085214
123	0x3d8a7820	0.06761193
124	0x3ba8fa3c	0.0051567834
125	0x3e417c6d	0.18895121
126	0x3e6ef2ec	0.23334855
127	0xbe26f5ec	-0.16304749
128	0x3eb50e63	0.3536254
129	0x3ea9ea27	0.33186457
130	0x3e9a914a	0.30188972
131	0xbe7a6fbb	-0.24456684

up3.bias f4 [12]
0	0x3e18ad0b	0.1490976
1	0xbdb983e3	-0.090583585
2	0x3e7fe844	0.24990946
3	0xbd2eedcc	-0.04270725
4	0x3e9aa844	0.302065
5	0xbc0a7824	-0.008451495
6	0x3df0ef22	0.11764361
7	0x3e83ea24	0.25764573
8	0xbe114988	-0.14188206
9	0x3e5a39c7	0.21311103
10	0xbe69a215	-0.22815736
11	0xbcb3074f	-0.021854071
