W_3/1.0_model_Plate 27902_N.pt (torch, 8166 bytes, 16 tensors)

down1.weight f4 [12, 15]
000000 f6 47 84 be 00 eb 4e 3e 5e c3 13 be dd 5b ee bd
       -0.25836152 0.20206833 -0.14429995 -0.11638615
000010 a1 19 99 3d 1b be 10 bd 69 b6 86 bd 7e a1 9b bc
       0.074755915 -0.03533755 -0.06577761 -0.018997904
000020 0d 57 97 bd 48 f3 1e bd 9f 98 4d 3e 4c 1d 60 bd
       -0.073896505 -0.03880623 0.20077752 -0.05471544
000030 6f 4f bf bc 67 10 96 bd 3d 80 c4 bd 43 34 42 bc
       -0.023353307 -0.07327347 -0.09594772 -0.0118532805
000040 42 46 a6 3e cd f3 9b 3d e0 1d f6 3d 41 8e 90 3e
       0.32475477 0.07614861 0.12017417 0.2823353
000050 a4 4c 8a 3e c9 0c 14 3e fc 8a 0a bd 0d 73 21 3d
       0.27011597 0.14458002 -0.033823952 0.03941636
000060 27 1f 26 3e 59 38 d3 3d 9d a0 83 be 76 ad 0e 39
       0.16222821 0.10313482 -0.25708476 0.00013606795
000070 f1 75 34 be 15 d3 58 3e 17 12 c7 bd d7 45 ad bd
       -0.17623116 0.21174271 -0.09720247 -0.084605865
000080 0d 4b 6e 3d d8 51 e4 3c db 8b 53 3d 83 cc a4 3d
       0.058177043 0.027871057 0.05164705 0.0804682
000090 e5 02 51 3e 54 a9 8f 3d cf 94 9a 3d b7 62 a7 3e
       0.2041126 0.07014719 0.07547914 0.326925
0000a0 b8 5c 86 3d e8 40 da 3e 5d af f0 3d 64 7c 6e 3e
       0.065606534 0.42627645 0.11752198 0.23289639
0000b0 f4 e4 04 be 63 61 56 be 50 1a 87 bd 2c c3 77 ba
       -0.12977964 -0.20935588 -0.065968156 -0.0009451385
0000c0 3e 00 9a bd 60 5b 2d 3e d5 fe a4 3d c4 52 c0 3b
       -0.075195774 0.16929388 0.08056418 0.0058692414
0000d0 81 e2 a7 3e b6 28 16 3f e3 5d 55 be ce 65 99 be
       0.32789996 0.5865587 -0.20836596 -0.29960483
0000e0 49 a2 0d 3e 6e 5f 0d 3e 0d 24 79 be 11 22 77 3e
       0.13831438 0.13805935 -0.24330159 0.24134089
0000f0 8e 07 e1 3d df 27 e6 bb 63 46 9e 3d 22 74 2f be
       0.10987769 -0.007023796 0.07728269 -0.17134145
000100 92 1a 36 3e d8 3a e5 3c 1b 0d b6 3e 17 6d c9 3e
       0.17783573 0.02798216 0.35556874 0.3934104
000110 c5 45 80 3e 3d 85 99 3e 92 e4 4e 3b 0a 9a b8 3e
       0.2505323 0.29984465 0.0031569344 0.36055022
000120 2b 07 02 3f aa af 41 3e 0b 2b c2 3d 8a dc 0e be
       0.5079219 0.18914667 0.09480866 -0.13951316
000130 42 08 01 3e a5 35 9e 3d e9 1d 1e 3d 76 b6 14 3c
       0.12600806 0.07725076 0.038602743 0.009076705
000140 46 9f 94 3d 35 57 f9 bd cf 7e 14 be 4c d0 07 be
       0.072569415 -0.121748365 -0.14501499 -0.13263053
000150 3d e2 26 be 52 e7 15 3d 27 12 bd 3e 96 7d da 3e
       -0.1629724 0.036597557 0.36927912 0.4267394
000160 dc 4b a1 be 48 58 80 3e 2e 51 98 be 97 83 89 3d
       -0.3150319 0.25067353 -0.29749435 0.06714552
000170 e1 73 a8 be 23 8d 70 3c ce b3 35 be 32 63 cf 3c
       -0.3290091 0.014682087 -0.17744371 0.025315855
000180 23 a0 91 3e f3 fd f6 3e e5 6d 0c 3f 56 90 67 be
       0.28442487 0.48240623 0.54855186 -0.22613654
000190 b4 83 ef 3d 05 89 05 bf 58 e7 fd be cd ec 5b 3e
       0.11695042 -0.521622 -0.49590564 0.21477051
0001a0 6b 8b 01 3e de ca 46 3e 3b ac 1b bc 87 30 30 3e
       0.1265084 0.19413325 -0.009501512 0.17206012
0001b0 0f a6 d1 3d b3 7e 2e 3d 6c 2d e2 3d d7 15 0e 3d
       0.10236751 0.0426013 0.1104382 0.034688797
0001c0 6b 9a 1e 3e 4b 85 a4 3e 3f 5e 1f 3d 2d 20 9d 3e
       0.15488593 0.32132944 0.03890824 0.3068861
0001d0 34 ce 89 be 11 05 8a be 7e 64 e1 3e f4 02 8f be
       -0.26915133 -0.2695699 0.44021982 -0.2793194
0001e0 d5 a6 8e be b0 9b 47 3e 68 8b 75 3e f3 48 60 3b
       -0.27861658 0.19492984 0.2397896 0.0034223169
0001f0 1a aa bd 3d ca fe f8 3d d6 c2 5d 3e 00 91 c1 3e
       0.0926096 0.12157972 0.21656355 0.3780594
000200 dc 54 53 3f c4 43 b3 bd bd e3 dd 3e ce f3 dc bc
       0.8255136 -0.0875316 0.43337813 -0.026971724
000210 07 09 8d bd 79 74 4f 3e 2a ca 9b 3c 3d 41 4b 3d
       -0.068864875 0.20259275 0.019017298 0.049622763
000220 36 8d 0b bd 7d c4 d9 3d 18 1b 7f 3d cb 3b 86 bd
       -0.034070216 0.1063318 0.062281698 -0.06554373
000230 c0 54 b1 bd 93 41 6a be 55 f3 f2 3d cf fa 20 3c
       -0.08658743 -0.22876577 0.11862818 0.009825422
000240 fe 10 d9 be 8c 5d e2 3d 8d 29 63 be 12 bd d7 be
       -0.42395777 0.11052999 -0.22183819 -0.42136437
000250 7f 5c 11 be 64 76 cf 3e 62 c2 37 bd 82 3a b1 bc
       -0.1419544 0.40520012 -0.044863112 -0.021634344
000260 90 ce ff 3c ae c2 12 be 08 10 24 3e 43 cc e6 3d
       0.031226426 -0.14332077 0.1602174 0.112694286
000270 4a 5f 68 3e a9 1b 90 3e 1e b3 a3 3e 7f 1e 8c 3e
       0.226926 0.28146103 0.31972593 0.27367017
000280 2f fd b5 3d 69 d2 29 3e 07 8e 6c 3d d3 7a b9 3e
       0.088861816 0.16584171 0.057752635 0.3622652
000290 4c 9a ba bc d6 02 48 3d 2c 7c 3d 3e 82 0b 50 bd
       -0.022778653 0.04883083 0.18504399 -0.050792225
0002a0 e3 1e 17 be a7 23 90 3e 57 2b 7a 3e 35 d3 5c 3d
       -0.14757876 0.281522 0.24430595 0.05391236
0002b0 0b 8e a5 bc be 72 06 3e f9 f7 3c 3d 98 f8 8c be
       -0.020209333 0.13129708 0.046134923 -0.27533412
0002c0 5f fb 74 3e ec 49 97 3d 59 49 88 3d 5c c7 fd bc
       0.23924015 0.07387146 0.06654615 -0.030978851

down1.bias f4 [12]
000000 e9 6b c4 bd e2 28 5e 3d 9e 50 01 3e 5e af d6 3d
       -0.09590895 0.054238208 0.1262841 0.104826674
000010 7a dd cb 3d b1 a3 0d bd ba 42 c8 3d 09 9e a0 bd
       0.09954353 -0.034579936 0.09778352 -0.07842643
000020 6a 5c a2 3e d0 58 bc 3e 78 cb 1d bc 36 c3 a1 3e
       0.3171113 0.3678651 -0.00963103 0.31594247

down2.weight f4 [9, 12]
000000 44 4e 92 3d c7 cc c0 3d e5 d8 9d be 91 f6 04 3e
       0.07143834 0.09414058 -0.3082954 0.12984683
000010 ec 2e ec be 26 ae 05 bf 9b 53 86 3e 1d 4d 23 be
       -0.4612955 -0.52218854 0.2623566 -0.15947385
000020 02 a1 8a 3e 44 ce 2c 3f 78 e7 5e 3e 9a c9 91 3d
       0.27075964 0.67502236 0.21767986 0.071185306
000030 d6 16 3f be 63 60 26 be ff cb 9c be 4e 3d 29 3e
       -0.18661055 -0.16247706 -0.30624387 0.16527292
000040 e8 b7 fa bd 97 5d 9f be ee a4 07 3e 49 49 ab 3c
       -0.122421086 -0.3112609 0.1324651 0.020908969
000050 9c 34 af 3c 02 c5 3d 3f 43 c9 50 3e f9 25 79 be
       0.02138739 0.74128735 0.20389275 -0.24330892
000060 11 c2 a1 3c 36 93 aa be 8f 72 ca 3e 9f e8 92 be
       0.019745858 -0.33315438 0.39540526 -0.286931
000070 a3 76 35 3e 8a 55 d1 3e 43 1a ab bc 83 c9 36 3e
       0.17721038 0.40885574 -0.020886546 0.17850308
000080 bf 7f 74 3e 05 24 8d bf 9b 4f f1 be 8b 1f 83 3e
       0.23876856 -1.1026617 -0.47131047 0.25610003
000090 46 fe 18 be 59 a0 e9 3d f9 9e a9 be 51 4f 7d 3d
       -0.14940748 0.11407537 -0.331291 0.06184322
0000a0 62 dc 81 be 94 3c c1 bd 45 2a 08 be 87 77 ae be
       -0.2536345 -0.094353825 -0.13297375 -0.34075567
0000b0 41 28 10 3e d8 05 a7 3e 8d e5 93 be 67 2a 72 bd
       0.14077856 0.32621646 -0.2888607 -0.05912247
0000c0 4e 78 6c 3d 3f e6 aa 3e 25 cb c2 be 3f 49 0f 3e
       0.05773192 0.3337879 -0.38045612 0.13992785
0000d0 10 0a b2 be 22 3f 9e bc f1 28 aa be 21 f8 33 bf
       -0.34773302 -0.019317213 -0.3323436 -0.7030049
0000e0 6c b9 e1 3d e6 0c 0b 3f e3 31 7f be bf 9b 8d 3e
       0.110216945 0.54316556 -0.24921374 0.27657887
0000f0 a8 23 48 3e 7d e5 01 bd 61 ba 8d be 35 c7 20 3f
       0.19544852 -0.031712998 -0.27681258 0.62803966
000100 a3 de 45 3e 1d 99 13 3e 2b 87 67 bf 31 bf 92 be
       0.1932321 0.14413877 -0.90440625 -0.28661492
000110 6c ba c9 3b 14 0d b8 3e 67 e5 7f be 13 2e e8 3d
       0.0061562564 0.35947478 -0.24989854 0.11336913
000120 f0 d0 e7 3d 06 af 97 be 41 6c d6 3e e0 1f 93 3e
       0.113191485 -0.2962572 0.41879466 0.28735256
000130 48 7d 00 3f 53 ea 7c 3e 8b a6 c4 3e 49 d8 6a 3e
       0.50191164 0.24698763 0.38408312 0.22934069
000140 17 6d b7 3d bd dc 33 be 01 83 bd bd 69 c9 b9 3e
       0.08956354 -0.17564674 -0.09253503 0.36286476
000150 b5 18 b9 bc 12 b2 54 bd fd 70 10 3e c8 c6 0f 3f
       -0.022594789 -0.051927634 0.14105602 0.5616269
000160 fc 63 10 3f 68 38 d8 be e4 ba 02 3f e8 24 25 3e
       0.56402564 -0.42230535 0.5106642 0.1612736
000170 25 e3 14 3f e2 67 1d be b6 2e ef 3e 49 79 20 3e
       0.58159095 -0.1537166 0.46715325 0.15671267
000180 1a 53 37 3d 5c bd a6 bd f4 ef 8c be de 12 8c 3e
       0.044756986 -0.08141586 -0.2752682 0.27358145
000190 97 a5 b6 bc 5c b1 14 bf cb 04 16 3e 56 64 b6 3e
       -0.022295756 -0.5808313 0.14650266 0.35623425
0001a0 31 d4 0f 3e 4b de 8b 3e 3b a6 fa 3e 78 cd 32 be
       0.14045788 0.27318034 0.4895495 -0.17461193

down2.bias f4 [9]
000000 12 35 67 bd f8 05 3c 3e e8 88 88 3d 7c 92 20 3e
       -0.056447096 0.18361652 0.06666738 0.1568088
000010 0f 33 e3 3e 7f cd 7b 3e da 37 87 3e e3 47 93 3e
       0.44374892 0.2459011 0.264098 0.28765783
000020 5d e9 08 3e
       0.13370271

down3.weight f4 [8, 9]
000000 46 f8 bb bd 76 4d 98 be 06 9b b8 bd 96 34 31 3d
       -0.09178214 -0.29746598 -0.090139434 0.04326304
000010 3b 62 b9 bd f3 43 3f be a0 c8 74 3d 94 32 9f be
       -0.09051939 -0.18678264 0.059761643 -0.31093276
000020 cb 68 82 3e f7 4e f6 bd 3d 68 9b 3e ef 2a 1b bf
       0.25470576 -0.1202678 0.30352965 -0.60612386
000030 9d 9f 2a bf 3e f7 a5 be af ab 13 bd 71 0a 1a 3e
       -0.666498 -0.32415193 -0.036052402 0.15043046
000040 8e b5 b8 3e 8a ce 50 3e 18 66 96 bc 61 16 0a be
       0.36076015 0.20391288 -0.018359229 -0.134851
000050 8e b3 d6 3e 48 5a b0 3e 08 c3 42 bf 3a f5 50 bf
       0.41933864 0.3444388 -0.76078844 -0.81624186
000060 c9 bd f9 3e 55 55 e8 3e 2b 78 b5 3e 91 6c eb be
       0.48777607 0.45377603 0.35443243 -0.45981267
000070 f3 33 0f be ef 97 2a 3f 87 90 84 3f af a8 67 be
       -0.13984661 0.6663808 1.0356606 -0.22622941
000080 f3 a4 65 be 6c e8 09 3f f6 38 df 3e 25 f6 8e be
       -0.22426204 0.5387027 0.43598145 -0.27922168
000090 16 a3 39 3f f7 1d ba 3e 5e da 25 be f2 3a bb 3d
       0.72514474 0.36350986 -0.16196582 0.09142102
0000a0 ba 38 03 3f a6 c2 87 be 7d 53 3c 3d 14 03 78 3e
       0.5125843 -0.26515692 0.045978058 0.24219924
0000b0 24 4f a4 3e 74 5d 2c 3f 10 da a7 3e ac 26 13 be
       0.3209163 0.673301 0.32783556 -0.14370221
0000c0 4e 82 de be b1 1f 1c bf de 46 69 bf 47 6e 57 3e
       -0.4345879 -0.6098586 -0.9112376 0.21038161
0000d0 9c 7d 58 3e ce 8a 02 3f 76 17 4f be 20 8b a9 3d
       0.21141666 0.5099305 -0.20223793 0.08278489
0000e0 eb e5 8d be 86 db 53 be 2e 0f 37 3e 4b 55 1b 3e
       -0.27714476 -0.2068921 0.17876884 0.15169255
0000f0 00 cc 55 3c 3e 50 51 be 00 de 67 bc 28 91 3a 3e
       0.013049126 -0.20440766 -0.01415205 0.18219435
000100 60 f5 06 bd 36 0a a6 bd 30 33 24 3e 1b 91 9b be
       -0.03294885 -0.08107416 0.16035151 -0.30384144
000110 c6 3a f8 3d 88 26 4d be 13 93 7e be ab e6 03 3d
       0.12120585 -0.2003423 -0.24860792 0.032202404

down3.bias f4 [8]
000000 eb a9 bb 3c 09 aa 91 bc 3c 75 c4 3d 12 5f 99 3e
       0.022908172 -0.017781274 0.09592673 0.29955345
000010 2a 58 e8 bd 32 dd 08 3e 8b 9b 27 be 63 ec 55 be
       -0.11344941 0.1336563 -0.16367929 -0.20890956

down4.weight f4 [7, 8]
000000 ae 3f 86 be 3c 4a 16 3f 00 bd 7d 3e 85 30 06 3d
       -0.2622046 0.5870702 0.24779129 0.032761116
000010 63 49 fb 3d fd 25 0f 3f 1b 1b aa be 0d 39 18 bd
       0.12269857 0.5591734 -0.33223805 -0.037163783
000020 aa 6b 64 be 20 0c 32 3e e4 be 45 be e2 78 dd bd
       -0.22306696 0.17387438 -0.193111 -0.10814072
000030 c7 c7 80 be 72 ce 54 3e c1 14 9b 3e 2a 41 31 be
       -0.25152418 0.20781878 0.3028927 -0.17310014
000040 21 3e b2 bc fd 63 07 be 52 22 18 3f 13 a3 06 3f
       -0.021758141 -0.13221736 0.5942737 0.5259258
000050 a4 d5 de bc e8 e4 af 3e 04 4c a8 3e 0b 87 91 3e
       -0.027201481 0.3435433 0.32870495 0.28423342
000060 36 77 53 3c 07 cc 11 be a9 31 0a 3e 3e 12 bd 3e
       0.01290684 -0.14237987 0.13495506 0.3692798
000070 32 d2 1a bf 89 04 40 be 5c f3 cd 3d ce 85 91 3e
       -0.6047698 -0.1875173 0.10056183 0.28422397
000080 d0 ba b4 bd 45 22 1a 3e 40 5a c3 be 9d c7 28 be
       -0.08824694 0.15052135 -0.38154793 -0.16482396
000090 59 74 98 3d 38 66 4d 3e 11 8c 19 bc 95 31 84 3e
       0.074440666 0.20058525 -0.009371773 0.25819078
0000a0 e8 5c 6c be 1b 6b c1 3d 47 33 14 be 66 39 d4 3e
       -0.23082316 0.09444257 -0.14472686 0.41450042
0000b0 7c a7 e3 be 1b 22 ff be 6c b2 88 be 46 53 22 be
       -0.44463718 -0.49830708 -0.26698625 -0.15852079
0000c0 37 5e ed 3d 21 11 9a 3e 0d 6c 0e bd e7 2c 90 be
       0.11590236 0.30091193 -0.034771014 -0.28159258
0000d0 2f 4e af bd 40 9e 5e 3e ee 04 7a be 6e da b3 3e
       -0.08559834 0.21740055 -0.24415943 0.35127586

down4.bias f4 [7]
000000 d7 3e 70 bd a0 20 5f be a1 54 70 bb eb ea 50 3d
       -0.05865368 -0.21789789 -0.0036671537 0.051005285
000010 bd de 66 be 50 99 c5 3e 4c 64 83 3e
       -0.22545905 0.3859353 0.25662458

down5.weight f4 [6, 7]
000000 ee 4a 4f be 4a 6b 00 be e7 c9 9e be 4b 07 b5 be
       -0.20243427 -0.12540928 -0.31013414 -0.35357127
000010 87 fc a4 3d 0f 4b 63 3c 05 0f ca 3e ec 19 c5 3e
       0.08055978 0.013872876 0.39464584 0.3849634
000020 e9 2c b8 3e 57 73 31 3d b4 f8 d4 3d af 4b 0c 3e
       0.35971764 0.043322887 0.10398999 0.13700746
000030 4a f0 14 bf bb 90 4c 3d 0d bb 09 3f 56 7f b5 bd
       -0.5817915 0.049942713 0.5380104 -0.08862178
000040 d8 9c a5 3e e6 6b 29 3f f5 0b 80 be 22 33 70 bf
       0.32346225 0.66180265 -0.25009122 -0.9382802
000050 d4 d9 05 bf a7 04 40 be 4e 8f 34 3e 22 0a 2b bf
       -0.52285504 -0.18751775 0.17632791 -0.66812336
000060 28 7e 3f bf ec c4 54 3e 94 e2 2d be 8f f9 61 3e
       -0.74801874 0.20778245 -0.16980964 0.22067855
000070 23 4f cb be 87 44 40 3e 74 08 71 3e 65 4d d5 3e
       -0.39708814 0.18776141 0.23538381 0.4166061
000080 27 09 9c 3b 6d a5 e3 3e ac 77 b2 be 51 99 a1 3e
       0.004761833 0.44462147 -0.34856927 0.31562284
000090 ad 52 92 be 9a d2 b2 be 03 fa 97 3d dd 91 4c 3e
       -0.28578702 -0.349263 0.07420733 0.19977517
0000a0 b0 42 32 bd 04 7b 58 3f
       -0.04352063 0.84562707

down5.bias f4 [6]
000000 ef b7 74 3e 4a fc a2 3e 19 6e 5b 3d 06 d7 08 be
       0.2389829 0.31833106 0.053571794 -0.13363275
000010 10 1d 2e be 2c 92 5a be
       -0.17003274 -0.21344823

up1.weight f4 [7, 6]
000000 1a 3b 3e be 67 8a 9f bd 9d 3d 82 3e b9 8b 03 bf
       -0.18577233 -0.0779007 0.25437632 -0.51385075
000010 3f c8 f7 3d a1 ce e6 be 3a eb 4b 3e 84 e4 d0 3e
       0.12098741 -0.4507952 0.1991395 0.40799344
000020 fb 55 8f be f0 55 cb 3c 4a 68 da be 7e a4 dc 3e
       -0.27995285 0.024821252 -0.4265769 0.43094248
000030 f9 ef bc be ac fc 80 be cf 43 af 3e dc ea c8 be
       -0.36901835 -0.25192773 0.3423142 -0.39241683
000040 1c 4f a1 3e 65 1b b4 bd 5f 89 8c be 8d 75 93 3d
       0.31505668 -0.087942876 -0.27448556 0.072001554
000050 86 e7 77 bd 95 19 c1 be 2c 58 18 3f 19 63 f7 be
       -0.060523532 -0.3771483 0.5950954 -0.48317793
000060 46 ef 27 be a9 ee 42 bd 5d b8 ee be 61 12 71 3e
       -0.1639987 -0.047590885 -0.46625033 0.23542167
000070 1f c8 5f be 8b 77 da 3d 39 d5 c4 bc 91 e3 af be
       -0.21853684 0.10667332 -0.024027454 -0.34353307
000080 04 3c 8c be 62 cc be 3e 56 89 66 be f9 33 e4 bd
       -0.27389538 0.37265307 -0.22513327 -0.111427255
000090 40 03 26 be 07 dc 71 3f 6c 47 d5 3e 80 6b 3e be
       -0.16212177 0.9447636 0.41656053 -0.18595695
0000a0 1a 27 16 bf 8d 73 07 3e
       -0.58653414 0.13227673

up1.bias f4 [7]
000000 82 45 0c 3f b0 d4 f5 3e 23 67 51 3e 95 50 f7 3e
       0.5479356 0.4801383 0.204495 0.48303667
000010 45 f7 1b bc 00 9f 1e bd d8 0c 35 3e
       -0.009519403 -0.038725853 0.17680681

up2.weight f4 [8, 7]
000000 3a 6c 18 bd 4c f3 32 3f 81 74 e3 3e 60 c4 ac 3e
       -0.037212588 0.6990249 0.44424823 0.33743572
000010 38 f4 79 3e e1 28 1a bb 06 c0 e3 bd f7 95 00 bd
       0.24409568 -0.00235229 -0.1112061 -0.031393018
000020 86 40 b9 be 09 9f 91 3d df a4 a2 bd 25 5b 9b 3d
       -0.3618204 0.07110412 -0.07941603 0.07585744
000030 59 c6 b1 3e 9a 39 97 bd e4 3b c7 3e e7 91 71 be
       0.3472164 -0.073840335 0.3891288 -0.23590814
000040 d2 f8 1b 3e 5a e4 9c 3d d2 e2 9e be d4 08 a6 3e
       0.15231636 0.07660742 -0.31032425 0.3242861
000050 0d 5f c8 3d 67 e1 c2 3e e6 36 de 3e 01 21 cc 3e
       0.097837545 0.38062593 0.4340126 0.3986893
000060 69 16 e4 3e c6 c2 50 3e 1a fb 5a 3e 8e 4a 29 bf
       0.44548348 0.203868 0.2138485 -0.66129386
000070 66 46 65 be da 0c 8b 3d b6 86 6c be 9b 7f c7 bc
       -0.22390136 0.067895606 -0.23098263 -0.02435284
000080 54 68 fd ba 19 e8 8f bd 50 ae 96 3e b2 3e 8d 3e
       -0.001933346 -0.07026691 0.29429865 0.27586895
000090 ef 1d ce be 36 3b dc 3e d1 af 8f 3d 82 41 a6 be
       -0.40257213 0.43013924 0.07015956 -0.32471853
0000a0 a9 42 6e bd 29 3d ca be f8 55 ba 3e 16 8b b0 be
       -0.05816904 -0.39499786 0.36393714 -0.34481114
0000b0 f7 23 b5 3e aa 37 9b 3e 2d d8 40 3e a4 34 8e 3d
       0.35379001 0.30315906 0.18832465 0.06943634
0000c0 6f e9 08 3e 8f e8 81 3e 09 e9 10 3f 97 50 24 be
       0.13370298 0.2537274 0.56605583 -0.16046368
0000d0 71 77 ad 3e 88 83 c3 3d ed a9 98 be 1d 7a 05 bf
       0.3388019 0.09546572 -0.29817143 -0.52139455

up2.bias f4 [8]
000000 e5 f3 98 be 1e 1d d5 bd ea 52 1f bd ef 87 98 3e
       -0.29873577 -0.10405944 -0.038897432 0.2979121
000010 cb 1b ef 3e 88 03 db 3e 9a 00 ac 3d ae 6f f5 3d
       0.46700892 0.42776132 0.08398552 0.11984192

up3.weight f4 [9, 8]
000000 ad 34 07 3e 2e 1c 96 3e fb a8 94 3e 24 58 44 be
       0.13203688 0.29318374 0.29035172 -0.19174248
000010 f5 e6 21 be 6f b2 3a 3d e8 3b 86 3d 0d 20 29 3e
       -0.1581076 0.045580324 0.06554395 0.16516133
000020 5f cd 5a be 8a 9c 83 3e dc 91 56 3e 5d f2 a2 bc
       -0.21367405 0.25705367 0.20954078 -0.019890958
000030 8a 36 2c 3d 1b 24 ac be 5d 11 74 3e ca a7 1f 3a
       0.0420442 -0.33621296 0.23834749 0.0006090371
000040 39 47 60 3e 3a 0f 90 be b0 25 77 3e 44 46 ea be
       0.2190217 -0.28136617 0.2413547 -0.45756733
000050 09 47 17 bf bb 80 cc be b2 c5 a4 3e 64 01 2f 3f
       -0.59092766 -0.39941964 0.3218208 0.68361497
000060 e3 d3 8d 3c c0 ab 91 3d 9a 87 7a 3b d6 12 8c bd
       0.01731295 0.07112837 0.0038227797 -0.0683953
000070 67 90 e8 bd e6 63 fc 3e 9d 2d 21 bd a7 db e6 be
       -0.113556676 0.49294966 -0.03935014 -0.45089456
000080 6f 40 8d bc c1 a6 09 3e d6 6d e7 3d 2c fb 06 bd
       -0.017242638 0.13442518 0.113002464 -0.03295438
000090 57 b2 e8 3d 0e 96 df bd c4 e0 33 3d de 58 33 be
       0.113621406 -0.109172925 0.043915525 -0.17514369
0000a0 54 a9 01 3f 12 31 19 3e 2a ed 9d 3e 43 1b 82 3e
       0.50649 0.14960125 0.30845004 0.25411424
0000b0 45 c2 8d be ab f3 fe bd 0b f2 68 be e1 2b 0c 3e
       -0.27687278 -0.1244882 -0.22748582 0.13688613
0000c0 a6 c7 14 3e 00 b9 93 bd 0b ae 94 be 0e de 46 be
       0.14529285 -0.0721302 -0.29039034 -0.19420645
0000d0 b5 ed 86 be 64 df 06 3f 9f 39 00 3e 2b 2e 35 3e
       -0.2635323 0.5268462 0.1252198 0.17693393
0000e0 26 b9 d1 3e dd 0c 71 be 7b 1f aa be bb 9a c5 3d
       0.4096157 -0.23540063 -0.33227143 0.09648653
0000f0 40 3c 92 bd c4 fa 9c bc e1 15 48 3e d0 7f 4f bf
       -0.07140398 -0.019162543 0.19539596 -0.810544
000100 8c 79 8e 3d 14 a1 97 3e c0 79 00 be 28 be b0 be
       0.06956777 0.2961508 -0.12546444 -0.34520078
000110 27 67 9f 3e df 85 35 3e a7 7e 1d bb 71 98 d9 3e
       0.31133386 0.17726849 -0.002403179 0.42499116

up3.bias f4 [9]
000000 7d b5 10 be 01 57 14 bd 36 02 6c 3d f4 f9 07 bc
       -0.14131732 -0.036215786 0.057619296 -0.00829934
000010 1b 04 ba 3d fd ac a7 be fa 3d 8f 3b 37 12 99 3e
       0.09082814 -0.32749167 0.004371402 0.2989671
000020 5f 5b 9c 3e
       0.3053846
