W_3/1.0_model_Plate 19635 _CD8.pt (torch, 8290 bytes, 16 tensors)

down1.weight f4 [12, 15]
000000 ea e5 60 be 60 90 6b be 02 8e e6 bd 42 1f db bb
       -0.21962705 -0.23004293 -0.112575546 -0.006687076
000010 9c dd 6f be 15 80 5b bd 20 b0 76 bd d1 f1 1d 3d
       -0.23424381 -0.053588945 -0.06022656 0.038560692
000020 0c f1 bd ba 58 fd e3 38 ea fa 1c 3d 97 47 9f 3d
       -0.0014491393 0.000108713924 0.038325228 0.077773266
000030 3c e5 eb bc 08 49 3d 3e 82 e7 50 bd 5b 2c 0d bd
       -0.02879583 0.1848489 -0.051002033 -0.03446613
000040 fe 35 55 3e 41 3e a7 bd d1 be 1d 3d d1 84 03 bd
       0.20821378 -0.08166171 0.038512055 -0.032109085
000050 1a 01 3d 3e 16 52 e8 3c 96 a9 94 3e c8 8c 8b 3e
       0.18457451 0.028359454 0.29035634 0.27255845
000060 fc b0 04 3f 22 b5 b7 bc d7 8a f2 bc 81 4b 19 3f
       0.51832557 -0.022425238 -0.02960722 0.59880835
000070 96 8a 8f 3e 0d 65 a6 3e 57 5d f4 bc f7 9f b5 3d
       0.2803542 0.3249897 -0.029829664 0.088684015
000080 c9 64 b7 bd 2b 25 cf 3d ab 95 37 be 3d 07 26 3e
       -0.0895477 0.10114511 -0.17928188 0.16213699
000090 15 6c f8 bd f4 67 62 be c2 6c 85 3d 16 be 97 3e
       -0.1212999 -0.22109967 0.065148845 0.29637212
0000a0 d4 86 f1 3c 8d 69 5f 3e 7b 4f c8 3d da 98 fd 3e
       0.029483236 0.21817608 0.09780785 0.4953068
0000b0 e6 3e 5c 3e c0 44 33 be e3 7e bf bd b8 9a 15 bd
       0.21508369 -0.17506695 -0.093503736 -0.036524504
0000c0 de ab a9 bd ae cc 3d be bc 8e b4 3d e7 fa c0 3e
       -0.08284734 -0.1853511 0.08816287 0.37691423
0000d0 71 9e ad 3e 01 c8 a2 3d 91 43 d0 3e 3d c4 11 3d
       0.33909944 0.07948304 0.4067655 0.035587538
0000e0 56 90 ee 3e a9 72 8f 3e d1 a0 bf 3e c6 64 6a 3d
       0.46594495 0.28017166 0.3742738 0.05722501
0000f0 2f 2c 4a be 0b 54 9e 3e 2a 35 6a be 03 6b 24 3e
       -0.19743417 0.30923495 -0.22871843 0.16056447
000100 9d 65 9e 3e 92 23 f5 3b 9d f3 10 3e 25 26 50 bd
       0.309369 0.007481047 0.14155431 -0.050817627
000110 7e 3a a8 3d a2 23 0e 3f ab 46 cc 3e e9 01 ed 3e
       0.082142815 0.5552312 0.39897665 0.4629052
000120 34 27 04 3f e5 cb e6 3e e4 0c 0e 3f f6 87 24 be
       0.5162232 0.45077434 0.5548842 -0.1606749
000130 67 45 6e 3e 2d 99 ab bb ed 10 47 be 19 f4 52 3d
       0.23268662 -0.005236766 -0.1944005 0.05150232
000140 8e dc ab 3c c8 0f 5e 3e 2a 40 1e 3f 53 38 5f 3f
       0.020979192 0.21685708 0.61816657 0.8719532
000150 20 30 32 be c7 26 75 3e b0 a7 93 bb be 4d da bd
       -0.1740117 0.23940574 -0.004506074 -0.106593594
000160 96 4f c3 3e 52 af 06 3e bd ba 4a bc ba 70 0f be
       0.38146657 0.13152817 -0.012373623 -0.14007846
000170 25 89 1e 3d 0a ef 8d be 58 b5 f0 3d 65 06 87 bd
       0.03870501 -0.27721435 0.117533386 -0.065930165
000180 c0 d8 c8 3e ac 84 39 3d 4d cd d7 3d c7 13 9e 3e
       0.39227867 0.04529254 0.10537205 0.30874464
000190 53 ed e9 3d 1b 93 f6 3e e7 80 53 3f 97 b9 06 3e
       0.11422219 0.48159108 0.82618564 0.13156734
0001a0 a7 2e f1 3e 8c 07 d6 bd 56 9d 1a be 95 f0 41 3e
       0.47105905 -0.10450658 -0.15099081 0.18939431
0001b0 3d a5 bb bd 0f 61 e8 bd f9 96 be 3d 2a 16 43 be
       -0.09162376 -0.113466375 0.093061395 -0.19051424
0001c0 74 16 b7 3c 93 c4 a0 be a4 f7 90 be b5 d2 12 bd
       0.022349574 -0.31399974 -0.28313935 -0.035845477
0001d0 9b 41 23 3f fc 4a f6 3e 74 a7 81 bd 04 17 76 be
       0.6377198 0.48104084 -0.06330767 -0.24032217
0001e0 3e f0 84 be a3 f0 85 3e 6e 0c 82 3e 4e dc 1e be
       -0.2596454 0.26160154 0.25400108 -0.15513727
0001f0 03 74 21 3e a1 91 96 3b c0 c3 bc be 01 be 05 3d
       0.15766911 0.004594997 -0.36868095 0.032651905
000200 b8 50 b5 be ee 3f 77 be cc fb 55 be 02 da ab 3e
       -0.35413146 -0.24145481 -0.20896834 0.33564764
000210 91 ec 9a 3d b7 60 55 be b6 1b 6c be fd 99 fc 3c
       0.07564653 -0.20837675 -0.23057446 0.030835146
000220 7e c6 65 3e f0 54 df 3d 28 d7 02 3e 39 a9 7d bd
       0.22439 0.109048724 0.12777388 -0.06192896
000230 be f8 13 3e 04 8e f1 be bf 47 08 be fd 41 99 be
       0.14450356 -0.47178662 -0.13308619 -0.29933158
000240 ef ac 4c be b0 3e 14 be ec b6 3f be 84 1a 72 3e
       -0.19987844 -0.14477038 -0.18722123 0.23642927
000250 1e 3c e2 bd 04 24 28 bf fd e8 d6 3d 80 2f 5b bc
       -0.11046623 -0.65679955 0.10493658 -0.013378024
000260 ed dd 46 be 62 ff ea 3d e9 ec fd 3d 7b 7f 9f bb
       -0.19420595 0.11474492 0.12398703 -0.004867492
000270 31 89 59 be 80 6c 91 be 56 9d 5f be e5 a2 5c be
       -0.2124374 -0.2840309 -0.21837363 -0.21546514
000280 6d 2c 94 be 44 a1 a3 be dd b1 ed be 22 8e e7 3c
       -0.28940144 -0.31958973 -0.4642476 0.028266016
000290 57 b8 c3 be 62 9a 43 3e 83 11 a2 bd 93 ef a2 bd
       -0.38226578 0.19101861 -0.07913496 -0.079558514
0002a0 3c 47 25 be 79 12 62 3e 44 bb 13 3e aa 5d 95 3e
       -0.16140455 0.2207736 0.14426905 0.29173023
0002b0 d5 64 89 3c b5 2b 47 be 0e 44 8a 3e 67 4f 18 3e
       0.016771713 -0.19450267 0.27005047 0.1487404
0002c0 36 b0 d8 3e c9 aa 06 3f ed 2b 92 be e1 20 04 3f
       0.42321938 0.5260435 -0.28549138 0.5161267

down1.bias f4 [12]
000000 2d e9 66 be 90 0c 16 3e 6f de e3 bc 6d 2d 3e be
       -0.22549887 0.1465323 -0.027816026 -0.18572016
000010 8e 85 00 3e 20 33 27 be 4e fb 3f 3e ec 54 99 3d
       0.12550947 -0.16328096 0.18748209 0.07486901
000020 dc 16 b8 3e 8a e3 aa 3c de 7a db 3b 31 7a f5 3d
       0.3595494 0.020860452 0.0066979965 0.11986197

down2.weight f4 [9, 12]
000000 2c 72 71 3e b6 3c 87 3e 83 d8 c0 3e d6 ab f1 3e
       0.2357871 0.26413506 0.37665185 0.47201413
000010 da cc 9f 3e f3 70 f2 3b 6a bb c8 3e 6f c2 6b 3e
       0.31210977 0.0073987185 0.39205486 0.2302339
000020 a3 70 2c bf aa 43 ea be 6e f0 0f be 54 9c 20 bd
       -0.6735937 -0.4575475 -0.1405656 -0.039211586
000030 ee 03 6a 3e 66 34 da 3e 4f 3d 4e 3e 73 78 34 3e
       0.22853062 0.42618102 0.20140575 0.17624073
000040 69 2c 5d 3e 34 86 a1 be c1 50 2b 3e 43 99 dc 3e
       0.21598972 -0.315477 0.16730024 0.4308568
000050 05 0b 35 3f db 8f 97 39 85 0c 4b 3e d9 8d 0b 3f
       0.7071994 0.00028908145 0.19828995 0.5451332
000060 0f ff 81 3e d0 49 71 3e 46 85 2c 3d ea 18 01 3f
       0.25389907 0.23563313 0.042119287 0.5042864
000070 08 21 1d 3e 48 95 c7 3e ec ac cd 3e 3d 78 35 3e
       0.15344632 0.3898108 0.4017099 0.17721649
000080 bd 55 0c bf ea fe c7 be f6 ce 68 3e 1c 41 7a 3e
       -0.54818326 -0.39061671 0.227352 0.244389
000090 ea 07 1b be 2d 15 db 3e 02 4b 83 3e 4a b3 2f 3d
       -0.15139738 0.42789593 0.25643164 0.042895593
0000a0 42 9f e0 3d 8d e5 07 3f cf 23 23 3e 5d a3 de be
       0.10967876 0.5308464 0.15931629 -0.4348401
0000b0 b7 26 24 bf ec 7a 6a 3e 5a d6 b5 be e1 30 16 bf
       -0.64121574 0.22898453 -0.355151 -0.58668333
0000c0 66 c2 41 3e 2e dc 54 3d c1 aa 82 be b9 37 9f 3e
       0.18921813 0.051967792 -0.255209 0.310972
0000d0 ba 9f ac 3e bc 5b c2 3e 50 22 b8 3e 78 42 02 bf
       0.33715612 0.37960613 0.35963678 -0.50882673
0000e0 eb 8d 69 bf 49 58 14 be 21 37 8a bd 4d cf 84 be
       -0.91232175 -0.14486803 -0.06748796 -0.25939408
0000f0 03 3a ba bd d2 78 1c be fa b8 13 3e 04 f9 8f be
       -0.09093096 -0.15280464 0.14426032 -0.2811967
000100 15 9d 01 be d1 c2 5d be 76 4d 81 be 97 2f 03 be
       -0.12657578 -0.21656348 -0.2525441 -0.12811123
000110 16 bb c8 bc da 40 be 3d e8 9c 95 bc 8e 06 77 3c
       -0.024503272 0.09289713 -0.018263295 0.015077246
000120 db 12 7d be a1 18 30 bd 46 db d6 bd 12 2b 8e bd
       -0.24714224 -0.042992238 -0.10491042 -0.06941809
000130 1f b8 61 be 8c 70 15 be d0 70 d0 3b 05 19 5b 3e
       -0.22042893 -0.14593714 0.0063611045 0.21396263
000140 11 b5 31 3e 19 57 85 3d 7d 10 ff bb 2d d6 1e be
       0.17354228 0.06510753 -0.007783948 -0.15511389
000150 e2 15 07 be cb 54 0a 3e fb 77 ec 3d a6 3a 3b bb
       -0.13191941 0.13508908 0.11546322 -0.0028568893
000160 9d 3b 9a 3e 28 82 f0 bc f8 79 b6 3e 88 06 10 3f
       0.30123606 -0.029358938 0.3563993 0.56259966
000170 da 1b fd 3e 37 8f 5d be f4 09 8f 3e d9 ca 38 3f
       0.49435312 -0.21636663 0.2793728 0.7218452
000180 b1 54 9a bd 6a cb dd 3c 7a b7 84 be 22 ec 22 be
       -0.07535685 0.027074534 -0.25921232 -0.1591039
000190 c3 0f 2d 3e cd 37 d7 bd af 7f 34 be c6 d3 50 3e
       0.16900544 -0.1050869 -0.17626832 0.20393285
0001a0 47 b9 82 3d bc 25 f3 bd 5d f6 08 bd 4b 17 18 be
       0.06382995 -0.11872432 -0.033438075 -0.14852636

down2.bias f4 [9]
000000 ab 52 97 3d 31 6d 4e bd 29 1c 43 3d cb 55 0c 3e
       0.073888145 -0.0503971 0.047634277 0.13704602
000010 2e 91 fb bd ef 22 a5 3e 8e 3a 4c be f3 58 92 bd
       -0.1228355 0.32253215 -0.19944212 -0.07145872
000020 01 3f d3 bd
       -0.103147514

down3.weight f4 [8, 9]
000000 08 dc bf bd 98 51 87 3e 69 fa b9 3e b8 18 20 bf
       -0.093681395 0.2642944 0.3632386 -0.6253772
000010 4a f4 0c be 2f 9b 24 bf 57 d1 56 3a 0f 33 17 3f
       -0.13765064 -0.6429929 0.0008194646 0.59062284
000020 dd 28 53 be 16 22 bc 3e 09 82 72 3e 17 7a 1a 3e
       -0.20621057 0.36744756 0.23682417 0.15085636
000030 76 1d 97 3e e1 7f aa 3e ea 3a b4 3e 60 51 a2 3d
       0.29514664 0.3330069 0.35201198 0.07925677
000040 1d 40 e7 3e f6 2b 02 be 6f 84 f6 3e 07 f8 30 be
       0.45166102 -0.12712082 0.48147914 -0.17282115
000050 a8 f1 a7 3e a2 9a 4a 3e c6 99 63 bd 43 fc 11 3f
       0.32801557 0.1978555 -0.05556657 0.57025546
000060 23 e8 99 3d fc 14 6c bd 0d 93 1d be a7 55 81 3e
       0.0751498 -0.0576372 -0.15388127 0.2526066
000070 b6 36 a4 bc 4b c9 f5 3e 05 fb dd 3e 98 3b 09 3f
       -0.02004562 0.48005137 0.43355575 0.5360656
000080 7d 64 b8 3e 39 99 ac 3d 92 2f 41 3d 7e 58 51 3e
       0.36014166 0.084276624 0.047164507 0.20443913
000090 57 8e 9f 3e d1 1a 45 bf c7 92 9c 3e 09 d0 f0 3e
       0.31163284 -0.76994044 0.30580732 0.47033718
0000a0 ed f7 dc 3e 82 3b 2c be 70 f9 92 3d 25 bf 21 bf
       0.43157902 -0.16819575 0.07176483 -0.6318229
0000b0 b4 a4 8d 3e b9 93 1a 3e b8 b2 dc 3d 60 18 39 be
       0.2766472 0.15095414 0.107762754 -0.18075705
0000c0 39 ec ce be 13 af c0 bd 30 d6 9e 3d ff f8 fc 3c
       -0.404146 -0.09408393 0.07755697 0.03088045
0000d0 2c c2 27 3e 9a 5e a7 be d1 c0 d7 3e ca 0a ea 3e
       0.16382664 -0.32689363 0.42139295 0.45711356
0000e0 04 30 d3 3e 72 f6 ab be 61 ba ab be ad 8e a9 3d
       0.4124757 -0.3358646 -0.33540633 0.08279166
0000f0 f6 d3 60 bc 49 4d 35 3f a7 82 36 be 18 a1 07 3f
       -0.01372241 0.7082105 -0.17823277 0.52980185
000100 2b a8 13 3e f0 96 45 3e 24 7e cb 3e 49 f0 cc 3e
       0.1441962 0.1929586 0.39744675 0.40027073
000110 1c 5b 25 3f 86 76 86 3d 5a 72 0f 3e 87 6d 6e bd
       0.64592147 0.06565575 0.14008465 -0.058209922

down3.bias f4 [8]
000000 d8 fa 51 be c1 06 29 3e e3 57 6e 3e 97 4e 12 bd
       -0.20505846 0.16506483 0.23275714 -0.03571948
000010 d7 87 08 3e 86 a7 c9 be 0b 77 16 3e c1 f4 00 be
       0.13333069 -0.39385623 0.14693849 -0.12593366

down4.weight f4 [7, 8]
000000 14 98 9e be b3 07 d4 3e 37 f5 d8 3e ec ea 6d 3e
       -0.309754 0.41412124 0.42374584 0.23234147
000010 0c 53 b4 3e 30 90 dc 3e 5d 95 3d 3d 4a e7 23 3f
       0.3521961 0.43078756 0.046285022 0.64024794
000020 b7 b9 a1 bf dd e0 8f bd 54 7c 1c bd 10 a6 6f 3e
       -1.2634801 -0.07025311 -0.038204506 0.23403192
000030 b5 ec 00 3f 07 b6 d0 3d 09 af 43 bd fd 1c c3 be
       0.50361186 0.10190969 -0.04777435 -0.38108054
000040 06 6d 10 3e 7a 1c 9e be 0c b4 b9 3d 40 26 f4 bd
       0.14104089 -0.308811 0.09067544 -0.11921358
000050 fa 46 8a be 2b 35 13 3d fd 50 82 be e3 70 b0 3e
       -0.27007276 0.035939377 -0.25452414 0.34461126
000060 1a 23 d5 bd 3b f5 f8 bc a9 ce c4 bb 12 31 27 3f
       -0.10407086 -0.030390372 -0.006006081 0.6530925
000070 9a da 20 3f 67 d6 98 be 55 74 ce be c0 25 d5 3e
       0.6283356 -0.29851076 -0.4032313 0.41630363
000080 4c a3 11 3f fd e4 6a 3e 18 9f b6 bc b8 7d de 3d
       0.56889796 0.22938915 -0.022292659 0.10863823
000090 d6 9d 14 bf 97 96 71 bf d0 32 20 3f fd c9 42 3d
       -0.5805334 -0.94370407 0.62577534 0.047555912
0000a0 28 7c a5 be ce a4 0d be e8 11 a8 3e 21 54 04 3e
       -0.32321286 -0.13832399 0.3282616 0.12922718
0000b0 7d d7 9d 3e 2d 9e b2 3e c7 ac 94 3e ff c0 cc 3e
       0.30828467 0.34886304 0.2903807 0.39990994
0000c0 33 53 04 3e 99 65 81 be 33 c0 ca bc 48 07 4c bd
       0.12922363 -0.25272825 -0.02474985 -0.04981163
0000d0 77 4f 45 bb db f4 b1 bd 3f aa 99 be 38 3c 6b 3d
       -0.003010718 -0.086892806 -0.300127 0.057430476

down4.bias f4 [7]
000000 cb 88 af bd 87 f7 a4 3e ad 70 6b bd 6f be d3 be
       -0.08571013 0.32220098 -0.057480503 -0.41356227
000010 80 08 3a 3e c0 9b 50 3e a6 a5 48 bb
       0.18167305 0.20371914 -0.0030616312

down5.weight f4 [6, 7]
000000 a3 35 c8 3e 81 87 d1 be e8 7b ae be 68 ce 8b 3e
       0.39103422 -0.40923694 -0.34078908 0.27305913
000010 63 b4 18 3f 01 12 35 3e 7d 45 df 3c 90 95 98 3e
       0.5965025 0.17682649 0.027254814 0.29801607
000020 2b b2 04 3f ac 87 88 be bb 76 1e 3f 82 e8 77 3e
       0.5183436 -0.2666601 0.6189992 0.24209788
000030 3b 1e 4b bd 13 9c a5 be 76 90 27 be ca e8 1f bf
       -0.049589377 -0.32345638 -0.16363701 -0.6246458
000040 b5 f1 a5 be e7 1f 04 bf 13 9b 09 3f 62 4e b5 bd
       -0.3241097 -0.5161118 0.5375225 -0.08852841
000050 c3 6a 29 bd 51 f1 d1 be ca 19 1f bd ce ab 2b 3e
       -0.04136158 -0.41004422 -0.038842954 0.16764757
000060 50 d3 8f be ee 5c ac 3e 77 31 4d be 4a 16 db 3d
       -0.28090906 0.3366465 -0.200384 0.10697611
000070 b7 65 0a bf 82 c5 a0 3e fe 86 b5 3d 53 64 3e bf
       -0.54061455 0.31400687 0.08863638 -0.7437183
000080 a3 c1 1d 3d 01 5e 6f bd 0b 7a 91 be b3 a8 73 be
       0.038514744 -0.05843926 -0.28413424 -0.23794822
000090 5d a4 d1 be df bd e4 bd 66 56 36 bf 7a b0 16 3f
       -0.40945712 -0.111690275 -0.71225584 0.5886303
0000a0 9a 13 42 be 41 18 b9 be
       -0.1895279 -0.36151317

down5.bias f4 [6]
000000 f5 7f 54 3d ce bc ba 3e d0 36 84 3d 4e 5e 0c 3e
       0.05187984 0.36472172 0.06455767 0.1370785
000010 57 14 6d be e9 b0 cf be
       -0.2315229 -0.4056466

up1.weight f4 [7, 6]
000000 ba a6 fb be 9d 45 c1 3e 29 72 14 bf 92 31 71 be
       -0.4915064 0.37748423 -0.57986695 -0.23554066
000010 f7 76 ad be 6a 4a e1 be d9 5b a0 bd 39 0d b7 3e
       -0.33879825 -0.44002086 -0.078300186 0.35752276
000020 56 90 9e 3e f3 9e bf 3e 3a 19 53 3e 3f 92 1a 3f
       0.30969495 0.37425956 0.20615092 0.60379404
000030 f9 a4 c6 be d9 aa 14 be 52 74 cb 3c dc ed 87 3d
       -0.3879774 -0.14518298 0.02483574 0.06637165
000040 50 e3 66 be 2d 87 cb 3e 2b 5f ca bd 34 97 ae bd
       -0.2254765 0.39751568 -0.09881433 -0.085249335
000050 4f 9f 8c be 9d 9e 01 3e a2 fe 09 3e cf 53 b1 3e
       -0.27465293 0.12658162 0.13476041 0.34634253
000060 7f 76 1a be c7 8d 28 be 3d 64 cd 3d cd 10 3b 3e
       -0.15084265 -0.16460334 0.100288846 0.18268128
000070 59 4c 94 be 7e db 73 bc 6d ff d2 3d 39 bb 86 bd
       -0.289645 -0.014883874 0.10302625 -0.06578679
000080 7b 1b 42 3e 76 47 61 be 0e 9d 38 3e f5 21 3c 39
       0.18955795 -0.21999916 0.18028662 0.00017941727
000090 63 dd 24 3f a2 ab 64 3e b1 de 88 be b6 db b8 be
       0.6440031 0.22331098 -0.267324 -0.36105126
0000a0 89 79 1c bf 71 19 4d bd
       -0.6112295 -0.05007309

up1.bias f4 [7]
000000 b8 e2 cf 3e 21 85 91 3e 0d a5 ac be 1d 0a c5 3d
       0.4060266 0.28421882 -0.33719674 0.096210696
000010 10 e7 06 be 3e 90 0b bf 3d ef 5a be
       -0.13174081 -0.5451697 -0.21380325

up2.weight f4 [8, 7]
000000 4f 95 5a bd fc b8 c7 be 08 03 00 bb 64 0f 73 bd
       -0.053365048 -0.3900832 -0.0019533057 -0.05934085
000010 6e a3 11 3e 9e ad 94 3e 99 b3 b0 be 2e eb ff bd
       0.142225 0.2903871 -0.34512022 -0.12496029
000020 85 54 91 be 91 ef a5 be 84 7d a5 bd d5 25 5b 3e
       -0.28384796 -0.32409337 -0.08080581 0.2140115
000030 f7 c0 f0 3d 80 34 cd bd 51 9e 44 3e ba c0 a3 3e
       0.11755555 -0.10019779 0.19201018 0.31982976
000040 23 38 2b 3e 3e e9 fd bd fe 15 b4 3e 1e 34 0a bd
       0.16720633 -0.12398003 0.3517303 -0.03374111
000050 cd d1 1d be 8b 24 5f be da c5 a1 3d 1a 3a d5 3c
       -0.15412064 -0.21791284 0.07899065 0.026028682
000060 96 73 a9 3e 87 c6 4a be a9 1c 22 be 57 1e b1 3d
       0.33095998 -0.19802295 -0.15831245 0.08648365
000070 53 4d 8e be 49 40 3d 3d c7 ee b1 be 49 e9 14 3e
       -0.2779337 0.046203885 -0.34752485 0.14542116
000080 4e 98 8c 3d a7 a9 80 3b ed df a2 3e 0e 42 95 3e
       0.06864987 0.003926474 0.31811467 0.29151958
000090 e0 5b f8 bd 86 15 68 be 1f 31 33 be 3e 2d 7c be
       -0.12126899 -0.2266446 -0.17499207 -0.24626634
0000a0 e5 a5 b9 3e e2 5f d4 3e 63 7f db be a3 d0 ea 3e
       0.3625938 0.41479403 -0.42870626 0.45862302
0000b0 4c e2 b0 3e 54 0e dc 3d 25 dd ac be d1 7c 80 be
       0.3454765 0.107449204 -0.3376247 -0.25095227
0000c0 4b d8 27 be 97 02 9a be 3c c4 ae be d9 68 ac 3d
       -0.16391103 -0.300801 -0.3413409 0.084184356
0000d0 22 90 97 be f3 ca ba 3e 6b 24 ae be 39 e2 36 bd
       -0.29602152 0.36482963 -0.3401216 -0.044649336

up2.bias f4 [8]
000000 57 41 57 3d 27 a2 82 be ac 1c be bc 8e c4 a7 3e
       0.052552547 -0.25514337 -0.023207031 0.32767147
000010 81 e5 db bd 3a d4 c0 3c 11 ec b6 3e a0 20 4f be
       -0.10737134 0.023538698 0.3572698 -0.20227289

up3.weight f4 [9, 8]
000000 d9 db 77 be 87 ec 3d 3d 1b c6 3c be 26 50 5f be
       -0.24204959 0.04636815 -0.18434946 -0.21807918
000010 2d 5d 98 3e 7f ce e0 3d 7b fc 5f 3e e2 6c b2 3e
       0.29758587 0.10976886 0.21873657 0.34848696
000020 52 ac fb bb d7 e1 55 bd e5 d3 32 3f 22 15 b4 be
       -0.0076804543 -0.05221733 0.69854575 -0.35172373
000030 ac 20 4f 3e ee f6 0d 3e 61 8d 67 3e 19 a4 90 3e
       0.20227307 0.13863727 0.22612526 0.28250197
000040 96 57 d3 bd a7 dd 6c be e3 ab 68 be 04 28 41 3e
       -0.1031944 -0.23131429 -0.2272182 0.18862921
000050 4b e3 48 be 38 f4 af 3e 29 94 45 3e 52 e0 15 3e
       -0.19617955 0.34366012 0.192948 0.14636353
000060 77 a3 e5 bd ce bf b1 3e 3c 1f 93 be f7 a2 23 be
       -0.11212819 0.34716648 -0.28734767 -0.15980135
000070 cf 8f f5 3e 88 f6 87 3c e5 d0 d5 bd ef f2 b1 be
       0.4796128 0.016597047 -0.10440234 -0.34755656
000080 a3 97 2b 3e 9f d5 64 3e 46 f7 55 3e 15 1c de bc
       0.16757064 0.22347115 0.20895109 -0.027113
000090 b8 05 cd 3d f9 a9 9d 3d 25 ba 8b be c1 75 db 3b
       0.100108564 0.07698435 -0.27290455 0.006697387
0000a0 ca c3 d2 bd 62 6a a9 be ff b7 a8 3e 39 27 a3 3d
       -0.1029125 -0.33088976 0.32952878 0.079664655
0000b0 f8 cc cb 3e 22 d7 aa ba 19 2c 12 3f af 09 45 3d
       0.39804816 -0.0013034085 0.5709854 0.048104938
0000c0 8c f8 eb 3d 2a 2c 83 3e 5c ff 65 3e 94 21 fa 3e
       0.11522016 0.25619632 0.22460693 0.48853743
0000d0 bf 1c ba 3e 42 35 27 3d 39 9f 98 3e 4e 69 a6 bd
       0.36350057 0.040822275 0.29808977 -0.08125554
0000e0 fb f2 6f be 74 a6 73 3e 6e 93 6a bf 5f 9c 0e 3f
       -0.23432533 0.23793966 -0.9163121 0.55707353
0000f0 7c 22 76 bc 10 c0 a4 3d 6f 64 01 bf ea 7b 10 3e
       -0.01502287 0.080444455 -0.50543875 0.1410977
000100 0f cd f7 bc 8f 7d e7 bc 68 eb ae 3e 15 e8 0e 3f
       -0.030249147 -0.028258113 0.34163976 0.5582288
000110 7d 89 92 3e ce d9 d1 3c 40 bf 07 be 26 24 8b bd
       0.2862052 0.025616553 -0.1325655 -0.06794004

up3.bias f4 [9]
000000 0b 7a b8 bd 04 f9 26 bd 64 34 7b be 8e df c1 bd
       -0.09007653 -0.040764824 -0.24531704 -0.09466468
000010 d3 4d 84 bb 4e 05 51 be 0c 17 a4 be b4 21 c2 3e
       -0.0040375977 -0.2041218 -0.32048833 0.37916338
000020 9a e9 93 be
       -0.2888916
