W_3/3.0_model_Panel1.pt (torch, 10074 bytes, 16 tensors)

down1.weight f4 [15, 18]
-0.121970996 0.2112482 -0.06495047 0.10051295 -0.15484117 -0.08098887 0.23236682 -0.10569382
-0.17649329 0.14480011 0.055767007 0.049355846 -0.06850282 0.12370607 -0.054262817 0.07774492
-0.043929014 -0.0008504199 -0.025412165 0.09719021 0.19989802 0.13088962 0.045983706 -0.032146677
0.18932989 0.3604851 0.098520316 -0.037480615 0.00613445 0.21271767 0.18397222 -0.06287318
-0.05655194 0.23965561 0.045496006 0.60659665 0.13818702 0.1581327 0.16444845 -0.24697645
-0.106050186 -0.07956255 -0.24107692 0.17972082 -0.01735596 -0.26856908 0.17588387 0.20100895
-0.23081608 0.2106417 -0.032444283 0.03449452 0.120605886 0.1133179 0.21351343 0.2140839
0.37997934 0.096985064 0.1018679 -0.010828355 0.05691363 0.13023011 -0.06063624 -0.31134734
-0.20098744 0.17027213 0.34310445 0.01887434 -0.21000159 0.25588208 -0.15910634 0.19676156
-0.24566205 -0.087883696 0.099611305 -0.2884417 -0.364433 -0.23563322 -0.4521734 0.123489864
-0.10229566 -0.3009587 -0.0067041786 0.01688478 -0.057151847 0.026471669 0.22529101 -0.038532216
0.1536329 -0.26828355 0.0065992223 0.27284575 0.19719999 0.10694677 0.033302072 0.26292932
0.08941122 0.14756584 0.37045497 0.20458478 0.20611171 -0.19941027 0.45643473 -0.351663
0.019684954 -0.13616589 0.15995969 0.3251521 0.19458772 0.3230944 0.2984242 0.2835686
0.08541008 0.20686367 0.21703549 0.35545304 0.14503245 -0.1602578 0.32046002 0.14773056
-0.11908593 0.2368035 0.18984322 0.2430922 0.14595619 -0.015312201 0.16148494 0.22178558
-0.008614825 -0.06490947 0.25937158 0.32896888 0.22619747 -0.0026892666 0.13626023 0.175701
0.05312989 0.270916 0.21590503 -0.06743049 0.33711952 0.23647016 0.23654106 0.45134604
-0.10532083 0.16365625 0.27921665 0.13098478 -0.080672435 0.27329513 -0.19273327 0.10757629
0.55121976 0.0676637 0.16006154 -0.025870623 0.39648145 -0.1983236 -0.12867776 0.29718614
0.018812425 0.47330236 0.094284706 -0.17712128 -0.073236294 -0.38597095 0.06125899 0.08979507
-0.05582911 0.20763403 0.21630844 -0.15241665 0.45315057 -0.20183809 0.5665007 -0.21041375
-0.03904121 -0.073156714 0.19935912 0.40765527 0.1034708 -0.04563198 -0.05357229 -0.11887045
0.28545678 0.0467166 -0.35935345 -0.13445307 0.06449248 0.08978055 0.12379934 0.18294242
0.015974544 -0.076488495 -0.1580341 -0.023954792 0.21740305 0.04244491 0.06339996 0.2053811
0.3062244 0.25333872 0.12990783 0.22160994 0.3069221 -0.33264717 -0.23577963 -0.020108307
-0.2936239 0.3080289 -0.24196935 0.41128695 0.119281836 0.053498313 -0.12945372 -0.14956449
-0.027900118 -0.039249107 0.13582134 -0.08130913 -0.09683818 -0.037795424 -0.14640784 -0.14514978
0.17876577 0.18046494 -0.061618198 -0.031814795 0.10073509 0.11733666 -0.11577588 -0.18965597
-0.14339048 -0.0071480265 -0.0956452 -0.22101083 -0.15515366 -0.29830685 0.055161387 -0.2036631
-0.12621453 0.16616702 -0.20765181 -0.11881659 0.24325381 0.058129452 -0.14386566 0.041970223
-0.23572667 0.056445733 -0.16716856 0.17955703 -0.23205745 0.23336242 -0.21356523 -0.09077146
00000000: eecb f9bd 7351 583e c104 85bd bcd9 cd3d
00000010: af8e 1ebe 7edd a5bd 91f1 6d3e 0076 d8bd
00000020: a8ba 34be 7b46 143e f26b 643d 5b29 4a3d
00000030: 354b 8cbd 9c59 fd3d b042 5ebd bb38 9f3d
00000040: e9ee 33bd b7ee 5eba 2c2d d0bc a90b c73d
00000050: 11b2 4c3e ee07 063e 6959 3c3d 3cac 03bd
00000060: b2df 413e 8191 b83e 05c5 c93d 4685 19bd
00000070: 7f03 c93b a9d2 593e 3763 3c3e a7c3 80bd
00000080: 02a3 67bd 4868 753e 055a 3a3d eb49 1b3f
00000090: e680 0d3e 8aed 213e 2d65 283e 65e7 7cbe
000000a0: d730 d9bd b1f1 a2bd dedc 76be bc08 383e
000000b0: 162e 8ebc e381 89be e71a 343e 4ad5 4d3e
000000c0: 0d5b 6cbe 75b2 573e 4ce4 04bd 204a 0d3d
000000d0: 3800 f73d 3713 e83d 44a3 5a3e cf38 5b3e
000000e0: a78c c23e 1ba0 c63d 1ea0 d03d 6a69 31bc
000000f0: 441e 693d 0b5b 053e b55d 78bd eb68 9fbe
00000100: a7cf 4dbe d15b 2e3e 63ab af3e 5c9e 9a3c
00000110: a80a 57be fa02 833e c6ec 22be dd7b 493e
00000120: d58e 7bbe 5efc b3bd 0301 cc3d a1ae 93be
00000130: f696 babe d649 71be 4683 e7be 41e8 fc3d
00000140: 6380 d1bd 4217 9abe baae dbbb f351 8a3c
00000150: 0e18 6abd 1ddb d83c b0b2 663e f5d3 1dbd
00000160: f151 1d3e 765c 89be 4a3e d83b 70b2 8b3e
00000170: cbee 493e e806 db3d c167 083d ac9e 863e
00000180: 3b1d b73d 801b 173e 46ac bd3e ac7e 513e
00000190: f30e 533e 3532 4cbe d0b1 e93e 2c0d b4be
000001a0: 5742 a13c 126f 0bbe 79cc 233e 567a a63e
000001b0: 0142 473e a16c a53e 0fcb 983e e72f 913e
000001c0: 7beb ae3d 12d4 533e 8d3e 5e3e f1fd b53e
000001d0: 6383 143e 9f1a 24be 5613 a43e ae46 173e
000001e0: 53e3 f3bd 9e7c 723e 4366 423e 29ed 783e
000001f0: 8a75 153e 07e0 7abc 4f5c 253e c21b 633e
00000200: 3225 0dbc 42ef 84bd 5acc 843e 9c6e a83e
00000210: 4fa0 673e 683e 30bb cd87 0b3e f7ea 333e
00000220: ba9e 593d 80b5 8a3e 3516 5d3e ff18 8abd
00000230: ee9a ac3e 3c25 723e d237 723e d416 e73e
00000240: 73b2 d7bd 8195 273e 7cf5 8e3e e020 063e
00000250: 9737 a5bd 57ed 8b3e df5b 45be f550 dc3d
00000260: bd1c 0d3f 4493 8a3d 2ce7 233e a1ee d3bc
00000270: 9eff ca3e 5815 4bbe 1ac4 03be c828 983e
00000280: 841c 9a3c b054 f23e 5718 c13d 485f 35be
00000290: e9fc 95bd fc9d c5be b5ea 7a3d 7ae6 b73d
000002a0: 11ad 64bd 049e 543e f67f 5d3e 1c13 1cbe
000002b0: 5a03 e83e a5ae 4ebe 3106 113f b476 57be
000002c0: ade9 1fbd 30d3 95bd cc24 4c3e 31b8 d03e
000002d0: 80e8 d33d 99e8 3abd 9e6e 5bbd 5a72 f3bd
000002e0: 6427 923e e859 3f3d 2dfd b7be 11ae 09be
000002f0: a214 843d ddde b73d 828a fd3d 4255 3b3e
00000300: 0cdd 823c 00a6 9cbd b1d3 21be d73c c4bc
00000310: e89e 5e3e b7da 2d3d d7d7 813d 6c4f 523e
00000320: 72c9 9c3e 9db5 813e 8f06 053e b7ed 623e
00000330: e524 9d3e bb50 aabe 3770 71be 2dba a4bc
00000340: df55 96be f7b5 9d3e d0c6 77be 3494 d23e
00000350: 094a f43d 0c21 5b3d 848f 04be 6f27 19be
00000360: ca8e e4bc acc3 20bd c014 0b3e 6785 a6bd
00000370: 1953 c6bd 60cf 1abd f0eb 15be 25a2 14be
00000380: 600e 373e cdcb 383e 5d63 7cbd 3b50 02bd
00000390: 334e ce3d 344e f03d e81b edbd 2d35 42be
000003a0: f4d4 12be fe39 eabb a1e1 c3bd aa50 62be
000003b0: 9ae0 1ebe adbb 98be e8f0 613d 0f8d 50be
000003c0: 623e 01be b027 2a3e ada2 54be 1d56 f3bd
000003d0: 8717 793e 2619 6e3d 8551 13be f8e8 2b3d
000003e0: 5562 71be a433 673d 3c2e 2bbe ccdd 373e
000003f0: 78a0 6dbe 8ff6 6e3e d8b0 5abe 63e6 b9bd

down1.bias f4 [15]
-0.12341235 0.123181336 0.0918381 0.10046846 0.19609034 0.11390677 -0.2042756 0.22320306
0.24854676 0.17351146 0.115446314 0.4469947 0.11834763 0.2344286 -0.14073433
00000000: 9dbf fcbd 7f46 fc3d 9d15 bc3d 68c2 cd3d
00000010: e8cb 483e f447 e93d 9f2d 51be 588f 643e
00000020: 0b83 7e3e fdac 313e 1e6f ec3d 7ddc e43e
00000030: 3e60 f23d 0d0e 703e a91c 10be

down2.weight f4 [12, 15]
0.09204727 -0.060479105 0.25276583 0.2750894 0.35022816 -0.029373279 -0.32379165 -0.18189217
-0.02198439 0.046235375 0.23897417 0.16340002 0.16805857 0.36533064 0.0013497724 0.15331233
0.42573845 0.3588658 -0.007422961 -0.25771675 0.27478358 0.37366158 0.042106327 0.359404
0.00875042 -0.19696729 -0.28941315 0.08355363 -0.3193741 -0.07141219 -0.31825995 -0.015474903
-0.5360087 0.4963715 -0.09479714 0.22704697 -0.13355713 0.047784347 0.35279816 0.20203412
0.039963223 -0.09093338 0.42848793 -0.23464034 -0.11932022 -0.4030344 -0.096065894 0.14371733
-0.021563174 0.32652852 -0.115782775 -0.28094423 -0.012522357 -0.052017868 0.18169515 0.40093645
0.38521737 -0.048371334 0.29678744 -0.25160164 -0.18295652 -0.18707499 -0.20338833 -0.04114388
-0.16361547 -0.24237405 0.08244277 -0.14170885 0.032946456 -0.13268368 0.050506 0.1338046
0.13921772 -0.19120865 -0.21407104 -0.205382 0.035262406 -0.3957502 0.23466815 -0.4528732
0.24376275 0.13954553 0.094299324 -0.00057517696 0.13077456 0.043493576 -0.18669827 -0.18962114
-0.27819225 -0.21797884 -0.103254035 0.19399196 -0.046028823 -0.0932794 -0.20739701 0.21988212
-0.014298337 0.34934565 0.40849876 0.4164323 -0.26800105 -0.00941423 -0.052820433 -0.5193007
0.10135717 0.024079885 0.2073508 -0.253271 -0.30840504 -0.20866592 0.35014394 0.4347862
0.16913065 0.001019237 -0.12403849 -0.33121046 0.023237461 -0.06262008 -0.2234106 -0.004552809
-0.12602788 0.4121711 0.018007096 -0.35899252 -0.30618936 0.46277037 0.17179297 0.41457003
0.00893786 0.49583718 -0.08778915 -0.6197541 -0.21989866 -0.16764814 0.34159496 -0.13033906
-0.32697472 0.19891153 -0.16213416 0.09504214 -0.31601194 0.002308959 0.18144406 -0.25389636
-0.02073746 0.1615476 -0.10515421 -0.008918324 0.36118388 0.044069026 -0.10237317 0.41979825
0.3504283 -0.0765867 -0.19419959 -0.003653533 0.03842219 0.25188062 0.47345158 0.39702865
-0.21654458 -0.56731665 -0.059030246 -0.11383127 0.3099126 0.086365655 0.18433501 0.1551949
0.6089947 -0.16761997 0.23651642 -0.11336676 -0.12006881 0.16985118 0.07192973 0.08946707
-0.13095382 0.32138565 0.016050633 0.05235806
00000000: 4783 bc3d f0b8 77bd 866a 813e 85d8 8c3e
00000010: 1b51 b33e 3ba0 f0bc 05c8 a5be f141 3abe
00000020: 9c18 b4bc 4e61 3d3d a5b5 743e 5652 273e
00000030: 8c17 2c3e 9e0c bb3e d9ea b03a e8fd 1c3e
00000040: 64fa d93e 42bd b73e 4f3c f3bb 73f3 83be
00000050: 6fb0 8c3e 9250 bf3e af77 2c3d cd03 b83e
00000060: ec5d 0f3c cbb1 49be f62d 94be 2a1e ab3d
00000070: 0185 a3be 8e40 92bd f8f2 a2be 738a 7dbc
00000080: de37 09bf 6824 fe3e 0125 c2bd 007f 683e
00000090: 33c3 08be 85b9 433d f6a1 b43e 08e2 4e3e
000000a0: 7ab0 233d 483b babd c562 db3e 8f45 70be
000000b0: 295e f4bd 865a cebe 32be c4bd a32a 133e
000000c0: 41a5 b0bc bf2e a73e 851f edbd ecd7 8fbe
000000d0: 922a 4dbc b010 55bd 4b0e 3a3e 8b47 cd3e
000000e0: 363b c53e 0521 46bd 86f4 973e eed1 80be
000000f0: f458 3bbe 9690 3fbe 0845 50be 7c86 28bd
00000100: d08a 27be e730 78be c1d7 a83d 201c 11be
00000110: ddf2 063d 3bde 07be 61df 4e3d 1304 093e
00000120: 178f 0e3e 33cc 43be 7035 5bbe a94f 52be
00000130: 506f 103d c59f cabe d94c 703e ffde e7be
00000140: f19c 793e 06e5 0e3e 0120 c13d 79c7 16ba
00000150: c4e9 053e 5226 323d d52d 3fbe 0b2c 42be
00000160: 376f 8ebe d835 5fbe da76 d3bd d4a5 463e
00000170: b888 3cbd 4509 bfbd e25f 54be c728 613e
00000180: 9243 6abc 6fdd b23e c026 d13e 9d36 d53e
00000190: 6f37 89be 243e 1abc 3d5a 58bd e4f0 04bf
000001a0: 5994 cf3d 2e43 c53c c553 543e bdac 81be
000001b0: 44e7 9dbe 85ac 55be 1146 b33e 4c9c de3e
000001c0: 9630 2d3e eb97 853a e407 febd 6b94 a9be
000001d0: 7d5c be3c f53e 80bd c0c5 64be bb2f 95bb
000001e0: 740d 01be 1708 d33e 9e83 933c decd b7be
000001f0: dac4 9cbe 3df0 ec3e 7fea 2f3e 8642 d43e
00000200: 1a70 123c 5fde fd3e ccca b3bd 34a8 1ebf
00000210: 1d2d 61be f4ab 2bbe 89e5 ae3e 9a77 05be
00000220: 3b69 a7be 77af 4b3e 7f06 26be 74a5 c23d
00000230: 51cc a1be e751 173b 79cc 393e b4fe 81be
00000240: 9be1 a9bc bc6c 253e 175b d7bd 291e 12bc
00000250: 18ed b83e b981 343d 06a9 d1bd ccef d63e
00000260: 576b b33e 7dd9 9cbd 42dc 46be 1d70 6fbb
00000270: 9660 1d3d 7ff6 803e 3f68 f23e 5747 cb3e
00000280: ddbd 5dbe aa3b 11bf b3c9 71bd 5e20 e9bd
00000290: ddac 9e3e 7ae0 b03d 51c2 3c3e 69eb 1e3e
000002a0: 14e7 1b3f 92a4 2bbe 5c31 723e d52c e8bd
000002b0: a3e6 f5bd 78ed 2d3e e54f 933d 833a b73d
000002c0: c218 06be a98c a43e 9e7c 833c 6875 563d

down2.bias f4 [12]
0.1263557 0.06725412 -0.2217664 -0.053276557 -0.12930022 -0.17099349 0.2395306 0.1912714
-0.03708805 -0.03596049 -0.039081637 -0.169638
00000000: 6363 013e 87bc 893d bb16 63be 8538 5abd
00000010: 4767 04be eb18 2fbe 8247 753e a6dc 433e
00000020: a4e9 17bd 4f4b 13bd 1114 20bd 95b5 2dbe

down3.weight f4 [11, 12]
-0.18825947 0.19976093 -0.4697492 -0.4830038 0.0056245243 -0.16427195 0.21882728 0.47445053
0.4481699 -0.09975292 0.22418264 -0.512916 -0.16574596 0.0042935004 0.6472974 -0.23012215
0.13583523 0.08696639 0.09951164 0.26661432 0.03495737 0.32410902 -0.34973952 0.09697603
0.4434228 0.11008473 0.1193435 0.037226323 -0.13789392 0.2981116 0.13098218 -0.33501613
-0.06565109 -0.056128483 -0.2512119 0.3625546 -0.20938098 0.50621426 0.9168179 -0.6704869
-0.018894613 0.60404605 0.43114424 0.22693723 0.2646368 -0.21419409 0.42178828 0.2832588
-0.50898176 -0.01755482 -0.5681932 -0.53894275 -0.14159091 -0.492119 0.30916294 0.12678584
0.38618445 0.056351274 0.36138913 -0.5940263 -0.07466562 0.09258071 0.31624702 0.38061908
-0.15848891 0.13403538 0.05345053 -0.18760759 0.048171666 0.17534769 -0.091158725 0.5138876
0.015837438 -0.11046472 0.5778247 0.14342101 0.049034547 0.4765775 0.07962979 -0.34853554
0.07705434 0.25222093 0.023916388 0.19862106 -0.075179584 0.3599209 -0.15289867 0.029548043
-0.14940912 -0.028506229 0.10693831 0.35518232 0.07820865 0.21458903 0.36915666 0.081017636
0.021248888 0.15665306 -0.17089769 -0.036723983 -0.17719169 0.09180986 0.06819057 0.15165518
0.47460356 -0.09674053 0.6149418 0.17242992 -0.30095202 0.42878377 -0.30364332 -0.4513497
0.18163139 -0.2663237 0.021674026 0.31894505 0.40834248 -0.2533904 0.09046679 -0.06773808
0.2150649 0.4929581 -0.1148413 -0.026933659 0.23467575 -0.011286814 0.08014771 0.041857995
0.54579645 -0.21627377 0.43528834 0.29120547
00000000: 17c7 40be 218e 4c3e f882 f0be 464c f7be
00000010: ee4d b83b e836 28be 4214 603e 2eeb f23e
00000020: 8676 e53e 424b ccbd 2290 653e 774e 03bf
00000030: 4fb9 29be 7eb0 8c3b 48b5 253f 24a5 6bbe
00000040: 6418 0b3e 6f1b b23d c2cc cb3d ac81 883e
00000050: 762f 0f3d 9ef1 a53e 0f11 b3be 5e9b c63d
00000060: 5008 e33e 1a74 e13d 5d6a f43d a17a 183d
00000070: 1034 0dbe 15a2 983e 3120 063e 3c87 abbe
00000080: 1474 86bd fbe6 65bd d99e 80be c2a0 b93e
00000090: f867 56be 4297 013f 94b4 6a3f 08a5 2bbf
000000a0: e0c8 9abc c3a2 1a3f f0be dc3e 3c62 683e
000000b0: 7a7e 873e b255 5bbe a2f4 d73e 4c07 913e
000000c0: a14c 02bf 20cf 8fbc 1c75 11bf 27f8 09bf
000000d0: 35fd 10be 06f7 fbbe 9b4a 9e3e 26d4 013e
000000e0: f8b9 c53e 98d0 663d ff07 b93e 1c12 18bf
000000f0: 4aea 98bd f59a bd3d 21eb a13e 81e0 c23e
00000100: eb4a 22be 9240 093e f1ee 5a3d 341c 40be
00000110: a74f 453d 588e 333e 6db1 babd 238e 033f
00000120: 84bd 813c 543b e2bd 52ec 133f f5dc 123e
00000130: 73d8 483d f701 f43e f114 a33d 4073 b2be
00000140: aace 9d3d 1a23 813e 4dec c33c 5263 4b3e
00000150: c1f7 99bd 8d47 b83e 7891 1cbe bd0e f23c
00000160: b4fe 18be e585 e9bc 7902 db3d 75da b53e
00000170: db2b a03d 3abd 5b3e 1a02 bd3e 93ec a53d
00000180: 2612 ae3c a969 203e ceff 2ebe e36b 16bd
00000190: bd71 35be cf06 bc3d 7fa7 8b3d 7f4b 1b3e
000001a0: 3dff f23e e61f c6bd d36c 1d3f 7891 303e
000001b0: 6216 9abe 8c89 db3e 2377 9bbe 4f17 e7be
000001c0: 94fd 393e 945b 88be ba8d b13c c44c a33e
000001d0: 4412 d13e 63bc 81be a746 b93d 43ba 8abd
000001e0: f939 5c3e 0165 fc3e ea31 ebbd faa3 dcbc
000001f0: d74e 703e 54ec 38bc 7c24 a43d 4a73 2b3d
00000200: 51b9 0b3f df76 5dbe 1dde de3e e218 953e

down3.bias f4 [11]
0.00013362117 0.033024654 -0.13634478 0.02628177 0.025112545 0.23740822 0.1298861 -0.045260593
0.20234579 0.093644515 0.05346618
00000000: a91c 0c39 dc44 073d f79d 0bbe de4c d73c
00000010: d3b8 cd3c 241b 733e dd00 053e 2c63 39bd
00000020: bc33 4f3e b2c8 bf3d 5aff 5a3d

down4.weight f4 [10, 11]
0.1131622 0.016073018 0.19221371 -0.25516242 0.22892626 -0.21062855 -0.13303705 0.049811352
0.010040083 -0.3258347 0.21736193 0.15462823 -0.16646059 0.1324776 0.22994184 0.16861202
-0.14019716 0.036810786 -0.09918926 0.33286524 0.2776598 0.07880055 -0.22307636 -0.08275285
-0.026969543 -0.2847166 -0.08276183 -0.04871558 -0.18119362 -0.27913567 -0.28328487 -0.3513488
0.01193303 -0.26005778 -0.067214034 -0.10849233 0.011897871 -0.2209459 -0.2734912 -0.24973786
0.1712604 -0.21013688 -0.22303079 0.15953296 0.45126948 0.6314176 0.8936086 0.49677712
0.27975658 0.61777896 0.73795944 0.30799496 0.1711114 0.323396 0.26868793 0.28542712
-0.5764579 0.05510953 -0.15151587 0.093499 0.22288755 -0.19726601 0.31336468 0.3350024
0.34688675 0.12612273 -0.085551 0.13627844 -0.14143702 0.042166892 -0.14676267 0.26941553
0.062232066 0.1372872 -0.042535685 -0.2965609 0.2184358 0.3824749 -0.08639922 -0.074036196
0.021299329 0.23428264 -0.17853329 -0.3293537 0.3451594 0.16163732 0.44165397 0.5096968
0.3848608 -0.035875954 0.42542565 0.19495723 0.30780885 0.32896882 0.34345576 0.027904242
0.20529282 0.43198505 0.48056185 -0.21858308 0.039666913 0.27656096 0.09944453 -0.23034202
0.35837886 0.46118745 -0.122061275 0.2514174 -0.22521152 0.40182173
00000000: 95c1 e73d 90ab 833c acd3 443e a6a4 82be
00000010: a56b 6a3e 03af 57be dd3a 08be fd06 4c3d
00000020: 297f 243c ced3 a6be 2094 5e3e dd56 1e3e
00000030: a574 2abe 35a8 073e e075 6b3e a1a8 2c3e
00000040: d88f 0fbe e8c6 163d bd23 cbbd 506d aa3e
00000050: 6d29 8e3e 2f62 a13d 216e 64be 547a a9bd
00000060: 3bef dcbc 60c6 91be 097f a9bd fd89 47bd
00000070: d28a 39be dfea 8ebe b70a 91be fde3 b3be
00000080: c182 433c 4b26 85be 83a7 89bd 3a31 debd
00000090: 4aef 423c a43f 62be 0a07 8cbe 48bb 7fbe
000000a0: e35e 2f3e 1f2e 57be 2f62 64be 9c5c 233e
000000b0: cb0c e73e 95a4 213f 89c3 643f 9259 fe3e
000000c0: 413c 8f3e c326 1e3f e9ea 3c3f 84b1 9d3e
000000d0: d437 2f3e 2994 a53e 7791 893e 8123 923e
000000e0: bf92 13bf 88ba 613d fa26 1bbe 677c bf3d
000000f0: a23c 643e 1a00 4abe 5671 a03e 6f85 ab3e
00000100: 249b b13e 5126 013e 5d35 afbd 938c 0b3e
00000110: ded4 10be 31b7 2c3d f448 16be d5f0 893e
00000120: 0de7 7e3d 0495 0c3e e639 2ebd d5d6 97be
00000130: a2ad 5f3e c0d3 c33e 13f2 b0bd 4aa0 97bd
00000140: ee7b ae3c cae7 6f3e 6ed1 36be 0ca1 a8be
00000150: bcb8 b03e 4184 253e 7820 e23e 7d7b 023f
00000160: 7a0c c53e aaf2 12bd 64d1 d93e dea2 473e
00000170: 1f99 9d3e 9a6e a83e 6fd9 af3e 7097 e43c
00000180: 4838 523e 252d dd3e 340c f63e 3ed4 5fbe
00000190: c679 223d 6699 8d3e 93a9 cb3d c7de 6bbe
000001a0: 6f7d b73e c320 ec3e 43fb f9bd c8b9 803e
000001b0: d99d 66be 94bb cd3e

down4.bias f4 [10]
-0.16987224 -0.06869095 0.14701739 0.07218064 0.00084341917 -0.1697734 -0.3148387 0.1791229
0.003946703 -0.05589281
00000000: fdf2 2dbe d7ad 8cbd ba8b 163e 72d3 933d
00000010: e718 5d3a 14d9 2dbe 8a32 a1be fe6b 373e
00000020: 5853 813b dcef 64bd

down5.weight f4 [9, 10]
0.22759293 -0.2408656 0.14797471 -0.17841172 0.23070392 -0.3593046 0.29911983 -0.27603856
-0.12896533 0.2052676 0.051487297 0.2328928 -0.31112358 -0.10125555 0.354784 0.05186371
0.28216404 0.3242913 0.27080524 0.023039296 0.24091901 0.061701585 0.14427994 0.18184541
-0.12519702 -0.32157493 0.30407196 -0.3539825 -0.07781369 -0.25107044 -0.20294867 0.06937955
0.014204192 0.22029379 -0.23187636 -0.38287467 0.45111665 -0.33915657 -0.04835683 -0.3962027
0.25016826 -0.10656359 -0.0014980625 -0.32777977 0.094890915 0.19206107 -0.28262743 -0.12449967
0.26700217 0.09058562 0.19820729 -0.49296954 0.09523169 0.13609345 -0.27146763 -0.37154067
-0.053895228 -0.039284095 -0.068781845 0.17238791 -0.15914808 -0.29583478 -0.064538136 0.018003823
-0.23467584 -0.37807417 -0.12143437 -0.25727352 0.036867663 0.6873291 0.09776455 0.18257214
0.13556366 0.12063881 -0.079405814 -0.066824295 0.5971732 0.18452595 0.2743416 -0.2318902
0.094435684 0.11752883 0.0032053238 -0.13348532 -0.32776895 -0.17186472 0.2051212 0.14471838
0.1909533 -0.4989366
00000000: 1f0e 693e 79a5 76be af86 173e 90b1 36be
00000010: a63d 6c3e c6f6 b7be 3c26 993e ed54 8dbe
00000020: 7d0f 04be ab31 523e 58e4 523d 737b 6e3e
00000030: 974b 9fbe 125f cfbd 40a6 b53e 0b6f 543d
00000040: ce77 903e 8209 a63e fca6 8a3e e8bc bc3c
00000050: 79b3 763e cdba 7c3d 1fbe 133e af35 3a3e
00000060: a633 00be 78a5 a4be 52af 9b3e 323d b5be
00000070: c95c 9fbd 4e8c 80be c7d1 4fbe de16 8e3d
00000080: b3b8 683c b294 613e ff70 6dbe 2608 c4be
00000090: c3f8 e63e eea5 adbe d011 46bd 15db cabe
000000a0: 0e16 803e 033e dabd a35a c4ba c0d2 a7be
000000b0: 2b56 c23d a8ab 443e 8bb4 90be aff9 febd
000000c0: 82b4 883e f484 b93d daf6 4a3e 8166 fcbe
000000d0: d508 c33d 155c 0b3e cefd 8abe 943a bebe
000000e0: 3ec1 5cbd 5ce8 20bd 7fdd 8cbd 7586 303e
000000f0: b7f7 22be a877 97be 922c 84bd c17c 933c
00000100: dd4e 70be f092 c1be 95b2 f8bd 5bb9 83be
00000110: 8c02 173d cdf4 2f3f c838 c83d 31f4 3a3e
00000120: 33d1 0a3e 7b11 f73d 849f a2bd 2ddb 88bd
00000130: 58e0 183f 5ff4 3c3e 8176 8c3e a074 6dbe
00000140: 7f67 c13d f5b2 f03d 6910 523b 60b0 08be
00000150: 55d1 a7be 4efd 2fbe 4b0b 523e 0e31 143e
00000160: 4389 433e 9e74 ffbe

down5.bias f4 [9]
0.121369265 -0.011431473 -0.024406692 -0.12031096 0.06824868 0.0988941 -0.06707583 0.18730281
-0.3011957
00000000: 7390 f83d 134b 3bbc 8bf0 c7bc 9865 f6bd
00000010: f7c5 8b3d fd88 ca3d 0e5f 89bd 4fcc 3f3e
00000020: 5336 9abe

up1.weight f4 [10, 9]
-0.11362277 0.019653533 -0.27147782 -0.26696253 0.29483873 -0.32156366 0.2869764 -0.34739748
0.15065458 0.3202786 0.4055859 -0.40686542 -0.21860805 -0.036411174 0.2003059 -0.21044923
0.17604747 -0.37452707 0.10081111 0.47054872 0.06855901 -0.04176021 0.009215501 -0.31291094
-0.17262027 -0.003634398 0.20495605 0.24409057 -0.10936455 -0.2582858 -0.24959388 0.16926657
0.1118933 0.29065126 -0.024299273 -0.30369258 -0.10622843 0.24239847 -0.043806635 0.3312306
-0.23053718 0.19887814 0.27182198 -0.32427907 0.013131857 0.07525258 -0.1764987 -0.0029725633
0.33006907 0.1270301 -0.01065433 -0.29285312 -0.026653212 -0.13121712 -0.15292251 0.37989533
-0.074210145 0.19284545 0.1372534 -0.2772727 -0.17900027 -0.24317035 0.27383724 -0.3931816
0.14712007 -0.27899274 0.11083648 0.06289712 -0.3223416 -0.2491887 -0.15258507 0.48755452
-0.26659372 -0.07775545 0.22178443 -0.17599353 -0.08155261 0.24839146 -0.34644523 0.21566336
-0.20934653 -0.23035069 0.34055004 -0.2008815 -0.15160917 0.097279996 -0.13939174 0.257896
0.10849712 -0.2589054
00000000: 0eb3 e8bd 7200 a13c 24ff 8abe 50af 88be
00000010: 1af5 963e fea3 a4be 92ee 923e 15de b1be
00000020: 3245 1a3e 8ffb a33e f5a8 cf3e aa50 d0be
00000030: cada 5fbe e223 15bd fd1c 4d3e 0180 57be
00000040: ca45 343e 03c2 bfbe 0e76 ce3d c3eb f03e
00000050: ab68 8c3d c10c 2bbd 9dfc 163c dd35 a0be
00000060: 5ec3 30be 152f 6ebb 00e0 513e e1f2 793e
00000070: 85fa dfbd 093e 84be 8a95 7fbe 3754 2d3e
00000080: 5128 e53d 3ed0 943e 450f c7bc 987d 9bbe
00000090: 4b8e d9bd 4e37 783e 966e 33bd 0f97 a93e
000000a0: f011 6cbe b6a6 4b3e 402c 8b3e e807 a6be
000000b0: 0027 573c 061e 9a3d 13bc 34be 56cf 42bb
000000c0: d0fe a83e 2e14 023e 808f 2ebc d8f0 95be
000000d0: d657 dabc c85d 06be b897 1cbe a481 c23e
000000e0: 7dfb 97bd 4779 453e 288c 0c3e b0f6 8dbe
000000f0: d94b 37be a601 79be 6534 8c3e 194f c9be
00000100: a5a6 163e 23d8 8ebe 3dfe e23d 35d0 803d
00000110: f509 a5be 532b 7fbe 433f 1cbe bfa0 f93e
00000120: f97e 88be 403e 9fbd 751b 633e a637 34be
00000130: 0e05 a7bd 555a 7e3e 4561 b1be dbd6 5c3e
00000140: f05e 56be 0de1 6bbe 935c ae3e e1b3 4dbe
00000150: 6f3f 1bbe bc3a c73d b5bc 0ebe f20a 843e
00000160: bd33 de3d 408f 84be

up1.bias f4 [10]
-0.37577027 0.12257276 0.1794338 0.0765697 -0.29527634 -0.31143534 -0.21091644 -0.22990741
0.3893424 -0.13465935
00000000: f664 c0be 6d07 fb3d 7ebd 373e 93d0 9c3d
00000010: 762e 97be 7474 9fbe 7bfa 57be d96c 6bbe
00000020: e357 c73e 24e4 09be

up2.weight f4 [11, 10]
0.1427986 -0.17481469 0.21169606 -0.17387451 -0.06990585 0.19903387 -0.3011583 -0.08664631
-0.2544753 -0.05777064 0.038099255 -0.25167036 -0.083637804 0.057459317 -0.24573316 -0.051433425
-0.050762318 -0.25014475 0.090818815 -0.22274254 0.2681167 0.21914159 -0.07033026 -0.28805336
0.25414628 -0.0043429914 -0.050907858 0.35794663 0.3510654 0.23447165 -0.2284205 -0.2923369
0.13386875 0.08247869 -0.281619 0.30192763 0.047327098 -0.14974003 -0.07055364 -0.26129505
0.09265307 -0.3015011 0.16361399 0.24341463 -0.2852058 -0.28264487 -0.12198955 -0.15032612
-0.1576113 -0.0843444 -0.43211433 0.3996858 0.26086482 -0.52113664 0.15586053 -0.27987695
0.469079 0.12936547 0.116923146 -0.14686544 0.24959938 0.1739528 0.038007002 0.11305517
0.18634433 -0.14124265 -0.16307455 -0.012917598 -0.19727091 -0.32126012 0.8634122 0.17574464
0.1218755 -0.1314956 0.04990348 -0.17399892 -0.19200271 -0.07028666 -0.10953166 0.4161881
-0.26708022 -0.085080475 -0.019940207 -0.17007034 0.24610029 0.10377181 -0.10518757 0.07676675
-0.30512768 -0.14338876 -0.36705148 -0.030718284 0.034886472 -0.5903432 0.06113565 -0.17486508
0.27319658 0.37736154 -0.124110825 0.17846997 -0.14693938 -0.17267634 -0.3070752 -0.25779894
0.14833008 0.2484724 -0.111280546 0.10067796 -0.18379784 0.08116068
00000000: cc39 123e 9f02 33be dac6 583e 290c 32be
00000010: cc2a 8fbd 89cf 4b3e 6c31 9abe 9f73 b1bd
00000020: 964a 82be e8a0 6cbd f70d 1c3d f0da 80be
00000030: 4c4a abbd 765a 6b3d 79a1 7bbe dbab 52bd
00000040: 26ec 4fbd f912 80be 37ff b93d 9f16 64be
00000050: 9846 893e a766 603e 5009 90bd bb7b 93be
00000060: 761f 823e a74f 8ebb c284 50bd c844 b73e
00000070: d8be b33e 5619 703e 10e7 69be 2fad 95be
00000080: e414 093e 96ea a83d 5e30 90be 4296 9a3e
00000090: 0fda 413d 7355 19be 6d7e 90bd 77c8 85be
000000a0: e5c0 bd3d 5a5e 9abe 6d8a 273e af41 793e
000000b0: 7f06 92be d4b6 90be a8d5 f9bd 17ef 19be
000000c0: db64 21be c2bc acbd 173e ddbe 9ea3 cc3e
000000d0: 1390 853e 3669 05bf e799 1f3e 084c 8fbe
000000e0: 1f2b f03e 6278 043e 6775 ef3d e563 16be
000000f0: fb96 7f3e af20 323e 3bad 1b3d 7889 e73d
00000100: 0cd1 3e3e eaa1 10be 04fd 26be 55a4 53bc
00000110: 6301 4abe 357c a4be 9508 5d3f 67f6 333e
00000120: dd99 f93d c8a6 06be 9767 4c3d c62c 32be
00000130: 5c9c 44be 74f2 8fbd 2352 e0bd 9b16 d53e
00000140: bdbe 88be ac3e aebd a559 a3bc eb26 2ebe
00000150: b701 7c3e 5186 d43d 956c d7bd e337 9d3d
00000160: b239 9cbe 81d4 12be 2cee bbbe e9a4 fbbc
00000170: 1ee5 0e3d bb20 17bf 6069 7a3d d50f 33be
00000180: 6ce0 8b3e 8835 c13e d12d febd d5c0 363e
00000190: 4777 16be 11d2 30be f638 9dbe 39fe 83be
000001a0: d7e3 173e 8c6f 7e3e 0ee7 e3bd 3f30 ce3d
000001b0: 8035 3cbe 9237 a63d

up2.bias f4 [11]
-0.27559328 0.20440753 0.11712882 0.0010846263 -0.134648 -0.26469383 -0.25532237 0.17820139
-0.20518649 -0.49932665 0.13192396
00000000: 901a 8dbe 3550 513e 3ce1 ef3d 052a 8e3a
00000010: 2ae1 09be f385 87be 9db9 82be 6d7a 363e
00000020: 681c 52be bea7 ffbe 1317 073e

up3.weight f4 [12, 11]
-0.16280648 0.1781566 0.023753565 0.08037154 -0.26203746 0.34241265 0.10447931 -0.18415302
0.19823782 -0.10522031 -0.27541932 0.28842312 0.12071171 0.38318473 -0.047527008 -0.12226079
-0.17501807 -0.02917282 -0.06704396 0.08870038 0.2849139 0.1667142 -0.1511123 0.079220414
-0.09795087 0.16220699 0.15119141 0.1322979 -0.10750195 0.2082351 0.059108727 -0.39585534
0.025297549 -0.24349327 -0.14286572 0.22552146 -0.012039128 -0.27066892 -0.0757744 0.24067102
0.016588155 -0.07318352 -0.32828 0.25080547 -0.13191783 -0.026940165 0.19032809 0.16948505
0.042497043 0.17359032 0.25154912 -0.10993167 -0.21240923 0.029810937 0.17477481 0.12563546
-0.2254098 -0.25198296 -0.035986803 -0.24341819 0.14168233 0.041850984 0.047105826 0.1747207
0.16321635 0.17536516 -0.18056805 0.25291887 -0.009746406 0.17826432 -0.20678423 -0.5258098
0.22334749 0.50063384 -0.2306139 -0.18190537 -0.09608465 -0.05777298 0.25559554 0.1330301
0.29990667 -0.26788604 0.14979438 -0.096907616 -0.18767959 0.09573686 -0.18492937 0.06589188
-0.2258024 -0.24629448 0.012720072 -0.07135133 0.056915775 0.47463113 0.106768176 -0.25301936
0.28773093 0.113747016 0.02296327 -0.19735646 -0.21395537 0.11697301 -0.11772061 0.21959318
-0.070136815 0.18107986 0.020691087 0.071016625 -0.007433069 -0.05707752 0.23213544 0.17413498
0.044354968 0.05078894 -0.01439641 0.11845436 0.012762492 -0.09369535 0.26238263 0.27664134
0.028348783 -0.29156175 0.18535677 0.23994872 0.26920727 0.25557926 -0.22888927 -0.15892003
0.136559 -0.2768552 0.01884618 -0.13062716
00000000: beb6 26be af6e 363e d696 c23c d599 a43d
00000010: c629 86be b650 af3e 40f9 d53d 9c92 3cbe
00000020: dbfe 4a3e bf7d d7bd c303 8dbe 32ac 933e
00000030: b337 f73d ca30 c43e aeab 42bd dd63 fabd
00000040: f037 33be d6fb eebc 584e 89bd 8ba8 b53d
00000050: 3ce0 913e 21b7 2a3e 2fbd 1abe 503e a23d
00000060: 779a c8bd 9719 263e ecd1 1a3e 1a79 073e
00000070: fb29 dcbd 953b 553e fe1b 723d 8dad cabe
00000080: ce3c cf3c 4d56 79be 644b 12be 19ef 663e
00000090: c33f 45bc 1e95 8abe 9c2f 9bbd 7772 763e
000000a0: e2e3 873c 3ee1 95bd 5114 a8be 9369 803e
000000b0: 7815 07be 9fb1 dcbc 5ee5 423e 7d8d 2d3e
000000c0: 6111 2e3d a9c1 313e 0ccb 803e db23 e1bd
000000d0: ce81 59be 1136 f43c 2bf8 323e 95a6 003e
000000e0: d4d1 66be e903 81be e666 13bd 9e42 79be
000000f0: 2c15 113e f06b 2b3d 0af2 403d fce9 323e
00000100: 3022 273e ed92 333e d5e6 38be 957e 813e
00000110: 64af 1fbc ec8a 363e 3fbf 53be 799b 06bf
00000120: 34b5 643e 8a29 003f 0d26 6cbe 6745 3abe
00000130: 07c8 c4bd 5ca3 6cbd 6bdd 823e 0b39 083e
00000140: 5e8d 993e 5c28 89be b363 193e 8077 c6bd
00000150: 142f 40be b011 c43d 205e 3dbe 52f2 863d
00000160: bf38 67be 9f34 7cbe d967 503c a520 92bd
00000170: 8420 693d da02 f33e 46a9 da3d c18b 81be
00000180: 7851 933e 32f4 e83d 781d bc3c d017 4abe
00000190: 1e17 5bbe 8c8f ef3d 8117 f1bd 09dd 603e
000001a0: e4a3 8fbd 006d 393e 5b80 a93c 2a71 913d
000001b0: 1a91 f3bb 1eca 69bd eab4 6d3e 7150 323e
000001c0: 8ead 353d 1008 503d ecde 6bbc 3398 f23d
000001d0: c519 513c 59e3 bfbd 0457 863e efa3 8d3e
000001e0: b53b e83c 9547 95be 2ace 3d3e 1eb5 753e
000001f0: 89d5 893e 49db 823e f361 6abe efbb 22be
00000200: 1fd6 0b3e f7bf 8dbe 4e63 9a3c 20c3 05be

up3.bias f4 [12]
0.059578747 -0.10779591 -0.03907045 -0.073475935 -0.030315613 0.25719702 -0.1289473 0.099081695
0.12223198 -0.004230701 0.13449544 -0.15708841
00000000: d808 743d 1ac4 dcbd 5608 20bd 8d7a 96bd
00000010: 7358 f8bc 54af 833e c30a 04be 58eb ca3d
00000020: c354 fa3d b1a1 8abb 2cb9 093e c9db 20be
