W_3/3.0_model_Plate 39630_N.pt (torch, 8166 bytes, 16 tensors)

down1.weight f4 [12, 15]
00000000: 1526 013e d95c 38bd 38f9 b13d 34da 8ebe
00000010: 9cdf c1bb 718a 553e e5b6 413e 03da a73e
00000020: f239 d53e 017d ee3c 85b5 62bd efa8 e73e
00000030: c0ca c83e 53c7 c83e f5da 2d3d bf92 733e
00000040: 9f14 cfbd c07c b1bc bf4d 433d aed3 c3bc
00000050: ad04 3b3e 7548 ce3e e873 123e 419c 0e3c
00000060: 3b92 cf3e 59d3 fd3e 93b4 11be 62c6 203e
00000070: dcce be3e 6a31 033f 69d0 9ebc 9390 253d
00000080: 1c02 fa3b a702 083e b33a 0cbe b091 8d3c
00000090: 5b1d 013f a535 cdbe fbaa 003e 7aa7 e13e
000000a0: 648a 2a3f 46c2 96be 9cad 853e 4a11 15bd
000000b0: a5fa 093f 1171 fbbd 1c21 fe3d af6e 5e3e
000000c0: 6c88 ddbc e670 1c3d 5458 da3b 5cc5 c73d
000000d0: 4ecc 493f 768f 333f 4ba9 51be a088 d8be
000000e0: 7410 e4be 3423 78be 0f21 e23e 676e 81be
000000f0: 468d 203d 8d74 3a3b 4981 433e 6da8 f53d
00000100: 1b09 053d 3683 e6bc f2aa 243d 94e2 8d3e
00000110: 1f36 df3e fe38 283c 9741 b63e e80f 253c
00000120: de3c 693e 2b0b f3be 864e 823e da3c ddbd
00000130: 1c52 fa3d b181 a73c 95de fdbd 34a4 da3b
00000140: a80f 093e e5b3 23be 49bd 98be 93a4 733d
00000150: 786d ac3e 2413 f83e d22a 09bf b6ef b4bf
00000160: d49a b0bd 1b2a d73e eb5b 11bd bbd4 ccbd
00000170: 12f6 d6bd 38dc 00be e1ee b33e f61b 493c
00000180: 5c38 833e 4b1b 6f3e 5d6d 3a3f 28e1 1d3e
00000190: 25c5 f33e 1c7e 653e ace9 f8be af92 4b3f
000001a0: 2e1c 5a3e 0e41 5fbe 9abe e2bc aeb9 23be
000001b0: 8687 adbc f4d1 febc 7613 47be 08c6 8e3e
000001c0: 8700 2a3e 05bc a03e b3d7 843e d32c 3a3f
000001d0: 549d a53e c80b 8f3e c3f7 913e f8e6 043f
000001e0: 26a7 1d3d 7b08 19b9 9212 933c f79e 31be
000001f0: bfe4 e83d 1f48 943e 421e c53c 97d5 01be
00000200: 989a b7bc 1a85 fbbb 2d8a 86be ef01 c13e
00000210: 9eea 613d 0751 163e 45bd c7bd a162 b2be
00000220: 2f11 d1bd 5948 abbd b9f3 d3be 69c8 a0bc
00000230: 35e3 043d 01fd a23e dcbc 313f 3b36 593f
00000240: b895 80bd 481b b7be 83c6 b2be d38f ccbe
00000250: b30a 843e a188 e1be fec7 77bd 3ad9 c23d
00000260: d7f9 b3bd 8c49 bf3d 7df1 a13d 349a 4a3b
00000270: b510 753e e64d 083f 54a8 be3e f670 aa3d
00000280: c0d6 8bbe 999b ee3e 6d9c b13e 4667 803e
00000290: 972e 89be c16d 85be d337 db3d 9587 72be
000002a0: dffd d4bb ea1d 193e 061f 9cbd 2eb1 b23d
000002b0: cdb3 b3bd c3f9 35be 9558 8e3c f427 4a3e
000002c0: 4fcb 6ebe 4490 f83d 94b8 78be 09d9 af3d
0.12612183 -0.04501042 0.08690113 -0.2790085 -0.005916549 0.20853592 0.18917425 0.32783517
0.4164577 0.02911234 -0.05534889 0.45246074 0.39217186 0.39214572 0.04244514 0.23786448
-0.10111355 -0.02166593 0.047681566 -0.023904648 0.18263502 0.40289655 0.14302027 0.008704246
0.40541252 0.49575308 -0.1422904 0.15700677 0.37267196 0.51247275 -0.019386487 0.04042108
0.007629646 0.13282262 -0.13694267 0.017281383 0.5043542 -0.4007999 0.12565224 0.44073087
0.6661742 -0.29445094 0.26109016 -0.03639344 0.5389808 -0.12277425 0.12408659 0.2172191
-0.02704259 0.038193606 0.0066633616 0.0975444 0.7882737 0.7014078 -0.20474736 -0.42291737
-0.44543803 -0.24232179 0.44165847 -0.25279543 0.03919723 0.0028450817 0.19092287 0.11995015
0.032479387 -0.028138738 0.04020209 0.27711928 0.4359598 0.010267494 0.35596916 0.010074593
0.22777125 -0.47469458 0.25450534 -0.10802622 0.12222692 0.020447584 -0.1239597 0.0066724066
0.13384879 -0.15986593 -0.29831913 0.059483122 0.33677268 0.48452103 -0.53580964 -1.4135654
-0.08623281 0.4202431 -0.03548805 -0.100015126 -0.10496153 -0.12584007 0.35143188 0.012274733
0.25628936 0.23350255 0.72823125 0.15417922 0.47611347 0.22411388 -0.48615777 0.79520696
0.21299812 -0.2180216 -0.027678777 -0.159888 -0.021182787 -0.031105973 -0.19441018 0.2788546
0.16601764 0.31393448 0.25945815 0.72724646 0.32346594 0.27938676 0.2850934 0.5191493
0.038489483 -0.00014594376 0.017953191 -0.17345797 0.11371755 0.28961274 0.02406228 -0.12679134
-0.022412583 -0.007675779 -0.26277295 0.37696788 0.05515539 0.14679347 -0.09752897 -0.34840873
-0.10208356 -0.083634086 -0.41396883 -0.019626813 0.032443244 0.31833652 0.694288 0.84848374
-0.062785566 -0.35763 -0.34917077 -0.3995348 0.25789413 -0.44049552 -0.06049346 0.09514089
-0.087878875 0.093402 0.07907388 0.0030914666 0.23932154 0.53243864 0.372378 0.08322327
-0.2731228 0.46603087 0.34689656 0.2507879 -0.26793358 -0.26060298 0.10704007 -0.23684533
-0.0064999904 0.14952818 -0.07623105 0.087252006 -0.08774529 -0.17771058 0.017376224 0.19741803
-0.23319744 0.121368915 -0.24289161 0.08586318

down1.bias f4 [12]
00000000: 684c cc3d 6796 213c 86f2 d2bd fada cc3e
00000010: 7d79 bd3e ff44 3c3e a1e7 a53b 52ad 083e
00000020: c1ec 053f 5b7b b33d 62f3 16bd 5a37 88be
0.09975511 0.009862519 -0.10300164 0.40010816 0.3700675 0.18385695 0.0050630127 0.13347366
0.5231438 0.087637626 -0.0368532 -0.2660473

down2.weight f4 [9, 12]
00000000: 58cc 07be cde1 eabe e015 76bf 01ea 4f3e
00000010: 191e dfbd 579c 23be e2de 123e 0efc 65be
00000020: b0bd 243f 0ed2 9a3c 479b 9cbc 931d d7bd
00000030: bd90 0c3e a290 65be 2744 9dbe c35f d1be
00000040: 63c9 a33e db27 07c0 fc9c 293e e1e8 a93e
00000050: 57cf e83e ea58 f1bd 01d5 8a3c 3239 223e
00000060: 3764 fb3e dd0f b5bd 702f 54be 345a 973e
00000070: b778 943e 89ca babe 91e2 0b3e 3214 003b
00000080: b8f2 123f dd50 0e3f 85e8 213f 6202 3dbd
00000090: c0a8 7f3e 3243 bdbe 3ca6 39bf 4dd7 e23e
000000a0: ed48 ed3e 8dd2 eabe 5fb1 5b3e d550 8e3e
000000b0: 1adb d53e 4db3 0d3f cbb0 f13e d03d 933e
000000c0: 8f07 c73e fb2b 143f 1c8f 763f 05f9 813e
000000d0: 8726 36bd 8437 eb3d b76e 183f f1e0 373f
000000e0: 0f29 9e3d 7724 ec3e 1380 7c3e e310 843e
000000f0: c97c 8bbe c7bb 95be c43b c23e 1fba 1d3e
00000100: f1c2 2d3f 5a7b 05be 3392 1bbf ac63 13be
00000110: bce1 613e 66ee 15bf 5164 1cbf 45a9 79be
00000120: f45e d53e fbce 5ebe 1791 1e3d 6446 d3be
00000130: c99b 613e fc5e a4bf b6cf 41be 07ee 91bd
00000140: 1a73 2a3e f6f0 d53d 6d16 ea3e 02c9 b73c
00000150: 416a 153e dfa3 bf3d 2faf 31be 7caf 123f
00000160: 6265 a53c 1c77 333f a6eb f23e 9153 de3d
00000170: d094 59bd 3e24 2a3f 694b 3abe f5cc bfbb
00000180: 4704 eb3e f023 abbe 7c6f 84bf f63d ce3e
00000190: 7728 033d c33d 873e ae50 c0bd 2495 993e
000001a0: 6997 cd3e 47b6 a03e 1add 273f ceee 95bd
-0.13261545 -0.45875397 -0.9612713 0.20304109 -0.108944125 -0.15977608 0.14342836 -0.22459432
0.6435194 0.01889899 -0.01911701 -0.10503688 0.13727088 -0.22418454 -0.3071606 -0.40893373
0.31989583 -2.1118076 0.16563791 0.33185485 0.45470688 -0.11784537 0.016947271 0.15842131
0.49099895 -0.08840916 -0.20721221 0.29561007 0.28998348 -0.36482647 0.13660647 0.0019543287
0.5740161 0.5559214 0.6324542 -0.04614485 0.24966717 -0.36965328 -0.7251928 0.44304886
0.463447 -0.45863762 0.2145438 0.27796045 0.41768724 0.55351716 0.47205195 0.28758097
0.38872954 0.5787961 0.9631212 0.253853 -0.044470336 0.11485198 0.5954394 0.7182761
0.07722675 0.4612157 0.24658231 0.25794134 -0.2724364 -0.29244825 0.37936223 0.15403031
0.6787558 -0.13035336 -0.6076996 -0.1439349 0.22058767 -0.5856689 -0.6109057 -0.24380977
0.41674006 -0.21758644 0.038712587 -0.4126464 0.22032084 -1.2841487 -0.18926892 -0.07125478
0.1664547 0.1044635 0.45720235 0.022434715 0.14591314 0.09357428 -0.17351983 0.5729902
0.020189945 0.7010362 0.4744541 0.10855783 -0.053120434 0.6646155 -0.18192829 -0.00585329
0.459017 -0.33425856 -1.0346522 0.40281647 0.032021012 0.26414308 -0.093903884 0.29996598
0.4015458 0.31389067 0.6557175 -0.07320939

down2.bias f4 [9]
00000000: baee d03e e859 903d f10b c7bc 758c da3d
00000010: 156c 6b3e 1533 303f ebe1 483e b1a5 973e
00000020: 97dc a3bd
0.40807134 0.07048398 -0.024297686 0.10671321 0.22990449 0.68827945 0.19617431 0.296186
-0.080010585

down3.weight f4 [8, 9]
00000000: bbb1 aabd 96b1 d23d 962e 523d aea6 1dbe
00000010: 4b82 31be 665c 8abd 8b28 52bd 4013 853c
00000020: 90fc a13d 5ecf 8c3f 5483 893f 5575 233f
00000030: c50f 033f 1465 983e 113e 70bf c2e7 fa3d
00000040: bfd9 0e3d 12c4 143f 6d97 dabe c235 d93e
00000050: 62a1 a63e f512 6c3d 5a78 de3e ffdf dabe
00000060: daf7 163f 5495 f1be b78f 463c eba9 8a3c
00000070: a422 963e 8121 85be 69aa 59be bd4e 97bd
00000080: eb66 553d 1058 68be 8b5d 573e 9875 0b3e
00000090: d890 2a3d 44c1 5b3e 9118 6abd e004 243e
000000a0: e545 c63d 2b4e c93c e60b ddbe 5c54 c2be
000000b0: 7750 943c 18c1 1b3e 737d 1bbf b47b 883e
000000c0: de28 173e a517 e73e 40bf 90bf a2bb 67be
000000d0: db13 403f 33e1 973e 8230 e1be 29af 2a3e
000000e0: 87b1 f83e 77f8 d63e ed89 793f 442a 1ec0
000000f0: bf5f 40bd 1fd0 7d3e 5be2 ba3c c5ba d0be
00000100: 1856 e9bc a256 bcbd a516 133e 9077 babd
00000110: 7a60 07be 8aae 793e 37fd 61be d23a 5ebd
-0.08334681 0.10287778 0.05131396 -0.15395615 -0.17334859 -0.06755905 -0.051308196 0.01624453
0.079095006 1.1000783 1.0743203 0.6385091 0.5119594 0.29764616 -0.93844706 0.122512355
0.034875628 0.5811168 -0.42693654 0.42423826 0.32545 0.057635266 0.43451196 -0.4274902
0.5897194 -0.4718424 0.012119225 0.016926726 0.29323304 -0.26002124 -0.21256413 -0.07388065
0.052100103 -0.22689843 0.21031778 0.13619077 0.04164204 0.21460444 -0.057152335 0.16017485
0.096813 0.024573406 -0.4317314 -0.37954986 0.018104775 0.15210378 -0.60738295 0.26656878
0.14761683 0.45135227 -1.1308365 -0.2263017 0.750303 0.29664 -0.4398232 0.16668381
0.48572943 0.4198644 0.97476083 -2.4713297 -0.04696631 0.24786423 0.022813013 -0.40767494
-0.028483436 -0.091962114 0.14364107 -0.09104836 -0.13220397 0.24382988 -0.2206925 -0.054255314

down3.bias f4 [8]
00000000: 10a0 5abe 2a12 9a3d 4059 b23d e63e c4be
00000010: 415c aebe 20bb 6f3e 99f2 3a3e d631 7abd
-0.21350121 0.07522996 0.08708429 -0.38329238 -0.3405476 0.23411226 0.18256606 -0.061082684

down4.weight f4 [7, 8]
00000000: 5b87 a73e 92a4 8f3e 121c e5be eb50 00be
00000010: 7def 8c3e c478 e03e 4fd2 24be 35c1 503e
00000020: 979c 053e 7d68 d83e 5a0a afbd 9659 91be
00000030: 550b ce3e d4a8 523f e3df 213f 6bab 2c3e
00000040: 0780 51be a350 9fbe e3fe 313d 6c62 3d3e
00000050: 5704 ffba 1546 cc3b 7810 29be c343 a63d
00000060: c29c 7e3e 4bd4 033f 984c 413f c492 d8bd
00000070: 26c1 e8bd 77ab b3be 84ca 193e 64b3 b9bc
00000080: 75d0 c33d 7514 79bd a975 6d3d 026b 32be
00000090: b0ce 953e 9bff b4be 5260 a0bd 85fb 5f3e
000000a0: 4909 1f3e 0e2d 67be c90c e93e 0856 d1bc
000000b0: e8d3 933e 8226 aabd 5a32 a03d 6ac8 abbe
000000c0: a5d7 4ebd 32cf 073f 5c6e 1bbe 508d 8b3e
000000d0: 7eba a33c 28f3 55be 632c 913d bd76 4cbe
0.32720456 0.28055245 -0.44747978 -0.12530868 0.27526465 0.43842137 -0.16095851 0.20386203
0.13048016 0.42267218 -0.08546896 -0.2838866 0.4024302 0.8228886 0.6323225 0.16862266
-0.20458995 -0.31116208 0.04345597 0.18494576 -0.001945625 0.0062339404 -0.16510189 0.08118393
0.24864486 0.5149581 0.755075 -0.10574868 -0.11364965 -0.35091755 0.1501866 -0.022668548
0.095612444 -0.060810525 0.057973538 -0.17423633 0.29259253 -0.35351261 -0.07830872 0.21873291
0.15530886 -0.22575781 0.45517567 -0.025553718 0.2887261 -0.08308126 0.07822104 -0.3355134
-0.050498623 0.5305053 -0.15178818 0.2725625 0.019986387 -0.20893538 0.07088544 -0.1996717

down4.bias f4 [7]
00000000: 6e08 b2be 1f49 843e 4410 9bbd e833 3fbe
00000010: b7e4 72be 0486 833e 65a9 abbe
-0.34772056 0.25837037 -0.07571462 -0.18672144 -0.2372006 0.25688183 -0.33527675

down5.weight f4 [6, 7]
00000000: fcc1 12be 1be6 903d bcfe bf3d 0bb5 133f
00000010: b1c2 7f3e dbcb 10be 2ba0 0c3f 1308 323f
00000020: 4a9c d6be ef7d 74be 6e60 b2be 1955 823c
00000030: d42f 82be 735c 823e d791 4cbf bb5a e1be
00000040: 34e8 7e3e f9b2 91bd e87f 723c b5df 683f
00000050: 804c 2bbf 53b6 743e d512 bb3e fd09 0c3e
00000060: 0117 98be b7c0 b63e 2b75 29bd 3027 ebbe
00000070: 2056 e4be 3733 1bbe a01d 8e3e 06b4 16be
00000080: 7d7e 623e fcce 173f 1869 cfbd 3d6a 6d3d
00000090: 6905 e03e d5ab 2f3e 5ca5 efbe 82cd c9bc
000000a0: 493d 0cbf 9f7f b5be
-0.14331812 0.07075139 0.093747586 0.57698125 0.24976613 -0.14140265 0.54931897 0.6954357
-0.41916114 -0.23876165 -0.34839195 0.015909718 -0.25427115 0.25461158 -0.79910034 -0.44014534
0.24893266 -0.071142145 0.014801003 0.9096635 -0.66913605 0.23897676 0.36537805 0.13675685
-0.2970505 0.35693905 -0.041371506 -0.45928335 -0.44596958 -0.15156256 0.27756977 -0.14717111
0.22118564 0.5930021 -0.10127467 0.057962645 0.43754128 0.17155392 -0.46805847 -0.024634127
-0.54781014 -0.3544893

down5.bias f4 [6]
00000000: 36ba 293c e3d4 35be 2f48 653c 5b53 993e
00000010: 4166 acbc 276a 843e
0.010359338 -0.17756991 0.013994261 0.29946408 -0.021044852 0.25862238

up1.weight f4 [7, 6]
00000000: f5ba 0bbe fcaa b33e f53c 723e 249b 07bd
00000010: 454d 38be df3d 65be add5 97be 4134 533e
00000020: 70c4 273e be08 a13e bf9c 55be dcc1 e53e
00000030: 0cb7 b53e 9ddf fcbd 913f 5f3e b762 89be
00000040: 6768 423e 34b2 0fbc 867e dfbd 814b 543e
00000050: f952 73be 3022 553e fd68 bbbd 8218 ca3e
00000060: aaad ee3d f751 03bc 5a5e 183e 102c 67bd
00000070: c9de 283e cfec 93be d957 a23e 065c 13bf
00000080: 0303 173e 754b 983e b52b 943e b0ea f73e
00000090: 7fb6 d83e 100d 25be a397 25be 6f7e a9bd
000000a0: c5d6 bebd d53a 1f3e
-0.13645537 0.35091388 0.23656066 -0.033106938 -0.17998226 -0.22386883 -0.2965521 0.20625402
0.16383529 0.31451982 -0.20860575 0.44874465 0.35491216 -0.12347338 0.21801592 -0.26833126
0.18985139 -0.008770514 -0.10912804 0.20731927 -0.2376212 0.20813823 -0.09150884 0.39471823
0.116542175 -0.008015147 0.14879742 -0.056438506 0.16491236 -0.28891608 0.31707647 -0.5756229
0.14747243 0.2974507 0.28939596 0.4842124 0.42326733 -0.16118264 -0.16171126 -0.082760684
-0.09318308 0.15549786

up1.bias f4 [7]
00000000: f69d 74be f894 413d f13d 0e3e 0dec f53e
00000010: c0ad 0a3f c848 bf3e f08a 0f3e
-0.23888382 0.04726121 0.13890816 0.48031655 0.5417137 0.37360215 0.14017844

up2.weight f4 [8, 7]
00000000: 7ae6 7abd 8668 1f3f 292e 1f3f f79f 2d3d
00000010: b794 b9be db96 1ebe 2a00 4b3e 6976 dabd
00000020: 854a 42bd 78a6 14be fcce 083d 17b3 0cbf
00000030: 291d c33d 65d7 873e d522 613e 1f38 24bc
00000040: 3abf d2be 93f5 923d 53ab fd3e 43d7 3a3e
00000050: bb5f ac3e 9492 a23e 5fd2 71be fc39 ff3d
00000060: dd4d 763e 964a 43bf 90e7 9bbe dbfd 0d3e
00000070: 9739 183e daae 8a3d 6dc8 a5bc 4afa d23e
00000080: 1bef c5be e344 fe3e ce16 a2be 7ec0 dd3d
00000090: 1459 4c3d edb2 c23e b528 733e 4d30 f03e
000000a0: 2a06 2bbb a7ea 503e c150 213e 41dc 00be
000000b0: 5103 a1be c233 c0be fd75 9c3e 5f51 36be
000000c0: c107 6d3e 07e0 5f3e 0bbc 7a3e ecf0 673e
000000d0: 15d6 c3be dd8b b6bd 977b a53e 636c 103d
-0.061254956 0.62268865 0.6217981 0.042388882 -0.36246273 -0.15487234 0.19824281 -0.10667116
-0.04743435 -0.14516628 0.03340052 -0.5496077 0.09527046 0.2653152 0.21985944 -0.010023146
-0.4116152 0.07175746 0.49544773 0.18246178 0.33666787 0.31752455 -0.23615406 0.124622315
0.2405314 -0.76285684 -0.30450106 0.1386637 0.14865719 0.067716315 -0.020237172 0.4120658
-0.38658985 0.4966193 -0.31658024 0.108277306 0.04988964 0.38027135 0.23745997 0.4691185
-0.0026096203 0.20402013 0.15753461 -0.1258402 -0.31447843 -0.37539488 0.30558768 -0.17804478
0.23147489 0.21862803 0.24485795 0.22650498 -0.3824927 -0.089133956 0.32320854 0.035259616

up2.bias f4 [8]
00000000: e12f 4a3e 633d 7f3e 0b89 f5be 9821 473e
00000010: 4eac e93d e480 5ebf fe79 bbbe 6ce6 3a3d
0.19744827 0.24925761 -0.47956118 0.19446409 0.11409818 -0.8691542 -0.3661651 0.045629904

up3.weight f4 [9, 8]
00000000: e28f c2be d2dc d3be f8d1 8e3e 8384 34be
00000010: 8065 043e 9d3a d93e a11c 9fbe 36b8 ae3e
00000020: 513c edbd dea8 35bc 91ff f83e ae48 24bf
00000030: e2f2 bbbd e096 b93d 1a60 63be eb58 e5be
00000040: e6ba 44be 6a58 fcbd 716e a43d 11d7 a73c
00000050: 4ffd 6d3d d7fa 653f 9836 5c3e 4836 923e
00000060: 9eef 82bd 3241 c7bd 9f81 9abd eef5 30be
00000070: fae5 283e 74c2 423e 6c96 453e ff1b d53e
00000080: 8400 42be b675 dcbe 5bcc 203d 754b afbe
00000090: ca50 8a3e 2e63 313e c885 56be 430b 043f
000000a0: 2d14 dc3e 4f02 773e c67e ca3e 5536 713e
000000b0: cd21 10bf 7542 b1be e21e 843d b847 db3e
000000c0: 2a69 c7be fece c53e 6c62 3fbc 7e58 aabe
000000d0: 29c3 ebbe e6ad 233e 49ab 443e bde8 ab3e
000000e0: a11c 4fbe fe0b 9c3e b07e 8f3d b9ec 153f
000000f0: 9b3d c43e 10e3 79bf d7ad 98be 2fb2 203d
00000100: fd8b 1fbe 6258 a93d f52a b5be 47b0 c5be
00000110: 9095 673e 3b04 8a3e 83af 51be 0ef1 c03e
-0.380004 -0.4137941 0.27894568 -0.17628674 0.12929344 0.4242753 -0.3107653 0.34124917
-0.1158377 -0.011087624 0.48632482 -0.641734 -0.091771856 0.0906198 -0.22204629 -0.44794402
-0.19211921 -0.12321551 0.080288775 0.020488294 0.058102902 0.89835876 0.21505201 0.28557038
-0.063933596 -0.09729232 -0.075442545 -0.17281315 0.16493979 0.1901949 0.19295663 0.41622922
-0.18945509 -0.43058556 0.03925739 -0.34237257 0.27014762 0.1732299 -0.20949471 0.51579684
0.42984143 0.24121974 0.39549845 0.23555882 -0.56301576 -0.34621015 0.06451203 0.42828155
-0.3894742 0.38634485 -0.01168118 -0.3327064 -0.46047333 0.15984306 0.19205965 0.33576003
-0.20225765 0.304779 0.070065856 0.58564335 0.3832825 -0.97612095 -0.2982013 0.03923243
-0.15580745 0.08268811 -0.35384336 -0.3861105 0.22615647 0.26956353 -0.20477109 0.3768391

up3.bias f4 [9]
00000000: 8c06 633e dded 0e3e 80f9 463d 6e6b acbd
00000010: 08cf e03d 87cf 1cbd 733c 0e3f 037f 8dbe
00000020: 1ffd 3abd
0.22170466 0.13957925 0.048577785 -0.08418928 0.10976988 -0.03828385 0.5556099 -0.27635965
-0.04565155
