W_3/3.0_model_Panel3.pt (torch, 10074 bytes, 16 tensors)

down1.weight f4 [15, 18]
000000 54 50 0e be 79 f3 fb 3d 24 88 06 3e 4d 3a 0f 3d
       -0.1389783 0.12302298 0.13137871 0.03496771
000010 fc a7 2a 3d c8 e5 38 bb 5c c0 2c be c7 bb 4e bd
       0.04166411 -0.0028213132 -0.16870254 -0.050472047
000020 34 07 e7 3d ee d6 50 be 12 08 34 3e f6 23 18 be
       0.11280671 -0.20394489 0.17581204 -0.14857468
000030 40 32 ab 3d bf 6b aa bc 39 c3 cc be cd 74 de bc
       0.08359194 -0.02080333 -0.39992693 -0.027155304
000040 8d d0 41 bd 82 f4 48 3c de de 71 3e f8 df af bd
       -0.04731803 0.012265326 0.23620173 -0.085876405
000050 b9 5c 24 3e a4 d7 72 bd a3 47 fe 3d 3e 7c 9b bd
       0.16050996 -0.059287682 0.12416007 -0.07592057
000060 94 7e 28 be aa 70 d6 bd 25 33 c0 3e 58 61 23 be
       -0.16454536 -0.10470708 0.3753902 -0.15955102
000070 4c 7c 6e be 86 98 b1 3d fd c3 93 3e 86 ce 3b 3e
       -0.23289603 0.0867167 0.28860465 0.18340501
000080 d4 28 c7 bd b9 cf 5d 3e 08 93 87 3c 75 e9 2e be
       -0.09724584 0.21661271 0.016549602 -0.17081244
000090 41 93 8e bd d0 ff 72 3e 97 10 0f 3d fa e2 b4 bd
       -0.0696168 0.23730397 0.03492793 -0.08832355
0000a0 9e 01 9c 3e b9 9b 9e 3d 32 60 d2 be 7c 66 f6 3e
       0.30469984 0.077445455 -0.41089016 0.48125064
0000b0 45 d5 20 3e 24 1d f5 be bd 68 38 3d 65 6a a2 3e
       0.15706356 -0.47873795 0.04502176 0.31721798
0000c0 58 31 80 3e bb 74 91 3d 31 45 12 be 66 57 bf bd
       0.25037646 0.07102343 -0.14284207 -0.09342842
0000d0 b9 3b 89 3e 89 82 1f 3e 2c e1 8b 3e 44 d0 6d 3e
       0.26803377 0.15577139 0.2732023 0.23223978
0000e0 dc 0d 04 bb de f6 0f 3e 50 04 8d 3e 3f 26 71 3e
       -0.0020149862 0.14059016 0.27542353 0.23549746
0000f0 5a 9e a1 3e be 0b 2f be 44 3b 2b 3c a7 97 84 3d
       0.31566125 -0.17094323 0.010451142 0.06474238
000100 99 db 8f bd 3d 9a 40 bd 10 f0 89 3e e4 5d 12 3e
       -0.07024307 -0.047022093 0.26940966 0.14293629
000110 1b 64 62 be 8a ad 0c 3e 30 48 a7 3d 2c e4 93 3d
       -0.221085 0.13738075 0.081680655 0.07221255
000120 ab 49 b6 bc bc 49 1f 3e 9c 79 c7 3c 70 e6 5a be
       -0.022251924 0.15555471 0.02434998 -0.21376967
000130 a0 45 12 3e 0c 21 c8 bd b8 2b 82 bc f3 6e 86 bc
       0.14284372 -0.09771928 -0.015889987 -0.016410327
000140 30 96 51 bd e0 f5 f3 bd cc 92 18 3d 3c 3b 29 3c
       -0.05116862 -0.11912131 0.03724937 0.010329064
000150 24 0f 3e be 93 ee 8e bd dc ad 1d 3e f9 07 76 bd
       -0.18560463 -0.06979098 0.15398353 -0.060066197
000160 5e 82 90 bd 19 47 46 3e 19 0f fa bd 0c 0e fb bc
       -0.070561156 0.19363059 -0.12209911 -0.030646347
000170 c8 b5 b8 3d 62 61 b1 3c 15 60 4b bc ee 3f 52 bd
       0.09019047 0.021652881 -0.012413044 -0.0513305
000180 ca 7d 75 be 42 14 d5 3e ac eb 4f 3e c9 f1 82 be
       -0.23973766 0.41617018 0.20304745 -0.25575092
000190 53 3b 9a 3e 57 0c 68 be b4 b2 6e 3d 79 93 f9 bd
       0.30123386 -0.22660957 0.058275893 -0.12186331
0001a0 64 76 fd 3d b2 84 b1 be 24 b8 d2 3e e7 76 d6 3e
       0.12376097 -0.3467155 0.41156113 0.4188759
0001b0 b7 e8 29 be 18 fa 82 bd fc d8 61 3e 73 39 5e be
       -0.1659268 -0.06395358 0.22055429 -0.21701603
0001c0 24 48 67 3e a4 ba 43 bc 8e ee 22 3e 58 83 62 3e
       0.22586113 -0.011946354 0.15911314 0.22120416
0001d0 92 a1 da 3e 55 22 f6 bd 60 72 05 3e 2b 8f 87 3e
       0.42701393 -0.12018267 0.13031912 0.26476416
0001e0 bc 7a 83 3e ef 30 ab bc 42 3d a5 3d 0e af 70 3e
       0.25679576 -0.020897357 0.080683246 0.23504278
0001f0 a0 f9 b4 bd 6d fc a9 3e a5 f7 29 3c 48 b4 cf 3d
       -0.08836675 0.33200398 0.010373984 0.10141808
000200 31 57 80 3e 38 c3 8a 3e b8 2f 78 3e 8d 71 be 3d
       0.25066522 0.27102065 0.24236953 0.09299002
000210 2d b9 3c 3e 56 b7 30 3d b5 39 ba bd 5c a9 d3 bd
       0.18430014 0.043143593 -0.09093038 -0.10335037
000220 44 fe 47 be 47 5d 6f 3e 56 2c fe bd 9b 5a a4 3c
       -0.19530588 0.23375426 -0.124108 0.020062735
000230 79 94 37 ba d5 c2 a9 3e f8 8c 35 3e 98 2e 77 be
       -0.000700302 0.33156458 0.17729557 -0.24138868
000240 11 58 2b 3d 6c e7 14 3e 6d 12 28 be fe 0e 9a 3d
       0.041832034 0.14541405 -0.16413279 0.07522391
000250 f6 6c 85 3d d3 f1 02 be 5b 5d ee 3e 75 1f 74 3e
       0.06514923 -0.12787561 0.465556 0.23840125
000260 45 72 e8 3d 1a 7e 54 3e 08 0e 6f 3e 7e d1 d4 3d
       0.1134992 0.20751229 0.23345196 0.1039152
000270 76 2e 32 3e 74 08 7c 3d 19 33 07 3e 64 79 69 bd
       0.17400536 0.0615315 0.13203086 -0.057000533
000280 44 c5 a4 3e e6 58 bc bd 4e c9 a1 3d 0e 23 97 3d
       0.32181752 -0.091966435 0.07899724 0.07379733
000290 59 8e 10 be c1 c9 63 bd 88 e3 7e 3d 0c 4f a1 3a
       -0.14116801 -0.05561233 0.06222871 0.0012306883
0002a0 0b 16 28 3d cf 2c 40 3e fe 4d 08 bd 82 08 18 3e
       0.041036647 0.18767093 -0.033277504 0.14846995
0002b0 de 46 3e 3e 64 55 15 bd 6b 3a 00 bd 7a 33 0e 3e
       0.18581721 -0.036458388 -0.03130571 0.13886824
0002c0 0b 73 b3 3e d7 a4 10 3e 28 17 9e 3e c7 03 a4 3e
       0.35048708 0.14125381 0.30877042 0.32034132
0002d0 89 01 93 3e ea 1e fe bb ec 2e 1a bd 4b 0c b0 3e
       0.2871211 -0.00775515 -0.037642404 0.3438438
0002e0 4b f3 42 3e d1 a3 77 3e aa 9a 2b bd 05 f2 3f 3e
       0.19038121 0.24183585 -0.041895546 0.18744667
0002f0 1a 1b 1f bd 41 ed fc 3d d7 2a f4 3d 4c f3 c7 bc
       -0.038844205 0.1234994 0.119222336 -0.024408005
000300 93 8f 12 3e 78 60 34 3e 7f 58 23 be 5e 2e 8b 3d
       0.14312582 0.17614925 -0.15951727 0.06795953
000310 ef d3 2e 3e f2 49 f7 bd 9b a0 bf bc 07 32 c0 bd
       0.17073034 -0.12074651 -0.023392012 -0.09384542
000320 57 1f 51 3e ae b5 2e 3d 2f a3 e6 3c 0f c8 3b be
       0.20422111 0.042653732 0.028153984 -0.18338035
000330 40 43 fa 3e de 14 84 3e b0 c0 9f 3e cb 77 92 bb
       0.48879433 0.2579717 0.31201696 -0.004469847
000340 6d c0 ce bd 86 c6 81 bd 15 d9 80 3e 3b 2d 22 3e
       -0.10095296 -0.063366935 0.2516562 0.15837567
000350 c3 75 85 bc 9a 16 04 3d 7e 72 c1 3d e6 43 ab 3d
       -0.016291505 0.032248117 0.09445666 0.0836256
000360 03 5b bb 3d 94 38 e5 bd 99 41 3e 3d 0f 34 58 3e
       0.091482185 -0.11192432 0.046449278 0.21113609
000370 00 3d 18 3e 35 f1 4b 3e 31 d7 8a 3d ce 38 6a 3d
       0.1486702 0.19916232 0.06779326 0.05718308
000380 05 c6 3a 3c a5 43 b8 3d 2b e8 87 3d 66 63 1b be
       0.011399751 0.08997277 0.066360794 -0.15174636
000390 54 0e a9 3e 09 70 04 3e 89 6b e0 3d 76 e2 90 3e
       0.33018744 0.12933363 0.10958011 0.28297776
0003a0 6b cd 7c 3d 75 04 05 3c c8 e8 fa 3d c2 95 f4 bd
       0.06171934 0.008118738 0.12251431 -0.119426265
0003b0 11 ac fc 3d 06 00 7d 3d 58 4d e7 bd 90 14 36 bc
       0.123375066 0.0617676 -0.11294049 -0.011113301
0003c0 84 0f 2e 3e a8 a2 5a 3e 87 fa db 3e b8 a0 2e 3d
       0.16998106 0.21351111 0.42964575 0.042633742
0003d0 6e 92 aa 3e 35 0b 0c 3e be 0a 06 3f 6c 96 ba bb
       0.33314842 0.1367615 0.5236014 -0.005694201
0003e0 fa e8 2e be 7d db 8d 3e fb d9 a5 3d bf 1e 5a 3e
       -0.17081061 0.2770652 0.08098217 0.21300791
0003f0 a5 ab 55 3e 72 72 76 bd 4e 57 92 3e b1 27 0f be
       0.20866258 -0.060167737 0.28582233 -0.13979985

down1.bias f4 [15]
000000 e2 5b 8c 3e 5e 9a 3d 3c f0 2a e9 3d 66 9e cc 3d
       0.2741385 0.011572449 0.11385143 0.099911496
000010 44 17 47 be 3e 84 5e 3e 61 ae aa bd 57 e1 86 3d
       -0.19442469 0.21730134 -0.083340414 0.06585949
000020 a2 12 45 3b 21 28 83 3e 8e ad 52 be ef f6 d1 3d
       0.003007092 0.25616553 -0.20574018 0.10252177
000030 8b b3 0c 3d a8 9c 78 bd 1e 80 4a 3e
       0.034350913 -0.060696274 0.19775435

down2.weight f4 [12, 15]
000000 a2 ac 49 3e 44 da 82 be a8 7c 8e 3d 04 57 89 be
       0.1969476 -0.25557148 0.0695737 -0.268242
000010 90 87 f5 3c 24 70 c4 3e f7 c4 1b 3f 08 e6 73 bd
       0.029971868 0.38366807 0.6084742 -0.059545547
000020 cd 11 19 3f 5d 8b 04 3f 71 5a 96 3c c7 d8 0b 3f
       0.59792787 0.5177515 0.018353673 0.5462765
000030 51 31 91 3e 66 ee 84 3e 97 60 e5 3e 63 de c4 3e
       0.28357938 0.25963134 0.44800255 0.38450918
000040 ef 3c c8 3e f6 ab e6 3e fa 9d 3c 3e 2c 90 6a 3e
       0.3910899 0.4505307 0.18419638 0.2290656
000050 c0 51 ae 3e d8 c2 db 3e b9 8f b8 be cc 01 4e 3e
       0.34046745 0.4292209 -0.36047152 0.20117873
000060 64 37 5f be 79 8b e3 bb d1 73 53 3d 05 00 3d 3e
       -0.21798474 -0.0069441167 0.051624123 0.18457039
000070 6b 3d 00 3e 23 52 6b be 76 dc 02 be 06 08 5b be
       0.12523429 -0.22980551 -0.12779412 -0.2138978
000080 4e d9 15 be 56 23 6b be 65 f9 06 3e bd d5 68 3e
       -0.14633676 -0.22962698 0.13181074 0.22737785
000090 af 13 fc 3e b9 92 e0 be a3 50 d5 3e 03 93 02 3e
       0.49233767 -0.4386194 0.41663083 0.12751393
0000a0 e9 a3 1a be 90 40 c8 3e 8f d0 15 bd ab aa 83 3e
       -0.1510159 0.39111757 -0.03657585 0.25716147
0000b0 cc bd 9f 3d 5c 07 a8 bd 0d a3 7f 3e 7b 02 66 bd
       0.07799873 -0.08204529 0.24964543 -0.05615471
0000c0 2b 25 41 3e 83 79 48 be f7 f2 4c bd 11 5b db 3e
       0.18861835 -0.19577603 -0.050036397 0.42842916
0000d0 53 a8 96 3c 4a a3 7b 3e 1f 6c a1 bd d2 b4 29 be
       0.01839081 0.24574009 -0.078819506 -0.16572884
0000e0 17 a0 03 3f c7 6b 97 bc e9 e1 97 3e 5d 04 e7 bd
       0.5141615 -0.01848401 0.29664543 -0.11280129
0000f0 36 b6 39 be b8 ce 8e be 58 de 15 be 70 23 49 3e
       -0.18135914 -0.2789209 -0.14635599 0.19642425
000100 08 e6 90 bd 8a 4c 33 3e 9d 4b 4e be 7b 2a 84 3e
       -0.07075125 0.17509666 -0.20146032 0.2581366
000110 3b 71 ba be 08 6f 8e 3e 3a 1f 3b 3e d7 a4 91 be
       -0.36414513 0.27819085 0.1827363 -0.28446075
000120 ef f7 1e be d0 5b 9a be 3d 25 d1 bd 10 31 3a 3d
       -0.15524267 -0.30148172 -0.10212181 0.045456946
000130 ef 7e 4d 3e bd a7 bd bc c6 0e d8 3e 7f 8f 2d 3e
       0.20067953 -0.023151273 0.4219877 0.1694927
000140 f9 08 d0 3d 14 d4 f8 3e 6f 6c fc be ad f6 c1 3e
       0.101579614 0.48599303 -0.49301478 0.3788351
000150 79 17 be 3e 6a 81 c1 be a9 ad bc 3e e4 c8 86 3d
       0.37127283 -0.37794048 0.36851242 0.065812856
000160 d6 ee 08 3f 70 36 da 3d 0a 02 2f 3e d6 cb d8 3d
       0.53489435 0.106549144 0.17090622 0.105857536
000170 9d 19 bd be 8d 83 06 3f 17 52 77 3e ef a2 85 be
       -0.36933604 0.5254448 0.24152409 -0.2610087
000180 70 1a d5 3e af a0 35 3e 77 8c b2 3e e6 d4 36 be
       0.41621733 0.17737077 0.3487279 -0.17854652
000190 5d 06 47 be a0 a7 d1 3e cd b9 86 3e c2 93 85 3e
       -0.19436021 0.409482 0.2631363 0.26089293
0001a0 35 df 09 bd 87 97 88 3b c4 b5 97 3d 29 a7 0d 3f
       -0.033660132 0.004168454 0.07407716 0.5533319
0001b0 19 0e 90 be 24 2b 0a bc 94 69 ac 3e 26 f4 48 be
       -0.28135756 -0.008433137 0.336743 -0.19624385
0001c0 37 ff 37 3e 8a d8 bc be e5 99 7f 3e 1b c1 87 3e
       0.1796845 -0.36883956 0.2496105 0.26514515
0001d0 31 ed 80 bc 8c 6b 72 bd e5 5f 54 3e f8 82 a4 bd
       -0.015738102 -0.059184596 0.20739706 -0.08032793
0001e0 da 37 44 3e 35 d5 b1 3e e1 6f 7d 3b 9a d4 b0 3e
       0.1916193 0.34732977 0.0038671421 0.34537202
0001f0 d5 26 b4 bd 6f 03 eb 3d b4 68 d5 3d d4 ea 2e 3d
       -0.08796469 0.11475264 0.10420361 0.04270442
000200 be eb 3a bc 53 05 33 be ce 01 85 bd 80 63 fd 3e
       -0.011408744 -0.174825 -0.06494485 0.49489975
000210 28 40 02 3e ec 05 77 bc 1e 3e 17 be d1 8a cc bc
       0.12719786 -0.0150770955 -0.1476979 -0.024968537
000220 ba f6 ac 3e 54 65 95 be e4 38 ea 3e a2 ef 72 3c
       0.33781987 -0.2917887 0.4574653 0.014827641
000230 63 1e 95 bd e9 86 ba 3d da 8c ae be b9 86 ae 3d
       -0.072811864 0.09107763 -0.34091836 0.0852179
000240 ad 4a 38 be c7 0d e6 be 67 00 6e 3c 73 b6 58 3d
       -0.17997237 -0.44932386 0.014526463 0.052908372
000250 61 8a 78 3e dd 01 38 bb f1 96 a4 be 23 01 91 be
       0.24271537 -0.0028077282 -0.3214641 -0.2832118
000260 ab 67 93 bd 9a 7b 39 be eb 83 11 be ca 59 86 3d
       -0.071975075 -0.18113557 -0.14210479 0.06560095
000270 3a 75 fe bc 84 e2 d5 bd 29 c1 fa 3d 9a de ac 3e
       -0.031061757 -0.10443595 0.122438736 0.33763582
000280 c0 ae ea bd ae ba 0a 3e 7e d3 b0 3e ff 58 7d 3e
       -0.11459112 0.13547775 0.34536356 0.2474098
000290 9a 9d 25 3e 26 0f d0 be e8 2f 79 be 86 e8 20 be
       0.16173401 -0.40636557 -0.24334681 -0.157137
0002a0 aa ef 1f bd d1 12 0a be 8f dc 8e 3e 5e fb 63 3d
       -0.03904692 -0.1348374 0.27902648 0.055659644
0002b0 74 9a 16 bf 7b 76 87 be 83 ee cc 3e 8e 1d 03 3e
       -0.58829427 -0.2645758 0.4002572 0.12804243
0002c0 90 04 87 be 03 3f b4 bd 86 73 8a be 7b 65 ba 3e
       -0.26370668 -0.08801081 -0.27041262 0.36405548

down2.bias f4 [12]
000000 24 49 b9 bd c0 45 7c b8 03 fe 74 be f8 16 01 3e
       -0.090471536 -6.014644e-05 -0.23925023 0.12606418
000010 09 c0 9c 3e 1c a8 9d bc 0d 41 af 3e 98 2e fb 3d
       0.3061526 -0.0192452 0.34229317 0.122647464
000020 c0 d1 4a 3d 50 5c ec 3d d3 35 1b 3d 8a bd 4d bd
       0.04951644 0.11541045 0.037893128 -0.050229587

down3.weight f4 [11, 12]
000000 5c 15 c8 3d 5a 71 77 be 48 39 43 bd 24 10 c5 3d
       0.09769699 -0.24164334 -0.04766205 0.09622219
000010 a5 45 94 3e 5e 77 8d 3e 1a bf b3 3e 3e 21 2e bf
       0.28959385 0.27630132 0.35106736 -0.68019474
000020 57 00 95 bd 80 00 61 3e 37 89 b0 3e 9a f7 91 bc
       -0.072754554 0.21972847 0.34479687 -0.017818261
000030 75 1e d8 be 41 c5 b9 3d 6a 6a fd bd 41 a5 ab bd
       -0.42210737 0.09070826 -0.123738125 -0.08381129
000040 88 7a e5 3e 3b 0d 90 be 38 6c 24 3e 25 73 37 bd
       0.44820046 -0.28135094 0.16056907 -0.044787545
000050 e3 bd 53 3e ba db f6 3e 33 8e bf 3b 35 6b 65 3e
       0.20677905 0.48214513 0.005845809 0.22404177
000060 16 8e a2 bd c7 5e 9a 3e c3 ec 80 be 15 2c 46 3e
       -0.07937257 0.30150434 -0.25180635 0.19352753
000070 09 e9 c0 bd d8 7a 3f 3d 47 44 ed 3d e1 49 50 be
       -0.09419448 0.046748012 0.115852885 -0.20340683
000080 b6 f9 12 bd f5 1f 79 3d c3 74 12 be be 17 41 3e
       -0.035882674 0.060821492 -0.14302354 0.18856713
000090 ef e0 12 3d 87 a9 17 bc 85 8b fe 3e 58 c1 b7 3e
       0.035859045 -0.009256727 0.4971582 0.35889697
0000a0 18 17 cd be c7 99 e8 3c 29 6c b0 3e f2 3c 34 be
       -0.40056682 0.02839364 0.3445752 -0.17601374
0000b0 6f 0e 89 3e c7 0b a2 3d 3f bd 05 3e e8 bc af be
       0.26768824 0.079124026 0.13060473 -0.34323812
0000c0 8c 45 4c 3e 48 21 70 bd 67 76 19 3f e6 55 ad 3e
       0.19948405 -0.05862549 0.5994629 0.33854598
0000d0 de 19 1d bf bf 11 ff 3e 92 f3 06 bd 6e db c4 be
       -0.61367595 0.49818227 -0.03294713 -0.38448662
0000e0 e1 33 88 3e e8 7e 09 3f be cc 5a 3d 5b b8 02 bf
       0.2660208 0.5370927 0.053417914 -0.51062554
0000f0 18 aa d7 bd 96 18 f3 bb fa 4b 49 bb 95 e8 64 bd
       -0.1053049 -0.0074187024 -0.0030715452 -0.05588587
000100 d1 0a 55 3e 27 24 f7 bd 0f 02 1a be 58 ea 0f be
       0.20804907 -0.120674424 -0.15039848 -0.14054239
000110 87 4a de bb cf ea 22 be 24 d3 00 3e c0 ca 17 3e
       -0.0067837867 -0.15909885 0.12580544 0.14823437
000120 27 c2 a1 3e 0e 43 9c be 3d c1 d1 3e dd b3 cc bd
       0.3159344 -0.3051991 0.40967742 -0.09995244
000130 02 21 01 3e 21 87 e1 3c 8d 6b 2e bd 0c 17 69 3d
       0.12610248 0.027530255 -0.042583037 0.056906745
000140 6f bb b6 3d 06 65 af be 7d f7 b9 3e 4e e8 b1 3e
       0.08922469 -0.34256762 0.3632163 0.34747547
000150 d2 a8 bd 3e 80 54 08 3f 76 c7 af 3e 16 bb e2 3d
       0.37042862 0.53253937 0.34331864 0.1107084
000160 c3 5f 54 be 2d e9 5d 3e 67 53 8b 3d de c0 b9 3d
       -0.20739655 0.21670981 0.06803017 0.090699896
000170 9d ee 5d 3e 97 de b5 3e 53 2c be bc 73 c3 05 bf
       0.21673055 0.35521385 -0.023214495 -0.52251357
000180 28 49 f6 3d fb 9b 22 3e 03 39 ba 3d e1 c1 7f 3e
       0.12025672 0.15879814 0.09092905 0.24976303
000190 07 42 7d be df 0a b2 3e a4 7a 1e 3d 97 26 53 be
       -0.24732219 0.3477392 0.038691178 -0.2062019
0001a0 88 14 dc 3d 59 bf a8 3e 7c 05 58 3c c5 e0 0c bf
       0.107461035 0.32958487 0.013184901 -0.5503047
0001b0 cd 33 21 3f b3 dc 4a 3d 52 14 f9 3d 86 dc dc 3d
       0.62969667 0.04952688 0.12162079 0.10784249
0001c0 e4 d4 7d be 77 b3 24 3e 38 f3 94 bd 8a f0 9e 3e
       -0.24788243 0.16084085 -0.07272953 0.31042892
0001d0 24 32 d3 be ac 6d bb be 2f fa 03 3f 24 b6 96 3d
       -0.41249192 -0.3660711 0.51553625 0.07358959
0001e0 99 49 d6 bc 89 4c ed 3e 0d de ab 3d a5 ab 5d 3e
       -0.026158141 0.46347454 0.08391962 0.21647508
0001f0 cc 74 83 3e 39 5a cd 3d f3 74 45 3e d5 72 cf 3d
       0.25675046 0.10026974 0.19282894 0.10129324
000200 67 f6 30 3e 9c 92 c1 bc c9 4d 43 3c 55 8f a4 be
       0.17281495 -0.02362948 0.011920401 -0.32140604

down3.bias f4 [11]
000000 71 b1 97 be 65 ba c7 3d 58 c5 92 be c6 d2 cb 3d
       -0.29627565 0.09752349 -0.28666186 0.09952311
000010 73 78 54 bc 64 56 52 be 24 f4 69 3e cd ac 48 3d
       -0.01296817 -0.20540768 0.22847039 0.04899292
000020 69 aa c1 3d 8c 60 29 3e bc 95 a6 3c
       0.09456331 0.16540736 0.02033507

down4.weight f4 [10, 11]
000000 e8 1d 68 bf 5e 3c d7 bd a1 d6 8e be 4d a4 42 be
       -0.90670633 -0.10509561 -0.27898124 -0.19007988
000010 e8 08 5a bd d3 d3 03 bd 3b 0e 80 3e 09 d1 b5 3e
       -0.05323115 -0.032184433 0.25010857 0.35511044
000020 02 1a 62 bd 45 7e bf 3e 8d 74 7b be 05 8f c8 3e
       -0.055200584 0.37401024 -0.2455618 0.39171615
000030 23 31 a5 be 94 b2 c4 be ee 79 ad 3e bf 04 be 3e
       -0.3226405 -0.38417494 0.33882087 0.37112996
000040 f3 6b 48 be 10 ef d9 3e 2c 17 b0 3d 95 77 5f 3c
       -0.1957243 0.42565203 0.0859817 0.01363935
000050 63 dd 12 3f 0e a7 c6 bd 41 9a 31 3c 52 0c 8e bc
       0.5736906 -0.09699832 0.01084 -0.01733986
000060 7c 06 28 be 88 26 91 be 66 31 d5 3d 63 af f9 bd
       -0.16408724 -0.2834971 0.10409813 -0.121916555
000070 2d 03 d2 3d e9 62 aa bd a3 80 ae bd 91 47 de bc
       0.10254512 -0.08319647 -0.08520629 -0.027133735
000080 06 38 0a 3e e2 e6 d3 be a9 ce db be 5c 6b 0d bf
       0.13497934 -0.41387087 -0.42931107 -0.5524194
000090 91 45 da 3e 00 bc 67 3e ad 88 84 be 9d 9f 59 be
       0.426312 0.2263031 -0.25885525 -0.21252294
0000a0 e9 b7 a6 3e d7 75 b3 3e fd cf 96 be db 58 9a 3e
       0.32562187 0.35050842 -0.29455557 0.30145916
0000b0 88 b7 7b bd cb 65 67 be 60 7f 25 3e fe c5 1e be
       -0.061454326 -0.22597425 0.16161871 -0.15505216
0000c0 2d 4c 72 3e e3 60 8d 3e 65 48 1f bb c0 85 fe bd
       0.23661871 0.2761298 -0.0024304625 -0.124278545
0000d0 f2 ea 8e be c2 7d c2 bd db da 1f 3d 14 cc 2c 3e
       -0.27913624 -0.09496643 0.039027076 0.16874725
0000e0 b5 91 f1 be 25 39 10 3f 1b 64 9e 3c e9 df d3 3e
       -0.47181478 0.56337196 0.019334843 0.41381767
0000f0 f8 00 4c bd a1 4f 8d 3e 91 ce 38 3d ee 00 3c 3e
       -0.04980561 0.27599815 0.045118872 0.1835973
000100 33 f6 bf 3e a8 b0 24 3e de f1 60 3f de e4 0a 3e
       0.37492523 0.16083014 0.8786906 0.13563868
000110 79 e7 9f be c0 a6 30 3d a2 fb a6 3e 61 e5 e6 bd
       -0.31231287 0.043127775 0.32613856 -0.11274219
000120 bf e6 e8 bd 3c 56 0f 3e 8e f8 8c 3e 0e 44 dc be
       -0.11372136 0.1399774 0.27533382 -0.43020672
000130 d2 f6 3a be 7d b9 1a bf e7 47 8f be 4f 85 6e bf
       -0.18258217 -0.6043928 -0.27984545 -0.9317216
000140 1e 8b 91 3d 58 22 7e 3e 09 15 40 3c 9e 2f 9c be
       0.071066126 0.24817789 0.011723765 -0.3050508
000150 bb 87 b6 3e 8f 6b bb 3e f7 77 2d bd 4e 8b 32 3e
       0.3565043 0.36605498 -0.042350736 0.17435953
000160 2d e9 3c bd 30 fa 8e be 41 e4 9d 3d 34 b4 4e be
       -0.04612081 -0.27925253 0.077095516 -0.2018593
000170 c7 5c 68 be c5 88 ec bd d0 72 61 be ae 4f 2e bd
       -0.22691642 -0.11549524 -0.22016454 -0.042556457
000180 d5 57 50 be a1 45 2a be d4 a6 55 3e 2a 94 6e bf
       -0.20346005 -0.16628124 0.20864421 -0.9319483
000190 43 1d 02 3f f1 85 77 be 0c 01 8a 3d 5c 70 96 3e
       0.508259 -0.24172188 0.06738481 0.29382598
0001a0 a1 ef 93 3e fd 16 94 be 4b 59 b9 3e 01 d4 83 3b
       0.2889376 -0.2892379 0.36200938 0.0040230756
0001b0 7c 50 2c be d0 2c bd 3e
       -0.16827577 0.36948252

down4.bias f4 [10]
000000 1e b0 83 3e 14 b8 a6 be ba 02 94 bd 8b 30 24 3e
       0.25720304 -0.32562315 -0.072270826 0.16034143
000010 e1 b2 13 be b9 d6 3d bd 39 0e 9b 3e 80 be ec 3d
       -0.14423706 -0.046347354 0.3028429 0.115597725
000020 44 c5 49 bd 90 90 0b 3e
       -0.049260393 0.13629365

down5.weight f4 [9, 10]
000000 74 af 30 be 02 14 21 3f cd 30 3d be d4 70 18 bd
       -0.1725443 0.62921154 -0.18475647 -0.037216976
000010 1a 8c 2e be 98 b3 59 3e 66 c8 7e 3d b2 5c 44 3e
       -0.17045632 0.21259916 0.062202834 0.19175985
000020 5b 70 6f 3e d0 9b b4 bd e2 40 be 3d 38 b0 ac 3e
       0.23382704 -0.088187814 0.09289719 0.33728194
000030 5f a0 b5 3d e1 15 1c 3d af a8 9d be e2 c0 4f 3e
       0.08868479 0.038106803 -0.30792758 0.20288423
000040 cc 94 6b be ef 83 40 be 59 e8 c4 3d b4 a3 b0 be
       -0.2300598 -0.18800329 0.09614629 -0.34499896
000050 45 e2 b3 3e d6 ab 94 3e 06 78 6d be 57 11 cd be
       0.35133567 0.2903735 -0.23190317 -0.40052292
000060 72 79 94 3e 4d 97 6a 3e cd 34 6c be 2e 33 0c be
       0.28998905 0.22909279 -0.23067017 -0.13691399
000070 ef cb 5c bd 34 8c 3b be 5d 2f 28 be 58 43 98 3e
       -0.053905424 -0.18315202 -0.16424318 0.2973888
000080 d1 bb 6f 3e ca 88 7b bd df 87 9f 3e 5d 4e a6 3e
       0.2341149 -0.06140975 0.3115835 0.3248166
000090 58 ab d3 3e d4 15 8d be 49 b8 df bd ce 86 06 be
       0.41341662 -0.27555716 -0.109238215 -0.13137361
0000a0 c5 c9 9f be dd 7b 3c be 79 ef bd 3d 8f e5 33 be
       -0.31208625 -0.18406625 0.092741914 -0.17568038
0000b0 5a 02 61 3e 59 bd 8f bd 6c 5c bf 3e 6b 4e 8a bd
       0.21973553 -0.07018537 0.373752 -0.06753238
0000c0 8f cb 2c 3d cd 92 1f be 40 fd b9 3d b1 57 68 3d
       0.042186316 -0.15583344 0.09081507 0.056724254
0000d0 54 f2 e0 3d 38 86 81 3e b9 7d 53 be 7c 80 44 3e
       0.109837204 0.25297713 -0.20653428 0.19189638
0000e0 3a 89 a1 be 11 72 d5 3e e6 ba 22 3e 5f 6a 89 3e
       -0.31550008 0.41688588 0.15891609 0.26838967
0000f0 9d b2 7e be b6 71 ab be 6a 12 50 3d 14 65 46 be
       -0.24872823 -0.33485192 0.05079881 -0.19374496
000100 af 82 9f be b1 00 00 be 0d 87 80 3e 6c 3e a6 be
       -0.3115439 -0.12500264 0.25103036 -0.324695
000110 c4 bb 08 bd f9 0f 3d bd 89 b9 6a be c0 72 fb 3c
       -0.033382192 -0.04615781 -0.22922339 0.030694366
000120 aa 78 88 3e 93 ab 98 3e f9 d6 81 3e 61 5b 66 be
       0.2665456 0.298184 0.25359324 -0.22495796
000130 69 be da 3e 71 db c1 3e 36 cc 05 be 62 27 20 3b
       0.42723396 0.37862733 -0.13066182 0.0024437536
000140 f1 f0 50 3d c1 70 ea bc 83 39 71 be 6a 62 16 be
       0.05101103 -0.028618218 -0.23557095 -0.1468598
000150 c7 62 54 3c 3a aa 1b 3e 6f a0 a7 bd 9c 71 c5 3e
       0.0129630035 0.15201655 -0.08184897 0.3856324
000160 df 4f 77 3e cb be 09 3f
       0.24151562 0.5380675

down5.bias f4 [9]
000000 a0 d5 9a 3e 6b 50 8b be be 58 85 3e 77 62 4d bd
       0.30241108 -0.27209792 0.26044267 -0.05014273
000010 62 65 00 3e ff 32 93 3e f3 97 e7 3d af 62 8b 3e
       0.12538674 0.28749844 0.11308279 0.27223727
000020 39 71 7f be
       -0.24945535

up1.weight f4 [10, 9]
000000 f8 3e 2f 3e 25 8a 46 3e 6d 1f b6 3e 1d 17 3b be
       0.17113864 0.19388635 0.3557085 -0.18270536
000010 6e 74 93 be 71 b2 51 3e 9b 02 65 be 16 ac 23 be
       -0.28799766 0.20478226 -0.22364275 -0.15983614
000020 a5 98 3c 3d 27 d0 b0 3e 60 14 70 bd a0 72 da 3e
       0.04604401 0.34533808 -0.05861318 0.42665577
000030 b4 ad 0a 3f ee a1 4c 3d 03 dc 8c be 4d 08 46 be
       0.541713 0.049959116 -0.27511606 -0.19339104
000040 84 ea 8c 3d 63 18 ba be 54 85 4f 3e 35 80 88 be
       0.06880668 -0.3634673 0.20265704 -0.26660314
000050 95 ab a6 be 70 b5 b7 3d 22 04 c5 be 90 71 eb 3d
       -0.32552782 0.08970153 -0.38479716 0.1149627
000060 b6 c4 de be 95 1e 83 3e 84 01 9c 3e 70 c8 30 be
       -0.43509454 0.2560927 0.30469906 -0.17263961
000070 93 ff 7c 3e 56 75 6e 39 cb d3 23 3d d2 17 a0 be
       0.24706869 0.0002274116 0.039996903 -0.31268173
000080 b8 49 52 be e6 5c 02 3e 50 15 4e be e6 a8 4e be
       -0.20535934 0.1273075 -0.20125318 -0.20181617
000090 f4 cd 94 be e4 8e 1c 3e b9 fc 2b 3d dd 83 6c 3e
       -0.2906338 0.15288883 0.041989062 0.23097177
0000a0 ec 84 7b be c6 7a 04 3e 03 07 9c 3e f0 a4 91 be
       -0.24562424 0.1293746 0.304741 -0.2844615
0000b0 46 39 fe bc 96 18 a2 3e 0f 22 b3 bc c2 b0 9a be
       -0.03103317 0.31659383 -0.021866826 -0.3021298
0000c0 f4 7c 5e 3e ef d0 19 be 6f 1b 7f 3e b6 95 6c be
       0.21727353 -0.15021108 0.24912809 -0.23103985
0000d0 56 37 00 3f 72 09 1d 3e b3 31 3c 3e 01 d8 ae 3e
       0.50084436 0.15335634 0.18378334 0.34149173
0000e0 10 e9 04 3d 43 23 c0 3e de 77 b6 bc e6 5a db 3d
       0.03244883 0.37526903 -0.022273954 0.10710697
0000f0 7b a6 2e 3e 5f 84 bc 3d a6 35 9d be 2b 4b 52 3c
       0.17055695 0.09204935 -0.30704993 0.012835304
000100 e8 6e 2d 3e d8 79 30 be 7b 59 34 3e 07 49 81 be
       0.16936839 -0.1723398 0.17612259 -0.25251028
000110 ab e3 05 bc a2 2c a7 3e c0 59 2a bd 00 8d f1 3c
       -0.008171956 0.3265124 -0.0415895 0.02948618
000120 cb 99 be bc 8e f8 b1 bc 3b d3 d1 be d9 5d 13 3c
       -0.023266694 -0.021724965 -0.4098147 0.008994543
000130 56 f2 9b bc 91 82 77 3e 11 8a 08 3d 29 e0 9a 3e
       -0.019036453 0.24170901 0.033334795 0.30249146
000140 b3 54 b2 3e 79 2e be 3d 80 2c 2b 3e a8 59 05 be
       0.34830245 0.09286208 0.16716194 -0.13022482
000150 fc 33 86 3e 18 1f 97 be 06 a6 fc 3d 47 c8 60 be
       0.26211536 -0.2951591 0.12336354 -0.219514
000160 d9 db 72 3e b3 2f 3a 3e
       0.23716678 0.18182258

up1.bias f4 [10]
000000 5f fd 63 3e 37 2d 56 3e fe f2 f2 bb ee 38 6c be
       0.22264622 0.20915686 -0.007414221 -0.23068592
000010 57 9c 09 bc 51 c1 c7 bc f4 63 3c 3e 28 2e 4c be
       -0.008399091 -0.024384173 0.18397504 -0.19939482
000020 68 f7 42 3e 62 8f 81 3e
       0.1903969 0.25304705

up2.weight f4 [11, 10]
000000 4e 25 80 3e 8d c1 a2 be 2c d8 78 3e 14 97 16 be
       0.2502846 -0.31788293 0.24301213 -0.14706069
000010 43 5c f5 3d 60 7b 0b 3d 80 f8 7d 3c 75 43 9e 3d
       0.11980488 0.034053206 0.015501142 0.0772771
000020 af 05 4a 3e 7f 0a f3 bc ce 50 1c 3d 45 a6 86 3d
       0.1972873 -0.02966809 0.038163 0.06574682
000030 71 41 4f 3e d3 78 2f be 4d fe 43 3e ac 3f fe 3d
       0.20239808 -0.17135935 0.19139977 0.12414488
000040 a2 c2 b0 3e 6a 3c 2d 3d b8 eb 17 3e e9 96 55 3e
       0.34523493 0.042293943 0.14836013 0.20858349
000050 87 12 1b be 25 b5 16 3c 77 04 39 3e 84 5f e4 bd
       -0.15143786 0.009198462 0.1806811 -0.11151031
000060 8a 43 8a 3e fc ef f9 bd ec f7 b7 be 35 72 a6 bd
       0.27004653 -0.122039765 -0.35931337 -0.08127252
000070 5f ee 9b 3e d5 57 7c 3e 8e 62 8b 3e db 2e 88 be
       0.304553 0.2464288 0.2722363 -0.26598248
000080 36 b3 88 be 35 de 76 be 99 ff 32 be 1d 92 08 be
       -0.26699227 -0.24108203 -0.17480315 -0.13336988
000090 5b bc 62 be 87 de 40 3e 5d cf 9e 3e ea 81 55 3c
       -0.22142164 0.18834887 0.3101758 0.013031462
0000a0 31 1f 9a 3e d0 a3 d9 3d b2 a3 75 be 0c 16 85 3e
       0.30101922 0.10626948 -0.23988226 0.25993383
0000b0 f3 06 af bd 18 3f 84 3e d1 27 98 be 3a b2 01 be
       -0.08546247 0.25829387 -0.29717878 -0.12665644
0000c0 38 fe 6d bd 1c b7 3d be e0 cc 6b be 43 1e 76 3e
       -0.05810377 -0.18526882 -0.23027372 0.24034981
0000d0 4b 94 9c be 8e 06 09 be 57 05 8c 3e ec 17 a9 3e
       -0.3058189 -0.13381407 0.27347824 0.33026063
0000e0 7b ea 0d be fb 42 07 3e 20 30 f7 3d 0f 63 d0 bd
       -0.13858978 0.13209145 0.12069726 -0.10175144
0000f0 4a 6f d3 bd f7 0d d5 bd 34 07 74 3e 07 45 90 3e
       -0.10323961 -0.10403054 0.23830873 0.28177664
000100 ad f7 66 bd b2 3e c6 3e 33 c7 9f be be 9b 07 be
       -0.056388546 0.38719708 -0.31206664 -0.13243005
000110 1b 49 8a bd ac ec 5d be b8 d4 9f 3e 54 c6 82 3d
       -0.06752225 -0.21672314 0.3121698 0.06385484
000120 ea 2c a4 3e c0 fb da 3d 9f fd 11 3b 7b c7 2f be
       0.32065517 0.10692549 0.0022276414 -0.1716594
000130 e5 79 0e 3e d0 14 9c 3e c4 13 3e be fc ca b0 bd
       0.13913687 0.3048463 -0.18562227 -0.08632466
000140 ac d3 03 3e 22 68 4a 3e 42 bb 3c be b8 a6 7b 3e
       0.12873715 0.19766286 -0.18430808 0.24575317
000150 b0 b8 22 be f2 b5 c4 3d 3b af 20 3b 28 b8 81 3e
       -0.15890765 0.09605016 0.0024518508 0.25335813
000160 6c d2 13 be 5a 6a 89 3e ff 2c 62 be 63 57 b1 3d
       -0.14435738 0.26838952 -0.22087477 0.08659246
000170 68 c7 78 3d 91 09 6b 3d 1e e1 95 3c bb fc ae 3e
       0.060737044 0.05738217 0.01829582 0.34177193
000180 29 75 82 3e 46 18 72 be a7 ed 2e 3d fd 36 8b bd
       0.2548001 -0.23642072 0.04270711 -0.067975976
000190 4a 7b 29 bd 97 ff 91 3e e1 c4 d9 3d e7 4b dc 3c
       -0.041377343 0.28515312 0.10633255 0.026891662
0001a0 48 86 65 bb 10 2e 80 3d 00 ef dc bd 23 96 f3 3d
       -0.0035022665 0.06258786 -0.10787773 0.11893871
0001b0 ec de 84 be 76 68 0a 3e
       -0.25951326 0.13516411

up2.bias f4 [11]
000000 37 0b ba bc f8 d5 3c 3e dc eb 8d 3e e9 dc 3f be
       -0.022710426 0.18440998 0.2771901 -0.18736614
000010 7a 39 89 3e b4 1c a4 3e 34 1c 87 be f7 a1 a2 3d
       0.26801664 0.3205315 -0.26388705 0.079410486
000020 7d 74 81 b9 ca 1c 32 3e ee 71 64 3c
       -0.00024691588 0.17393795 0.013943179

up3.weight f4 [12, 11]
000000 8a 7a 74 be 0b 54 74 3e 18 21 97 bd a6 f1 59 3e
       -0.2387487 0.23860185 -0.07379359 0.21283588
000010 ff 08 6b be ae 92 83 3e 96 c6 ec be 51 a7 30 3d
       -0.2295265 0.25697845 -0.4624526 0.043128315
000020 39 c5 6d be c8 b5 85 3e 59 0e 90 3d 5e 3a 63 3e
       -0.23219766 0.2611525 0.070339866 0.22190234
000030 65 a4 cd 3d 45 03 a1 3d eb 81 3b 3e 39 cc 3a be
       0.100411214 0.07861952 0.18311279 -0.18241967
000040 16 91 6f be 23 5a d9 be 27 b8 8a 3e 0f 3f 84 3e
       -0.2339519 -0.4245158 0.27093622 0.2582936
000050 75 4e 83 be d7 b0 b6 3d fb df 89 3e 9e 74 8c 3e
       -0.25645795 0.08920448 0.26928696 0.27432722
000060 68 90 3e 3c 59 39 96 3e 99 9b cc be 9c 9b 16 be
       0.011631109 0.29340628 -0.39962462 -0.14707798
000070 d6 46 c3 3b b6 77 0c be 60 4e b3 3c 4a 40 06 be
       0.005959372 -0.13717541 0.021887958 -0.13110462
000080 86 6e 48 3e 7c 1c 1b be 21 cd 2c be 16 5c 90 be
       0.19573411 -0.15147585 -0.16875125 -0.28195256
000090 f8 cc e3 3c 33 98 1b bd 11 b2 14 3e ac cf c6 3e
       0.027807698 -0.037986945 0.14521052 0.38830316
0000a0 6e ca d9 bd 1d b1 99 3e 00 d7 9b 3e 49 9b cc 3d
       -0.106343135 0.3001794 0.3043747 0.09990556
0000b0 1d 3a f4 3d 8f 01 88 bd b1 5f dd 3a d5 cc 3b be
       0.11925147 -0.06640922 0.001688948 -0.18339856
0000c0 24 6b 70 3d 44 86 35 be c0 fa 4e be 8f 34 a3 3e
       0.058695927 -0.17727 -0.20212841 0.31876037
0000d0 f7 2e 1a bd 53 78 b1 3d b7 38 cd 3e b2 86 9e 3c
       -0.037642445 0.08665528 0.40082332 0.019351337
0000e0 b8 5f 85 bc d1 fd dc 3d 4f b0 30 3e 5e 71 2f 3d
       -0.016280994 0.10790599 0.17254756 0.042832725
0000f0 7c ea 87 be d7 bd 6e bd b3 0f 5e be 07 1d 4d 3e
       -0.26546085 -0.058286514 -0.21685676 0.20030604
000100 53 2d af 3d 7c 5a a5 bd 76 93 3b 3e 7c 9e 91 3d
       0.08553567 -0.08073899 0.1831797 0.071103066
000110 68 fd 52 3e 73 2e 0e be 5a 6b 36 be 54 3f 68 3e
       0.2060448 -0.13884906 -0.17814389 0.22680408
000120 d9 0c 01 3f 57 fd 97 bd ce 13 43 3e 95 18 6e 3d
       0.5041023 -0.074213676 0.19050524 0.058128912
000130 f1 76 a5 3c 22 78 1d be 1a c2 20 3e c2 e4 13 3e
       0.020198317 -0.15377858 0.15699044 0.14442733
000140 40 cc 95 3d 4c 3a 53 be 2d ba d4 bb d3 05 00 be
       0.07314348 -0.20627707 -0.0064919204 -0.12502222
000150 32 cc 54 3e e9 5d 05 be a5 2c ce 3a 1c 74 cb bd
       0.2078102 -0.13024105 0.0015729858 -0.099342555
000160 b4 84 b4 be 1d a2 d2 3c 5d 23 59 be a7 d8 04 3e
       -0.35257494 0.025712067 -0.21204896 0.12973271
000170 b5 e8 49 3e 34 03 00 3e 1e 05 c6 3e 60 54 aa 3e
       0.19717677 0.12501222 0.3867578 0.33267498
000180 97 ea d8 3d 76 69 0d be 3a 3d 90 3e a1 ab 64 be
       0.105916195 -0.13809761 0.28171712 -0.22331096
000190 69 6c 26 3e 41 b4 84 bc fa 28 87 be 9e 4d 32 be
       0.16252293 -0.016199233 -0.2639845 -0.17412421
0001a0 d4 b8 2a be 24 b3 d3 bd e3 0f 52 3d cd b7 84 be
       -0.16672069 -0.10336903 0.051284682 -0.2592148
0001b0 13 4f 77 3e 2d 6c 10 be 30 2b bd bd e5 0e 8b 3e
       0.24151258 -0.14103766 -0.09236753 0.271598
0001c0 41 7c 2e be fb 40 80 be f5 58 3d 3d 2e 01 77 be
       -0.17039587 -0.25049576 0.046227414 -0.24121544
0001d0 2c 18 81 bc f0 99 57 3e fc 04 cc bd 15 3b 18 be
       -0.015758596 0.21054816 -0.09961888 -0.14866288
0001e0 a7 20 be bd 16 dd 14 be 1f ed f3 3c d7 b7 bb 3d
       -0.09283572 -0.14537463 0.029776154 0.09165924
0001f0 ba 78 14 3e 94 64 63 be 28 7b d5 bd df 7a 41 3f
       0.14499179 -0.22206336 -0.10423881 0.7557811
000200 13 9b ce 3e bc c8 dd 3e b5 22 29 be 1a 1f 72 bd
       0.40352687 0.4331721 -0.16517146 -0.059111692

up3.bias f4 [12]
000000 58 2c 14 be 28 5b fc bd 96 70 a1 3c 38 06 83 3e
       -0.14470041 -0.12322074 0.019707005 0.25590682
000010 d6 e1 bb bd d8 bc e5 3d d9 ae 86 be 4a 99 6a bd
       -0.09173934 0.1121766 -0.26305273 -0.057275094
000020 aa 77 16 3d 48 81 14 3e 1b b0 26 3d 71 cb 6d bd
       0.036735214 0.14502442 0.04069529 -0.058055345
