W_3/3.0_model_Plate 19635 _CD8.pt (torch, 8290 bytes, 16 tensors)

down1.weight f4 [12, 15]
-0.16262993 0.21842636 0.25642028 -0.14025678 0.11410175 -0.032866355 -0.17391144 -0.18073314
-0.064603925 -0.14773539 -0.06752954 -0.111731626 -0.061827473 -0.08790262 -0.025217075 -0.22598664
-0.19654426 -0.12893067 -0.113663755 0.0026441242 0.14474091 -0.25118524 0.22201104 -0.109311044
0.15816197 -0.07909017 0.062166337 -0.19100831 -0.07461792 0.12066395 0.2558494 0.42541438
0.18346617 0.36694068 0.39036265 0.12561534 0.15418598 0.24444534 0.43947917 0.101221204
0.12763692 0.13524833 0.03496505 0.6375463 0.25584525 0.24578314 -0.107203744 0.03954887
-0.035643566 0.20275538 0.24673888 0.2586119 0.063475735 0.11810375 -0.07599233 -0.012184942
0.06472418 0.45890728 0.001029775 0.6444786 0.10427036 0.16299132 0.42360887 -0.059256602
-0.023713116 0.26431206 0.27333537 0.36148682 0.2784153 -0.025723105 0.05124479 -0.15272485
0.12890944 0.271737 0.26817712 0.09096818 0.2433549 0.15117612 0.1792174 -0.045047883
0.14226839 0.16296661 0.10838307 0.36332446 0.08290207 -0.20901224 0.49545366 0.17768669
-0.16569172 0.2814221 -0.03283285 0.25467226 0.303128 0.14569633 -0.011437404 0.11790586
-0.024159843 -0.12016811 -0.14616261 -0.186716 0.2271988 -0.21765567 -0.3122479 0.23351747
0.6331487 -0.14359216 0.20229243 -0.1496535 -0.22592142 0.05526016 0.022488937 0.22188307
0.2784561 0.59216005 -0.054727912 -0.09205703 -0.3772465 -0.2263872 0.17565905 -0.4659238
0.11293978 0.042263914 -0.062160295 0.124475874 -0.15499467 -0.14903246 0.2035436 0.09757504
0.20134921 -0.2857009 -0.23728141 0.24274203 -0.07314495 0.35351565 -0.50103045 0.16895261
0.2929383 0.34749445 -0.009094082 0.23547828 0.27650583 0.3702623 -0.07723196 0.12096068
0.37511894 -0.06807221 0.55145764 -0.010840459 0.29630932 -0.12840565 0.15556723 0.30488452
0.3390625 0.29304776 0.18757145 0.14636171 -0.040669374 -0.16076294 -0.4187694 0.053449064
0.091723464 0.018500801 0.14141494 -0.5577625 0.09280783 0.22317095 0.083931394 0.40150717
0.1487362 0.11080431 0.28880313 -0.21756785 -0.17709796 -0.18679573 0.6284034 0.35903645
0.017775092 0.029659212 0.0917604 0.032528207
00000000: 7688 26be 29ab 5f3e 8549 833e 799f 0fbe
00000010: 2eae e93d df9e 06bd d715 32be 1c12 39be
00000020: 104f 84bd f247 17be ed4c 8abd 8dd3 e4bd
00000030: ce3e 7dbd 4a06 b4bd 0a94 cebc 0b69 67be
00000040: e642 49be 6706 04be 8bc8 e8bd 0b49 2d3b
00000050: f636 143e 5a9b 80be dd56 633e 78de dfbd
00000060: 36f5 213e 07fa a1bd 21a2 7e3d af97 43be
00000070: 48d1 98bd a91e f73d b1fe 823e eacf d93e
00000080: 8ede 3b3e a6df bb3e 9ddd c73e 4fa1 003e
00000090: eee2 1d3e e14f 7a3e 6a03 e13e 104d cf3d
000000a0: 41b3 023e 8a7e 0a3e 8337 0f3d 3c36 233f
000000b0: 26fe 823e 93ae 7b3e a38d dbbd fffd 213d
000000c0: fdfe 11bd 1b9f 4f3e 1ea9 7c3e c768 843e
000000d0: 91ff 813d 61e0 f13d dea1 9bbd 5aa3 47bc
000000e0: 1c8e 843d e5f5 ea3e 84f9 863a 8dfc 243f
000000f0: b38b d53d 32e7 263e 43e3 d83e 0db7 72bd
00000100: 0242 c2bc e953 873e 9df2 8b3e cd14 b93e
00000110: 738c 8e3e 43b9 d2bc 0fe6 513d e763 1cbe
00000120: d600 043e 1d21 8b3e 834e 893e 864d ba3d
00000130: 0732 793e eacd 1a3e c484 373e 2184 38bd
00000140: ceae 113e b8e0 263e f1f7 dd3d aa05 ba3e
00000150: 8fc8 a93d 4e07 56be 1aac fd3e 80f3 353e
00000160: 17ab 29be 8f16 903e bd7b 06bd 6764 823e
00000170: 9833 9b3e 6b31 153e f363 3bbc a178 f13d
00000180: ddea c5bc b31a f6bd a7ab 15be 7b32 3fbe
00000190: cda6 683e 21e1 5ebe f5de 9fbe 341f 6f3e
000001a0: 0916 223f d309 13be bf25 4f3e c43e 19be
000001b0: f257 67be 7a58 623d b83a b83c 5135 633e
000001c0: cc91 8e3e cd97 173f 602a 60bd 6588 bcbd
000001d0: 7426 c1be 0cd2 67be f7df 333e 908d eebe
000001e0: f94c e73d ed1c 2d3d cb9b 7ebd 35ed fe3d
000001f0: ecb6 1ebe f79b 18be bc6d 503e 6cd5 c73d
00000200: 7d2e 4e3e 6347 92be e6f9 72be 5e91 783e
00000210: 05cd 95bd 0100 b53e 8843 00bf ea01 2d3e
00000220: 02fc 953e cbea b13e 58ff 14bc 3821 713e
00000230: 2c92 8d3e 0593 bd3e ca2b 9ebd 3cba f73d
00000240: 970f c03e 7169 8bbd 542c 0d3f 2e9c 31bc
00000250: dbb5 973e c57c 03be 044d 1f3e d319 9c3e
00000260: 9a99 ad3e 5b0a 963e bb12 403e d8df 153e
00000270: ee94 26bd 0a9f 24be f168 d6be 68ed 5a3d
00000280: 83d9 bb3d fe8e 973c 14cf 103e 86c9 0ebf
00000290: 0812 be3d ed86 643e 39e4 ab3d 5992 cd3e
000002a0: 4d4e 183e 5fed e23d 01de 933e 1bca 5ebe
000002b0: 2b59 35be 6147 3fbe 0cdf 203f a0d3 b73e
000002c0: 129d 913c e0f7 f23c e0ec bb3d 4c3c 053d

down1.bias f4 [12]
-0.097263284 -0.25885245 0.109861016 0.0385524 0.5412459 0.04333996 0.22040552 0.07605144
-0.14670463 0.16234344 0.38222316 0.12092428
00000000: f931 c7bd 4f88 84be d0fe e03d 1fe9 1d3d
00000010: 178f 0a3f 3e85 313d fcb1 613e dbc0 9b3d
00000020: bd39 16be 5c3d 263e c1b2 c33e 26a7 f73d

down2.weight f4 [9, 12]
-0.17550623 0.086284615 -0.0057357475 0.6000482 0.109000675 0.17867392 0.08723748 0.2816754
0.22138706 0.015646378 -0.2655672 -0.20516987 0.1251457 -0.22678368 -0.100950375 -0.34621522
0.12460791 -0.5172173 0.80620223 0.43990427 0.15323699 -0.4105991 0.3270883 0.47857752
0.18203427 -0.27197626 -0.18683647 0.07430024 -0.14460605 -0.15364553 -0.04756607 -0.07242413
-0.109619394 -0.027228508 -0.18242812 -0.24863555 -0.2505879 -0.23180671 -0.06436448 -0.15525609
0.12676252 -0.14974111 -0.23822659 0.2039553 0.10867178 -0.1733796 0.041163303 0.083935015
0.07172606 0.027708154 -0.18924455 -0.055776246 0.21085508 -0.25247338 0.20817359 0.015206346
-0.16396356 -0.12795877 -0.27788937 -0.1829546 0.21484992 -0.17813556 0.56511605 -0.55270797
0.37167 -0.29940072 -0.27319402 0.47925106 -0.7918425 0.32618436 -0.50327027 -0.10903539
-0.05664684 -0.21530238 0.090622574 0.10529699 -0.052181356 0.035322003 -0.46147084 0.11472789
-0.43559575 0.33859658 -0.22816955 0.289268 -0.007942121 -0.020106513 -0.29183683 -0.25604174
-0.2573817 -0.18376629 -0.0732423 0.29319453 0.22084706 -0.27745658 0.1770651 -0.11678288
0.1800322 -0.15012583 0.20319496 0.5337583 0.03453598 0.40343297 0.32432014 0.19144464
0.2583137 -0.30489096 -0.40138736 -0.38143343
00000000: e8b7 33be fdb5 b03d f0f2 bbbb c29c 193f
00000010: bf3b df3d 4cf6 363e 90a9 b23d c237 903e
00000020: 4ab3 623e d52c 803c 6df8 87be 0d18 52be
00000030: 3226 003e fb39 68be 12bf cebd 1f43 b1be
00000040: 6f32 ff3d 5a68 04bf 4563 4e3f 223b e13e
00000050: 28ea 1c3e 0c3a d2be 1e78 a73e 1d08 f53e
00000060: 3167 3a3e 7940 8bbe 0f52 3fbe b92a 983d
00000070: 9c13 14be 4155 1dbe a4d4 42bd 1a53 94bd
00000080: 2280 e0bd 520e dfbc 70ce 3abe 519a 7ebe
00000090: 0f4d 80be bd5e 6dbe 86d1 83bd 74fb 1ebe
000000a0: 09ce 013e bc55 19be acf1 73be a8d9 503e
000000b0: 4f8f de3d 6c8a 31be da9a 283d 1fe6 ab3d
000000c0: 1de5 923d 36fc e23c 53c9 41be a275 64bd
000000d0: 65ea 573e 3144 81be 752b 553e 0a24 793c
000000e0: 10e6 27be a007 03be 8447 8ebe 7358 3bbe
000000f0: 9e01 5c3e 2b69 36be 72ab 103f 457e 0dbf
00000100: 884b be3e 0d4b 99be 16e0 8bbe 6560 f53e
00000110: 31b6 4abf a301 a73e 52d6 00bf f24d dfbd
00000120: 8406 68bd 3a78 5cbe 5498 b93d f3a5 d73d
00000130: 1ebc 55bd cead 103d e845 ecbe 75f6 ea3d
00000140: 6806 dfbe 885c ad3e 47a5 69be ef1a 943e
00000150: ab1f 02bc 6ab6 a4bc a36b 95be e717 83be
00000160: 89c7 83be 3b2d 3cbe 0f00 96bd 981d 963e
00000170: bb25 623e ca0e 8ebe 8e50 353e dd2b efbd
00000180: 5c5a 383e 96ba 19be 5712 503e 62a4 083f
00000190: 9a75 0d3d c48e ce3e 4a0d a63e 100a 443e
000001a0: b141 843e ab1a 9cbe a582 cdbe 3e4b c3be

down2.bias f4 [9]
0.022995545 0.29245833 -0.03568947 -0.18823853 -0.13348296 0.3614169 -0.18151246 0.15990184
0.19464877
00000000: 2761 bc3c 19bd 953e 1f2f 12bd 9ac1 40be
00000010: c2af 08be a30b b93e 67de 39be 4fbd 233e
00000020: 0252 473e

down3.weight f4 [8, 9]
0.27531984 -0.009877404 0.29350072 -0.2843114 0.15965673 -0.23386475 -0.09009484 -0.2548287
-0.24950974 -0.13969712 -0.32851005 -0.12866867 -0.069553494 -0.28014165 -0.21334422 -0.08532163
0.24356008 0.021966696 -0.13015501 0.010186571 0.17789909 -0.21977948 -0.009948922 0.71457636
0.06546137 0.1782748 -0.030150523 0.019934017 -0.47306395 0.23611832 -0.18448816 0.2610758
0.52842313 0.6527365 -0.22634901 0.04759676 -0.32224533 0.017561793 -0.15566826 0.27200884
-0.29973298 -0.24804878 0.024490755 -0.3066039 -0.1524164 -0.2967881 0.71305543 0.30234104
-0.117721096 0.016499495 0.5772038 -0.4748057 -0.07618908 -0.12500721 -0.06450181 0.00096793973
-0.26494467 -0.2778411 -0.064566895 -0.28713304 -0.26288137 0.32876736 -0.17130546 0.63764507
-0.07334909 0.18790019 0.23042393 -0.03978249 0.25501686 -0.46246445 -0.24870846 0.64018625
00000000: b9f6 8c3e d6d4 21bc ba45 963e 4491 91be
00000010: 0e7d 233e 3e7a 6fbe a583 b8bd e878 82be
00000020: 7b7f 7fbe c30c 0fbe 7832 a8be b8c1 03be
00000030: 1072 8ebd ba6e 8fbe e876 5abe 1bbd aebd
00000040: d067 793e 80f3 b33c 5b47 05be 93e5 263c
00000050: 2e2b 363e df0d 61be ce00 23bc 7aee 363f
00000060: 9c10 863d ab8d 363e 3bfe f6bc aa4c a33c
00000070: 7035 f2be 00c9 713e 77ea 3cbe baab 853e
00000080: bd46 073f bd19 273f 09c8 67be d2f4 423d
00000090: 57fd a4be c0dd 8f3c 8067 1fbe be44 8b3e
000000a0: 9a76 99be 8000 7ebe d6a0 c83c 30fb 9cbe
000000b0: 0b13 1cbe 9cf4 97be cd8a 363f 72cc 9a3e
000000c0: c217 f1bd f329 873c a1c3 133f bc19 f3be
000000d0: 0509 9cbd e401 00be 8619 84bd 56bd 7d3a
000000e0: d4a6 87be 3041 8ebe a63b 84bd 1a03 93be
000000f0: 6398 86be 3254 a83e b36a 2fbe b53c 233f
00000100: 0c38 96bd e868 403e 40f4 6b3e f7f2 22bd
00000110: 9291 823e 24c8 ecbe 6ead 7ebe 3fe3 233f

down3.bias f4 [8]
-0.13829756 -0.18333535 -0.41521448 0.3942046 -0.2770445 0.11324804 -0.20198295 -0.06629864
00000000: e09d 0dbe 43bc 3bbe fe96 d4be 2fd5 c93e
00000010: c7d8 8dbe 97ee e73d 9ed4 4ebe 95c7 87bd

down4.weight f4 [7, 8]
-0.03837027 -0.1424689 0.5865476 0.4599314 -0.22193843 -0.110440426 -0.027183706 0.6438494
0.22419797 -0.3177688 0.21528906 0.21528079 -0.25149664 0.06259556 -0.2778808 -0.20707135
-0.30858916 0.20017801 0.5874914 0.32015875 -0.03552992 0.79351217 0.14587441 0.18956366
0.2802013 0.025389977 -0.35102105 -0.62746185 0.33896464 0.62851125 -0.33573315 0.7010988
0.034115892 -0.12651847 -0.24873106 -0.27246597 0.061176106 -0.1128749 -0.07516422 0.07186459
0.07729573 0.0116288215 0.21917035 -0.72165924 0.14372303 0.19756654 -0.0762152 0.75842994
0.14724515 -0.3171162 0.17357406 0.23134148 0.059036903 0.6449695 -0.19654086 -0.4844369
00000000: 252a 1dbd 5ee3 11be fc27 163f 217c eb3e
00000010: d443 63be 972e e2bd 5db0 debc 50d3 243f
00000020: 2794 653e 98b2 a2be bc74 5c3e 9172 5c3e
00000030: 2bc4 80be 1a32 803d 6446 8ebe 830a 54be
00000040: 66ff 9dbe 77fb 4c3e d665 163f d9eb a33e
00000050: d287 11bd 9d23 4b3f 1a60 153e fa1c 423e
00000060: 8b76 8f3e a4fe cf3c 08b9 b3be 57a1 20bf
00000070: c68c ad3e 1de6 203f 37e5 abbe 367b 333f
00000080: 1bbd 0b3d 0f8e 01be 5bb3 7ebe a980 8bbe
00000090: cc93 7a3d f52a e7bd b3ef 99bd be2d 933d
000000a0: 394d 9e3d d086 3e3c 316e 603e a9be 38bf
000000b0: 212c 133e e24e 4a3e b716 9cbd 7728 423f
000000c0: 6fc7 163e 0e5d a2be 66bd 313e c8e4 6c3e
000000d0: aed0 713d b91c 253f 0242 49be 1d08 f8be

down4.bias f4 [7]
-0.15291929 -0.22305249 -0.1740144 0.44364947 -0.1331531 0.324947 0.040127352
00000000: e096 1cbe df67 64be d530 32be 0626 e33e
00000010: 4959 08be 745f a63e 945c 243d

down5.weight f4 [6, 7]
-0.36237192 -0.7985975 -0.057105813 -0.26837927 0.26042712 -0.29884169 0.6729215 0.3350795
-0.1172446 0.94355273 0.1302326 0.07508927 0.27996156 -0.113561824 0.8525263 -1.0769954
0.47372967 -0.66643393 0.050383005 -0.38832557 -0.16978978 -0.2769742 -1.1632677 0.78494424
-0.18102227 0.14678724 -0.4149326 0.2200614 -0.52846557 -1.4773192 -0.15785664 -0.45188028
-0.066109926 -0.4715351 0.21278518 -0.98874706 -1.1625438 -0.15696296 0.19522373 -0.018763935
-0.21406223 0.09581679
00000000: d088 b9be e370 4cbf c9e7 69bd 0269 89be
00000010: b456 853e c701 99be 9544 2c3f 8a8f ab3e
00000020: f01d f0bd ac8c 713f b25b 053e 67c8 993d
00000030: 1f57 8f3e 1a93 e8bd 2a3f 5a3f fcda 89bf
00000040: b28c f23e 6a9b 2abf 695e 4e3d 9cd2 c6be
00000050: 5fdd 2dbe 90cf 8dbe f5e5 94bf 1bf2 483f
00000060: e75d 39be 654f 163e 0c72 d4be c757 613e
00000070: 8549 07bf cc18 bdbf 2ca5 21be da5c e7be
00000080: a464 87bd 0c6d f1be 5ce4 593e 871e 7dbf
00000090: 3cce 94bf e6ba 20be bbe8 473e d3b6 99bc
000000a0: 2133 5bbe 983b c43d

down5.bias f4 [6]
0.23973364 -0.13791667 0.073974825 -0.50519687 0.09858786 0.123278774
00000000: bc7c 753e 073a 0dbe 1d80 973d 9554 01bf
00000010: 6fe8 c93d 9579 fc3d

up1.weight f4 [7, 6]
-0.5896685 0.6694531 0.56016535 0.13643873 -0.63653344 -0.74178386 -0.3648973 0.21389005
-0.78688514 -0.4131013 -0.11738106 0.24911943 -0.3957008 -0.12323767 0.12593478 -0.30588055
-0.29951903 -0.5273943 0.20212086 0.28269848 -0.51126456 -0.07923483 -0.17884476 -0.018508254
-0.03324262 -0.2431745 0.18126753 -0.60209197 0.08570351 -0.047588926 0.36903498 -0.22557068
0.31804308 -0.2139671 -0.23520654 0.28108808 0.3218488 0.16481745 0.54415464 0.49165466
0.50655967 -0.21298184
00000000: 84f4 16bf 4761 2b3f ff66 0f3f 98b6 0b3e
00000010: dbf3 22bf 8ce5 3dbf d2d3 babe fe05 5b3e
00000020: 4e71 49bf 0382 d3be 7b65 f0bd 2a19 7f3e
00000030: 4c99 cabe 0864 fcbd 0cf5 003e 609c 9cbe
00000040: 8f5a 99be 5003 07bf c5f8 4e3e dbbd 903e
00000050: 3ce2 02bf df45 a2bd 1523 37be 9f9e 97bc
00000060: 6a29 08bd bc02 79be 329e 393e b322 1abf
00000070: 5285 af3d 9bec 42bd 27f2 bc3e 00fc 66be
00000080: 8bd6 a23e 311a 5bbe fcd9 70be c7ea 8f3e
00000090: 5ec9 a43e e8c5 283e b84d 0b3f 29ba fb3e
000000a0: e5ad 013f e917 5abe

up1.bias f4 [7]
-0.088461205 -0.15250294 0.19524746 0.28405803 0.44796333 -0.3967138 0.31855345
00000000: 262b b5bd bb29 1cbe f3ee 473e 0e70 913e
00000010: 735b e53e 121e cbbe 7019 a33e

up2.weight f4 [8, 7]
0.5080347 -0.15029886 -0.20264906 -0.45532033 -0.21717227 -0.25576332 -0.2885852 0.42109948
-0.21677367 -0.16342406 0.045219433 -0.5773623 0.09638738 0.4519995 -0.32641867 0.6258909
0.0203986 0.4432474 0.2174217 -0.045831356 0.075542055 -0.36196992 0.012545772 -0.36412323
-0.2677561 -0.16213073 -0.18792394 0.36817947 0.41359237 0.16074695 -0.43498522 0.37290123
0.123279326 -0.36071983 0.4928014 0.39110714 1.5707792 -0.03741826 0.36588407 -0.2769868
0.3478913 -0.28226855 0.21028678 0.07326014 0.35959783 -0.084230736 0.52644473 0.05340058
-0.2897351 -0.07956772 0.11797147 0.212159 -0.5412964 0.3185218 0.10693555 0.47913638
00000000: 900e 023f f2e7 19be 3c83 4fbe bf1f e9be
00000010: 6862 5ebe 69f3 82be 70c1 93be 5a9a d73e
00000020: ebf9 5dbe a358 27be 0338 393d 04ce 13bf
00000030: bf66 c53d 7a6c e73e 5920 a7be 633a 203f
00000040: f71a a73c 53f1 e23e cba3 5e3e a9b9 3bbd
00000050: cbb5 9a3d 1f54 b9be c88c 4d3c 5c6e babe
00000060: 5417 89be 9905 26be 226f 40be 0582 bc3e
00000070: 61c2 d33e d99a 243e 62b6 debe e9ec be3e
00000080: df79 fc3d 45b0 b8be 7750 fc3e 323f c83e
00000090: 4b0f c93f e443 19bd 2855 bb3e 37d1 8dbe
000000a0: cf1e b23e 8185 90be 6b55 573e 6a09 963d
000000b0: 351d b83e 2a81 acbd 15c5 063f 91ba 5a3d
000000c0: 2958 94be 67f4 a2bd 079b f13d 3540 593e
000000d0: 6792 0abf 4a15 a33e 0701 db3d 5d51 f53e

up2.bias f4 [8]
0.14476252 -0.13279937 0.41084182 -0.31044796 0.27396396 0.16348004 0.07007391 0.40075788
00000000: a03c 143e 8ffc 07be dc59 d23e 09f3 9ebe
00000010: 0145 8c3e 5067 273e e982 8f3d 2330 cd3e

up3.weight f4 [9, 8]
0.5434289 -0.25733584 0.11663596 -0.15101388 -0.12936586 0.053414684 -0.07893073 0.29740077
0.112479426 0.19236353 -0.07794152 0.22833274 -0.14186518 0.03767709 0.071755715 -0.06093221
0.22553262 0.17301002 0.2664703 0.24651009 0.024393355 -0.050885223 0.2522581 0.13669337
0.12311024 -0.14252947 0.24297817 -0.023655508 0.50415546 -0.07655616 -0.3357714 0.5138646
0.038558748 0.14156604 0.026037455 -0.29997206 -0.04916697 0.15738685 -0.3623832 -0.09484304
0.04836705 -0.29170159 -0.116527334 -0.1375571 0.023438556 -0.2954492 0.28573713 0.40631345
-0.25278 -0.22273768 -0.23763841 -0.23507342 -0.0539704 0.027162835 0.33134827 0.54330915
0.1394548 -0.86128426 -0.9503046 0.19545284 0.9200682 0.2244965 -0.32489738 0.05285463
-0.25612372 -0.22500916 -0.18536206 -0.0152840065 -0.15553916 0.40213495 0.25571218 0.23950711
00000000: 281e 0b3f 86c1 83be d6de ee3d 62a3 1abe
00000010: 7c78 04be 5bc9 5a3d 6fa6 a1bd ea44 983e
00000020: 9d5b e63d f2fa 443e ce9f 9fbd 0fd0 693e
00000030: 1b45 11be 4b53 1a3d a9f4 923d 0e94 79bd
00000040: 06f2 663e 8a29 313e cc6e 883e 246d 7c3e
00000050: 93d4 c73c 066d 50bd f927 813e 59f9 0b3e
00000060: 3921 fc3d 3ff3 11be 45cf 783e 32c9 c1bc
00000070: 5510 013f 7ac9 9cbd 3bea abbe a18c 033f
00000080: c7ef 1d3d b0f6 103e 804c d53c f095 99be
00000090: 4e63 49bd 052a 213e 4a8a b9be 113d c2bd
000000a0: 871c 463d e959 95be e2a5 eebd c5db 0cbe
000000b0: 3702 c03c 1e45 97be 234c 923e 5108 d03e
000000c0: 616c 81be 5915 64be 7c57 73be 16b7 70be
000000d0: 1110 5dbd 9884 de3c 7ba6 a93e 4f16 0b3f
000000e0: 3dcd 0e3e 207d 5cbf 2a47 73bf ca24 483e
000000f0: 9789 6b3f 69e2 653e f358 a6be 197e 583d
00000100: a622 83be cd68 66be 8dcf 3dbe c569 7abc
00000110: a845 1fbe a2e4 cd3e b5ec 823e 5a41 753e

up3.bias f4 [9]
0.032637484 0.1045907 -0.34688422 -0.32541013 0.24348447 0.32543355 0.1697355 0.17001584
-0.10591677
00000000: e2ae 053d a633 d63d cf9a b1be 289c a6be
00000010: fe53 793e 3a9f a63e 25cf 2d3e a218 2e3e
00000020: e4ea d8bd
