W_3/7.0_model_Panel2.pt (torch, 10074 bytes, 16 tensors)

down1.weight f4 [15, 18]
000000 4d 25 8b 3c 17 6e 48 3d 3e 93 a5 3d 95 ab 8b 3d
       0.01698556 0.048933115 0.08084725 0.06819836
000010 17 94 56 be b6 36 f6 bd 66 76 5d 3e 87 63 60 be
       -0.2095493 -0.12022154 0.21627197 -0.21912967
000020 ba 90 16 be 2d 0c c1 3e 95 e4 73 be f7 b5 06 3e
       -0.14703646 0.37704602 -0.23817666 0.13155352
000030 1a 97 3d 3e aa 91 de 3c 75 01 25 3f bc 58 62 3e
       0.18514672 0.027169067 0.6445535 0.22104162
000040 e8 b3 2a be 1e 77 09 3e 9c d6 72 be 12 6c 50 bd
       -0.16670191 0.13424346 -0.2371468 -0.050884314
000050 4b 63 e3 3d 56 7d 7b be 35 7f c6 3d bf f0 d1 bd
       0.11102923 -0.2455953 0.096922316 -0.10250997
000060 c2 e9 43 be 16 b1 13 3f a8 cf a3 3e 5e e5 67 be
       -0.1913214 0.57692087 0.31994367 -0.2264609
000070 09 12 22 3e 71 3a e5 bb 14 65 8e bd 5a 19 db 3d
       0.15827192 -0.006995492 -0.06952873 0.10698195
000080 12 08 00 3f 12 66 90 3e d3 00 9c 3e b0 02 97 3e
       0.50012314 0.28202873 0.3046938 0.29494238
000090 89 7e 11 bd cb ea f9 3d b0 b5 42 3e 7a 43 54 be
       -0.035521064 0.12202986 0.19014621 -0.20728865
0000a0 fe 8a 01 3e c1 3a 42 be 24 04 39 3d 28 67 ca 3d
       0.12650678 -0.18967725 0.045169964 0.09882957
0000b0 36 cb 9d 3e 5d 9c 52 3d 4d e9 9a 3d 8d 97 97 3e
       0.308191 0.05141865 0.0756403 0.29607812
0000c0 96 59 cc 3e 85 9b cc 3d 5d 5e 8b be 58 34 7b 3d
       0.399121 0.099906005 -0.2722043 0.061329216
0000d0 cb 1a f1 3d 67 a6 09 bd 63 e8 49 3e b3 59 a2 bc
       0.117726885 -0.03360596 0.19717555 -0.019818163
0000e0 6c 09 99 bd 68 18 63 3e b1 3d bf bd 50 f0 82 3e
       -0.074725 0.22177279 -0.093379386 0.2557397
0000f0 6b 2f 0c 3e 2a 04 d0 3d 96 e6 01 bd ea 2b 8c bb
       0.13689964 0.10157044 -0.031714045 -0.004277696
000100 de 6d 3a 3e 2c 80 9b 3e db 75 b8 3e d4 66 ea bc
       0.18205974 0.30371225 0.36027417 -0.028613485
000110 1c 69 61 be 32 98 46 3e 71 73 c9 3b 72 e7 ae 3e
       -0.22012752 0.19393995 0.006147795 0.34160954
000120 c9 82 26 3d 1a 05 5b 3e ac 9b 9a 3e 10 18 55 be
       0.04065207 0.21388665 0.30196893 -0.2080996
000130 a1 f6 db bc 4d 39 f2 3d 4e 66 b6 be fb b8 ed bd
       -0.026851 0.118273355 -0.35624927 -0.11607548
000140 59 c8 3f 3e 0b 74 13 be 06 1e 01 bd 6c 38 46 3e
       0.1872877 -0.14399736 -0.031522773 0.1935746
000150 e0 69 f3 3e ce d7 34 3e 80 a7 4e 3e fe 54 8f 3e
       0.47541714 0.17660448 0.20181084 0.2799453
000160 b8 82 07 be 00 db bd 3e 46 9c ce 3d a5 45 a3 3e
       -0.13233459 0.37081146 0.100884005 0.31889072
000170 dc 95 85 3e b1 b9 a1 3e c8 78 99 3c 6d 5b 3d 3e
       0.26090896 0.31586984 0.01873435 0.18491907
000180 7d f0 0a 3e 4e ff cb 3c c8 4c 35 3e 2d 2a 04 3d
       0.13568301 0.024902012 0.17705071 0.032266784
000190 3f f2 67 be 0e 12 ce 3d cf 29 d9 3e ae 06 e7 3d
       -0.22651003 0.100620374 0.4241471 0.11280571
0001a0 69 a3 0f be 96 bf 03 3f 34 73 3d 3d f6 c0 ac bd
       -0.1402718 0.5146421 0.046252444 -0.08435242
0001b0 e3 6c 62 3e f7 42 b8 bb bc 66 87 ba ee b6 d2 3d
       0.2211185 -0.005623217 -0.00103303 0.10288797
0001c0 8a a7 13 3e 90 01 55 bd 28 53 14 3f 17 44 55 be
       0.1441938 -0.052003443 0.57939386 -0.20826755
0001d0 24 67 80 3e 0c 3f 01 3f 2a 9f 98 bd d6 37 bf 3c
       0.2507869 0.50486827 -0.07452233 0.023342054
0001e0 05 83 64 bd 00 95 6d 3e 7f 90 29 3e 39 16 24 be
       -0.055789012 0.2320137 0.16559027 -0.16024102
0001f0 c0 d3 69 3e c5 d7 a8 3e d4 68 89 3d 24 40 a0 3e
       0.22834682 0.3297712 0.067094475 0.31298935
000200 1e b3 22 3e 2d 73 2a 3e e8 da 5b 3e 8b 26 1a 3e
       0.1588864 0.16645499 0.21470225 0.15053765
000210 8a 1a 9c be 02 58 21 3e 1c 8d d7 3d bd a5 e4 bc
       -0.30488998 0.15756229 0.10524961 -0.027911061
000220 bf 39 9a be db 83 0e be b7 a9 cd 3e 2e 32 48 3d
       -0.30122182 -0.13917486 0.40168545 0.04887598
000230 38 13 0f 3e c8 30 0b 3f 32 01 61 bd 84 36 0f bd
       0.13972175 0.5437131 -0.05493278 -0.0349641
000240 d6 b5 83 3e 31 69 22 bd 5e 96 54 3e 19 84 2a 3e
       0.25724667 -0.0396511 0.20760486 0.16651954
000250 37 5f f1 3c 22 3b 28 3e a3 86 8a 3e c1 d2 16 3e
       0.029464347 0.16428807 0.27055845 0.14728834
000260 08 bb 50 3e b6 96 d5 3e 04 02 0a 3e 1e 28 a4 3d
       0.20383847 0.41716546 0.13477331 0.08015464
000270 be 0a e5 3d c2 cf 62 be b8 ad 11 3f 1b a8 d7 3e
       0.111836895 -0.22149566 0.569057 0.42120442
000280 b9 f4 80 bd df 84 4d 3e ed bc 40 3e 2e 7a 85 3e
       -0.06296677 0.20070218 0.1882207 0.26069778
000290 91 47 c0 3e 2c 7f 00 3e e0 51 88 3e e0 a7 bf 3d
       0.375546 0.12548512 0.26624966 0.093581915
0002a0 14 7d 93 3e fa 09 0c 3f e9 d0 ae 3e 09 df 61 3e
       0.28806365 0.54702723 0.3414376 0.22057737
0002b0 88 06 79 3d 09 a7 a3 3d e0 89 96 3e c3 cc 34 3e
       0.060797244 0.07990844 0.29402065 0.17656235
0002c0 8b 77 87 3d 33 ca 2a 3e e5 5a 84 3e 0c e8 3c 3e
       0.06614598 0.16678695 0.25850597 0.18447894
0002d0 a2 af 02 bd 44 26 8e bd a2 71 21 3e 93 17 55 be
       -0.031905778 -0.06940892 0.15766004 -0.20809774
0002e0 db 8c 37 be 07 ba 1b bc 89 35 17 3e 28 e3 bb 3d
       -0.17924826 -0.009504802 0.14766516 0.09174186
0002f0 21 28 8c 3d d1 32 cc bd 32 ff 9d be b8 61 05 3e
       0.068435915 -0.0997063 -0.3085876 0.13025558
000300 f9 a0 df 3e 84 92 7f 3d fe 80 89 3e 2a 40 1f 3e
       0.436775 0.062395588 0.26856226 0.1555182
000310 62 64 8b bd 70 88 6d 3d 8d f8 0e 3f 7f 8d 05 3e
       -0.06806256 0.057991445 0.5584801 0.13042258
000320 6a 1b 1e 3e fc f9 86 3d fc 63 6f 3e 32 2a d7 3e
       0.15440145 0.065906495 0.23377985 0.4202438
000330 82 fd e4 bd 0b 88 04 3e db 59 b5 be 87 f4 d6 3d
       -0.11181165 0.12942521 -0.35420117 0.10495859
000340 51 28 4c be dc a2 8b 3e d2 64 11 be 9b 85 0c 3e
       -0.19937254 0.2727269 -0.14198616 0.13722841
000350 23 ab 0c 3b fc 1c b9 3e b5 6d f3 bc 6f bd 8e be
       0.002146431 0.36154926 -0.029715398 -0.278789
000360 d4 cd 4c be 66 a7 f7 3d 78 de 79 bd c8 6d 90 bd
       -0.20000392 0.120924756 -0.06100318 -0.07052189
000370 7e fb 2e 3e 1e f7 27 bd 75 44 84 bd aa f7 42 3d
       0.17088124 -0.041007154 -0.0645837 0.047599472
000380 85 3d ad bd 63 10 70 3d f0 32 2f 3e 25 15 9a 3d
       -0.084589995 0.058609378 0.17109275 0.07523564
000390 55 65 fa bd 38 ff 13 be de 5d f2 3e 8f 1e 55 3e
       -0.12226359 -0.14452827 0.4733724 0.20812438
0003a0 ec 4f 9c 3e 8f 34 a1 bd 69 2e c1 bd da e5 e5 3d
       0.30529726 -0.07871353 -0.0943268 0.11225481
0003b0 42 05 80 3e 49 e2 66 3c dd 59 7a 3e 69 36 29 bc
       0.2500401 0.0140920365 0.24448343 -0.010327914
0003c0 a0 c8 8d bd 20 c6 b3 bb a2 d0 05 3e 89 1b 4c be
       -0.06923032 -0.005486265 0.13067868 -0.19932379
0003d0 a5 9b 08 3e 7d 78 91 3d a2 b0 87 3d 2b 96 9d 3d
       0.13340624 0.071030594 0.06625487 0.07694658
0003e0 6e 20 4e 3e 62 60 03 3f 29 29 12 be 17 69 6b be
       0.20129558 0.51318944 -0.14273514 -0.22989307
0003f0 ab 58 d2 bd b9 bd 66 be 45 33 be bd 50 85 8c be
       -0.10270818 -0.22533311 -0.09287123 -0.2744546

down1.bias f4 [15]
000000 a6 ba 93 3e 03 25 b6 bd ad aa 1b bd 0c f9 b7 bd
       0.2885334 -0.08893778 -0.038004566 -0.08983049
000010 aa 26 12 3e 66 4d 03 3d cd 07 7a 3e d5 8e ff 3d
       0.14272562 0.032056235 0.24417038 0.12478415
000020 e5 c9 89 3d 72 c0 99 3d b4 ef 86 3d 4f 90 3c 3e
       0.067279615 0.07507409 0.065886885 0.18414424
000030 08 e2 37 3e 31 4c 75 3d 74 50 24 3e
       0.17957318 0.059887115 0.16046315

down2.weight f4 [12, 15]
000000 2c 26 be 3e f3 be 9b be 71 41 57 3c 37 c2 69 be
       0.37138498 -0.3041912 0.013138161 -0.22827993
000010 79 96 af 3e 7e 56 37 3e c1 fa 2f 3e 3c 73 8a 3e
       0.3429449 0.17904088 0.17185499 0.27041042
000020 28 df 77 3e c5 4c 0b 3d c8 77 26 3e 9d fc a5 bd
       0.24206221 0.03400876 0.1625663 -0.08104823
000030 d2 df b7 bd f6 d4 10 bd a7 d9 bc 3d 3d 58 1d 3e
       -0.08978237 -0.035359345 0.092212014 0.15365691
000040 68 27 95 3e ae 62 c8 be 73 ca 08 be 9e 4c e3 bd
       0.29131627 -0.39137787 -0.13358478 -0.11098598
000050 b4 f1 6c be 8c 2c ce 3d fa c4 a9 3d c1 84 d8 3e
       -0.23139077 0.100670904 0.082895234 0.42288783
000060 20 64 c1 3e ab 18 0b be f2 cc f1 bd 3e 2c 3e 3e
       0.37771702 -0.13583629 -0.11806668 0.18571565
000070 85 91 e9 bd 4b b9 3e 3d 5c 46 da 3d d8 a3 76 3e
       -0.11404709 0.046563428 0.10657951 0.24085939
000080 36 de 91 bd 58 de aa be 59 14 6e 3e dd e2 99 3e
       -0.071224615 -0.3337276 0.2324995 0.30055895
000090 9e 20 34 3e c9 5c ec 3e 2b 31 d3 3c 3f f3 09 be
       0.17590567 0.4616454 0.025780281 -0.13471697
0000a0 4d 95 cd 3e 5b e2 47 3e e2 77 3f be 62 d4 01 3f
       0.4015297 0.19519942 -0.18698075 0.50714695
0000b0 e2 d4 c9 3e 57 29 80 3d c5 b3 8d 3e 9d bd 07 be
       0.3942023 0.06257885 0.27676216 -0.13255925
0000c0 1c 3f e1 3c 9b 00 53 3e 2e fa 8a be d5 c2 68 bd
       0.027495913 0.206057 -0.27143997 -0.05682643
0000d0 a0 b4 a8 bd c6 a6 6e 3e 4e b9 0a 3f 1a 67 9c bd
       -0.082375765 0.23305807 0.54189 -0.076368526
0000e0 39 4b 4f 3d e6 07 9e 3d 22 3a 73 be 7b 65 1d be
       0.050608847 0.0771635 -0.23752645 -0.15370743
0000f0 0f 1c df 3c d4 31 86 3e 66 78 16 3e 06 e3 55 3e
       0.027235059 0.2620989 0.14694366 0.20887384
000100 4a e3 18 3e f0 55 b0 bd f7 26 11 bc 70 7e 5f 3e
       0.14930454 -0.08610141 -0.008859388 0.21825576
000110 c7 65 9e 3e 78 7d da 3e ac 6c c6 3e d4 8c 57 be
       0.30937025 0.4267385 0.38754785 -0.21049815
000120 11 fe e3 3d a5 da 28 bd 03 c6 a7 3d 92 06 c7 be
       0.11132444 -0.04122414 0.081920646 -0.388722
000130 de 0b da 3d 43 0c 01 3f f3 ce f8 3e 57 74 3c 3e
       0.10646795 0.50409335 0.4859539 0.18403755
000140 c9 f8 9d 3e 94 28 83 3e c0 91 10 3e 8f 95 6f 3e
       0.3085387 0.25616896 0.14118099 0.23396896
000150 06 a7 e0 3e 58 c0 d2 3d 80 2e b9 be 6f fa b2 be
       0.4387743 0.10290593 -0.3616829 -0.3495669
000160 0f f0 71 be 2f cd 63 be b1 bc 12 3e 6f 8d 02 3e
       -0.23626731 -0.2224624 0.14329793 0.12749265
000170 60 67 99 3e aa 6c e4 3e 8f 1e 51 3e 58 80 61 bc
       0.2996168 0.44614154 0.20421813 -0.01376351
000180 87 76 00 3e 4a d9 c9 be e7 10 e9 bd 7d 69 c6 3e
       0.12545215 -0.3942359 -0.11380177 0.38752356
000190 5f 70 4a 3d 12 55 e5 be 49 ac d8 3d 8c d7 0f bf
       0.04942357 -0.44791466 0.10579736 -0.56188273
0001a0 4b f8 c6 3e dd a6 bf 3e 22 73 30 3e 8b b3 c4 bd
       0.38861308 0.37431994 0.1723142 -0.096045576
0001b0 f0 ea 2f be 70 da 7c 3e 83 71 b9 3e 7c 54 0d 3e
       -0.17179465 0.24692702 0.36219415 0.1380176
0001c0 85 17 fe 3d be cf aa 3d 94 23 a3 3e 3f eb 0b 3f
       0.1240683 0.08340405 0.3186308 0.5465583
0001d0 a5 26 ca be 97 0f fc bb f3 75 36 3e 14 87 24 3f
       -0.39482608 -0.007692288 0.17818432 0.6426861
0001e0 6d ba de 3d 35 90 56 be d4 56 9e 3e 08 8c 13 3e
       0.10875402 -0.20953448 0.3092562 0.14408886
0001f0 5e 6c 93 3e 31 1b b4 3d 9f 3c b8 3e d1 3d d6 bb
       0.28793615 0.08794249 0.3598375 -0.006538131
000200 8e 75 25 3e dc e7 c8 3e 67 84 d2 3c 9d ed f2 be
       0.16158125 0.39239395 0.0256979 -0.4744691
000210 d8 a7 8b be 62 91 33 be 88 25 92 3e c5 d8 96 3e
       -0.27276492 -0.17535928 0.2854426 0.29462257
000220 4c d3 66 be 70 f2 02 bf 84 2b 32 bc e8 a1 dd bd
       -0.22541541 -0.5115118 -0.010874633 -0.10821897
000230 fd b9 58 be 33 c5 b7 3e 29 9e 57 be c4 dc bb 3e
       -0.21164699 0.3589264 -0.21056427 0.36691868
000240 1d 37 bd bd bb 7f a4 3e 29 37 91 3e a1 0c e3 3d
       -0.09239028 0.321287 0.28362396 0.11086393
000250 20 af 81 be 93 3e b8 3d 41 6c b6 3e 93 17 d4 3e
       -0.25328922 0.0899631 0.35629466 0.41424236
000260 5c 55 3e 3e 43 4a cb bc 83 46 dd 3e 93 d7 8b 3d
       0.1858725 -0.024815684 0.4321786 0.06828227
000270 7d 71 41 3d b6 52 0e 3f d6 75 94 3e 3b 1f 11 3e
       0.04722737 0.55594957 0.28996152 0.1417207
000280 88 e3 e6 3e 65 f9 8e be 5d 67 f7 3e a9 85 bd 3e
       0.45095468 -0.27924648 0.48321047 0.37016037
000290 6f 4e 11 3f 27 86 a8 3e 04 91 e0 3e 18 cb 0e 3e
       0.56760305 0.3291485 0.43860638 0.13944662
0002a0 ba 2d 9e 3d 2b f3 89 3e af a5 18 bb 0d 0c 88 bd
       0.077235654 0.26943335 -0.0023292114 -0.066429235
0002b0 28 70 ba bd f3 6c 0e 3e bb 4d 5c 3e 44 e9 14 3e
       -0.09103423 0.13908748 0.21514027 0.14542109
0002c0 f6 9c 37 3d 56 a8 c2 3e 5f 6f 06 3c 06 48 df bd
       0.044827424 0.38019055 0.008205264 -0.10902409

down2.bias f4 [12]
000000 82 98 3a 3c b5 d4 b1 3d 50 d0 bd 3d 03 eb 49 3e
       0.0113889 0.08683149 0.09268248 0.19718556
000010 eb 74 02 be 41 9c 8d 3e e8 09 58 be 04 7c bc bb
       -0.12739913 0.27658275 -0.21097529 -0.0057520885
000020 69 d8 28 3e 8c 7a 40 3e 19 83 62 3d 01 82 7f be
       0.16488804 0.18796748 0.055300806 -0.24951936

down3.weight f4 [11, 12]
000000 01 04 9c 3e fd 06 0d 3f 95 9b 9b 3e 6f 19 10 bc
       0.30471805 0.5508879 0.30392137 -0.008795126
000010 4d 93 a4 3e bd b2 f4 bd 58 4d 2f 3d ef 66 b3 3e
       0.32143632 -0.11948154 0.04279837 0.3503947
000020 d1 a6 67 3e 5d 17 8f 3e b9 37 50 3e 18 4b bc 3e
       0.22622229 0.27947512 0.20333757 0.36776042
000030 dd 3e d0 bd e9 c4 bd 3e 5b 2d fe bd b7 70 68 bc
       -0.1016824 0.37064293 -0.124109946 -0.01418703
000040 ba 56 e4 3e e0 57 b2 3e ca d4 f8 3e b5 5e f0 3e
       0.44597417 0.34832668 0.48599845 0.46947256
000050 68 3f 74 3e 23 36 8f 3d 0c bf 0b 3e 6c f6 e4 3e
       0.23852313 0.06992748 0.13647097 0.44719255
000060 fc 0f 8b bd cd c8 d9 be 81 e0 a8 3e 46 08 8c 3d
       -0.06790158 -0.4253601 0.32983783 0.068375155
000070 f0 f2 1b 3c c0 c5 7c 3e 84 ab 90 3d 8d 7c a4 3d
       0.00951837 0.2468481 0.07063964 0.08031569
000080 ae 80 d8 3e 4b a8 f0 be d1 ad 74 bd 1a a2 00 bc
       0.42285675 -0.47003397 -0.059736077 -0.007851148
000090 4c e9 45 3e eb 3d 95 bc f0 17 4d 3f 19 d4 87 bd
       0.19327277 -0.018218001 0.8011465 -0.06632251
0000a0 27 91 0a bd bf 9b b9 be 61 b2 67 be 1e 04 20 3e
       -0.033829834 -0.36251637 -0.2262664 0.1562657
0000b0 a8 1c d6 be e0 48 13 bf 22 e8 d9 3e 03 8d 59 3e
       -0.41818738 -0.57533073 0.42559916 0.21245198
0000c0 dc f0 7e be 45 ec a5 3e 48 b2 1d be ae 22 ac 3e
       -0.24896568 0.32406822 -0.1540004 0.33620209
0000d0 55 e7 98 3e 43 5b d9 3e e0 48 80 3e 61 40 e3 3d
       0.29863992 0.4245244 0.250556 0.11096264
0000e0 f9 0e 8e 3d b8 4b c6 be 83 9d 94 3e e9 9b 44 3e
       0.069364496 -0.38729644 0.29026422 0.192001
0000f0 c9 d3 00 be 24 74 ac 3e ad c2 85 be 98 cf 49 3e
       -0.1258079 0.33682358 -0.26125088 0.19708097
000100 50 b9 c4 3e 6a 85 09 be dc 67 1e be ce d7 e2 3d
       0.38422632 -0.134298 -0.15469307 0.11076318
000110 f7 ef 4f 3e 6a d8 aa 3e da 7e df 3d ba b1 ba 3e
       0.20306383 0.33368236 0.10912867 0.3646372
000120 fc c2 3b 3e 6c 47 74 be fb c6 62 3d 18 1f 06 bd
       0.183361 -0.2385537 0.055365544 -0.032744497
000130 d5 c4 3d be c2 c9 0e be 6b 3f 3b be 90 e6 55 be
       -0.18532117 -0.13944152 -0.18285911 -0.20888734
000140 ab 02 3f 3e ea a5 b0 bd a5 9c e1 ba 0c 2e be 3d
       0.18653361 -0.086253956 -0.0017212821 0.092861265
000150 65 ec 29 3e 56 bc 69 3a dc 13 f9 3c 3f 2a b9 3e
       0.16594084 0.0008916309 0.030404978 0.36165044
000160 ec 1b e5 3e 1c c7 a9 3e cb 1f 35 3f 47 fb 8b 3d
       0.44747865 0.3315972 0.7075164 0.06835037
000170 8c 86 8d 3e 52 06 78 be 3f 5e 6a 3e bd 09 cd 3e
       0.27641714 -0.24221161 0.22887515 0.40046492
000180 e6 b9 86 3e 51 76 46 be af f4 76 bd ba e1 83 bd
       0.26313704 -0.19381072 -0.060291942 -0.06439538
000190 a3 32 2f 3e 6f d6 5b be 4b 05 bd 3e d1 36 bb 3e
       0.1710916 -0.21468519 0.369181 0.3656526
0001a0 53 9a a3 3e 44 53 36 3d 34 d9 d0 3e 8a 55 3e be
       0.31953678 0.044513002 0.40790713 -0.18587318
0001b0 d4 ab 1f 3e d9 87 40 3e 1a b2 d3 bc 02 c7 a2 3e
       0.15592891 0.18801822 -0.025841761 0.31792456
0001c0 db 1e 6c 3e 94 bb 81 be de ec 58 3e 9b 49 7c be
       0.23058645 -0.25338423 0.21184108 -0.24637453
0001d0 41 5a 0e be 04 9d 82 3e e4 92 88 be fe 49 9c be
       -0.13901617 0.25510418 -0.2667457 -0.30525202
0001e0 7d 57 b9 3e c5 65 59 be c3 72 f5 3e 95 42 8b be
       0.3619956 -0.21230228 0.4793912 -0.27199236
0001f0 9b 76 05 be 0e 5b 7c 3e 5b 87 09 3e 4d fd ac 3e
       -0.13033526 0.2464411 0.1343054 0.33787003
000200 8a d9 b1 3e ae ca 59 be 46 86 22 3e 47 83 d5 be
       0.34736282 -0.21268722 0.15871534 -0.4170172

down3.bias f4 [11]
000000 b8 e7 6c bd b1 7c 63 be d7 12 6f 3e 1b d6 7f 3e
       -0.05783817 -0.22215535 0.2334703 0.24984019
000010 8c 66 a4 3d ec bb 80 3e 71 b5 39 be 0d 99 7b 3d
       0.08027372 0.25143373 -0.1813562 0.061425257
000020 47 9e 49 3e 0e 87 d3 3d 0e fd 32 3d
       0.19689284 0.10328494 0.043698363

down4.weight f4 [10, 11]
000000 4b a0 fa bb 61 42 82 3a e7 75 d3 3e b2 ce 33 3f
       -0.007648503 0.0009937995 0.4130089 0.70237267
000010 c6 5a 09 3d f3 69 99 be 74 05 33 3e 31 0e a4 bb
       0.033533834 -0.29963645 0.17482549 -0.0050065746
000020 9c d7 84 3e 0a d6 9d bd 5d e2 61 3d eb a9 6a 3d
       0.25945747 -0.0770684 0.055147517 0.057290953
000030 b5 2e 51 3e 82 38 f1 bd c8 b4 8a 3e 1f 3f ea 3e
       0.20427974 -0.11778356 0.2709105 0.45751283
000040 63 00 8e 3e c6 ae 77 be a0 c9 c9 3e df f2 7b bd
       0.2773467 -0.24187765 0.3941164 -0.061510917
000050 fb 30 75 3e 37 8f d0 be 32 f2 fb 3e 41 39 c7 3e
       0.23944466 -0.40734264 0.49208218 0.3891087
000060 0d 05 2d 3e 95 96 c3 3e f7 12 c5 3d d3 3f ba bd
       0.16896458 0.38200822 0.09622758 -0.09094205
000070 c0 0e 0f bd 38 f8 8f 3e be 80 90 3e 2f 12 86 3e
       -0.034926176 0.28119063 0.28223222 0.26185748
000080 20 6f cf 3e 15 d2 6c be b1 9a 7c 3e 46 16 db bd
       0.4051447 -0.23127015 0.24668385 -0.10697608
000090 ca 6f c1 bd 9d 17 3a be db 0c 67 be 41 23 b2 3d
       -0.0944515 -0.1817307 -0.22563498 0.086981304
0000a0 40 4f 6e be 89 5f b2 bd 9d 4d 40 be 26 cc 7a 3e
       -0.23272419 -0.08709628 -0.18779607 0.24491939
0000b0 41 b3 03 be 6a 2f 3e 3b ce 3c 53 3e 43 a9 39 3f
       -0.12861349 0.002901996 0.20628664 0.725239
0000c0 46 f5 e7 3e e9 17 a0 be 8d 6f 6f be 82 20 16 3e
       0.45304316 -0.31268242 -0.23382397 0.14660838
0000d0 3a f9 91 be e0 3c 3b be 9a dc 34 3e e2 02 6a be
       -0.28510457 -0.1828494 0.17662278 -0.22852662
0000e0 98 bc 84 be 82 28 94 bd 23 b0 3d 3d 4c 8e 89 be
       -0.25925136 -0.07234289 0.046310555 -0.26866376
0000f0 50 b2 92 be 59 38 52 3e 55 aa 6c 3e a7 75 72 3e
       -0.28651667 0.20529307 0.23111852 0.23677693
000100 82 a1 9d 3d 58 fb 21 be 49 01 9e 3e 8d 6b 85 3d
       0.07696821 -0.15818536 0.30860355 0.06514654
000110 ee 23 cf bd a1 e6 f4 3d 3a 10 08 be 3b be b1 3e
       -0.10114275 0.119580515 -0.1328744 0.34715447
000120 96 f5 68 3e ed 89 4f be 0e db 24 be 31 80 06 be
       0.22749934 -0.20267458 -0.16099188 -0.13134839
000130 2e 6e d7 be a4 d4 db bd 2d ca df bd 20 bf 3f 3f
       -0.42076248 -0.10733917 -0.10927234 0.7490101
000140 0c 2e 05 bf 58 cd 3c 3d a0 d3 82 be 5f b4 03 3e
       -0.52023387 0.04609427 -0.25552082 0.12861775
000150 76 16 4b 3e 82 19 38 3e c3 5f b0 be 43 b7 a4 3e
       0.19832787 0.1797848 -0.3444806 0.32171068
000160 4b 76 9b 3e 49 bb eb 3e 0a 86 93 bd df 36 00 be
       0.30363688 0.46041325 -0.072033 -0.12520932
000170 2b 6c 0c 3f f3 7a af 3d fa b4 85 be 56 b3 ed 3e
       0.5485255 0.085683726 -0.26114637 0.46425885
000180 25 82 8d 3e 58 64 94 3d 78 fa 14 3e 1e d3 fc 3e
       0.27638355 0.072457016 0.14548671 0.4937982
000190 f3 4a fd bd cb e8 7e be 01 ff 0c 3e c3 f9 ab be
       -0.12367811 -0.24893491 0.13769151 -0.3358899
0001a0 d2 b4 34 be 7b b1 e8 bc 30 5a 0e 3e d6 a7 9f 3e
       -0.17647102 -0.028404942 0.13901591 0.31182736
0001b0 ef 1e 94 3d 99 b0 93 3e
       0.072324626 0.2884567

down4.bias f4 [10]
000000 5b e4 ef 3d 30 0f 67 3e 9c c0 02 be e1 66 97 be
       0.11713477 0.22564387 -0.12768787 -0.29570678
000010 6c c4 99 3e 88 47 72 be 4f 97 b8 3d 8a 58 d4 3e
       0.3003267 -0.236601 0.09013235 0.414738
000020 e2 f6 91 3e 07 b7 c1 3d
       0.2850867 0.09458738

down5.weight f4 [9, 10]
000000 3e ed 8d be 4d 59 32 be ab 9b 98 be 1c 85 66 be
       -0.27720064 -0.17416878 -0.29806265 -0.22511715
000010 f8 ae 98 be 1c 9f 79 bd 21 73 43 3e 09 08 08 bf
       -0.2982099 -0.060942754 0.19086887 -0.5313726
000020 c0 7a 0d be 38 64 d4 bd 4d 15 d8 3e c1 18 16 be
       -0.13816357 -0.10370678 0.4220375 -0.1465788
000030 69 fc 8c 3e 4b d5 12 3e f1 1a 83 3e a2 7a 7f 3e
       0.27536324 0.14339177 0.25606492 0.24949124
000040 0f bf 99 bb 15 da a7 3c cd 42 9f be bb c4 9d 3e
       -0.0046919654 0.020489732 -0.31105652 0.30814156
000050 96 a8 e5 3d c2 3a 87 3e 12 7e 66 be 62 03 6f 3c
       0.11213796 0.26412016 -0.2250903 0.014588209
000060 48 96 0b 3e 6e ce 0b be 9a 0a 46 3d ad 8a a5 be
       0.13631546 -0.13652965 0.048349954 -0.32332364
000070 2e cd b4 bd df 76 b3 be a7 3a 3e 3e d6 eb 4f be
       -0.088281974 -0.3505163 0.18577062 -0.20304808
000080 f9 4c ff bd eb 6c 0a bd 51 91 72 be 07 5e 11 3e
       -0.12465853 -0.03379528 -0.23688246 0.14196025
000090 47 62 7e bd ca d2 b2 3c d7 e8 2f 3e f5 3f 7f 3e
       -0.062105443 0.021829028 0.17178665 0.24926741
0000a0 52 bd 30 be 13 c9 06 be d6 79 45 3e 22 21 9e be
       -0.1725972 -0.13162641 0.19284758 -0.30884653
0000b0 ff 38 ca bd d2 2c 95 be fd 5c 2d bd 2c 66 9d bd
       -0.098741524 -0.29135758 -0.04232501 -0.07685503
0000c0 84 25 ec bd 6f a2 e0 3e 1d f1 90 be 3e b3 54 3d
       -0.11530593 0.43873927 -0.28308955 0.05192875
0000d0 a9 14 bf 3e c6 77 5d 3e 11 32 00 be 7e a2 95 be
       0.3732045 0.21627721 -0.12519099 -0.29225534
0000e0 d3 d6 23 bd 66 08 d2 be 0e 04 5e 3e c7 c2 93 3e
       -0.039999794 -0.41022032 0.21681234 0.2885954
0000f0 00 98 15 bf 9b 1d 90 3e 4c 9f aa 3e 32 e0 01 3e
       -0.5843506 0.28147587 0.3332466 0.1268318
000100 eb 68 f7 be 3e f0 89 3e 47 33 1a 3e 22 c3 67 be
       -0.48322234 0.26941103 0.15058623 -0.22633031
000110 2b ca 68 bd 9c 3a 5c 3e 01 e5 c5 be a4 32 49 be
       -0.056833427 0.21506733 -0.3865128 -0.19648224
000120 71 ae 47 3e ef b9 dd bc 9a 32 00 be 3e 72 7a be
       0.19500138 -0.0270662 -0.12519303 -0.24457642
000130 a7 38 86 be 85 8a b5 3e f6 d3 82 be 9e e6 55 bd
       -0.26215097 0.35457245 -0.25552338 -0.052221887
000140 f2 3a 36 3e 4f 40 24 be 2d 72 f3 be a0 99 e1 bc
       0.17795923 -0.16040157 -0.47548047 -0.027539074
000150 0a b2 67 be b8 09 30 be 85 81 4c 3f 76 a6 4f 3e
       -0.2262651 -0.17191207 0.7988513 0.20278344
000160 47 c0 aa be ab 11 2b 3d
       -0.3334982 0.041764896

down5.bias f4 [9]
000000 1c cd 87 be 9e f6 cb 3c fe c3 df bc 94 97 e4 3d
       -0.26523674 0.02489787 -0.027315136 0.11161724
000010 36 8d 09 3e 6b d6 d1 bc 55 86 9c be 9e 45 8c bd
       0.13432774 -0.025614938 -0.30571237 -0.06849216
000020 25 2e 96 3e
       0.2933208

up1.weight f4 [10, 9]
000000 2d ac b4 be 2d a0 60 be 88 b4 a8 be d7 7b 2c bd
       -0.3528761 -0.21936102 -0.32950234 -0.04211029
000010 bd 52 a5 bc 82 eb 7a 3e 83 f9 cb 3e c4 ed 8d 3c
       -0.020181054 0.24503902 0.398388 0.01732529
000020 90 e5 8b be 44 52 a3 be 6e b7 84 be a5 dd 2f 3e
       -0.2732358 -0.318987 -0.25921196 0.17174394
000030 a0 1f c3 bc 31 5c 5d be 21 a7 d7 bd ce 85 9c be
       -0.02381879 -0.216172 -0.10529924 -0.30570835
000040 6f 9c 5e 3e a2 78 1f 3c 07 cd aa be 75 c4 00 3f
       0.21739362 0.009733351 -0.33359548 0.5029977
000050 92 4a fb be 2b 02 b1 3e dc c4 95 3e 6d 83 40 3e
       -0.4908033 0.34571967 0.29251754 0.18800135
000060 31 cc 04 be 83 d3 6a 3c a6 b6 82 be e9 d7 fc 3c
       -0.12968518 0.014332655 -0.25529975 0.030864673
000070 7f 5a bf be dc bd 94 3e f6 78 ab bc 6e 55 cc 3e
       -0.3737373 0.290511 -0.020931702 0.39908928
000080 fa 9f 8b 3e 76 0d 99 bc 5b 5c 9c bd 8b 9f 95 be
       0.2727049 -0.018683176 -0.07634803 -0.29223284
000090 1e 7d 58 bd 21 26 05 3f 99 81 99 bc 7c 06 a5 3e
       -0.052853696 0.52011305 -0.018738555 0.3223151
0000a0 10 99 df 3e 1c a7 d0 3e e0 09 54 3d 8f c8 82 bd
       0.43671465 0.40752494 0.05176723 -0.0638591
0000b0 c9 10 96 3e 72 0c bf 3d 37 d0 c0 3e 91 22 22 3e
       0.2930968 0.09328546 0.37658855 0.15833499
0000c0 c3 7f 92 be b2 cd 28 bd 63 ec 07 3c 03 ef 56 bb
       -0.286131 -0.04121179 0.008296105 -0.003279627
0000d0 5c 8e a8 be 83 e8 03 be 07 3d d6 3d 06 e6 cb bd
       -0.32921112 -0.12881665 0.10460859 -0.09955983
0000e0 c8 e2 e2 bd 45 3e 1b be 3a 9d b6 bc 2f c7 48 3e
       -0.11078411 -0.15160473 -0.022291768 0.19607233
0000f0 ac 4e 0f 3d c0 1d 18 3e 8f 6f 6f 3d 96 33 80 3e
       0.034987137 0.14855099 0.058456 0.25039357
000100 e6 f8 3c 3e 80 9a a0 bc 56 22 09 3c 30 ed 93 3d
       0.18454322 -0.019604921 0.008370003 0.07222974
000110 6e 0e 5f 3e 30 67 41 be 1b 71 a2 be 83 a3 70 3e
       0.21782848 -0.18887019 -0.31726918 0.23499875
000120 16 d1 f5 bd 87 8f a6 3e f4 14 9e bc 98 19 1d 3d
       -0.120027706 0.32531378 -0.0192971 0.038354486
000130 eb 01 06 bd 56 15 bf 3e 3e bb 2d 3d 4f 0c 8e be
       -0.032716673 0.37320966 0.042414896 -0.27743766
000140 bb 15 e3 bd 13 7d ae be 82 f2 2a bd 14 59 b8 3e
       -0.11088129 -0.340798 -0.04173518 0.3600546
000150 08 d8 c1 be bc 90 e1 be 05 ed 65 be fc 19 30 be
       -0.3786013 -0.44055736 -0.22453697 -0.17197412
000160 db af 8c be f4 c3 07 be
       -0.27477917 -0.13258344

up1.bias f4 [10]
000000 98 48 89 be 11 c6 81 3e 88 25 bc 3d e3 ba 45 3e
       -0.26813197 0.25346425 0.09186846 0.19309573
000010 45 0a aa 3e 1b 6f be bd 2d 3c 37 be a6 54 85 be
       0.3321096 -0.092985354 -0.17894049 -0.26041144
000020 48 76 55 3e 70 e0 5e 3e
       0.20845902 0.21765304

up2.weight f4 [11, 10]
000000 88 af 6f 3e 82 55 94 be 66 36 98 3e a3 da a1 bd
       0.23406804 -0.28971487 0.29729003 -0.0790303
000010 70 d9 0d bd ef 67 ea be 51 93 ae bc 14 2c d2 bd
       -0.034631193 -0.4578242 -0.02131048 -0.102623135
000020 da d5 91 3d a1 ab 45 3d 54 2f 37 be d1 55 70 3e
       0.07120867 0.04825938 -0.17889148 0.23470236
000030 79 67 56 be e5 77 84 3e 70 ce 99 3e 08 e6 3b 3d
       -0.20937909 0.25872722 0.30040312 0.04587367
000040 84 73 54 be 97 13 9c 3e e3 4f 3c be b1 2d 63 be
       -0.2074719 0.30483696 -0.1838985 -0.22185399
000050 89 f3 ee bd 64 7c 55 be 7d 2c db bd ff 29 71 be
       -0.116675444 -0.20848233 -0.10701845 -0.23551176
000060 b1 f1 9b be 21 3f cb bd 50 05 f7 3d 68 af 9f 3e
       -0.30457833 -0.0992415 0.1206156 0.31188512
000070 f5 9b 1c 3e 72 6e 70 be 5e 9d 6f bc 08 97 84 3e
       0.15293868 -0.23479632 -0.014624922 0.25896478
000080 f5 c2 e3 3d 91 fe 00 bd 1f eb 8d be 0b 45 85 3e
       0.111211695 -0.031492773 -0.27718446 0.26029238
000090 0d 68 0e be 4d f0 27 be 10 01 6b 3d 58 9f 92 3e
       -0.1390688 -0.16400261 0.05737406 0.28637195
0000a0 fa 8a 5e 3e 25 16 d6 3d 8a 1d 32 be 90 1c 19 3f
       0.21732703 0.104534425 -0.17394081 0.5980921
0000b0 5b 18 84 be ff e8 10 bd b8 da 5c bd c4 8f ce bc
       -0.25799832 -0.035378452 -0.053919524 -0.025215037
0000c0 0e 29 92 3e b1 f1 8e 3e 4d 1e 9e be 67 73 11 3e
       0.28546947 0.2791877 -0.30882493 0.14204179
0000d0 4c e0 1e be 83 0d e0 bd 07 b2 43 be c8 c1 2b be
       -0.1551525 -0.10940077 -0.19110881 -0.1677314
0000e0 7b 86 93 3e 4c c2 93 3c 23 10 44 3e 51 d9 39 be
       0.28813538 0.018036984 0.1914678 -0.18149306
0000f0 dd fe df bd 6e b6 18 3e 80 56 99 3d e3 3b 68 be
       -0.10937283 0.14913341 0.07487202 -0.22679095
000100 7f ca 13 be ad 7d 80 3e 89 3a 20 be bc f3 4b 3d
       -0.14432715 0.25095883 -0.1564733 0.04979299
000110 98 a6 ae bd 71 30 82 be f5 ab 20 bf 6a 2b a6 bd
       -0.08527869 -0.25427583 -0.62762386 -0.08113749
000120 5c 13 24 3e 4d 28 97 3c 06 5e e2 3d ab 2b 92 3e
       0.1602301 0.018451834 0.1105309 0.2854894
000130 ec 21 4d bb 42 9e 89 be 57 3a a1 3e 1d d7 ff 3d
       -0.0031300737 -0.26878554 0.31489822 0.124922015
000140 97 5d 81 3c 67 3d b1 be c9 0a 4f 3e fb 58 10 3e
       0.015791697 -0.3461716 0.20218958 0.14096443
000150 06 a1 ca 3c 58 b0 40 bd d1 aa 21 be cc 84 80 be
       0.024734985 -0.047043175 -0.15787818 -0.25101316
000160 00 6d 3c 3c 1f 42 9a be dc b8 45 be af db 67 be
       0.011500597 -0.3012857 -0.193088 -0.22642396
000170 f2 2c 4b 3d 15 48 58 be 1f 40 bc 3d 36 76 09 3f
       0.04960341 -0.21121247 0.09191918 0.53696
000180 1a 3f 8b 3e 1c 5f 28 ba 49 eb 8f 3e b6 0d 4f 3e
       0.2719658 -0.0006422864 0.28109196 0.20220074
000190 7a 8c b1 3e 41 0b b5 3e 0b d7 88 3e d5 6c 86 3d
       0.34677488 0.3536015 0.26726565 0.06563727
0001a0 d3 b1 0f be 48 0a b6 3e e6 46 0c be a7 4b 9e be
       -0.14032678 0.3555472 -0.1369892 -0.30917093
0001b0 c2 44 7a be ac 38 fa bd
       -0.24440292 -0.122178406

up2.bias f4 [11]
000000 f2 e0 a3 be d4 82 7a 3e 4e 9c 89 3d 62 35 3f 3e
       -0.32007557 0.2446397 0.06719266 0.18672708
000010 ed f1 8c 3d 3e ef 89 be 01 59 ef bc 32 d9 b1 bc
       0.06882081 -0.2694034 -0.029217245 -0.021710012
000020 de ce af 3e 27 33 da 3c 2f f7 b4 3e
       0.34337515 0.02663572 0.35344836

up3.weight f4 [12, 11]
000000 0c 10 ac 3d 77 ae 23 be 77 80 93 3e 44 9c 9e bd
       0.08401498 -0.15984522 0.28808948 -0.07744649
000010 d2 8c 6b bd e0 fe 6b 3e 60 d8 61 be ab 80 58 3e
       -0.057507344 0.23046446 -0.22055197 0.21142833
000020 f0 11 a7 3e 96 73 08 bf cf 95 08 3e b3 80 dd bc
       0.32630873 -0.5330137 0.13338397 -0.027038908
000030 a6 ff 0f 3e 53 9e 62 3d 39 69 a6 3d 0a dd f8 3e
       0.14062366 0.05532677 0.081255384 0.4860614
000040 45 5b 24 be 92 41 4e 3e db 51 92 3d c2 de 9c be
       -0.16050442 0.201422 0.07144519 -0.306387
000050 77 30 b7 3d 50 12 8c be a1 cd 3f 3e 3d b4 33 be
       0.08944791 -0.2735772 0.18730785 -0.17549224
000060 51 08 04 be 70 88 8e 3e 34 e6 ff bd fe 36 1f 3e
       -0.12893797 0.2783847 -0.1249508 0.15548322
000070 3c fb 18 3e f9 df 04 bf 54 84 09 be 20 23 0a 3e
       0.14939588 -0.51904255 -0.13429385 0.13489962
000080 a8 cd e3 3d 53 02 49 3e fc f9 35 be e9 c5 68 3d
       0.1112321 0.19629793 -0.17771143 0.056829367
000090 ed 8d 8b be 3c 0c cb 3c f6 d3 0a be 35 17 ea bd
       -0.27256718 0.024786107 -0.13557419 -0.11430208
0000a0 be bb 1c be c9 a2 13 3e 89 08 43 be 3c 50 6d 3a
       -0.15305993 0.14417566 -0.19046225 0.00090527884
0000b0 7d 43 06 bf 0d a6 0c be 77 84 12 3c 9b fe 34 be
       -0.5244673 -0.13735218 0.008942715 -0.1767525
0000c0 ee 87 c0 3e 38 f2 1d bd 5c b9 ae 3d 87 05 51 be
       0.37603706 -0.038561076 0.08531448 -0.20412265
0000d0 5e 79 5b be 89 77 e7 bd 77 bc a0 3e 0e 25 4e bc
       -0.21433017 -0.113020964 0.31393787 -0.012582077
0000e0 8f 24 8b bd 0e f7 11 3c 30 6b 94 3d 3d 90 c4 bc
       -0.067940824 0.008909 0.07247007 -0.02399456
0000f0 f0 2b 31 3d 0b 79 08 3e fd 33 16 3d 07 9d 37 bd
       0.043254793 0.13327424 0.036670674 -0.044827487
000100 2c 1f b8 bd 12 fc 87 3d ee 46 f5 3e a2 f3 46 bd
       -0.089903206 0.066398755 0.47905678 -0.04857219
000110 7e 90 74 bd 6b 03 28 3e 79 20 ac be 3d fd 97 3e
       -0.05970811 0.16407554 -0.33618525 0.29685393
000120 24 5e 74 be a7 8f 19 be ab 71 99 be 9e 45 6f 3d
       -0.23864037 -0.14996205 -0.29969534 0.058416
000130 d2 d6 82 3e ad 11 89 3c 14 23 82 be 12 62 98 3e
       0.2555452 0.016732061 -0.25417387 0.29762322
000140 f9 3e 0c 3e b8 51 c4 bd ac b3 fd 3d 74 97 3f 3a
       0.13695897 -0.09585899 0.12387785 0.000730864
000150 aa d3 3d be 81 16 9f bd 28 62 10 3d 16 8c c8 3d
       -0.18537775 -0.07767964 0.03524986 0.09792344
000160 6f 59 f5 3c ba d8 92 3d 30 c0 2d be 09 14 0c bf
       0.029949872 0.071702436 -0.16967845 -0.5471807
000170 36 c4 00 3f 80 cc 3f 3e 11 e2 5a be fa 8c 82 be
       0.50299394 0.18730354 -0.213753 -0.25498182
000180 69 1e a4 3e 24 44 15 3f eb d6 ca be 5e 0c a8 be
       0.3205445 0.583071 -0.39617094 -0.32821935
000190 3b be c9 bd 90 e5 8a be 7f 7f 8c bb 2a 09 95 3c
       -0.09850737 -0.27128267 -0.0042876597 0.018192846
0001a0 1c 25 37 be 44 68 c8 3d ad 51 b7 3e 0c a5 07 3e
       -0.1788525 0.09785512 0.358045 0.13246554
0001b0 9f 3a b1 3e 44 7f 93 3e 0b 55 96 bd d0 83 80 3e
       0.34615037 0.28808033 -0.073404394 0.25100565
0001c0 e9 78 d4 3d fe b4 18 3e 87 6e 83 3e 8c e5 2d 3e
       0.10374624 0.14912793 0.25670263 0.16982096
0001d0 54 ca e2 bd 90 be 10 be f5 f1 87 bd df 84 ad bd
       -0.11073747 -0.14135194 -0.066379465 -0.08472609
0001e0 68 09 27 be 7b 48 a5 3e 22 b4 0f be 73 6d 80 be
       -0.16312182 0.3228186 -0.14033559 -0.25083503
0001f0 17 69 5a bd ef e6 74 3e b2 e8 ca bd e1 eb 89 3e
       -0.053322878 0.23916219 -0.09907664 0.26937774
000200 17 20 83 3e 10 dd 85 be b9 05 be be 96 f7 0b be
       0.2561042 -0.2614522 -0.3711374 -0.13668665

up3.bias f4 [12]
000000 1c 38 f2 3c 44 c2 14 3d 04 54 22 bc 87 a6 83 3e
       0.02956777 0.03631808 -0.009907726 0.25712988
000010 db 1c fa 3d 36 b9 84 3d 7c 0e 17 be ef 70 99 3c
       0.12212535 0.06480639 -0.14751619 0.018730609
000020 f7 09 0e 3d 18 7d 92 be 64 9f bc 3d fc a0 39 3e
       0.034677472 -0.28611064 0.09210089 0.18127817
