A_3/7.0_model_Plate 29178_N.pt (torch, 7974 bytes, 16 tensors)

down1.weight f4 [12, 15]
0	0x3ca5192f	0.02015361
1	0x3d7260ae	0.059174232
2	0xbd5d7640	-0.05406785
3	0xbe8622e6	-0.261985
4	0x3d068fbf	0.03285193
5	0x3daae71e	0.08344863
6	0x3f077d61	0.5292569
7	0x3da7dc29	0.08196289
8	0x3ecc066e	0.39848655
9	0x3ebacaa4	0.36482728
10	0x3f14b8e9	0.5809465
11	0x3e0216a7	0.12703954
12	0x3f37bb64	0.7177031
13	0x3dd09392	0.10184397
14	0xbe4947d0	-0.196563
15	0x3c50bc19	0.0127401585
16	0xbd6cb03a	-0.05778525
17	0x3a2468e8	0.0006271736
18	0xbdd6aeea	-0.10482581
19	0x3db92ded	0.09041963
20	0x3dfe6fe5	0.12423686
21	0xbde13484	-0.10996345
22	0x3eae95c6	0.34098643
23	0x3e9f002d	0.31054822
24	0x3eab4aa4	0.33455384
25	0xbee9383d	-0.4555072
26	0x3efdf538	0.4960115
27	0xbdb1468e	-0.08656035
28	0x3e7e67a5	0.24844225
29	0xbd6eddf6	-0.058317147
30	0x3e09bd65	0.13451155
31	0xbe7b2f2c	-0.24529713
32	0xbdaf0bd2	-0.085471764
33	0xbdac92de	-0.0842645
34	0x3d3decce	0.046368413
35	0x3d5812bd	0.052752245
36	0x3ea79ce2	0.3273688
37	0x3dcfbe17	0.10143679
38	0x3eab8da8	0.33506513
39	0x3f012bbf	0.50457376
40	0x3f49e42f	0.78863806
41	0x3d6a683c	0.057228312
42	0x3ec94f11	0.39318135
43	0x3f07225e	0.52786815
44	0x3d99dee4	0.07513216
45	0x3e1d762d	0.15377112
46	0xbdbcae02	-0.09212877
47	0xbde5422a	-0.111942604
48	0x3e3a714b	0.1820728
49	0x3d052a4e	0.032511048
50	0xbdd6dffa	-0.10491939
51	0xbe9811e4	-0.2970115
52	0xbedbaa55	-0.4290339
53	0xbf093194	-0.53591275
54	0x3f135aec	0.5756061
55	0x3ec63138	0.38709426
56	0xbeec440e	-0.46145672
57	0x3df6dbd0	0.12053645
58	0x3ebbacca	0.36655265
59	0xbece8e47	-0.40342924
60	0x3d28d835	0.041221816
61	0x3e88d25c	0.2672299
62	0x3da1dee7	0.079038434
63	0xbd5788d6	-0.05262073
64	0x3e1aa35c	0.15101379
65	0x3e7f0999	0.24906005
66	0x3dd4b373	0.1038579
67	0xbc16f69e	-0.009214072
68	0xbe7d9da5	-0.24767168
69	0xbed7260e	-0.4202122
70	0x3e3c4b4e	0.18388101
71	0xbebc170e	-0.3673634
72	0x3e2ebff3	0.1706541
73	0x3e973990	0.29536104
74	0x3e006bae	0.12541077
75	0xbde05d1b	-0.109552585
76	0x3cc0c386	0.023530733
77	0xbd63e5b1	-0.055638973
78	0xbe1f1740	-0.15536213
79	0xbd19e2f2	-0.037569948
80	0x3e27a9d6	0.16373381
81	0x3d1641f4	0.03668399
82	0x3ebcb127	0.36853907
83	0x3ee51502	0.4474259
84	0xbd8de171	-0.06927765
85	0x3c9f4a92	0.019444738
86	0xbe3b5d74	-0.18297368
87	0xbe7e73b4	-0.24848825
88	0x3e12f49c	0.14351124
89	0x3e10b8a5	0.14132936
90	0x3ddabbf0	0.106803775
91	0x3d85e826	0.065384194
92	0x3b57ff6c	0.003295864
93	0xbd823c68	-0.06359178
94	0xbdc7bb14	-0.09752479
95	0xbe17d70a	-0.14828125
96	0x3e24fb44	0.16111475
97	0x3e2fea51	0.17179228
98	0x3f0b1b37	0.543384
99	0x3ec8ca90	0.39217043
100	0x3e4f9d10	0.20274758
101	0xbe8c21db	-0.2736958
102	0xbeb78882	-0.35846335
103	0x3e010cf0	0.12602592
104	0xbe7a9f38	-0.244748
105	0x3cfa2ce7	0.03053899
106	0xbcbc71dc	-0.023003511
107	0x3cdaf9ec	0.0267305
108	0x3cc9b334	0.024621584
109	0xbc713c6a	-0.0147238765
110	0xbdd5ee9e	-0.10445903
111	0x3ead3579	0.3382986
112	0x3efa484c	0.48883283
113	0x3e5a393d	0.21310897
114	0xbf274c52	-0.6535083
115	0x3e6ac639	0.22927178
116	0xbd41d0ec	-0.047318384
117	0x3eadf0ee	0.33972877
118	0x3ea16f80	0.3153038
119	0x3ea9ace8	0.3313973
120	0xb99c6000	-0.00029826164
121	0xbe528f90	-0.20562577
122	0x3ddc9e54	0.10772386
123	0x3bae1fc0	0.0053138435
124	0x3da92e24	0.08260754
125	0x3e47dd22	0.19517949
126	0xbe499f88	-0.19689763
127	0xbcd14580	-0.025545835
128	0x3d333ba8	0.043758065
129	0xbcecbbe0	-0.02889818
130	0xbdd2272c	-0.10261378
131	0x3e17a7ac	0.14810055
132	0xbd8a795e	-0.0676143
133	0xbe531722	-0.20614293
134	0x3d31cd68	0.04340878
135	0xbdcd4423	-0.10022762
136	0xbe06070c	-0.13088626
137	0x3e803b74	0.2504536
138	0x3d24a839	0.040199492
139	0x3b50a456	0.0031836233
140	0x3c9ee3b0	0.01939568
141	0x3dad6c8a	0.08467968
142	0x3e487554	0.19576007
143	0x3e86a500	0.2629776
144	0x3eeb61cf	0.4597306
145	0x3e0e4c13	0.13896208
146	0xbe99bcbc	-0.30026805
147	0xbece5d4f	-0.40305564
148	0x3e318672	0.17336443
149	0xbdede7a8	-0.116164505
150	0xbd6d82ee	-0.057986192
151	0xbd2c7e96	-0.04211291
152	0xbe691f95	-0.22765954
153	0x3e4d907c	0.20074648
154	0xbd24d52e	-0.040242366
155	0xbd4b34e4	-0.049610987
156	0xbe610ac5	-0.21976765
157	0xbdd1c427	-0.10242491
158	0xbe6a71d0	-0.22894979
159	0x3de6aafe	0.11263083
160	0xbdce1fd6	-0.10064666
161	0x3f1b7a94	0.60733914
162	0x3e8be94d	0.27326432
163	0x3d930746	0.07179122
164	0xbda47fde	-0.08032201
165	0xbe125c1b	-0.14292948
166	0xbda8d04a	-0.08242853
167	0x3e5a1c18	0.2129978
168	0x3e0bc2cc	0.13648528
169	0x3df989d5	0.121844925
170	0x3d0150bc	0.031571135
171	0x3e2047dd	0.15652414
172	0x3e11a865	0.14224394
173	0x3d82b0dd	0.0638139
174	0xbe9ed0df	-0.3101873
175	0x3ec33420	0.38125706
176	0xbdc5bc3b	-0.09655043
177	0x3f19edf8	0.60128736
178	0x3e958c6a	0.2920869
179	0x3ee3ca99	0.44490507

down1.bias f4 [12]
0	0xbe1cdc03	-0.15318303
1	0x3c9711bb	0.018441072
2	0x3e22e893	0.15909033
3	0x3dfb8344	0.12280896
4	0x3dc61156	0.09671275
5	0xbe35bfbc	-0.17748922
6	0xbe39718e	-0.18109724
7	0x3d70713f	0.05870175
8	0xbe79e100	-0.24402237
9	0x3e1f073b	0.15530102
10	0xbe1e07f8	-0.15432727
11	0xbd7e725e	-0.062120788

down2.weight f4 [9, 12]
0	0x3f372c3c	0.7155187
1	0x3e7996c2	0.24373916
2	0x3e637efb	0.22216408
3	0xbdae147c	-0.08500001
4	0xbdb89f59	-0.09014768
5	0xbde91639	-0.11381192
6	0xbd2a4480	-0.041569233
7	0x3e4e5964	0.20151287
8	0x3d2b7640	0.04186082
9	0xbd87b6e4	-0.066266805
10	0x3eb581ef	0.35450694
11	0x3efe5e66	0.49681395
12	0x3e2cab5c	0.16862243
13	0x3eb362df	0.3503637
14	0x3e28e9c1	0.1649542
15	0xbf68ac06	-0.90887487
16	0xbe2ae063	-0.16687159
17	0xbc41d83b	-0.0118313385
18	0x3ec8d1ae	0.39222473
19	0x3ececf57	0.40392563
20	0xbe680f50	-0.22662091
21	0x3a6d17c4	0.0009044374
22	0x3eca206a	0.39477855
23	0x3de8e0d6	0.11371009
24	0x3e519471	0.20466782
25	0x3d4ce844	0.050026193
26	0x3e9d5bb1	0.30734017
27	0x3ebfb709	0.37444332
28	0xbe2c190a	-0.16806427
29	0x3f035c26	0.5131248
30	0x3eb8fbfb	0.36129746
31	0x3eb529f8	0.35383582
32	0xbe75af36	-0.23992619
33	0x3eb5ea06	0.35530108
34	0xbeaf7cef	-0.34275004
35	0x3e1ed61c	0.15511364
36	0x3d17109a	0.036881067
37	0x3eaecbef	0.34139964
38	0xbe139c50	-0.14415097
39	0xbf36a133	-0.7133972
40	0xbf044c62	-0.5167905
41	0x39afa9c5	0.0003350509
42	0x3eda0973	0.42585334
43	0x3e9eae85	0.30992523
44	0x3e934730	0.2876525
45	0xbcbf3513	-0.023340737
46	0x3e81f6d3	0.25383624
47	0xbe069f7d	-0.13146777
48	0x3e5df15c	0.21674103
49	0xbd752288	-0.059847385
50	0x3f18b829	0.59656006
51	0x3d4ee717	0.050513353
52	0x3d538bc9	0.05164698
53	0x3e828059	0.25488546
54	0x3e312e38	0.17302787
55	0x3eee89dc	0.46589553
56	0x3da21cfc	0.079156846
57	0x3f15d4a2	0.58527577
58	0x3d606655	0.05478509
59	0x3d3d3609	0.04619411
60	0x3e8e9494	0.2784773
61	0x3f0a6097	0.54053634
62	0x3ef08370	0.4697528
63	0xbe964c91	-0.2935529
64	0xbc5bebaf	-0.013422891
65	0xbe033cbf	-0.12816142
66	0x3e873d3b	0.26413903
67	0xbe8b90fd	-0.27259055
68	0xbcccfb50	-0.025022179
69	0x3f29b88f	0.6629724
70	0xbf0f945f	-0.5608577
71	0xbeca77d0	-0.39544535
72	0x3e8a7744	0.27044117
73	0xbd1f8048	-0.038940698
74	0x3e98e07a	0.29858762
75	0x3e134ab4	0.14383966
76	0xbe78f5f3	-0.24312572
77	0xbf102497	-0.5630583
78	0xbf47d986	-0.7806629
79	0xbf00a602	-0.5025331
80	0xbe649c31	-0.22325207
81	0xbe7eded4	-0.2488969
82	0x3e8af9e6	0.27143782
83	0xbd843b83	-0.064566635
84	0x3ed9d295	0.42543474
85	0xbf01a618	-0.50644064
86	0x3ed31bd6	0.41232175
87	0x3f64820d	0.8926094
88	0x3ea874d4	0.32901633
89	0x3e7e98ad	0.24862929
90	0x3e8232c2	0.2542935
91	0x3e9a9d95	0.3019835
92	0xbe72909c	-0.23687977
93	0x3de74908	0.112932265
94	0xbf0981a3	-0.53713435
95	0x3eb6c0b7	0.35693905
96	0x3edcc5f6	0.43119782
97	0x3e53c7fd	0.20681758
98	0x3e37ca2c	0.17948216
99	0xbf3b2853	-0.73108405
100	0xbe64fd9b	-0.22362368
101	0x3ea80084	0.32812893
102	0x3e90e5f6	0.28300446
103	0x3ebf7a32	0.37397915
104	0x3e906fec	0.2821039
105	0x3dcc4e5d	0.09975884
106	0x3eb22cbe	0.3479976
107	0x3e440037	0.19140707

down2.bias f4 [9]
0	0xbe04ca69	-0.12967838
1	0xbeda8cb0	-0.4268546
2	0x3e8a0356	0.2695567
3	0x3db6471d	0.089002825
4	0x3ea1d058	0.31604266
5	0x3e28c3fe	0.16481015
6	0x3e96ad8c	0.2942928
7	0xbe708054	-0.23486453
8	0x3ea53f4c	0.32274854

down3.weight f4 [8, 9]
0	0x3e76a301	0.24085619
1	0x3f2818c5	0.65662795
2	0x3d9f8057	0.07788151
3	0xbdfc11a1	-0.1230805
4	0xbe1050e8	-0.14093363
5	0x3ef78e26	0.48350638
6	0xbed65c87	-0.41867468
7	0xbed298dd	-0.4113225
8	0x3e12dc98	0.14341962
9	0x3f05f575	0.5232766
10	0xbedd1d2b	-0.43186316
11	0xbcebd682	-0.028788809
12	0xbf7fbb0a	-0.99894774
13	0xbdf6e6e2	-0.12055756
14	0x3e4c5b20	0.19956636
15	0x3f7962dd	0.9741648
16	0x3d923338	0.071386755
17	0xbea425fc	-0.3206023
18	0x3ee66b35	0.45003667
19	0x3e93065e	0.28715795
20	0x3e062cad	0.1310298
21	0xbef945fb	-0.48686203
22	0x3e6c2703	0.23061757
23	0x3ec01dca	0.37522727
24	0xbbfbaac3	-0.0076802685
25	0xbf14ec32	-0.58172905
26	0x3ecf31ed	0.40467778
27	0xbd080ec5	-0.03321721
28	0xbded959c	-0.11600801
29	0x3e91df5f	0.2849073
30	0x3e86ee63	0.2635375
31	0x3ec4cd77	0.38438007
32	0x3de55b10	0.111990094
33	0xbe4d0dad	-0.20024748
34	0x3ed79225	0.42103687
35	0x3e92165d	0.28532687
36	0x3ea930f8	0.33045173
37	0x3f10a1c5	0.5649684
38	0xbcc14f75	-0.023597458
39	0xbea9b86b	-0.33148512
40	0xbd627882	-0.055290706
41	0x3eccb3c0	0.39980888
42	0xbe80cdf0	-0.25157118
43	0xbc659435	-0.014012386
44	0x3efdbf29	0.49559906
45	0xbe194827	-0.1496893
46	0xbef4cd44	-0.47812855
47	0x3ea58c79	0.32333735
48	0x3e83c05e	0.25732702
49	0x3eb2914f	0.34876487
50	0x3f54585b	0.8294732
51	0x3e0c159b	0.13680117
52	0x3e6ba200	0.23011017
53	0x3d2b0fa0	0.041762948
54	0x3c8744d0	0.016512305
55	0xbe76c9cc	-0.24100417
56	0x3e7a04f0	0.24415946
57	0x3e97e019	0.2966316
58	0x3de51f83	0.11187651
59	0x3e85a2ff	0.2610092
60	0xbe8fcfa5	-0.28088108
61	0x3eeb3da4	0.45945466
62	0x3cd1d699	0.025615023
63	0x3f745d6c	0.9545505
64	0x3f173b39	0.5907474
65	0x3d01e159	0.03170905
66	0x3d96a3f4	0.0735549
67	0x3e4ee4a1	0.20204403
68	0xbef426ab	-0.4768575
69	0xbe1f1ad8	-0.15537584
70	0x3e44da3d	0.19223876
71	0x3ed233f1	0.41055253

down3.bias f4 [8]
0	0xbe96b4ae	-0.29434723
1	0x3e7cf76e	0.24703762
2	0x3e12f42e	0.1435096
3	0x3d41c4e3	0.047306906
4	0xbdb41916	-0.08793847
5	0xbd9928d2	-0.07478489
6	0x3de1adf9	0.11019511
7	0x3e320b00	0.17387009

down4.weight f4 [7, 8]
0	0x3f42eae7	0.7613968
1	0xbf8e0d77	-1.1097859
2	0x3f3d4e86	0.7394794
3	0xbedd19d1	-0.4318376
4	0x3f1d2ede	0.6139964
5	0xbe80b18b	-0.25135455
6	0xbe970617	-0.29496834
7	0x3d8ac493	0.06775775
8	0xbf19e58d	-0.6011589
9	0x3ee3daeb	0.4450296
10	0x3d5d6815	0.05405434
11	0xbebb27da	-0.36553842
12	0x3df87640	0.121319294
13	0xbe144da7	-0.14482747
14	0x3e174166	0.14771041
15	0x3f1a1640	0.601902
16	0x3e98871d	0.29790583
17	0xbf92b4ca	-1.1461422
18	0x3ee1f03e	0.44128603
19	0x3f044fe8	0.5168443
20	0x3e8ec58c	0.2788509
21	0x3daf54e7	0.08561116
22	0x3e3c1247	0.18366347
23	0x3ef25ae5	0.47334972
24	0xbf1b4790	-0.6065607
25	0xbef3ef91	-0.47643712
26	0xbdfe0162	-0.124026075
27	0x3e78f644	0.24312693
28	0xbc0b1b9f	-0.008490472
29	0x3eedc33e	0.4643802
30	0x3ea2a811	0.3176885
31	0xbeb83421	-0.3597727
32	0xbf01135c	-0.50420165
33	0x3f44f77a	0.7694012
34	0x3ef1f610	0.47258043
35	0xbe8974f2	-0.26847035
36	0x3c1ce49b	0.009575988
37	0x3e42bd08	0.19017422
38	0xbe966e9a	-0.29381257
39	0x3e898aff	0.26863858
40	0xbe6f06fc	-0.23342508
41	0xbeaf19df	-0.34199426
42	0x3e8899b7	0.26679775
43	0xbe09bdf0	-0.13451362
44	0xbc5e4d6c	-0.0135682635
45	0xbd87a18d	-0.0662261
46	0x3e453ee2	0.19262269
47	0xbe810368	-0.2519791
48	0xbeb31d13	-0.3498312
49	0xbdf45b15	-0.11931435
50	0xbf138774	-0.5762856
51	0x3f0fb951	0.56142145
52	0x3dd94f9e	0.10610889
53	0x3e38c2bd	0.18043037
54	0x3eab431e	0.33449644
55	0x3ebe6624	0.37187302

down4.bias f4 [7]
0	0x3e5e928a	0.21735588
1	0x3d42d5dd	0.047567237
2	0xbd9fbedd	-0.07800076
3	0x3da09908	0.078416884
4	0x3e1bfa9b	0.15232317
5	0xbe2a6d5f	-0.16643284
6	0xbcaab8cd	-0.020840073

down5.weight f4 [6, 7]
0	0xbef579d6	-0.47944516
1	0x3c0b401a	0.00849917
2	0xbf2bc978	-0.6710429
3	0xbe6a14f8	-0.22859561
4	0x3e7a0902	0.24417499
5	0xbdf6113e	-0.120150074
6	0x3ea504c0	0.32230186
7	0xbee52eb2	-0.44762188
8	0x3ea4271b	0.32061085
9	0xbd9ed35d	-0.07755158
10	0x3dd64735	0.104628004
11	0x3f14891c	0.5802171
12	0x3eb71857	0.35760757
13	0x3e9d6fbb	0.30749306
14	0x3e995abf	0.29952046
15	0xbf02e1e6	-0.51125944
16	0x3de47a99	0.11156196
17	0x3ef838bc	0.48480785
18	0x3e3d34fe	0.18477246
19	0x3db4c753	0.088270806
20	0xbd2a712b	-0.04161183
21	0x3e41a8e8	0.18912089
22	0x3c86c2df	0.016450344
23	0xbe7710f8	-0.24127567
24	0xbee31f74	-0.44359934
25	0x3e88e843	0.26739702
26	0xbdc55c82	-0.09636785
27	0xbf1d902a	-0.615481
28	0x3e7f9e45	0.24962719
29	0x3f03fcf8	0.51557875
30	0x3e388d5e	0.18022677
31	0xbe999dd5	-0.3000323
32	0xbe313198	-0.17304075
33	0x3b679de6	0.0035341918
34	0x3e845bad	0.25851193
35	0x3d8612ce	0.065465555
36	0x3ede1a5c	0.43379486
37	0xbd984b15	-0.07436196
38	0xbf45df21	-0.7729359
39	0x3ebf174b	0.3732246
40	0x3d87a709	0.06623656
41	0x3e3d3c13	0.18479948

down5.bias f4 [6]
0	0xbeba4d92	-0.36387306
1	0xbbda518c	-0.006662553
2	0x3e08ff43	0.13378625
3	0xbe319dcf	-0.17345355
4	0xbea3df97	-0.32006523
5	0xbd08633c	-0.033297762

up1.weight f4 [7, 6]
0	0x3ed6fc49	0.41989353
1	0x3e9c8b29	0.3057492
2	0xbd9130c1	-0.07089377
3	0xbe903f41	-0.2817326
4	0xbd64cf24	-0.055861607
5	0x3d51b587	0.05119851
6	0xbeb8bad7	-0.36080047
7	0xbda208d4	-0.0791184
8	0x3ec16961	0.3777571
9	0x3eeba6ef	0.46025798
10	0xbe12f343	-0.1435061
11	0x3e04a1c7	0.12952338
12	0xbed48bb7	-0.41512844
13	0xbd59f946	-0.05321624
14	0xbda2c949	-0.07948548
15	0x3f069a03	0.52578753
16	0x3e290809	0.16506971
17	0x3ed34d3a	0.41269857
18	0xbede75d3	-0.43449268
19	0x3d334473	0.04376645
20	0xbd89735f	-0.067114584
21	0xbef9de56	-0.4880244
22	0x3eab7c36	0.33493203
23	0x3e6df598	0.23238218
24	0x3e13cff7	0.14434801
25	0x3f088be0	0.5333843
26	0xbdb54fbe	-0.088531
27	0x3d88f529	0.066873856
28	0xbcaa88f0	-0.02081725
29	0x3e05d2aa	0.13068643
30	0xbf108d91	-0.56466013
31	0xbe711dd9	-0.23546542
32	0x3f13b249	0.57693917
33	0xbee8f802	-0.45501715
34	0xbecd821a	-0.40138322
35	0xbf086df4	-0.53292775
36	0x3e1f1fd5	0.15539487
37	0x3e8ccfcb	0.27502283
38	0x3e1b828a	0.15186515
39	0x3d5e3ad8	0.054255337
40	0xbedcbbbc	-0.4311198
41	0xbec3f0f8	-0.38269782

up1.bias f4 [7]
0	0x3e178743	0.14797692
1	0x3e9ff268	0.3123963
2	0x3ea8df92	0.3298307
3	0xbd1dfc37	-0.03857061
4	0x3e386dbc	0.1801061
5	0xbbeafdd1	-0.0071713706
6	0x3edf937f	0.43667218

up2.weight f4 [8, 7]
0	0x3e415191	0.18878771
1	0xbdab4300	-0.083623886
2	0xbe6c42e1	-0.23072387
3	0xbe0bf97b	-0.13669388
4	0xbdff48c8	-0.12465054
5	0xbdf9c360	-0.12195468
6	0xbd603e59	-0.05474696
7	0x3cba72e5	0.022759864
8	0xbf05dbc5	-0.52288467
9	0xbe9f9b35	-0.311731
10	0x3ed3ce24	0.4136821
11	0xbce26191	-0.027634414
12	0xbe15de36	-0.14635548
13	0x3d9f8e61	0.077908285
14	0x3e21c489	0.15797628
15	0x3dd7ee37	0.10543483
16	0x3f202bea	0.6256701
17	0x3f019d2d	0.50630456
18	0x3e9042de	0.28176016
19	0x3e79ed52	0.24406937
20	0xbe3793f1	-0.17927529
21	0xbed04ca5	-0.40683475
22	0x3e8faf7d	0.28063574
23	0xbe40ac40	-0.18815708
24	0x3e68fc83	0.22752576
25	0x3f10902e	0.5647
26	0x3ea3e139	0.3200777
27	0x3c580853	0.013185578
28	0x3e725f44	0.23669153
29	0x3e156ef3	0.14593105
30	0x3df69001	0.12039185
31	0xbe7ed3d4	-0.24885494
32	0x3e8ae2dc	0.27126205
33	0xbd799f19	-0.060942743
34	0x3e342c5e	0.1759505
35	0xbea79c5e	-0.32736486
36	0xbe570e0a	-0.21001449
37	0xbdf695ac	-0.120402664
38	0xbe8869b1	-0.26643136
39	0x3e0e1a21	0.13877155
40	0x3ecae6f9	0.39629343
41	0x3f228edd	0.6349924
42	0x3f4d42fd	0.8018034
43	0xbb4ed218	-0.003155833
44	0xbdf7104a	-0.12063654
45	0x3bedc4e1	0.007256136
46	0x3e09b09a	0.13446274
47	0x3e8f306a	0.27966624
48	0x3f02129b	0.5080964
49	0xbe3fbb55	-0.18723805
50	0xbe209e68	-0.15685427
51	0xbe3dcd0d	-0.18535252
52	0x3e56bc59	0.20970286
53	0xbe85728b	-0.26063952
54	0x3f049338	0.5178714
55	0x3c70d0cc	0.014698219

up2.bias f4 [8]
0	0xbd68a95b	-0.056802135
1	0x3e814b60	0.2525282
2	0xbc65fc99	-0.014037275
3	0xbf30f972	-0.69130623
4	0x3e88d802	0.267273
5	0xbabcf00e	-0.0014414804
6	0xbf03621a	-0.51321566
7	0x3e96f1d8	0.29481387

up3.weight f4 [9, 8]
0	0xbd1af538	-0.037831515
1	0x3e8b6838	0.2722795
2	0x3d6870fd	0.05674838
3	0x3eb94a58	0.36189532
4	0xbe960a24	-0.29304612
5	0xbc7fd157	-0.015613875
6	0xbd8db488	-0.06919199
7	0xbe16766e	-0.14693615
8	0x3d41c012	0.047302313
9	0x3d3a2a02	0.045450218
10	0x3d983524	0.07432011
11	0xbe28a9e7	-0.16471063
12	0xbe5dbea3	-0.21654753
13	0xbda6667d	-0.08125017
14	0xbe6f69a7	-0.23380147
15	0x3e90eee3	0.28307256
16	0xbd35b4a6	-0.044361733
17	0x3d657154	0.05601628
18	0x3db763cb	0.08954581
19	0x3e25c354	0.16187793
20	0x3dfadaf2	0.12248792
21	0xbddd0d4b	-0.10793551
22	0xbe37b43e	-0.1793985
23	0x3e573ac6	0.21018514
24	0xbdb9e2ee	-0.090764865
25	0xbe8abde0	-0.27097988
26	0x3e1e5818	0.15463293
27	0x3f0af2c0	0.5427666
28	0x3e6933e0	0.22773695
29	0xbc8f4794	-0.017490186
30	0x3f3fc359	0.7490745
31	0xbeb1cf0f	-0.34728286
32	0x3e823315	0.25429597
33	0x3f1962b5	0.5991624
34	0x3e387061	0.18011619
35	0x3e201ce1	0.15636016
36	0x3d74b2fc	0.059741005
37	0x3ed5c850	0.4175439
38	0x3e6227fa	0.22085562
39	0xbe899f7c	-0.2687949
40	0xbd782705	-0.060584087
41	0xbed0fdce	-0.40818638
42	0x3f036649	0.5132795
43	0xbddbb058	-0.10726994
44	0x3e10f21e	0.1415486
45	0x3ea0c97c	0.3140372
46	0xbe70499f	-0.23465584
47	0xbec50b63	-0.3848525
48	0x3eae10e4	0.33997262
49	0x3d8275e4	0.06370142
50	0x3ebb609d	0.36597148
51	0xbe522f36	-0.20525822
52	0x3e05f8f7	0.13083254
53	0xbec5383e	-0.38519472
54	0x3e1cd9b3	0.1531742
55	0xbe7ad39f	-0.2449479
56	0xbe3c463a	-0.18386164
57	0x3d7fc7a2	0.062446244
58	0x3e236ef5	0.15960295
59	0xbeaeacb1	-0.34116128
60	0xbdb996d7	-0.090619735
61	0xbd845523	-0.06461551
62	0x3ee2e32f	0.44313952
63	0x3dc07904	0.09398082
64	0xbc865479	-0.016397702
65	0x3e572f2a	0.21014085
66	0xbbeb827b	-0.0071871853
67	0x3bb667b9	0.005566564
68	0xbe8f1089	-0.27942303
69	0x3d923981	0.07139874
70	0xbeca9326	-0.3956539
71	0xbc921a9e	-0.017834958

up3.bias f4 [9]
0	0x3e4a6c85	0.1976796
1	0xbc6c24ba	-0.014413053
2	0xbd68500e	-0.05671697
3	0x3d24f0c7	0.040268686
4	0xbea55413	-0.32290706
5	0x3d151f25	0.036406655
6	0x3caf973e	0.021434423
7	0x3e24d20d	0.16095753
8	0x3e5bc673	0.21462421
