A_3/model_Plate 29178_N.pt (torch, 9530 bytes, 20 tensors)

down1.weight f4 [12, 15]
-0.05801201 0.13369642 -0.12523706 0.3063666 0.0044317422 -0.07337876 0.03674118 0.023586247
0.09797657 0.85118645 0.042496096 0.398872 -0.06743513 0.2534546 0.09312041 -0.04098022
-0.06782915 -0.022329317 0.07597617 -0.12852703 -0.11574516 0.21493526 0.38595626 0.37419736
0.20172626 0.18128297 -0.0010281502 0.19762592 0.10207379 -0.09505002 0.062131222 0.0015292654
-0.1161662 0.060399905 -0.047232676 -0.03432612 0.01927015 -0.27964056 -0.064921 0.16326423
0.18311284 -0.050596956 0.2608994 -0.0788157 0.030321985 -0.10483253 0.07533642 -0.018607873
-0.3371753 0.17121407 0.17868899 0.11103941 0.3832711 0.09122304 -0.13391063 0.06380756
0.31721413 0.00435601 0.03679546 0.20034127 0.19283314 0.18162417 0.35288534 0.11375965
0.031551834 0.123661034 0.042722013 -0.027662225 0.07253361 -0.16968386 -0.041708883 0.31738555
0.42350817 -0.08088384 0.009162648 0.39774016 0.3487948 0.3441325 0.17250857 0.34211567
0.25702512 0.038628157 -0.32830304 -0.11932061 -0.23830056 0.28147504 -0.29369515 0.1270901
0.113119975 0.30088687 0.23720303 0.11400346 -0.0800912 0.28906736 -0.16755807 -0.10684984
0.28782016 0.2906663 0.1671284 0.49059525 0.0489479 0.27634582 0.4405347 0.23542914
-0.005012679 0.23198886 -0.059149344 0.38304698 0.0005708529 0.044414688 -0.1950817 0.113153845
0.27023152 0.3460035 0.7731574 -0.04738613 0.04173572 0.05670189 0.35551372 -0.034402475
0.064711064 0.04221022 0.07926451 -0.22417961 0.20930594 0.2832565 -0.038734365 -0.0054526106
-0.096565194 -1.124009 -0.16761601 -0.1252862 -0.021789271 -0.38063213 0.2258768 0.08203297
0.2550655 0.35480317 0.082473144 0.16091608 0.16972241 0.25899613 0.47078356 0.5567932
0.23002955 0.27513218 0.03276511 0.3989101 0.087860584 0.18786168 0.035795495 0.32703114
0.14439893 0.106814235 0.0035866862 0.116272494 0.0039793607 -0.110524446 -0.06292313 0.6558756
0.45147243 -0.004322079 0.02979274 0.31124416 -0.046500023 0.33788803 0.24028206 0.020911401
0.0011480311 0.20289603 0.23686375 0.24952967 0.48738742 0.2584874 -0.14364544 0.06117634
-0.077571265 -0.1999266 0.08416061 0.40955445
00000000: 009e 6dbd b7e7 083e 253e 00be 15dc 9c3e
00000010: 2638 913b 9a47 96bd eb7d 163d f237 c13c
00000020: f1a7 c83d 5be7 593f 6310 2e3d f338 cc3e
00000030: 6e1b 8abd cdc4 813e eab5 be3d e0da 27bd
00000040: 02ea 8abd f9eb b6bc 6599 9b3d 979c 03be
00000050: cc0b edbd fd17 5c3e 0f9c c53e cc96 bf3e
00000060: 5491 4e3e 3ea2 393e ffc2 86ba 735e 4a3e
00000070: 100c d13d 96a9 c2bd 4f7d 7e3d a271 c83a
00000080: 8be8 edbd e465 773d 0d77 41bd 8c99 0cbd
00000090: 6fdc 9d3c 0c2d 8fbe 4df5 84bd bd2e 273e
000000a0: ef81 3b3e c13e 4fbd 9b94 853e 206a a1bd
000000b0: d065 f83c 70b2 d6bd fb49 9a3d 8a6f 98bc
000000c0: 3ea2 acbe be52 2f3e 3ffa 363e a168 e33d
000000d0: 1c3c c43e 25d3 ba3d de1f 09be 8aad 823d
000000e0: e469 a23e dcbc 8e3b d6b6 163d 4326 4d3e
000000f0: 0d76 453e b0fb 393e 63ad b43e d2fa e83d
00000100: 7f3c 013d ff41 fd3d 47fd 2e3d e49b e2bc
00000110: 808c 943d 9bc1 2dbe efd6 2abd 5c80 a23e
00000120: 10d6 d83e 6da6 a5bd ee1e 163c 99a4 cb3e
00000130: 3b95 b23e 2332 b03e 16a6 303e c929 af3e
00000140: cc98 833e 8f38 1e3d 5617 a8be 5d5e f4bd
00000150: 1005 74be 7f1d 903e 365f 96be e823 023e
00000160: 72ab e73d d80d 9a3e 5ae5 723e a57a e93d
00000170: db06 a4bd a300 943e 5894 2bbe 17d4 dabd
00000180: 2a5d 933e 37d2 943e b523 2b3e 4d2f fb3e
00000190: 987d 483d 337d 8d3e c48d e13e 5614 713e
000001a0: 6641 a4bb 7d8e 6d3e 9546 72bd bc1e c43e
000001b0: 4aa5 153a 2dec 353d 7fc3 47be 34bd e73d
000001c0: c95b 8a3e 5f27 b13e a5ed 453f f517 42bd
000001d0: 13f3 2a3d 3e40 683d e505 b63e 9ce9 0cbd
000001e0: 3c87 843d a0e4 2c3d 6e55 a23d 578f 65be
000001f0: 4c54 563e ff06 913e eda7 1ebd d0ab b2bb
00000200: f9c3 c5bd 87df 8fbf 88a3 2bbe 074b 00be
00000210: 6a7f b2bc 37e2 c2be 3f4c 673e e700 a83d
00000220: f297 823e c3a8 b53e aee7 a83d 2fc7 243e
00000230: b6cb 2d3e 249b 843e 8b0a f13e 008a 0e3f
00000240: de8c 6b3e 20de 8c3e b534 063d f23d cc3e
00000250: 40f0 b33d d05e 403e 4c9e 123d a070 a73e
00000260: 50dd 133e 6cc1 da3d 9c0e 6b3b 4620 ee3d
00000270: 4c65 823b a45a e2bd d8dd 80bd 77e7 273f
00000280: 6527 e73e 3aa0 8dbb e70f f43c 655b 9f3e
00000290: cf76 3ebd a9ff ac3e 800c 763e 634e ab3c
000002a0: 8879 963a fac3 4f3e 698c 723e b584 7f3e
000002b0: d88a f93e 7658 843e ca17 13be 0b94 7a3d
000002c0: afdd 9ebd 8fb9 4cbe 665c ac3d 1fb1 d13e

down1.bias f4 [12]
0.21131021 0.103531696 0.26365718 0.30812904 0.18775824 0.36017728 0.034708925 0.010778881
0.3941065 0.34990293 0.101528004 0.041349366
00000000: b461 583e 6d08 d43d 13fe 863e 17c3 9d3e
00000010: b243 403e 2869 b83e f22a 0e3d e799 303c
00000020: 54c8 c93e 7a26 b33e eaed cf3d f45d 293d

down2.weight f4 [9, 12]
-0.35529277 0.43515733 0.07778871 -0.056876227 0.20514646 0.19859764 0.014591704 -0.37206867
0.17884783 0.055334754 -0.031521287 -0.08621626 -0.35925362 0.19838025 -0.3747269 0.43836895
0.0142159425 -0.23752081 0.21387675 -0.17187172 0.74052936 0.57309353 -0.26951966 0.14453152
-0.27921256 -0.20756078 0.052839026 -0.22055413 0.11003968 -0.28803995 -0.004779975 0.1029348
0.18163767 -0.26879114 0.10632761 0.21957444 0.34771892 0.19320022 -0.3584483 0.48077878
-0.3344679 -0.38288093 0.056643706 0.4573008 0.5780938 0.4323156 -0.22036113 0.356819
0.21511912 -0.2173819 0.45810643 0.69422024 0.66429776 -0.07335599 0.2608961 -0.1505395
-0.16738307 0.2995074 -0.48234293 -0.26217186 -0.5361213 -0.06769197 -0.12895112 0.25035527
0.39818856 0.32578743 -0.2675917 -0.49351412 -0.770269 0.1354517 -0.5571923 0.2180211
0.2074432 0.23716931 -0.45572364 0.13443434 0.08961803 -0.44147357 0.14013144 0.34007058
-0.23903021 0.4152453 -0.19352207 0.2719018 -0.037140027 0.30868894 -0.039177015 -0.08620293
-0.32126147 0.29877174 0.07787481 -0.06840458 0.69538593 0.15276034 0.049505673 -0.0367136
0.41624814 0.22657818 0.062282037 0.30528727 0.20762861 0.0156261 0.16972312 0.31782484
1.0072542 -0.18922007 0.025193006 -0.3618754
00000000: efe8 b5be f1cc de3e b04f 9f3d 0cf7 68bd
00000010: ea11 523e 2e5d 4b3e 0b12 6f3c c97f bebe
00000020: e323 373e b2a6 623d 771c 01bd 2792 b0bd
00000030: 17f0 b7be 3124 4b3e 34dc bfbe e571 e03e
00000040: fce9 683c a838 73be 8202 5b3e 24ff 2fbe
00000050: 5593 3d3f 42b6 123f 7bfe 89be 1200 143e
00000060: f3f4 8ebe d08a 54be bc6d 583d f1d8 61be
00000070: 7c5c e13d f979 93be 56a1 9cbb 7bcf d23d
00000080: 3aff 393e fe9e 89be 4ac2 d93d 1fd8 603e
00000090: 3708 b23e 47d6 453e 8986 b7be a328 f63e
000000a0: 603f abbe f808 c4be 3b03 683d 5523 ea3e
000000b0: f5fd 133f 7858 dd3e 59a6 61be fbb0 b63e
000000c0: 3048 5c3e 5c99 5ebe ed8c ea3e 6bb8 313f
000000d0: 6b0f 2a3f aa3b 96bd 2c94 853e 0727 1abe
000000e0: 7866 2bbe 0959 993e a7f5 f6be 643b 86be
000000f0: 3f3f 09bf 16a2 8abd c30b 04be 912e 803e
00000100: 5fdf cb3e 9ccd a63e c801 89be e2ad fcbe
00000110: 5930 45bf dab3 0a3e 28a4 0ebf ec40 5f3e
00000120: fd6b 543e 83dc 723e 9c54 e9be 28a9 093e
00000130: a889 b73d d308 e2be 9e7e 0f3e bb1d ae3e
00000140: 56c4 74be 089b d43e a62a 46be b636 8b3e
00000150: 2420 18bd 7a0c 9e3e 1478 20bd 298b b0bd
00000160: 627c a4be 9cf8 983e d47c 9f3d b317 8cbd
00000170: d004 323f 356d 1c3e 76c6 4a3d 0061 16bd
00000180: 7a1e d53e 1c04 683e 731b 7f3d 9d4e 9c3e
00000190: 989c 543e 4f02 803c e6cb 2d3e f0b9 a23e
000001a0: b5ed 803f e8c2 41be 9061 ce3c bc47 b9be

down2.bias f4 [9]
-0.021404482 0.37954044 -0.0016017265 -0.063741505 -0.04207214 0.4212041 0.22185704 0.060304094
-0.0635379
00000000: 7458 afbc 2053 c23e 06f1 d1ba e88a 82bd
00000010: d653 2cbd 10a8 d73e 7e2e 633e 6d01 773d
00000020: 2920 82bd

down3.weight f4 [8, 9]
-0.053689886 0.03987849 0.26211783 -0.003668293 -0.21762992 -0.35431427 0.20266744 0.41037366
-0.17353463 -0.37923747 -0.12531467 -0.3535296 0.26261723 0.539249 0.20872912 -0.0066841007
-0.21255304 0.59494483 0.4538165 0.24542743 -0.2801707 -0.15334383 0.3062453 -1.0706612
-0.033822294 0.025647933 0.17109232 -0.028105127 0.15333669 0.23001823 -0.053805426 0.23913494
-0.901313 -0.09948412 0.502599 0.5523936 -0.17197189 -0.07742526 -0.05839458 0.14361475
0.51562107 1.1724697 0.31335953 -0.05932071 -0.11436778 0.57612735 0.52761567 -0.21803005
0.47261834 -0.39994684 -0.83303845 0.48254746 0.22754982 -0.15986 -0.6716165 0.19369262
-0.2071005 -0.2810816 0.34888253 0.8021159 0.06705346 0.13500954 -0.7581019 0.6911558
0.6391497 -0.0016737485 0.52242863 0.43427116 -1.2125262 0.4358536 -0.36214417 -0.22635537
00000000: ede9 5bbd a157 233d 4f34 863e be67 70bb
00000010: 61da 5ebe ae68 b5be 0e88 4f3e 7f1c d23e
00000020: 10b3 31be 6a2b c2be 7d52 00be d501 b5be
00000030: c475 863e 390c 0a3f 16bd 553e 4d06 dbbb
00000040: 81a7 59be 4e4e 183f a35a e83e 5451 7b3e
00000050: 8972 8fbe 2a06 1dbe 2fcc 9c3e 6d0b 89bf
00000060: 3f89 0abd 9d1b d23c d332 2f3e b93c e6bc
00000070: 4b04 1d3e e689 6b3e 1463 5cbd cadf 743e
00000080: 73bc 66bf 55be cbbd 54aa 003f ab69 0d3f
00000090: 6619 30be 2291 9ebd 282f 6fbd bf0f 133e
000000a0: beff 033f 7d13 963f a970 a03e 46fa 72bd
000000b0: a839 eabd 157d 133f d211 073f 4543 5fbe
000000c0: 08fb f13e d5c5 ccbe 0242 55bf 7610 f73e
000000d0: d202 693e 57b2 23be 0fef 2bbf 5c57 463e
000000e0: 2712 54be ede9 8fbe bba0 b23e 7857 4d3f
000000f0: 5353 893d f13f 0a3e f712 42bf 96ef 303f
00000100: 519f 233f ae61 dbba e2bd 053f ca58 de3e
00000110: 0f34 9bbf 3428 df3e f66a b9be b4c9 67be

down3.bias f4 [8]
0.36479196 0.10953488 0.036069974 -0.17982112 0.11823506 0.39139253 0.070472024 -0.11414604
00000000: 03c6 ba3e d353 e03d 1cbe 133d 0723 38be
00000010: 3925 f23d 9a64 c83e a353 903d 66c5 e9bd

down4.weight f4 [7, 8]
-0.36760584 0.30203772 0.11202708 0.13347305 0.14787707 -0.5661634 0.8088514 -0.51044524
-0.08949277 -0.3085682 0.15375999 -0.19785538 -0.25811198 -0.10821979 -0.21194756 0.10003179
0.2012676 -0.20141155 0.18333235 -0.24566601 0.12337669 -0.3421392 -0.26030084 0.12682152
0.39254647 0.14369817 -0.14063923 -0.10788252 -0.47923604 0.26443365 -1.6964322 0.025027316
0.12266037 -0.24296376 -0.161488 -0.69676083 0.57370496 0.4868481 1.2545842 0.35249
0.20773292 -0.31773034 0.3386914 0.44718322 -0.6133808 0.50780255 -2.207035 0.23263761
-0.55281526 0.3317541 0.48643273 0.14373128 0.21772426 -0.21662696 -1.5380032 0.7476085
00000000: d536 bcbe b0a4 9a3e 746e e53d 29ad 083e
00000010: 166d 173e 16f0 10bf e310 4f3f 8aac 02bf
00000020: fc47 b7bd a7fc 9dbe 4273 1d3e 9a9a 4abe
00000030: 4127 84be 56a2 ddbd c808 59be 78dd cc3d
00000040: 1819 4e3e d43e 4ebe 7abb 3b3e df8f 7bbe
00000050: ebac fc3d df2c afbe 2746 85be 80dd 013e
00000060: dafb c83e 9d25 133e bb03 10be 83f1 dcbd
00000070: 6d5e f5be d963 873e b124 d9bf 1606 cd3c
00000080: 5c35 fb3d 7ecb 78be 1c5d 25be eb5e 32bf
00000090: 54de 123f 2744 f93e 3796 a03f 9279 b43e
000000a0: f0b7 543e 8dad a2be f668 ad3e 33f5 e43e
000000b0: 8606 1dbf 59ff 013f 1040 0dc0 8e38 6e3e
000000c0: 4d85 0dbf acdb a93e b60d f93e 4b2e 133e
000000d0: 1cf3 5e3e 75d3 5dbe 4add c4bf 4563 3f3f

down4.bias f4 [7]
-0.30192593 -0.32820803 0.033165313 0.32426813 -0.010707079 0.04853523 0.1814622
00000000: 0996 9abe e20a a8be 5ad8 073d 7906 a63e
00000010: bf6c 2fbc e1cc 463d 3ad1 393e

down5.weight f4 [6, 7]
0.272291 -0.27057636 -0.033953216 0.009171283 0.64269876 -0.04778213 -0.024405247 0.36755794
-0.27992535 -0.17785697 0.079972215 -0.06830205 -0.44392937 -0.7800808 0.22405037 -0.03415668
-0.14078023 -0.260096 -0.5491112 -0.30276927 0.04344491 -0.44311264 -0.019984305 0.0030544791
-0.15968397 0.43999836 -0.5296962 -0.5818572 0.34129757 -0.35814655 -0.18003823 -0.33113432
0.43647352 -0.72351056 -0.0114855915 -0.3116449 -0.25183472 -0.31541386 0.1771021 -0.30407706
0.6544061 -0.3744982
00000000: ba69 8b3e fc88 8abe 8712 0bbd 2643 163c
00000010: e887 243f 32b7 43bd 83ed c7bc 8e30 bc3e
00000020: 6052 8fbe 2320 36be 79c8 a33d f2e1 8bbd
00000030: b64a e3be 60b3 47bf 766d 653e e0e7 0bbd
00000040: b128 10be 4e2b 85be 8d92 0cbf 9304 9bbe
00000050: 4af3 313d a9df e2be 20b6 a3bc a82d 483b
00000060: 3284 23be 7747 e13e 2c9a 07bf 98f4 14bf
00000070: 8ebe ae3e fc5e b7be f15b 38be 708a a9be
00000080: 7579 df3e fd37 39bf 102e 3cbc ec8f 9fbe
00000090: 7bf0 80be ed7d a1be 415a 353e fdaf 9bbe
000000a0: 2887 273f 3abe bfbe

down5.bias f4 [6]
0.22243407 -0.060636353 -0.071835995 -0.18061997 -0.019107908 -0.23766357
00000000: c2c5 633e d35d 78bd c01e 93bd 71f4 38be
00000010: 3088 9cbc 145e 73be

attention.in_proj_weight f4 [18, 6]
0.3436826 0.3704707 -0.36076277 -0.002651453 0.26642627 -0.43640387 -0.10391724 -0.04071176
-0.33395082 0.09807193 -0.030763865 0.13932925 0.2101835 -0.18408579 0.085243404 0.035333753
-0.45591044 -0.07884592 -0.18267155 0.24130988 -0.035203338 0.4300812 -0.3607552 0.35999697
-0.28560328 0.4370224 -0.11431086 -0.09805715 -0.48076874 0.39123917 -0.37057137 -0.22068858
-0.055455387 -0.3858009 0.064318 -0.15980756 -0.32585806 -0.31309748 -0.48723966 -0.4589029
-0.26795286 0.4753999 0.47805363 0.014692724 -0.22013998 -0.18793589 -0.37814045 -0.25881004
0.28702468 -0.32405865 -0.45548362 -0.44748002 -0.16097724 -0.046992898 -0.3273332 -0.034142733
-0.27947146 -0.20990759 -0.23577422 -0.033011198 0.45100605 0.19795662 -0.44822925 -0.17121077
-0.49409515 -0.027274907 -0.015235901 -0.016413271 0.0055971146 0.3444969 0.13651896 0.19937891
-0.5917145 0.09443095 0.3473233 -0.57600564 -0.44139722 0.5234987 -0.7349725 0.50541836
0.3352601 0.45048836 -0.7840262 0.48459294 -0.36769795 -0.0915395 -0.19890887 0.34729946
0.90935165 0.45463663 -0.48069426 0.28650087 0.62772727 0.12719566 0.82960784 -0.7845485
-0.60708183 -0.663132 -0.08309385 -0.7435736 -1.0221001 0.6437779 -0.4141124 -0.5180872
0.1637562 -0.58824867 0.22663924 -0.2505856
00000000: 2af7 af3e 56ae bd3e e6b5 b8be 00c4 2dbb
00000010: 0669 883e 5470 dfbe 90d2 d4bd 60c1 26bd
00000020: 9afb aabe f0d9 c83d 8004 fcbc 54ac 0e3e
00000030: 583a 573e fc80 3cbe 1894 ae3d 20ba 103d
00000040: 186d e9be f879 a1bd 400e 3bbe f019 773e
00000050: 6031 10bd 9a33 dc3e e8b4 b8be 8651 b83e
00000060: 983a 92be 66c1 df3e d01b eabd 30d2 c8bd
00000070: 5227 f6be 8050 c83e 88bb bdbe 30fc 61be
00000080: 3025 63bd b287 c5be 28b9 833d 98a4 23be
00000090: ded6 a6be 504e a0be 7a77 f9be 52f5 eabe
000000a0: 1e31 89be 9e67 f33e 72c3 f43e c0b9 703c
000000b0: 606c 61be 4472 40be a09b c1be c082 84be
000000c0: e6f4 923e 04eb a5be 2635 e9be 1a1c e5be
000000d0: 38d7 24be a07b 40bd 3898 a7be 40d9 0bbd
000000e0: e216 8fbe 04f2 56be cc6e 71be c036 07bd
000000f0: 44ea e63e 24b5 4a3e 4e7e e5be e051 2fbe
00000100: 0afa fcbe a06f dfbc 00a0 79bc 2075 86bc
00000110: 0068 b73b e661 b03e a0cb 0b3e fc29 4c3e
00000120: 9a7a 17bf 0465 c13d 5cd4 b13e 1b75 13bf
00000130: d1fe e1be 0304 063f 2827 3cbf 1963 013f
00000140: 36a7 ab3e 69a6 e63e f1b5 48bf 911c f83e
00000150: e842 bcbe 1079 bbbd c4ae 4bbe 3cd1 b13e
00000160: 45cb 683f 22c6 e83e 8f1d f6be 3eb0 923e
00000170: bcb2 203f 943f 023e 2e61 543f 2cd8 48bf
00000180: b769 1bbf 05c3 29bf 1c2d aabd d75a 3ebf
00000190: 2dd4 82bf a1ce 243f 8a06 d4be 5da1 04bf
000001a0: b5af 273e 7797 16bf 1e14 683e c14c 80be

attention.in_proj_bias f4 [18]
0.0 0.0 0.0 0.0 0.0 0.0 0.0 0.0
0.0 0.0 0.0 0.0 -0.03646242 0.003371552 0.02009174 0.052896272
-0.01754267 -0.19516627
00000000: 0000 0000 0000 0000 0000 0000 0000 0000
00000010: 0000 0000 0000 0000 0000 0000 0000 0000
00000020: 0000 0000 0000 0000 0000 0000 0000 0000
00000030: 9e59 15bd 42f5 5c3b 6f97 a43c c3a9 583d
00000040: a5b5 8fbc abd9 47be

attention.out_proj.weight f4 [6, 6]
-0.55152935 0.23490047 -0.057319265 -0.49391988 -0.35843655 -0.08771456 0.7207289 0.059450638
-0.115482494 0.07340232 0.31811467 0.015847348 -0.13964805 -0.49992824 -0.5328391 -0.41107178
0.5435728 0.18282647 0.32652363 0.3199932 -0.35241184 -0.07833628 0.11026198 0.49553338
0.36136574 -0.15835929 -0.1782463 -0.48366302 0.44133568 0.39063582 0.5697252 0.32079324
-0.07400531 -0.62293935 0.8435699 -0.2518774
00000000: 0731 0dbf c089 703e 9bc7 6abd 11e3 fcbe
00000010: ff84 b7be b1a3 b3bd b081 383f 8382 733d
00000020: 1682 ecbd f553 963d eddf a23e 4cd2 813c
00000030: e6ff 0ebe 98f6 ffbe 2568 08bf 0078 d2be
00000040: 9627 0b3f dd36 3b3e 1b2e a73e 26d6 a33e
00000050: 536f b4be c66e a0bd 08d1 e13d 8db6 fd3e
00000060: ee04 b93e f028 22be 3386 36be aea2 f7be
00000070: c0f6 e13e 6b01 c83e 83d9 113f 033f a43e
00000080: 1990 97bd f478 1fbf 32f4 573f 13f6 80be

attention.out_proj.bias f4 [6]
0.052461255 0.12026696 0.19749604 -0.042752504 -0.24413013 0.00832221
00000000: 9de1 563d 864e f63d 673c 4a3e 401d 2fbd
00000010: 40fd 79be e159 083c

up1.weight f4 [7, 6]
-0.034682117 -0.45429015 0.3681516 -0.4083594 0.19961533 -0.4725842 0.28853673 -0.35936743
0.09290674 -0.7044689 0.19639868 -0.9937422 0.7553201 -0.7630359 0.28399903 -0.7243471
-0.17879856 0.140326 -0.29701117 0.3484188 -0.041321497 0.08255431 0.2647409 0.5094938
0.19020468 0.272469 0.3735681 0.117239214 0.50360686 1.1851203 -0.20996842 0.22874142
0.38303426 0.781148 0.53826135 0.43360156 -0.28977814 0.43149433 -0.00061897386 0.12312506
-0.3597529 -0.011404689
00000000: d60e 0ebd b898 e8be 5e7e bc3e 7c14 d1be
00000010: f667 4c3e 8ef6 f1be 16bb 933e 02ff b7be
00000020: e445 be3d 1358 34bf bc1c 493e e465 7ebf
00000030: a85c 413f 5256 43bf 5268 913e d06e 39bf
00000040: f816 37be 9eb1 0f3e d911 98be f363 b23e
00000050: bb40 29bd 3c12 a93d 1f8c 873e 306e 023f
00000060: 04c5 423e 0f81 8b3e 5144 bf3e 1d1b f03d
00000070: 61ec 003f 06b2 973f f601 57be 313b 6a3e
00000080: 111d c43e 51f9 473f 7fcb 093f 0601 de3e
00000090: cd5d 94be d3ec dc3e a242 22ba fe28 fc3d
000000a0: 8831 b8be bcda 3abc

up1.bias f4 [7]
0.25417283 0.4715472 0.56426793 -0.5180545 -0.3139449 0.28474963 0.6276514
00000000: f122 823e a26e f13e dd73 103f 389f 04bf
00000010: 63bd a0be b4ca 913e c3ad 203f

up2.weight f4 [8, 7]
-0.20510371 0.51731426 0.12044707 0.008750111 0.10669118 0.11468063 -0.06004645 0.19965923
-0.25866377 -0.51115704 -0.5254455 0.16252501 0.48502478 -0.23025452 -0.007514933 -0.1494485
0.4493553 0.23082903 0.48809016 -0.14269102 0.6678957 0.25673413 0.30844972 0.36464173
-0.2953075 -0.6649394 -0.22553933 0.028231664 0.5516462 0.10017096 -0.33125424 0.72934383
-0.24609566 0.36128455 0.561489 0.42501122 0.0021463255 0.34603405 1.0868688 -0.18808474
-0.13500474 -0.7190243 -0.21443191 -0.014116708 -0.19735678 0.008943163 0.2724263 0.22962292
0.20711876 -0.32710722 -0.22723983 -0.051181708 -0.5597433 -0.0037765878 0.29117778 -0.3594529
00000000: b506 52be b56e 043f f4ac f63d a05c 0f3c
00000010: e880 da3d aedd ea3d 44f3 75bd 7873 4c3e
00000020: 946f 84be 30db 02bf 9983 06bf f56c 263e
00000030: 2b55 f83e d7c7 6bbe d43f f6bb 0709 19be
00000040: e611 e63e 725e 6c3e f4e6 f93e 981d 12be
00000050: 36fb 2a3f a872 833e 1fed 9d3e 52b2 ba3e
00000060: 8b32 97be 7839 2abf c8f3 66be 1746 e73c
00000070: af38 0d3f 6f26 cd3d 289a a9be 47b6 3a3f
00000080: 8000 7cbe 4afa b83e bebd 0f3f 129b d93e
00000090: 5ea9 0c3b 602b b13e 841e 8b3f 4999 40be
000000a0: af3e 0abe fa11 38bf 0a94 5bbe c449 67bc
000000b0: e517 4abe 5886 123c 767b 8b3e 4522 6b3e
000000c0: f116 543e 997a a7be 8fb1 68be e9a3 51bd
000000d0: 564b 0fbf a180 77bb 4115 953e 360a b8be

up2.bias f4 [8]
-0.24089356 0.09969973 -0.42387727 0.09408177 -0.15855137 0.36526713 -0.6117829 0.6167913
00000000: cdac 76be 5f2f cc3d 7106 d9be f1ad c03d
00000010: 4a5b 22be 4b04 bb3e ce9d 1cbf 09e6 1d3f

up3.weight f4 [9, 8]
-0.15107301 0.051054105 0.1780544 0.08338977 0.09010837 0.18752989 0.063512266 -0.20682366
0.3033418 0.3063392 -0.033429146 -0.07161093 -0.26053512 0.5143099 -0.017759977 0.008875137
-0.028827868 -0.15610757 0.64352614 0.010733665 0.46640688 -0.13822216 -0.37083164 -0.3490635
0.34641635 0.38502908 0.085668914 0.77656996 -0.20268907 -0.3294876 -0.12684931 0.12678444
-0.4906346 -0.32110742 0.047254197 -0.09473541 0.10726079 0.30718377 0.6818083 0.28595203
-0.17739753 0.3491814 -0.16498552 -0.44728377 0.4754282 0.063749686 -0.5694113 -0.3569225
0.005651839 -0.13752426 -0.30334255 0.28010505 0.5255833 0.29443654 0.42325798 0.50971764
0.4162173 -0.5040923 -0.095098026 -0.97528845 0.16928658 0.10306897 0.5531853 0.8242586
-0.17599507 0.086272754 0.09640992 0.3938957 0.07478278 0.13138767 -0.3756938 0.09321752
00000000: e2b2 1abe 1c1e 513d e553 363e 41c8 aa3d
00000010: bd8a b83d d607 403e b812 823d 95c9 53be
00000020: 9e4f 9b3e 7ed8 9c3e 00ed 08bd c0a8 92bd
00000030: dc64 85be d0a9 033f 5f7d 91bc 0669 113c
00000040: 6c28 ecbc aada 1fbe 21be 243f 41dc 2f3c
00000050: e2cc ee3e 1c8a 0dbe a5dd bdbe 73b8 b2be
00000060: 7c5d b13e 8822 c53e 2f73 af3d 4acd 463f
00000070: b98d 4fbe 99b2 a8be c9e4 01be c8d3 013e
00000080: 7534 fbbe 3168 a4be 9e8d 413d a304 c2bd
00000090: 8cab db3d 3147 9d3e fd8a 2e3f 4e68 923e
000000a0: b3a7 35be e8c7 b23e f7f1 28be 6102 e5be
000000b0: 536b f33e 328f 823d f0c4 11bf 8cbe b6be
000000c0: 1033 b93b 29d3 0cbe b74f 9bbe ee69 8f3e
000000d0: a18c 063f 63c0 963e 45b5 d83e db7c 023f
000000e0: 6f1a d53e 310c 01bf c1c2 c2bd 81ac 79bf
000000f0: 7659 2d3e d315 d33d 8d9d 0d3f 9d02 533f
00000100: 0d38 34be c5af b03d 9072 c53d b2ac c93e
00000110: b727 993d 7d8a 063e f05a c0be d4e8 be3d

up3.bias f4 [9]
-0.007593726 -0.38329926 -0.20779267 -0.06669166 0.10880337 0.031606644 -0.226493 0.28934896
-0.12982428
00000000: cad4 f8bb cd3f c4be 9ac7 54be a395 88bd
00000010: 4dd4 de3d f875 013d c8ed 67be 8c25 943e
00000020: a8f0 04be
