5/model_Plate 27902_N.pt (torch, 6258 bytes, 12 tensors)

down1.weight f4 [12, 15]
0	0xbe050a1f	-0.12992142
1	0x3e562c38	0.20915306
2	0xbcf85e61	-0.03031844
3	0x3c05bfc1	0.0081633935
4	0xbe7772f5	-0.24164946
5	0xbe6912c3	-0.22761063
6	0xbd7ab1fb	-0.06120489
7	0xbe2d3c1f	-0.16917466
8	0xbc4b12ab	-0.0123945875
9	0x3e65cf96	0.22442469
10	0x3e2876ad	0.16451521
11	0xbd9b6834	-0.075882345
12	0xbd9b1fa2	-0.07574393
13	0xbd5bed87	-0.05369332
14	0x3e29379c	0.1652512
15	0xbda2f384	-0.07956603
16	0x3d92e15c	0.0717189
17	0x3e3bb154	0.18329364
18	0xbe6912ff	-0.22761153
19	0xbddab976	-0.10679905
20	0xbe0ee91d	-0.13956113
21	0xbe696aab	-0.22794597
22	0x3e6fbbdc	0.23411506
23	0x3e2b1768	0.16708148
24	0x3d9ccf5c	0.07656738
25	0x3d56b38a	0.052417316
26	0xbc2cb934	-0.010542203
27	0xbd9212e5	-0.0713251
28	0x3da90643	0.082531475
29	0xbdda0780	-0.10645962
30	0xbddd410b	-0.108034216
31	0x3c32f796	0.010923287
32	0xbe650a9a	-0.22367325
33	0x3d63f4fc	0.055653557
34	0x3da55e3a	0.08074613
35	0x3e5b91de	0.21442363
36	0xbe34a8f3	-0.17642574
37	0xbe48bc59	-0.19603099
38	0x3b7bfa58	0.0038448777
39	0x3d2125a1	0.039342526
40	0x3d9e5cdf	0.077325575
41	0xbd0a307a	-0.033737637
42	0xbe2cb182	-0.16864589
43	0x3dae6a13	0.08516326
44	0x3da023b1	0.078193076
45	0x3e6dbba0	0.23216105
46	0xbd70d63f	-0.05879807
47	0x3ba747d6	0.005104999
48	0xbe396890	-0.18106294
49	0xbe0bc2f7	-0.13648592
50	0x3e5e5cb0	0.21715045
51	0x3e7ae137	0.24499975
52	0xbc58738c	-0.013211142
53	0xbe313a29	-0.17307343
54	0xbe80b559	-0.25138357
55	0xbcded856	-0.027202766
56	0x3bae7b60	0.005324766
57	0x3cd3cdf6	0.025855046
58	0x3e31b41c	0.17353863
59	0xbd2b1d79	-0.041776154
60	0xbd4cf83e	-0.05004143
61	0xbd8028e6	-0.06257801
62	0xbe0e3ffe	-0.13891599
63	0xbe0810c6	-0.13287649
64	0x3e019bac	0.1265704
65	0xbe045d22	-0.12926152
66	0x3e74b232	0.23896101
67	0xbcb78dcf	-0.022406487
68	0x3e18f5e7	0.14937554
69	0x3e656d1b	0.22404902
70	0xbd920acc	-0.071309656
71	0xbcdbc24f	-0.026826052
72	0xbe61a892	-0.2203696
73	0xbb884f52	-0.0041598463
74	0xbe0cc224	-0.13745934
75	0xbe7d6ef7	-0.24749361
76	0x3e4eb612	0.20186642
77	0x3e7db620	0.24776506
78	0xbde79b09	-0.113088675
79	0x3e833dad	0.25632992
80	0x3e809064	0.2511016
81	0x3da7bdfa	0.08190532
82	0x3e821780	0.25408554
83	0xbe1cf580	-0.15328026
84	0x3e484c3c	0.19560331
85	0xbe27b1d1	-0.16376425
86	0xbd969c19	-0.07353992
87	0xbd6163a4	-0.055026665
88	0x3cd0fdd8	0.025511667
89	0xbe6f9b3a	-0.23399058
90	0xbdc55af8	-0.096364915
91	0xbdfd50c8	-0.123689234
92	0x3e796346	0.24354276
93	0xbd8f50f7	-0.06997865
94	0x3d9ce473	0.07660761
95	0x3db01961	0.08598591
96	0xbe2c790b	-0.16843049
97	0x3e0cc6bd	0.13747688
98	0x3daec016	0.08532731
99	0xbe036c0b	-0.12834184
100	0x3d5fd135	0.054642875
101	0xbe08cff0	-0.13360572
102	0x3e412917	0.18863331
103	0x3e795e10	0.24352288
104	0xbddcd6c7	-0.10783153
105	0x3e617335	0.22016604
106	0xbe47fcb7	-0.19529997
107	0xbe31f227	-0.1737753
108	0xbe6cf698	-0.23140943
109	0xbd106903	-0.035256397
110	0x3dfa0b86	0.12209229
111	0xbe44a1f0	-0.19202399
112	0x3c9634c9	0.018335717
113	0xbd4fc63b	-0.050726157
114	0xbe362b13	-0.17789869
115	0xbe656ac6	-0.22404012
116	0xbe1b8be0	-0.15190077
117	0xbd75fbad	-0.06005447
118	0xbe2e1c41	-0.17002966
119	0x3e4b71f6	0.19867691
120	0xbe088530	-0.13332057
121	0x3e7c92c7	0.24665366
122	0xbe28ece0	-0.1649661
123	0x3d9bdf9f	0.07611012
124	0xbc8f4250	-0.017487675
125	0x3d37ce33	0.04487438
126	0x3e18498c	0.14871806
127	0x3c6ac63f	0.014329492
128	0x3e11250e	0.14174291
129	0xbe3683b2	-0.17823675
130	0xbcb12948	-0.02162613
131	0x3e5c1bc9	0.21494974
132	0x3dbd1663	0.092327856
133	0xbe3054fa	-0.17219916
134	0x3e83af1f	0.25719544
135	0xbe114e3d	-0.14190002
136	0xbcce710d	-0.025200391
137	0x3e83a2ef	0.25710246
138	0x3b744a5a	0.0037275762
139	0x3e835664	0.25651848
140	0x3d08b0aa	0.033371605
141	0xbe7932ef	-0.24335836
142	0x3e6fcf50	0.23418927
143	0xbe7ebbd3	-0.24876337
144	0xbe2497e3	-0.16073565
145	0x3e740730	0.23830867
146	0xbdbda5af	-0.09260117
147	0x3d1a47af	0.03766602
148	0x3ccef31f	0.025262414
149	0x3d6abb67	0.057307627
150	0x3e52fb5c	0.20603698
151	0xbd7b0f6a	-0.061293997
152	0xbe103f3c	-0.14086622
153	0xbe667778	-0.22506511
154	0x3e271e5a	0.16320172
155	0x3e6c8cfe	0.23100659
156	0xbde97a86	-0.114003226
157	0xbe4d31ef	-0.2003858
158	0xbe3807b6	-0.17971691
159	0x3e5e671b	0.21719019
160	0x3e1ab1d8	0.15106905
161	0xbd8ccc19	-0.06874866
162	0xbc8c2e29	-0.017111855
163	0xbcf44b94	-0.029821195
164	0x3e2b6581	0.1673794
165	0xbd15054e	-0.036382012
166	0x3d80d3c7	0.06290393
167	0xbdecb9cc	-0.115588754
168	0xbd3b2b3a	-0.04569552
169	0xbdb1cf13	-0.086820744
170	0x3e5f8b9d	0.21830602
171	0x3db0fa0c	0.08641443
172	0xbe3fd12b	-0.18732135
173	0x3d6a9d8c	0.057279155
174	0xbe7e860e	-0.24855825
175	0x3e79af23	0.24383216
176	0x3e06dce5	0.13170202
177	0xbe714bea	-0.23564115
178	0xbe30f366	-0.17280349
179	0x3d136f31	0.035994712

down1.bias f4 [12]
0	0xbe015618	-0.12630498
1	0xbe5ee74d	-0.21767922
2	0x3d6797db	0.056541305
3	0xbd931166	-0.07181053
4	0x3d49f43a	0.04930518
5	0x3d583e11	0.052793566
6	0x3e144986	0.14481172
7	0xbe253f44	-0.16137415
8	0x3df50fcb	0.11965903
9	0xbe5d76a6	-0.21627292
10	0xbe5a4c6c	-0.21318215
11	0xbdeb854c	-0.11500034

down2.weight f4 [9, 12]
0	0x3da8bb2e	0.08238827
1	0x3e1a7549	0.15083803
2	0xbdd2fb0b	-0.10301789
3	0xbe122959	-0.14273585
4	0xbd3c0d29	-0.045910988
5	0xbd15ebaf	-0.03660172
6	0x3cc70f2c	0.024299227
7	0xbe566f90	-0.20940995
8	0x3cbce84d	0.023059988
9	0xbe8a3ed0	-0.27001047
10	0xbe5dbb31	-0.21653439
11	0xbd14385c	-0.03618656
12	0x3e6e58d7	0.23276077
13	0x3d9f604c	0.07782039
14	0x3e8644b0	0.2622428
15	0xbe0bbe33	-0.13646774
16	0x3e5a0a71	0.21293046
17	0x3d997ef7	0.0749492
18	0xbd1b85e5	-0.03796949
19	0x3b38281d	0.0028100081
20	0x3e8e2938	0.27765822
21	0x3e049e43	0.12950997
22	0xbe6650b2	-0.2249172
23	0xbe7861a4	-0.24255997
24	0x3e90678a	0.28203994
25	0xbe16b50d	-0.14717503
26	0x3e8832eb	0.26601347
27	0x3d58f47b	0.05296753
28	0x3e530693	0.20607977
29	0xbd791691	-0.060812537
30	0xbd2447e4	-0.040107623
31	0xbe1f3366	-0.1554695
32	0x3e65548c	0.22395533
33	0x3c7c6b10	0.015406385
34	0x3d390b72	0.04517693
35	0x3e8461ae	0.25855774
36	0x3e0657ff	0.13119505
37	0xbe5939d8	-0.21213472
38	0xbe81f4a6	-0.25381964
39	0x3d94296c	0.07234463
40	0x3e209e33	0.15685348
41	0xbe4419ae	-0.19150421
42	0x3e5d6c93	0.21623449
43	0xbdff93a4	-0.12479332
44	0x3e49740a	0.19673172
45	0x3e85f2fd	0.26161948
46	0x3df63215	0.12021271
47	0x3e3564d0	0.17714238
48	0xbe592dcd	-0.21208878
49	0x3e5ac1e7	0.2136303
50	0xbd988b4e	-0.07448445
51	0xbe36b584	-0.1784268
52	0x3e7fd70c	0.24984378
53	0x3e68a6d2	0.22719887
54	0xbe033829	-0.12814392
55	0xbe25d5f0	-0.16194892
56	0xbdd26dbd	-0.10274837
57	0xbd9a9965	-0.07548789
58	0x3e042ec7	0.12908469
59	0xbe0efbbf	-0.13963221
60	0xbe26ab47	-0.16276275
61	0x3dffc9f7	0.124896936
62	0xbe0d7dd2	-0.13817528
63	0xbe484a96	-0.19559702
64	0xbe62ccb5	-0.22148402
65	0x3dd2f857	0.10301273
66	0x3db00a72	0.08595742
67	0xbe66666b	-0.22500007
68	0xbd5c5031	-0.053787414
69	0x3e107e07	0.14110576
70	0xbdc2ac4c	-0.09505519
71	0x3d950487	0.07276254
72	0x3e8620dc	0.26196945
73	0xbe1f3d73	-0.15550785
74	0xbc2dec88	-0.0106154755
75	0xbe3bb110	-0.18329263
76	0x3e790e47	0.24321853
77	0xbe238d4a	-0.15971866
78	0x3e5b748c	0.21431178
79	0x3e67f796	0.2265304
80	0x3dcc868f	0.099866025
81	0xbde56697	-0.11201208
82	0xbe21f0aa	-0.15814462
83	0x3e868b5d	0.262782
84	0xbe709f1d	-0.23498197
85	0xbd9f7a06	-0.07786946
86	0x3e58349f	0.21113823
87	0x3d91fc68	0.07128221
88	0x3dc7c3a6	0.09754114
89	0x3d235fde	0.039886348
90	0x3e3e312d	0.18573447
91	0xbddfe763	-0.109328054
92	0xbe5b412c	-0.2141158
93	0xbd9bce30	-0.076076865
94	0x3df6bbfa	0.120475724
95	0xbe118558	-0.14211023
96	0x3e336ddf	0.17522381
97	0x3d928062	0.07153393
98	0xbd812280	-0.063054085
99	0x3d0205f9	0.031743977
100	0x3e02334c	0.1271488
101	0xbe2b1e23	-0.16710715
102	0xbdc971d8	-0.09836167
103	0x3db3b98c	0.08775625
104	0xbd197399	-0.03746376
105	0xbe40ea7f	-0.18839453
106	0xbe542e12	-0.207207
107	0xbca022d4	-0.019547857

down2.bias f4 [9]
0	0xbd389a6e	-0.04506915
1	0x3d5e510f	0.054276522
2	0xbe4757e6	-0.19467124
3	0x3dfac144	0.12243894
4	0xbe43ab65	-0.1910835
5	0x3cda583d	0.026653403
6	0x3d38a513	0.045079302
7	0x3e119b08	0.14219296
8	0xbd97961c	-0.07401678

down3.weight f4 [7, 9]
0	0x3e9b1c96	0.30295247
1	0xbe800e70	-0.25011015
2	0x3e8b539a	0.2721222
3	0x3e2f611e	0.17126891
4	0x3e8034a6	0.25040168
5	0x3c6f3aab	0.01460139
6	0xbde8b496	-0.11362569
7	0x3e3ee7b8	0.18643081
8	0xbe972623	-0.29521284
9	0x3eaa78f4	0.33295405
10	0x3ddba7ab	0.107253395
11	0xbdcffceb	-0.10155662
12	0x3d92f896	0.0717632
13	0xbe8cdb13	-0.2751089
14	0x3e5b7398	0.21430814
15	0xbeaa8713	-0.33306178
16	0xbd3a4436	-0.045475207
17	0x3e97fb6b	0.29684004
18	0x3db8789b	0.09007379
19	0xbe5a39f3	-0.21311168
20	0xbd1c9276	-0.038225614
21	0x3d1c1136	0.03810235
22	0x3d9d4e40	0.07680941
23	0x3e955104	0.29163373
24	0x3e9c6dd6	0.30552548
25	0xbe54e0db	-0.207889
26	0xbdf5accb	-0.11995848
27	0xbe18889e	-0.14895865
28	0x3e22202b	0.15832584
29	0x3e1ca346	0.15296659
30	0x3e5f26db	0.21792166
31	0xbdfcbc0b	-0.12340554
32	0xbe41805b	-0.1889662
33	0xbd565fa0	-0.05233729
34	0xbdf80ef6	-0.121122286
35	0x3e44226b	0.19153754
36	0x3d629d60	0.055325866
37	0x3d3314e0	0.04372108
38	0xbe97a8b8	-0.2962091
39	0x3e99da72	0.30049473
40	0x3e35d398	0.17756498
41	0xbe860103	-0.26172647
42	0xbe7861f6	-0.24256119
43	0x3e89a32f	0.26882312
44	0xbe909f4e	-0.2824654
45	0x3e920cd3	0.2852541
46	0xbe25f0e0	-0.16205168
47	0x3d800290	0.06250489
48	0x3e0f9130	0.14020228
49	0xbe923ccc	-0.2856201
50	0x3c675256	0.0141187515
51	0x3e2c2bbe	0.16813561
52	0xbe4bc4ab	-0.19899242
53	0xbe2208cb	-0.15823667
54	0xbd1f1cab	-0.0388457
55	0xbe64f0f0	-0.22357535
56	0xbdaeb06b	-0.08529743
57	0x3ea2d666	0.31804198
58	0xbb5ddb56	-0.0033852658
59	0xbea68144	-0.32520497
60	0xbe821110	-0.25403643
61	0x3dbc7640	0.09202242
62	0xbe93eeb7	-0.28893062

down3.bias f4 [7]
0	0xbe70fd48	-0.23534119
1	0xbe464d86	-0.1936551
2	0xbe444223	-0.19165854
3	0x3e9f7866	0.31146544
4	0x3ea55147	0.32288572
5	0xbd6a3c40	-0.057186365
6	0x3e228376	0.15870461

down4.weight f4 [4, 7]
0	0xbeabed18	-0.33579326
1	0xbeb1f703	-0.34758767
2	0x3e882490	0.26590395
3	0xbe2dc00a	-0.16967788
4	0xbea33c06	-0.31881732
5	0xbeaf9cdb	-0.3429936
6	0xbe9c00e4	-0.3046943
7	0x3e9164cd	0.28397217
8	0xbe6d8b57	-0.23197685
9	0xbebbb6b4	-0.3666283
10	0x3e306931	0.17227627
11	0xbdaf6d0e	-0.085657224
12	0xbe84cb01	-0.2593613
13	0xbebedd14	-0.37278044
14	0x3e9062d6	0.28200406
15	0x3dcc8275	0.0998582
16	0xbd8e3621	-0.06943918
17	0x3d01745a	0.031605102
18	0x3e5335f4	0.2062605
19	0xbdda3a0e	-0.10655604
20	0xbdcfdf03	-0.10149958
21	0xbe7da284	-0.24769026
22	0x3bd70e4e	0.0065629845
23	0xbdd51901	-0.1040516
24	0x3e5900a3	0.21191649
25	0x3cb82ec9	0.022483246
26	0x3de1a75b	0.11018249
27	0xbe0c7d69	-0.13719715

down4.bias f4 [4]
0	0xbe75c94b	-0.24002568
1	0xbe91bcc6	-0.28464335
2	0xbe95ba45	-0.29243675
3	0x3e946778	0.2898519

up1.weight f4 [7, 4]
0	0x3da460a8	0.08026248
1	0x3ee45b4a	0.44600898
2	0xbe50feb0	-0.20409656
3	0x3dc19758	0.09452695
4	0xbec9027e	-0.39259714
5	0xbe980a2a	-0.29695255
6	0xbe14b270	-0.14521194
7	0xbe870a30	-0.2637496
8	0xbdae3060	-0.085053205
9	0xbe716774	-0.2357462
10	0x3c99b5e0	0.018763483
11	0x3b225300	0.002476871
12	0xbc5ea3c0	-0.013588846
13	0xbe0e1b78	-0.13877666
14	0x3d9a5f68	0.075377285
15	0xbef8435a	-0.48488885
16	0x3edaa76e	0.42705864
17	0x3eaf0cda	0.34189492
18	0x3e8692f2	0.26283985
19	0xbcc507a0	-0.024051487
20	0xbebfd096	-0.37463826
21	0xbea55c94	-0.32297194
22	0xbd3eb050	-0.046554863
23	0xbed80aa2	-0.42195612
24	0x3e4fb36c	0.20283288
25	0x3e8fbb7c	0.28072727
26	0x3eea6dba	0.4578684
27	0x3ef95048	0.48694062

up1.bias f4 [7]
0	0xbef4a9b6	-0.4778573
1	0xbea17e16	-0.31541508
2	0xbea5dcae	-0.32394928
3	0x3d30ec90	0.043194354
4	0xbc8c9c80	-0.017164469
5	0xbe3b75b4	-0.18306619
6	0xbd9141a8	-0.07092601

up2.weight f4 [9, 7]
0	0x3e36a7fb	0.17837517
1	0x3db4ea53	0.08833756
2	0x3de0ec2b	0.109825455
3	0x3dda8453	0.1066977
4	0xbe8deff0	-0.2772212
5	0x3e77f514	0.24214584
6	0xbeb651e8	-0.35609365
7	0x3de9dd6e	0.114191875
8	0x3ea3e264	0.3200866
9	0xbe8de419	-0.27713087
10	0x3dad2fe5	0.08456401
11	0x3e91e9d5	0.28498712
12	0x3e904972	0.28181034
13	0xbe988f19	-0.29796675
14	0xbea754bf	-0.32681844
15	0x3e66abf7	0.22526537
16	0x3e414a87	0.18876086
17	0x3e87b8de	0.2650823
18	0xbe815039	-0.25256518
19	0x3e767865	0.24069364
20	0x3e05ded1	0.13073279
21	0x3ca4683c	0.020069234
22	0x3e587039	0.2113656
23	0x3d2f347a	0.042774655
24	0xbe2ccabe	-0.16874215
25	0x3eb128a9	0.34601334
26	0x3df01d85	0.117243804
27	0x3e322b98	0.17399442
28	0x3adbf9af	0.0016782786
29	0x3e296376	0.16541848
30	0x3eb7f6d2	0.35930496
31	0x3e26f212	0.1630328
32	0x3e932d8b	0.28745684
33	0xbdbc55db	-0.09196063
34	0x3e493b60	0.19651556
35	0xbd2afa09	-0.04174236
36	0xbe10631e	-0.1410031
37	0xbe18616b	-0.14880912
38	0xbda13cbe	-0.07872914
39	0xbcaf8f30	-0.021430582
40	0x3cfd4ca0	0.030920327
41	0x3e166ed0	0.14690709
42	0x3dfb3200	0.12265396
43	0xbdebf8c3	-0.11522057
44	0x3e60af21	0.21941806
45	0x3eb4ea49	0.35334995
46	0x3e683d8a	0.22679725
47	0x3db0f7d6	0.08641021
48	0xbd67668f	-0.056494292
49	0xbd748bd0	-0.059703648
50	0x3e900945	0.28132072
51	0xbebea9b6	-0.37238854
52	0xbe4f58ae	-0.20248672
53	0x3dd15a2e	0.102222785
54	0xbd29b4d8	-0.04143223
55	0x3e9e6899	0.30939177
56	0x3dc1de3b	0.09466215
57	0x3e912a12	0.2835241
58	0xbd5f836d	-0.054568697
59	0x3ea5b0d8	0.32361484
60	0xbc425078	-0.011860006
61	0xbe9687e3	-0.29400548
62	0x3eae0065	0.33984676

up2.bias f4 [9]
0	0x3eb10de1	0.345809
1	0x3ea57b35	0.32320562
2	0x3ed0935f	0.40737435
3	0x3e3be4e5	0.18349035
4	0x3e4750b2	0.19464377
5	0x3e1fef7e	0.15618703
6	0x3e712b8e	0.23551771
7	0x3f050dea	0.51974356
8	0x3dceff9b	0.101073466
