5/model_Panel1.pt (torch, 7618 bytes, 12 tensors)

down1.weight f4 [15, 18]
-0.097067006 0.39577433 0.2697274 -0.009950148 0.07865858 0.32872984 -0.08099469 0.28979218
-0.31335956 -0.015274439 0.40458834 0.10699258 0.04009853 0.00014437588 0.20363186 -0.03945144
0.32883915 0.06380626 -0.10045885 0.27586323 0.2045125 0.06764173 0.2147432 0.0129889
-0.083209224 -0.08696424 0.50534266 -0.028584499 -0.1656599 -0.028004333 0.59052163 0.21349734
0.15773621 -0.16141406 -0.07966752 0.10774839 -0.0035500678 0.34404382 0.2982942 0.109620266
0.08132756 0.2977806 -0.039506882 0.25713477 -0.19747743 -0.19236672 0.25055796 0.22981733
0.37000927 -0.09149436 -0.4590564 0.62879544 -0.02726236 -0.3846259 -0.003946027 -0.25796553
-0.018588658 0.084701136 -0.09526521 -0.19261037 0.539903 0.100902356 0.13599257 0.13032393
0.5445823 -0.1091796 0.48458314 -0.55381227 -0.22310294 0.39642733 -0.05330648 0.28128222
-0.199437 0.22569959 -0.0958524 0.18859068 0.14474462 0.021097494 0.0344472 -0.44528148
-0.44371554 -0.2258027 -0.23145325 -0.48956695 0.11625569 -0.7084304 -0.5929291 0.022602584
-0.4531372 -0.4345318 0.06553601 0.12496795 -0.01816881 -0.049012356 0.15549755 -0.102615654
-0.099529624 -0.047622494 -0.14449178 0.32939404 0.60775185 0.012276256 0.69613606 -0.23061535
-0.16371171 0.018130437 0.22735094 0.19401506 0.017979773 0.22536756 0.09774226 -0.0029853017
0.29117662 0.06523177 0.41768286 0.26349244 0.27516392 0.30214408 -0.066629834 0.099903196
-0.09551669 0.56791073 -0.16685936 -0.19242924 0.22058316 0.17487736 -0.0617094 -0.12614982
0.0064923437 0.13491426 0.06065825 -0.24423133 0.04158885 -0.1607329 -0.25591257 0.137962
-0.110955246 -0.09178347 -0.19987662 -0.073706664 -0.095832005 -0.20032339 -0.21949917 -0.12165476
0.0113471905 0.2080803 0.26812887 -0.18549617 0.14854524 0.034597214 0.81900084 0.100330964
-0.061604675 0.26079693 -0.13552424 0.21602766 0.110680416 0.17738941 -0.023855805 0.009505399
0.03304015 0.21764779 -0.017405543 0.16202407 -0.02662811 0.1807438 0.03029344 -0.035585213
0.4112048 0.45300668 0.57194 0.057392154 0.30464208 -0.18959624 -0.08839157 -0.013067798
-0.08631352 0.683995 0.1925255 -0.40090588 -0.056573763 0.11262633 -0.070194475 -0.115923524
-0.18986556 0.053306546 0.048296187 0.29472467 0.3851177 -0.18506306 0.11531331 0.114578225
0.13487917 0.21153204 -0.33994097 0.16581216 0.18957736 0.15232892 -0.03493076 -0.028888255
0.06564534 0.13409565 -0.048167575 -0.02284101 0.35365102 0.0002921327 0.06513127 0.09122658
0.34348246 -0.0086036585 0.6042001 -0.40880215 0.62392926 0.51285845 -0.102850504 -0.099271014
0.09141662 -0.2715347 0.08132119 -0.23044966 0.018572098 0.12661228 0.09058627 0.51295626
0.6134723 0.28521886 0.04866541 0.022178698 0.15002246 0.11864124 0.29878938 0.14093713
0.2746375 0.37171507 -0.019141091 0.019729298 0.20218687 -0.12349438 -0.0054876553 -0.039663978
-0.3076692 0.5816879 0.06408772 -0.30238575 0.54368764 0.19081374 -0.23075117 -0.014384637
0.036364265 0.19611114 0.292953 0.20538305 0.15098946 0.04213071 0.1708148 -0.1634638
00000000: 11cb c6bd efa2 ca3e b619 8a3e f205 23bc
00000010: c017 a13d 474f a83e 8be0 a5bd a45f 943e
00000020: aa70 a0be a441 7abc 3426 cf3e ed1e db3d
00000030: 5b3e 243d 9b63 1739 df84 503e d597 21bd
00000040: 9b5d a83e dbac 823d 5fbd cdbd f23d 8d3e
00000050: ba6b 513e bf87 8a3d a4e5 5b3e 65cf 543c
00000060: 9969 aabd 4f1a b2bd 235e 013f 0a2a eabc
00000070: c0a2 29be 5869 e5bc 6d2c 173f 0c9f 5a3e
00000080: 9a85 213e ba49 25be ba28 a3bd 30ab dc3d
00000090: 41a8 68bb 8326 b03e 04ba 983e 9780 e03d
000000a0: 108f a63d b376 983e f8d1 21bd 2ba7 833e
000000b0: 8637 4abe c8fb 44be 2249 803e 3c55 6b3e
000000c0: db71 bd3e 6561 bbbd 7109 ebbe bdf8 203f
000000d0: 5055 dfbc b0ed c4be ac4d 81bb 0f14 84be
000000e0: 3e47 98bc ca77 ad3d 681a c3bd a73b 45be
000000f0: 1537 0a3f e5a5 ce3d a341 0b3e a373 053e
00000100: bf69 0b3f 8e99 dfbd 481b f83e a4c6 0dbf
00000110: 1975 64be 86f8 ca3e e557 5abd 3904 903e
00000120: 3739 4cbe cb1d 673e 434e c4bd ea1d 413e
00000130: ef37 143e a7d4 ac3c 8218 0d3d effb e3be
00000140: af2e e3be d338 67be 1502 6dbe 85a8 fabe
00000150: 7717 ee3d b25b 35bf 34ca 17bf 0e29 b93c
00000160: 9901 e8be f47a debe be37 863d 32ef ff3d
00000170: c2d6 94bc 2ec1 48bd c03a 1f3e 2828 d2bd
00000180: 30d6 cbbd ce0f 43bd a7f5 13be 56a6 a83e
00000190: a095 1b3f 5a22 493c f935 323f 6e26 6cbe
000001a0: 0ba4 27be 4886 943c afce 683e e2ab 463e
000001b0: 514a 933c c1c6 663e 182d c83d 0da5 43bb
000001c0: 1a15 953e 3c98 853d 87da d53e 7be8 863e
000001d0: 49e2 8c3e a1b2 9a3e 3975 88bd 0c9a cc3d
000001e0: 419e c3bd 9962 113f 2edd 2abe 2c0c 45be
000001f0: 8de0 613e 0d13 333e ffc2 7cbd 6b2d 01be
00000200: babd d43b f726 0a3e c974 783d c717 7abe
00000210: 1259 2a3d 2a97 24be f906 83be e945 0d3e
00000220: 813c e3bd f9f8 bbbd 75ac 4cbe 85f3 96bd
00000230: 9243 c4bd 9321 4dbe 64c4 60be 2126 f9bd
00000240: 91e9 393c 0113 553e 3048 893e b5f2 3dbe
00000250: 3e1c 183e cfb5 0d3d 0aaa 513f 527a cd3d
00000260: 2f55 7cbd 2d87 853e dec6 0abe 5b36 5d3e
00000270: 6aac e23d 92a5 353e 406d c3bc 88bc 1b3c
00000280: 1c55 073d 10df 5e3e 1296 8ebc a3e9 253e
00000290: 3223 dabc e714 393e f329 f83c cdc1 11bd
000002a0: 6f89 d23e 7ef0 e73e a96a 123f 0914 6b3d
000002b0: 0cfa 9b3e 8425 42be a406 b5bd 511a 56bc
000002c0: 25c5 b0bd 4c1a 2f3f 6825 453e 8943 cdbe
000002d0: e4b9 67bd a2a8 e63d 1fc2 8fbd 5069 edbd
000002e0: 1e6c 42be f757 5a3d 39d2 453d 27e6 963e
000002f0: 262e c53e 2c81 3dbe 6229 ec3d fda7 ea3d
00000300: c41d 0a3e db9b 583e be0c aebe aaca 293e
00000310: 9120 423e 1dfc 1b3e 8e13 0fbd 10a7 ecbc
00000320: 1071 863d 5f50 093e 5d4b 45bd 121d bbbc
00000330: bf11 b53e 6329 9939 8b63 853d 00d5 ba3d
00000340: efdc af3e 5cf6 0cbc dcac 1a3f 844e d1be
00000350: d4b9 1f3f b14a 033f 49a3 d2bd 9a4e cbbd
00000360: a338 bb3d 9906 8bbe b98b a63d fffa 6bbe
00000370: 8324 983c a6a6 013e 4b85 b93d 1a51 033f
00000380: 850c 1d3f 3508 923e 6255 473d 1ab0 b53c
00000390: 7d9f 193e 2efa f23d ecfa 983e d351 103e
000003a0: 499d 8c3e 7051 be3e c7cd 9cbc 569f a13c
000003b0: 130a 4f3e 9fea fcbd cad1 b3bb b276 22bd
000003c0: d186 9dbe 80e9 143f 6c40 833d 4ed2 9abe
000003d0: 1d2f 0b3f ad64 433e 094a 6cbe 8aad 6bbc
000003e0: b2f2 143d 5cd1 483e f0fd 953e ef4f 523e
000003f0: fb9c 1a3e 4091 2c3d 13ea 2e3e 0e63 27be

down1.bias f4 [15]
0.19578347 0.18640475 0.21248376 0.44663537 -0.082669914 0.31581149 0.26381335 -0.20152175
0.44773108 -0.009413763 0.22807306 0.28042197 -0.1058018 0.21446402 0.014558785
00000000: 767b 483e e3e0 3e3e 5895 593e 64ad e43e
00000010: d84e a9bd 0bb2 a13e 8b12 873e b85b 4ebe
00000020: 023d e53e 2f3c 1abc fc8b 693e 7893 8f3e
00000030: 9dae d8bd 759c 5b3e f887 6e3c

down2.weight f4 [12, 15]
0.10369335 -0.5071007 0.8016608 0.13042887 -0.5838584 0.083924405 -0.027331203 -0.06099961
-0.2099618 0.44755626 0.1014872 0.12071191 -0.061897352 0.5555437 -0.11910236 0.3227316
0.53366184 -0.24594484 0.068603136 0.013075307 0.46438324 0.09522623 -0.20643075 -0.12559506
0.24777614 0.339944 -0.060161073 0.46643525 0.20626934 0.33642322 -0.23945002 0.29202783
0.45357028 0.4348992 -0.021483561 -0.16832195 0.49786562 0.16084178 0.5696824 0.9930108
0.52240217 0.43133497 0.44225132 -0.09267566 0.13895771 0.10780347 -0.2823269 -0.005988098
0.114307694 0.3327927 -0.28973785 0.015163558 0.024126247 0.50219893 0.2405358 -0.35463214
0.5189216 0.07097327 -0.24765192 0.40967968 -0.23147988 0.06502617 0.24831325 0.28849253
0.53441036 0.25177863 0.25309765 -0.26674557 0.7137204 -0.4133549 0.12363041 0.11925594
0.15859628 -0.48723456 -0.16530971 0.026371114 -0.14649661 0.12458951 -0.090793796 -0.22291045
-0.18637805 -0.07083253 0.09062894 0.1558088 0.22569343 0.003507294 -0.119566165 -0.089801304
-0.106080025 0.029091865 0.39214534 -0.03037391 -0.40033275 0.3908602 0.15234779 0.11001521
0.031275745 -0.17301214 0.16025607 0.26197904 -0.017618913 0.51565367 0.06900213 -0.15619269
0.3084335 0.32789546 0.29496917 -0.8654645 0.04316413 -0.093076244 0.17759345 0.53233016
-0.1149122 0.20384675 -0.14453447 -0.04461956 0.227627 0.16698535 0.005624688 0.5031519
0.25228053 -0.15112858 -0.2383219 0.32110444 0.18587942 0.32360905 0.30924344 0.1224213
0.47695744 -0.0030653977 0.250979 -0.2656523 0.13381746 0.08629738 -0.48005897 -0.4810422
0.69578767 -0.0771005 0.022632673 0.30515796 -0.24940646 0.19620778 -0.07390095 0.08311373
0.10743892 0.35263082 -0.06434626 0.54051423 -0.21701983 0.21261533 -0.04560433 0.410704
0.6578802 0.4378799 -0.10712953 0.6197809 -0.26360434 0.22091582 -0.055283822 -0.28819752
0.062252816 0.48349634 0.2046833 -0.16973598 -0.04022228 -0.023686089 0.27375156 -0.24144788
0.3029977 -0.022292074 0.30342922 0.10642955 0.15133208 0.30717278 -0.23860164 0.40465575
0.21183352 0.40413454 0.2108717 0.2716833
00000000: 2e5d d43d 5ad1 01bf a439 4d3f 258f 053e
00000010: be77 15bf 8fe0 ab3d b0e5 dfbc bada 79bd
00000020: 3a00 57be 1826 e53e 85d8 cf3d ce37 f73d
00000030: 1488 7dbd 1d38 0e3f f0eb f3bd 143d a53e
00000040: 109e 083f f7d8 7bbe cd7f 8c3d d039 563c
00000050: a4c3 ed3e f805 c33d 9562 53be fe9b 00be
00000060: 07b9 7d3e 240d ae3e 756b 76bd 9ad0 ee3e
00000070: 4538 533e aa3f ac3e 6332 75be ac84 953e
00000080: 5d3a e83e 1cab de3e 4bfe afbc 975c 2cbe
00000090: 3ee8 fe3e b5b3 243e b5d6 113f f535 7e3f
000000a0: 26bc 053f f0d7 dc3e c46e e23e bdcc bdbd
000000b0: ee4a 0e3e 11c8 dc3d 278d 90be cf37 c4bb
000000c0: 271a ea3d ce63 aa3e 8558 94be 9270 783c
000000d0: 68a4 c53c 1c90 003f 044f 763e 5892 b5be
000000e0: 0cd8 043f 6f5a 913d 7798 7dbe 89c1 d13e
000000f0: 1009 6dbe 712c 853d d445 7e3e 4bb5 933e
00000100: 1ecf 083f 21e9 803e 0496 813e e092 88be
00000110: 61b6 363f 41a3 d3be f131 fd3d 753c f43d
00000120: 1067 223e cf76 f9be f346 29be 3c08 d83c
00000130: 3503 16be c928 ff3d 19f2 b9bd a342 64be
00000140: e3d9 3ebe a510 91bd aa9b b93d 588c 1f3e
00000150: 2e1c 673e a1da 653b 1bdf f4bd bfe9 b7bd
00000160: 7c40 d9bd 1052 ee3c 46c7 c83e b5d2 f8bc
00000170: 6af8 ccbe d41e c83e 0f01 1c3e a84f e13d
00000180: ff1a 003d 182a 31be 2b1a 243e 1e22 863e
00000190: 8a55 90bc e101 043f fd50 8d3d faf0 1fbe
000001a0: ffea 9d3e eae1 a73e 3306 973e 158f 5dbf
000001b0: dfcc 303d c29e bebd 0fdb 353e ca46 083f
000001c0: 1657 ebbd 34bd 503e d800 14be 00c3 36bd
000001d0: 0d17 693e 35fe 2a3e 4e4f b83b 90ce 003f
000001e0: ea2a 813e 73c1 1abe a80a 74be cd67 a43e
000001f0: 2d57 3e3e 16b0 a53e 2855 9e3e 05b8 fa3d
00000200: c433 f43e d7e4 48bb 5280 803e 9403 88be
00000210: 7207 093e aebc b03d 4aca f5be 2a4b f6be
00000220: 241f 323f dee6 9dbd 2868 b93c aa3d 9c3e
00000230: 6864 7fbe b1ea 483e 6259 97bd 8837 aa3d
00000240: f008 dc3d 078c b43e f9c7 83bd 245f 0a3f
00000250: 723a 5ebe d5b7 593e 9bcb 3abd cb47 d23e
00000260: d66a 283f cb31 e03e ba66 dbbd f6a9 1e3f
00000270: 26f7 86be c237 623e 4a71 62bd a08e 93be
00000280: cffc 7e3d d58c f73e 8098 513e 45cf 2dbe
00000290: 1ec0 24bd 5409 c2bc 2a29 8c3e 1d3e 77be
000002a0: 8422 9b3e de9d b6bc 135b 9b3e bcf7 d93d
000002b0: ccf6 1a3e c045 9d3e fd53 74be 0a2f cf3e
000002c0: e3ea 583e b9ea ce3e c0ee 573e 131a 8b3e

down2.bias f4 [12]
0.17217714 0.23884778 0.066148184 0.15375125 0.16146117 -0.20003536 0.103772946 0.12797332
0.21341707 0.34950688 -0.33915824 0.2587615
00000000: 344f 303e 8394 743e b378 873d f870 1d3e
00000010: 1456 253e 12d6 4cbe e986 d43d 700b 033e
00000020: 018a 5a3e 91f2 b23e 26a6 adbe 637c 843e

down3.weight f4 [10, 12]
0.51509047 -0.035405513 0.26209965 0.43113887 -0.2922578 -0.0008226066 0.36475763 -0.28146473
-0.3911285 -0.19998433 0.36247796 0.016103856 0.17188288 0.1438165 0.53430575 0.2576803
-0.388254 -0.14157103 0.45287904 0.4103759 0.57205695 0.022820259 -0.8207339 -0.026783522
-0.2469874 -0.2732613 -0.16521774 -0.2879278 -0.13492371 0.116123684 0.09887917 -0.04644388
-0.0067882678 -0.19320829 -0.23869197 0.05746932 -0.48990425 -0.18463075 0.34470436 0.56220955
0.44541365 0.2162621 0.0013981856 0.102775045 -0.6357821 0.55460423 0.16788714 -0.057583556
-0.16699901 -0.12085134 0.026841778 0.17560345 -0.100442305 0.1286686 -0.14104292 -0.03596374
-0.10082518 0.17986612 -0.2770455 -0.23656045 0.3242658 -0.17840151 -0.3040073 0.11188442
0.2866417 -0.07721001 0.18387178 -0.0855993 0.18001242 -0.28911132 0.039335206 0.16696322
-0.16385904 -0.13882071 0.3714018 -0.21110721 0.66771924 -0.3234305 0.13482194 -0.22737515
0.49875718 0.04930626 0.61754024 0.2547808 -0.6090166 0.4517322 0.23420659 0.20815945
-0.011953593 0.06314778 0.5674481 0.43015745 -0.08068723 0.24708816 0.0562643 0.4934325
0.078421146 0.34840629 0.4118397 -0.55630505 -0.3405228 -0.2157055 -0.11797708 -0.039516814
-0.47529048 0.5499197 0.35595945 0.12033419 0.04114515 -0.15976365 0.2877018 0.15144764
0.29037327 0.089538366 -0.042557593 -0.3487163 -0.0049536605 0.39181778 -0.46150225 0.15485978
00000000: f8dc 033f 5f05 11bd ed31 863e 3cbe dc3e
00000010: d0a2 95be 32a4 57ba 83c1 ba3e 251c 90be
00000020: ff41 c8be b1c8 4cbe b696 b93e 3cec 833c
00000030: 1102 303e a244 133e 43c8 083f acee 833e
00000040: 3ac9 c6be fff7 10be c3df e73e ca1c d23e
00000050: 5372 123f 8df1 ba3c 9e1b 52bf 1e69 dbbc
00000060: 44ea 7cbe e8e8 8bbe d72e 29be 466b 93be
00000070: 7129 0abe 41d2 ed3d 2a81 ca3d f03b 3ebd
00000080: 1e70 debb 65d8 45be ab6b 74be f364 6b3d
00000090: bbd4 fabe d80f 3dbe 177d b03e f7ec 0f3f
000000a0: 420d e43e d073 5d3e 5343 b73a b97b d23d
000000b0: 9ec2 22bf 8bfa 0d3f 9bea 2b3e bcdc 6bbd
000000c0: ca01 2bbe e880 f7bd 4ae3 db3c 64d1 333e
000000d0: b2b4 cdbd b4c1 033e 8e6d 10be b74e 13bd
000000e0: 6f7d cebd d32e 383e e8d8 8dbe e73c 72be
000000f0: 2b06 a63e e3ae 36be d8a6 9bbe a923 e53d
00000100: b3c2 923e 4820 9ebd e248 3c3e b04e afbd
00000110: 2d55 383e 6606 94be f41d 213d 68f8 2a3e
00000120: aaca 27be 0427 0ebe 6028 be3e 7d2c 58be
00000130: a6ef 2a3f af98 a5be c30e 0a3e 08d5 68be
00000140: 1a5d ff3e 5cf5 493d 1e17 1e3f a172 823e
00000150: 83e8 1bbf 7149 e73e dad3 6f3e c027 553e
00000160: 01d9 43bc a053 813d 4744 113f 993d dc3e
00000170: 593f a5bd ae04 7d3e 6575 663d 2fa3 fc3e
00000180: 449b a03d 4f62 b23e a7dc d23e 026a 0ebf
00000190: 0159 aebe e7e1 5cbe f89d f1bd 62dc 21bd
000001a0: 4659 f3be 8ac7 0c3f 5140 b63e c671 f63d
000001b0: d187 283d 1599 23be a64d 933e 1715 1b3e
000001c0: ceab 943e e45f b73d df50 2ebd f18a b2be
000001d0: 5152 a2bb 579c c83e 064a ecbe 9093 1e3e

down3.bias f4 [10]
0.043345246 0.124350004 0.098579414 0.39092413 -0.27536467 0.20632978 -0.39464837 -0.13375193
0.036978856 -0.03956231
00000000: c98a 313d 37ab fe3d 01e4 c93d 3527 c83e
00000010: 99fc 8cbe 1d48 533e 5a0f cabe 44f6 08be
00000020: 2477 173d 170c 22bd

down4.weight f4 [7, 10]
-0.45903185 -0.60238 0.047447834 0.4333704 0.14194718 -0.29728878 0.6521751 -0.3153916
-0.30366793 -0.20357665 -0.54825634 -0.0039039291 -0.11857669 0.49485764 -0.21423304 0.19052303
-0.11361163 0.3883711 0.09338165 0.2833153 -0.25480855 -0.18492298 -0.06155654 -0.67221475
-0.2166684 -0.41307917 0.10083864 0.3007097 0.37627453 -0.67789227 0.5212642 -0.30870393
-0.20254865 0.3884744 -0.23974822 -0.36010268 -0.3685372 -0.18408462 0.3096262 -0.2537312
0.17696811 0.34449613 0.040160015 0.035751693 -0.1183158 -0.7731804 0.21174385 0.25867945
0.023965888 0.3023493 -0.7353846 0.27957085 0.28978017 -0.023785435 -0.30950746 -0.45840728
-0.39461318 -0.050543368 -0.31768695 0.026488677 -0.37855744 -0.12530868 0.06708128 -0.066187374
0.16646801 -0.38336393 0.41176516 -0.14610721 0.5697344 0.67370707
00000000: 3906 ebbe 9335 1abf a958 423d bae2 dd3e
00000010: 9a5a 113e 3c36 98be f3f4 263f 027b a1be
00000020: 5d7a 9bbe 6676 50be 875a 0cbf 10d9 7fbb
00000030: 56d8 f2bd fb5d fd3e e85f 5bbe 7818 433e
00000040: 37ad e8bd 94d8 c63e e13e bf3d b40e 913e
00000050: 4476 82be 735c 3dbe b622 7cbd 4416 2cbf
00000060: 52de 5dbe 1d7f d3be 7d84 ce3d 9ff6 993e
00000070: 0ea7 c03e 598a 2dbf 9271 053f 710e 9ebe
00000080: ea68 4fbe 1ee6 c63e 8f80 75be 615f b8be
00000090: e8b0 bcbe ae80 3cbe 5387 9e3e 0ee9 81be
000000a0: 2137 353e cc61 b03e d47e 243d 5e70 123d
000000b0: 8e4f f2bd 27ef 45bf 61d3 583e a271 843e
000000c0: 1c54 c43c 87cd 9a3e 2a42 3cbf e923 8f3e
000000d0: 115e 943e acd9 c2bc c377 9ebe 5cb4 eabe
000000e0: bd0a cabe 9006 4fbd dda7 a2be c8fe d83c
000000f0: 48d2 c1be eb50 00be e961 893d 3f8d 87bd
00000100: 9776 2a3e 4748 c4be e2d2 d23e 219d 15be
00000110: 1dda 113f 1178 2c3f

down4.bias f4 [7]
0.22693756 0.050924867 -0.007818547 0.42767453 0.103201985 -0.06399751 0.23322366
00000000: 5262 683e 9896 503d 5d19 00bc 28f8 da3e
00000010: 905b d33d 2011 83bd 2fd2 6e3e

up1.weight f4 [10, 7]
-0.023619398 0.06908237 -0.511037 0.7372941 0.4660254 -0.24034382 -0.67862433 -0.1906083
0.48490968 -0.16940238 -0.07754943 0.21372418 -0.115330175 0.44257483 -0.24576995 -0.34338263
-0.059920702 -0.07382971 0.11494465 -0.22038159 0.3421459 -0.44057167 0.07381816 0.18690066
-0.31298175 -0.19384015 -0.1282146 -0.1311582 -0.7434837 -0.03689796 0.37810853 -0.12974861
0.46351278 0.01513078 -0.28231534 -0.1605596 -0.11176581 -0.5181733 0.41494748 -0.24463657
-0.39321464 -0.03680531 -0.5549456 0.23623402 0.24818885 0.62794304 -0.19825415 -0.24796824
0.46143615 0.08406885 0.2350086 0.45873058 -0.120262936 0.19598576 -0.5836619 0.0467322
0.22309062 -0.25316298 -0.3745544 -0.011792151 -0.025621457 0.2632736 0.034419026 0.5929624
-0.11742352 -0.46023425 0.17897083 -0.3631016 0.030779056 0.1526688
00000000: 787d c1bc 0f7b 8d3d 52d3 02bf 4ebf 3c3f
00000010: e29a ee3e b11c 76be 53ba 2dbf d22e 43be
00000020: 1546 f83e d177 2dbe 3cd2 9ebd 83da 5a3e
00000030: 3a32 ecbd 2b99 e23e 1eab 7bbe d9cf afbe
00000040: 696f 75bd 0834 97bd 1a68 eb3d b6ab 61be
00000050: bf2d af3e 9c92 e1be fa2d 973d e362 3f3e
00000060: 253f a0be 087e 46be b04a 03be 564e 06be
00000070: f354 3ebf 5122 17bd 7197 c13e d2dc 04be
00000080: 8c51 ed3e 17e7 773c a38b 90be bc69 24be
00000090: 79e5 e4bd 01a7 04bf ff73 d43e 0282 7abe
000000a0: 6e53 c9be 2ac1 16bd ea10 0ebf 55e7 713e
000000b0: 3825 7e3e e0c0 203f 2303 4bbe 63eb 7dbe
000000c0: 5c41 ec3e 4a2c ac3d 18a6 703e bcde ea3e
000000d0: 6a4c f6bd 7eb0 483e de6a 15bf 436a 3f3d
000000e0: de71 643e 949e 81be 98c5 bfbe de33 41bc
000000f0: 17e4 d1bc cccb 863e f7fa 0c3d 62cc 173f
00000100: be7b f0bd d3a3 ebbe 2144 373e 74e8 b9be
00000110: 5c24 fc3c 3655 1c3e

up1.bias f4 [10]
0.507599 0.15661263 -0.18821014 -0.41940483 -0.013385662 -0.07870113 0.25745863 0.1382213
-0.006885202 0.011187259
00000000: 02f2 013f 105f 203e 29ba 40be 3bbc d6be
00000010: 894f 5bbc 0f2e a1bd 9ed1 833e e289 0d3e
00000020: 439d e1bb c44a 373c

up2.weight f4 [12, 10]
0.23090087 0.23279771 0.41874477 0.114149 -0.043670923 -0.13362232 -0.54840696 -0.019767154
-0.17238228 -0.22871533 -0.09552204 0.06767684 0.18420397 0.29996884 0.12381553 0.116763994
0.0017702972 -0.09020783 0.028213033 -0.16795006 -0.060559697 0.19672084 0.05798576 -0.18856046
-0.054508686 -0.27681318 0.37932235 -0.13358401 0.0880224 0.0008164402 0.063419595 0.0074087325
-0.12053701 -0.4147927 0.20487012 -0.0048724567 -0.25079942 0.16703872 -0.10178462 -0.28040504
-0.015471486 -0.29513457 0.23561713 -0.34023514 0.29154646 -0.08770217 -0.21459447 0.2879115
0.20391387 -0.19888382 0.00035923524 -0.0041987672 0.0050496827 -0.050472494 0.022603758 0.017918685
-0.0115594985 0.009978119 -0.03424531 -0.06133824 0.04106745 -0.032496676 -0.22539839 0.18657911
-0.20413913 -0.01632999 0.12847218 0.4697164 -0.32523334 0.09007133 -0.25394517 0.2115072
-0.12040815 -0.16814518 0.096469544 0.3585878 0.086398095 -0.167938 -0.30422115 -0.20302176
0.23934136 -0.09378981 -0.7165466 0.068260364 0.2865134 0.08807441 0.029362032 0.11620412
-0.30801868 -0.4527203 0.038138416 0.05475043 0.20609526 -0.054096587 -0.017425511 0.3773991
0.03500296 -0.08561354 0.081966124 0.22735964 0.018581925 -0.06739501 0.13874532 0.18669096
0.0771832 -0.21063428 -0.05906353 0.05235944 -0.15128314 -0.11075253 -0.2922276 0.06407682
-0.2885008 0.09054895 0.21745737 0.45330453 -0.21443231 0.2989017 0.30812246 -0.40196288
00000000: 4771 6c3e 8662 6e3e b765 d63e f3c6 e93d
00000010: 48e0 32bd 4ad4 08be 6664 0cbf baee a1bc
00000020: fb84 30be 5a34 6abe 0fa1 c3bd 289a 8a3d
00000030: f79f 3c3e 8495 993e ff92 fd3d f621 ef3d
00000040: 5109 e83a e2be b8bd 051f e73c 1afb 2bbe
00000050: 720d 78bd 3071 493e 7a82 6d3d fe15 41be
00000060: 8044 5fbd 75ba 8dbe 8a36 c23e 3fca 08be
00000070: 1745 b43d 6006 563a 22e2 813d f4c4 f23b
00000080: 1cdc f6bd b55f d4be 79c9 513e 21a9 9fbb
00000090: c868 80be 330c 2b3e 7474 d0bd 4091 8fbe
000000a0: 1e7c 7dbc e11b 97be 9e45 713e 4d33 aebe
000000b0: 9445 953e 329d b3bd a7be 5bbe 2369 933e
000000c0: ccce 503e 33a8 4bbe bd57 bc39 d095 89bb
000000d0: cf77 a53b 3fbc 4ebd 842b b93c 35ca 923c
000000e0: 0d64 3dbc 447b 233c cf44 0cbd ce3d 7bbd
000000f0: 5836 283d 3c1b 05bd d6ce 66be 980e 3f3e
00000100: d909 51be 79c6 85bc 368e 033e ab7e f03e
00000110: fc84 a6be 5177 b83d 1a05 82be 5895 583e
00000120: 8c98 f6bd 402e 2cbe d391 c53d d298 b73e
00000130: 7cf1 b03d f0f7 2bbe e0c2 9bbe f0e4 4fbe
00000140: e715 753e df14 c0bd 996f 37bf 17cc 8b3d
00000150: e2b1 923e 5b60 b43d a588 f03c 6dfc ed3d
00000160: a0b4 9dbe f5ca e7be 0737 1c3d fd41 603d
00000170: a30a 533e 6294 5dbd f2bf 8ebc 743a c13e
00000180: 445f 0f3d 2756 afbd dbdd a73d f7d0 683e
00000190: 1f39 983c 6506 8abd 4113 0e3e ea2b 3f3e
000001a0: 3a12 9e3d 83b0 57be 9aec 71bd da76 563d
000001b0: f8e9 1abe 39d2 e2bd db9e 95be b53a 833d
000001c0: 60b6 93be ba71 b93d 25ad 5e3e 8817 e83e
000001d0: 2594 5bbe a509 993e 3ac2 9d3e 14ce cdbe

up2.bias f4 [12]
-0.25013372 -0.028538626 -0.21983351 -0.09867253 0.21855626 0.07809078 -0.2670203 0.04640949
-0.23879375 -0.07106637 0.09052975 0.072104745
00000000: 8711 80be d6c9 e9bc 091c 61be d314 cabd
00000010: 36cd 5f3e 0fee 9f3d e2b6 88be e117 3e3d
00000020: 5986 74be 3f8b 91bd a967 b93d a7ab 933d
