2/model_Plate 19635 _CD8.pt (torch, 6626 bytes, 12 tensors)

down1.weight f4 [12, 15]
0	0x3e940c08	0.2891543
1	0x3e8e85f8	0.27836585
2	0x3ec8e091	0.3923383
3	0xbcdaf226	-0.026726793
4	0x3e130ead	0.14361067
5	0x3eb6d458	0.3570888
6	0x3e5652f3	0.2093008
7	0x3e22479b	0.15847628
8	0xbdd27920	-0.10277009
9	0x3cab7fca	0.020934958
10	0xbc9b229f	-0.018937407
11	0xbeed8675	-0.46391645
12	0x3e92f5c8	0.2870314
13	0xbf1522b7	-0.58256096
14	0x3d8bd52c	0.06827769
15	0x3d19f655	0.037588436
16	0x3d7fd280	0.062456608
17	0xbce85069	-0.028358655
18	0x3d9fc8df	0.07801985
19	0x3e2c1f3a	0.16808787
20	0x3e517dc1	0.20458128
21	0x3df3d434	0.11905709
22	0x3d99aa93	0.075032376
23	0xbe547dc5	-0.20751102
24	0x3ebce23d	0.36891356
25	0x3f1f2327	0.62163013
26	0xbdaf7261	-0.08566738
27	0x3e28145a	0.16414014
28	0x3e371799	0.17880096
29	0xbeb56e22	-0.35435587
30	0x3de4f5af	0.11179673
31	0x3d527bd0	0.051387608
32	0x3d941eb1	0.072324164
33	0xbdbc884e	-0.092056856
34	0xbe8126fe	-0.2522506
35	0xbdf88e5f	-0.1213653
36	0xbd46a708	-0.048499137
37	0xbdbdb198	-0.09262389
38	0xbe67d32d	-0.22639151
39	0x3e9967c4	0.2996198
40	0x3eb3ff72	0.35155827
41	0xbd09a427	-0.033603813
42	0x3eee9930	0.46601248
43	0x3eff93b7	0.49917385
44	0x3ebcd384	0.36880124
45	0xbcc9eb80	-0.024648428
46	0x3bccc5f8	0.0062491857
47	0xbd034e89	-0.03205732
48	0x3d8a6463	0.067574285
49	0x3df21fde	0.118224844
50	0x3de355ef	0.11100375
51	0x3e899758	0.2687328
52	0x3e1867b3	0.14883308
53	0x3c783945	0.015150373
54	0x3e5ff6c3	0.21871476
55	0x3f19e321	0.60112196
56	0x3e3c31a3	0.1837831
57	0x3d342f69	0.043990526
58	0xbe0cbb9b	-0.13743441
59	0x3f50d51f	0.81575197
60	0xbd93d8f3	-0.07219114
61	0xbc857a5a	-0.016293693
62	0x3ddfdd4d	0.10930882
63	0x3d43efff	0.0478363
64	0x3c4aead7	0.012385092
65	0x3c4bf07f	0.012447475
66	0x3e081293	0.13288336
67	0x3f112b4f	0.5670671
68	0x3f216582	0.63045514
69	0x3f03b9e1	0.51455504
70	0x3da7edc0	0.08199644
71	0xbf2693b6	-0.6506914
72	0x3f38ada5	0.7213996
73	0x3cac3bf4	0.021024682
74	0xbd46007b	-0.048340302
75	0x3e6964db	0.2279238
76	0x3e337ac4	0.175273
77	0xbd628e37	-0.055311408
78	0x3cfa911f	0.030586777
79	0xbb348b91	-0.0027549008
80	0x3e6ef8e8	0.23337138
81	0x3eea9c41	0.45822337
82	0x3ea7facb	0.32808527
83	0x3e1986eb	0.14992873
84	0x3ef4301b	0.47692952
85	0xbf29957f	-0.6624374
86	0x3dc98024	0.09838894
87	0x3f5d580b	0.8646247
88	0x3d6ba2e9	0.05752841
89	0xbdfd13f1	-0.12357319
90	0x3de81e58	0.113339126
91	0x3e17f327	0.14838849
92	0x3e8e727a	0.27821714
93	0x3cfcfa48	0.030881062
94	0x3e574def	0.21025823
95	0x3e90ab67	0.2825577
96	0x3d6e2a9f	0.058146115
97	0x3eab35bb	0.3343943
98	0x3daf6d9c	0.08565828
99	0xbe3dcf79	-0.18536176
100	0xbe893cc1	-0.26804164
101	0xbde2e572	-0.110789195
102	0x3d01661f	0.03159153
103	0x3f4df357	0.8044943
104	0x3ed5a77c	0.41729343
105	0x3e176b24	0.14786965
106	0x3e058867	0.13040315
107	0x3e438323	0.19092993
108	0xbcc2375d	-0.02370804
109	0xbcfd4ca7	-0.03092034
110	0x3df21422	0.11820246
111	0x3eff92df	0.4991674
112	0x3f016073	0.50537795
113	0x3eb92a3a	0.3616503
114	0xbf02e364	-0.5112822
115	0x3f81b081	1.013199
116	0x3f43cd30	0.76484966
117	0x3ee72382	0.45144278
118	0x3e6f4316	0.23365435
119	0xbdde66d8	-0.1085946
120	0xbda7aa58	-0.08186787
121	0xbd9f5d4c	-0.07781467
122	0xbea6cfc0	-0.32580376
123	0xbcb29348	-0.021798745
124	0xbdc70445	-0.09717611
125	0xbe4afe49	-0.19823565
126	0x3ee5ccf4	0.4488293
127	0x3ddb54ba	0.1070952
128	0x3f1ad2d3	0.6047794
129	0x3eb99b70	0.36251402
130	0x3f52b124	0.82301545
131	0xbef105ee	-0.47074836
132	0x3f273563	0.65315837
133	0x3e365f05	0.17809685
134	0x3e8343aa	0.2563756
135	0xbe3d43c1	-0.18482877
136	0xbd81c6df	-0.0633676
137	0x3e57ce6a	0.21074834
138	0x3cb8d79a	0.022563744
139	0x3e189d44	0.14903742
140	0xbd22c726	-0.039740704
141	0xbd2d4122	-0.042298444
142	0x3e13e85c	0.14444107
143	0x3ef776a0	0.4833269
144	0x3ef1bbb4	0.4721352
145	0x3e5a4950	0.21317029
146	0x3ddbc5e3	0.10731103
147	0x3f790ae2	0.9728223
148	0x3e0ba9c9	0.13638987
149	0xbbb4d47e	-0.005518495
150	0x3e4d5685	0.20052536
151	0xbe75c890	-0.2400229
152	0xbdf32335	-0.118719496
153	0xbdf01bde	-0.11724065
154	0xbe244af7	-0.16044222
155	0xbe66e4d5	-0.2254823
156	0xbdf5db67	-0.12004738
157	0x3e05b37f	0.13056754
158	0xbb0239aa	-0.0019870796
159	0xbd883969	-0.06651575
160	0xbe5f6d05	-0.21818931
161	0xbd867141	-0.0656457
162	0xbd8d7656	-0.069073364
163	0xbe6dd403	-0.23225407
164	0xbd15d118	-0.03657636
165	0x3e2e4337	0.17017828
166	0x3e1c1633	0.15242843
167	0x3eb6a52a	0.35672885
168	0xbd8cc31a	-0.0687315
169	0xbc4f9ee8	-0.012672164
170	0x3df213c4	0.11820176
171	0x3e1527bf	0.14565943
172	0xbc188202	-0.00930834
173	0x3dc22fc9	0.094817705
174	0x3f616e0d	0.8805855
175	0x3ea8edb4	0.32993853
176	0x3e88ff6e	0.26757377
177	0xbf296b1c	-0.6617906
178	0x3d972c7b	0.07381531
179	0x3da6a549	0.081369944

down1.bias f4 [12]
0	0x3edac3f6	0.4272763
1	0x3ec415a9	0.38297775
2	0x3e96f233	0.29481658
3	0x3e83ddd0	0.25755167
4	0x3e8b8d96	0.2725646
5	0x3e72f01b	0.23724405
6	0x3e5f253f	0.21791552
7	0x3de5ec60	0.112267256
8	0x3ea2e453	0.31814823
9	0x3de26590	0.11054528
10	0xbbc6db29	-0.0060686064
11	0x3edee7bd	0.43536177

down2.weight f4 [9, 12]
0	0xbe8110e0	-0.25208187
1	0x3ebc147f	0.36734387
2	0x3ed8d681	0.42351153
3	0xbf101df9	-0.56295735
4	0x3de8f6e7	0.11375218
5	0x3e3c2b2b	0.18375842
6	0x3ec7f6ff	0.3905563
7	0x3f376040	0.7163124
8	0x3e2efc4c	0.17088431
9	0x3f14ba9c	0.58097243
10	0x3e5f0c27	0.2178198
11	0xbed938ff	-0.42426297
12	0x3f090d55	0.5353597
13	0xbf040100	-0.51564026
14	0x3ef0454c	0.4692787
15	0x3f0b0dde	0.54318035
16	0x3e98a7cf	0.29815528
17	0x3e4d4d59	0.20049037
18	0xbd42d276	-0.047563992
19	0xbdd5d98b	-0.10441884
20	0x3e2064f4	0.1566351
21	0x3edf4e92	0.43614632
22	0x3e695256	0.22785315
23	0xbf0caf9b	-0.5495545
24	0xbda9a6e7	-0.08283787
25	0x3f0dbd43	0.55366915
26	0x3f363eab	0.71189374
27	0x3f2edea3	0.68308467
28	0xbeeefceb	-0.46677336
29	0x3d0a4849	0.033760343
30	0xbe9ed15d	-0.31019107
31	0x3ed16fc5	0.40905586
32	0x3c5db817	0.01353266
33	0x3f1cbde1	0.6122723
34	0x3e038906	0.12845239
35	0xbe2caaf8	-0.16862094
36	0xbf141657	-0.5784659
37	0x3dcd6a96	0.10030095
38	0x3ec95785	0.39324585
39	0x3f38a1f2	0.7212211
40	0x3e7fa01a	0.24963418
41	0x3e19295d	0.14957185
42	0x3ee18221	0.44044593
43	0xbd790285	-0.06079342
44	0x3eefb698	0.46818995
45	0x3e55fe57	0.20897804
46	0x3deb763f	0.11497163
47	0x3f6b63b7	0.9194903
48	0xbe4cf87c	-0.20016664
49	0x3e3859a7	0.1800295
50	0xbdb4241c	-0.0879595
51	0xbe259c46	-0.16172895
52	0x3e1712a8	0.1475321
53	0x3df4145a	0.11917944
54	0xbe49dfa9	-0.19714226
55	0xbe51dc5e	-0.2049422
56	0x3e3920c3	0.18078904
57	0x3d63052b	0.05542485
58	0x3da7ae68	0.08187562
59	0xbe8a6cba	-0.27036077
60	0x3f01e91b	0.50746316
61	0x3f0c7b9d	0.5487612
62	0x3e4926cd	0.19643708
63	0x3e04ce59	0.1296934
64	0x3f387253	0.72049445
65	0xbf0e9465	-0.5569518
66	0xbea5355c	-0.32267272
67	0x3e025338	0.12727058
68	0x3f031103	0.5119783
69	0xbe51593e	-0.204442
70	0xbdde11e6	-0.108432576
71	0x3bc37841	0.005965263
72	0xbeb26ae7	-0.34847185
73	0xbf093935	-0.53602916
74	0xbf02d6e0	-0.51109123
75	0x3e51100e	0.2041628
76	0x3e936223	0.2878581
77	0x3e6071b3	0.21918373
78	0x3e76bd75	0.2409571
79	0x3f72ae7b	0.94797486
80	0x3f11feb4	0.5702927
81	0x3d44dbe2	0.04806126
82	0xbd9c5ee4	-0.076352865
83	0x3ddccc11	0.1078111
84	0xbeae6f00	-0.3406906
85	0x3e76769d	0.24068685
86	0x3ebf2b0a	0.37337524
87	0xbe203b22	-0.15647557
88	0x3ef973d2	0.48721176
89	0x3f01cdc1	0.5070458
90	0x3ee9269b	0.45537266
91	0xbda95558	-0.08268231
92	0x3f29068d	0.6602562
93	0x3ed01cdd	0.4064702
94	0xbd587048	-0.052841455
95	0x3d5a5fa5	0.05331387
96	0xbe2040fa	-0.15649787
97	0x3d2f850b	0.04285149
98	0xbed64c6e	-0.41855186
99	0xbe8e4b47	-0.27791807
100	0x3e87927b	0.26478943
101	0x3f2ecc41	0.68280417
102	0xbf1286c3	-0.5723688
103	0x3e004af7	0.12528597
104	0x3e533d5b	0.20628874
105	0x3f0c0346	0.54692495
106	0xbe59ab69	-0.21256794
107	0x3f10ff1a	0.56639254

down2.bias f4 [9]
0	0x3ef3337c	0.47500217
1	0x3ee02d11	0.43784383
2	0x3e302e9c	0.1720528
3	0x3e7976f4	0.24361783
4	0xbe952f9d	-0.2913789
5	0x3e817ce1	0.25290588
6	0x3e025325	0.1272703
7	0x3ea31328	0.31850553
8	0x3e96d348	0.2945807

down3.weight f4 [8, 9]
0	0x3f2a1a83	0.66446704
1	0x3eff327c	0.49843204
2	0xbe39a468	-0.18129122
3	0xbea69908	-0.3253863
4	0xbd512d4a	-0.05106858
5	0x3eeea321	0.46608832
6	0x3ebc1802	0.36737067
7	0x3ea1e282	0.31618124
8	0x3d64803d	0.05578636
9	0xbe2efd95	-0.17088921
10	0x3e32a69f	0.17446373
11	0xbe2cb69b	-0.16866533
12	0x3f1058a6	0.56385267
13	0xbd7590d9	-0.05995259
14	0x3ec500db	0.38477215
15	0xbea50ac8	-0.32234788
16	0x3f3477b7	0.7049517
17	0xbe326b4b	-0.17423742
18	0x3e609fc8	0.21935952
19	0xbe8b40ce	-0.2719788
20	0xbe89b796	-0.26897877
21	0xbe50afa9	-0.20379509
22	0xbe146baf	-0.14494203
23	0x3db1a19e	0.08673404
24	0x3e4cba4d	0.19992943
25	0xbe09ab1f	-0.13444184
26	0xbe880a7a	-0.26570493
27	0x3f1f6cd6	0.62275445
28	0xbeffd37c	-0.49966037
29	0x3e2aa450	0.16664243
30	0x3edb19e2	0.42793185
31	0xbd515530	-0.05110663
32	0xbf05e30e	-0.5229958
33	0x3f0110f5	0.504165
34	0x3e91f69b	0.28508458
35	0x3f7cc3d6	0.9873632
36	0x3ebaa39a	0.36452943
37	0x3ee0f1b8	0.43934417
38	0xbe78ce13	-0.24297361
39	0x3e556d7c	0.20842546
40	0x3d3a508b	0.045486968
41	0xbf73ac78	-0.9518504
42	0x3db466f3	0.088086985
43	0x3f14d422	0.5813619
44	0x3e620e58	0.22075784
45	0x3f2794ef	0.6546163
46	0xbebddd00	-0.37082672
47	0x3d106736	0.03525468
48	0x3e4573fd	0.19282527
49	0x3e18caad	0.14921065
50	0x3d9ce7cf	0.076614015
51	0x3dab705d	0.08371041
52	0x3ec6d818	0.3883674
53	0xbf4eea2b	-0.8082606
54	0x3ded5089	0.115876265
55	0x3f2507e3	0.6446516
56	0x3f459291	0.7717677
57	0x3e753e62	0.23949578
58	0xbe435073	-0.19073658
59	0xbd91b235	-0.071140684
60	0x3e9456d7	0.28972504
61	0x3e7e08a3	0.24807982
62	0xbe9363db	-0.2878712
63	0xbe453838	-0.19259727
64	0x3e4b94ad	0.19880934
65	0xbed28a56	-0.41121167
66	0x3edb89ec	0.42878664
67	0xbdfde981	-0.12398053
68	0xbe469a50	-0.19394803
69	0x3f36a5d6	0.71346796
70	0x3dd05dad	0.10174117
71	0xbe6349b4	-0.22196084

down3.bias f4 [8]
0	0x3eab6baa	0.3348058
1	0xbd3a16e6	-0.045431994
2	0x3df9ab7f	0.121909134
3	0x3ec19b9b	0.3781403
4	0x3e801a85	0.25020233
5	0x3d190f98	0.037368387
6	0x3eeefe4d	0.4667839
7	0xbe057a81	-0.13035013

down4.weight f4 [7, 8]
0	0xbe9433cd	-0.2894577
1	0x3e4cbe75	0.19994529
2	0x3e8fc63a	0.28080922
3	0x3e7b2631	0.24526288
4	0xbf0f491b	-0.55970925
5	0xbe892569	-0.26786354
6	0xbed984e8	-0.42484212
7	0x3e571af2	0.21006373
8	0x3e13835a	0.14405575
9	0xbefd48b2	-0.49469525
10	0xbe12698f	-0.1429808
11	0xbe06e6ac	-0.13173932
12	0xbd662d10	-0.05619532
13	0x3dcb1504	0.09916118
14	0xbd2e13f5	-0.0424995
15	0x3f36d6ce	0.71421516
16	0x3e8ad6eb	0.27117094
17	0x3ef4d214	0.47816527
18	0xbd9a668d	-0.07539091
19	0xbd1cd0b6	-0.03828498
20	0xbd016db4	-0.03159876
21	0xbe8ce485	-0.27518097
22	0xbde06bde	-0.10958074
23	0x3ee5905f	0.4483671
24	0xbeea7c14	-0.4579779
25	0x3d0c620f	0.034273203
26	0x3e10963c	0.1411981
27	0xbf028745	-0.50987655
28	0x3ba00800	0.004883766
29	0xbf3dce4a	-0.741429
30	0x3e2fc1de	0.17163798
31	0x3e56c4f2	0.20973566
32	0x3e35e077	0.17761408
33	0xbf21af74	-0.63158345
34	0x3e33cb15	0.17557938
35	0x3f12f7da	0.5740944
36	0x3ed8eb03	0.423668
37	0xbf0f26c9	-0.55918556
38	0x3dfba4a7	0.12287264
39	0x3c15b740	0.0091379285
40	0x3eb2f938	0.34955764
41	0xbef843af	-0.48489138
42	0x3e9b1efc	0.30297077
43	0xbd264e69	-0.04060212
44	0xbeeafe07	-0.45896932
45	0xbe8d0c86	-0.27548617
46	0x3eca4f39	0.39513567
47	0xbe41a26c	-0.18909615
48	0x3ec51f54	0.38500464
49	0xbef2f7cf	-0.47454688
50	0x3dda8c73	0.1067132
51	0xbd7453e9	-0.059650335
52	0xbe54adfb	-0.20769493
53	0x3dc097ce	0.094039544
54	0xbedec788	-0.43511605
55	0xbeacf860	-0.33783245

down4.bias f4 [7]
0	0xbdc027ea	-0.09382613
1	0x3e477c95	0.19481118
2	0x3e02d761	0.12777473
3	0x3e36f0d6	0.17865309
4	0xbd7e5b4e	-0.062098794
5	0xbcbcb696	-0.023036283
6	0x3ed536b5	0.416433

up1.weight f4 [8, 7]
0	0xbea9b37a	-0.33144742
1	0x3f0ce6a4	0.5503943
2	0x3eac8ceb	0.33701262
3	0xbc8e27a9	-0.017352896
4	0x3eac8450	0.33694696
5	0x3ee095cd	0.4386429
6	0xbe4666df	-0.1937518
7	0x3cbff33b	0.023431411
8	0x3dbcdffd	0.0922241
9	0xbe51faff	-0.20505904
10	0xbe9e1a3c	-0.3087939
11	0x3ed48981	0.41511157
12	0xbf1ea489	-0.6196981
13	0x3db877b0	0.090072036
14	0xbf0c2174	-0.54738545
15	0xbef063d4	-0.46951163
16	0xbf058b39	-0.5216556
17	0x3dc63962	0.09678914
18	0x3e044afd	0.12919231
19	0xbdbc59be	-0.091968045
20	0xbe7f0cd9	-0.24907245
21	0xbeb264bb	-0.34842476
22	0x3ebdef47	0.37096617
23	0x3eb91f31	0.3615661
24	0x3eb48e3e	0.35264772
25	0x3e95820f	0.2920079
26	0xbeaf15ee	-0.3419642
27	0xbf113bd7	-0.56731933
28	0x3e8fc762	0.28081805
29	0xbee45efb	-0.44603714
30	0x3e9866cc	0.29765928
31	0xbe0baad2	-0.13639382
32	0x3df02d85	0.11727432
33	0x3dee218d	0.11627493
34	0xbe662952	-0.224767
35	0xbe5e682d	-0.21719427
36	0xbe83ac64	-0.2571746
37	0x3edb1d73	0.42795905
38	0x3e55c61c	0.20876354
39	0x3e1894b6	0.14900479
40	0x3ccbd496	0.024881642
41	0x3e7a8eaa	0.24468485
42	0xbe8960ff	-0.26831815
43	0x3df24629	0.11829788
44	0x3f0baec6	0.5456356
45	0xbed162e1	-0.4089575
46	0xbf042431	-0.51617724
47	0xbedb2e98	-0.42808986
48	0x3d034abb	0.03205369
49	0xbed40f6e	-0.41418022
50	0x3e598653	0.21242647
51	0x3e1edd4b	0.15514104
52	0x3d646bbc	0.055766806
53	0x3e78a332	0.24281004
54	0x3f024a9f	0.5089511
55	0xbcc9efe2	-0.024650518

up1.bias f4 [8]
0	0xbeae0644	-0.33989155
1	0x3e9ac639	0.30229357
2	0xbe0b58f9	-0.13608159
3	0x3dba9e83	0.09112265
4	0xbe8262e4	-0.25466073
5	0x3e74eb8a	0.23917976
6	0xbe5c5326	-0.21516094
7	0x3e71799e	0.2358155

up2.weight f4 [9, 8]
0	0x3e1f3d78	0.15550792
1	0xbac3ae05	-0.0014929181
2	0xbe7691ca	-0.24079052
3	0x3dc52616	0.09626405
4	0x3e376fd7	0.17913757
5	0xbe69f42b	-0.22847049
6	0xbd8f2c1b	-0.06990834
7	0x3cc8d632	0.024516199
8	0x3e490e1d	0.1963429
9	0x3dd70bc2	0.105002895
10	0xbe9993a5	-0.29995456
11	0x3c0d81fa	0.008636946
12	0xbd806003	-0.06268313
13	0x3cd39cfd	0.025831694
14	0x3dce0136	0.10058825
15	0xbd4e5eba	-0.050383307
16	0xbc343528	-0.010999002
17	0x3e777cf4	0.2416876
18	0xbf1f2cd9	-0.6217781
19	0x3e2f8679	0.17141141
20	0x3dc4ba9d	0.09605906
21	0xbc485de2	-0.012229415
22	0x3d2b2f03	0.04179288
23	0x3e709a7d	0.23496433
24	0x3d508463	0.050907504
25	0xbd360ee2	-0.044447787
26	0x3e521f52	0.2051976
27	0x3d275eca	0.040861882
28	0x3f2af98f	0.66787046
29	0x3e3b751c	0.18306392
30	0xbe2ba889	-0.1676351
31	0xbeda7d17	-0.4267356
32	0x3eaea0a0	0.34106922
33	0xbeafcd4c	-0.34336317
34	0x3d3dc2a5	0.046328206
35	0xbea72875	-0.32648054
36	0x3f27dd59	0.65572125
37	0xbf6aa0ef	-0.91651815
38	0x3d96f2a2	0.07370497
39	0x3c8d96f4	0.017283894
40	0xbe34b3c5	-0.17646702
41	0x3d8f7bd1	0.07006038
42	0x3e1240f6	0.14282593
43	0x3e804558	0.25052905
44	0x3e7a4ae3	0.2444263
45	0xbf83bbec	-1.0291724
46	0xbee9e772	-0.4568439
47	0x3eba2012	0.36352593
48	0x3c967990	0.018368512
49	0xbd419137	-0.04725763
50	0x3eed1b58	0.46309924
51	0xbe145cc8	-0.14488518
52	0xbd3b831c	-0.045779333
53	0x3f286da4	0.657923
54	0x3d40f7ee	0.047111444
55	0x3e28a832	0.16470411
56	0xbe94eacb	-0.29085383
57	0x3e9f6d4d	0.31138077
58	0x3e187f42	0.14892295
59	0x3a54e1d6	0.00081208104
60	0xbe978839	-0.29596117
61	0xbef4cece	-0.4781403
62	0x3ea29b57	0.3175914
63	0x3d9a631b	0.07538434
64	0x3d64eec2	0.05589176
65	0xbeeb2d77	-0.45933124
66	0x3e192585	0.14955719
67	0x3f0cff34	0.5507691
68	0xbe3f07b7	-0.18655287
69	0xbf132605	-0.5747989
70	0xbd4efe6c	-0.050535604
71	0xbc233ff4	-0.009963978

up2.bias f4 [9]
0	0x3e14a9e2	0.1451793
1	0xbd12ec72	-0.035870023
2	0xbe7c8885	-0.24661453
3	0x3dbdaace	0.09261094
4	0x3f1a33bf	0.6023521
5	0x3ed25dc8	0.41087174
6	0xbf247943	-0.6424753
7	0xbd38e50f	-0.045140322
8	0x3e785401	0.24250795
