2/model_Panel2.pt (torch, 8002 bytes, 12 tensors)

down1.weight f4 [15, 18]
0.14522253 -0.08185389 0.038000748 0.040481567 -0.10547782 -0.15435202 0.016394872 0.10086089
-0.11518562 0.09244593 -0.17529048 0.0983428 -0.17040864 -0.15801547 0.0211711 -0.16898833
-0.078931116 -0.12103884 -0.0322606 0.061372306 0.021843223 -0.00911414 0.07372898 0.0006794348
-0.29035774 0.47428334 0.042936876 -0.04288107 0.085523024 -0.056168247 -0.07848442 -0.098343216
-0.27062964 -0.072964184 0.14932144 0.44606608 0.13927573 0.022311201 -0.017078673 0.11274142
0.098627225 0.15150654 0.30145276 0.16681752 0.10234936 -0.119321965 0.36401004 0.12144171
0.23067346 0.21835382 -0.3057651 0.25417352 0.27179715 0.15694848 0.062866256 0.023587056
-0.1954715 -0.001258623 -0.057831075 0.07310027 0.075061984 0.13550481 0.5576401 0.06819906
0.6471496 -0.044856448 0.5003563 -0.4788242 0.31745946 0.8567483 -0.08289018 -0.32212842
-0.13506341 0.06185855 0.16158666 0.00020073829 0.13300969 -0.059365366 0.40003332 -0.0740253
-0.1487855 0.4526208 0.642621 0.06294928 0.69219494 -0.5232632 0.22354211 0.47939616
-0.0058352733 0.18016374 -0.05803198 0.14795002 0.26020706 -0.05566859 0.26353368 0.022823086
-0.3299443 -0.24649404 0.17515709 0.2327844 0.5772642 0.25169745 0.23801714 -0.42284894
0.44819325 0.6522044 -0.15267976 -0.262158 -0.0056662643 0.04546772 0.21183962 0.12010061
0.12646566 -0.032970477 -0.40223965 0.016645558 0.097733706 -0.03961914 -0.06503473 0.2660278
0.65044445 0.3756101 -0.093973234 0.28024963 -0.087567285 0.08243398 -0.07771104 0.20575808
0.3184903 0.17062874 0.28216895 0.048648726 0.035926998 0.029494386 0.49185497 0.436141
-0.23843291 0.27165514 -0.3983315 0.4123037 -0.2787445 0.300334 -0.09387482 -0.060451586
-0.14364761 -0.04563828 0.0064467513 -0.17943454 0.009996178 0.027829504 0.084194034 0.58922166
-0.018533517 -0.11741182 -0.13766553 -0.16610314 0.57129586 0.19404952 0.2840628 0.510385
0.27877843 0.38151774 0.10986229 0.019127203 0.040604822 0.070190735 0.006774473 0.11640752
0.13854934 0.14094888 -0.21948402 0.2643909 0.3956405 0.15611744 -0.0021944905 0.29561585
-0.0063635567 0.1263413 -0.005450157 0.34205142 0.018802138 -0.13623057 -0.1088427 -0.25013727
-0.07041339 -0.222577 0.6976138 0.056068767 0.38147044 0.1659252 0.028345603 0.01582501
0.46940175 -0.071078755 0.014218062 0.27868977 -0.09081121 -0.014666431 0.028894842 0.28360328
0.14493182 0.20620032 0.25144616 0.37537852 0.11660903 -0.3503337 -0.13190669 0.323056
-0.20748536 0.07547523 0.23191547 0.0067920545 0.09042311 0.4429438 -0.28441143 0.2317468
-0.04003166 0.22106563 0.15960294 0.09724763 0.18514915 0.3746766 -0.06515882 -0.33938757
0.59902656 0.26540017 0.40930343 -0.08159415 0.21265236 -0.35572076 -0.103919126 -0.035469692
0.10472194 0.1487277 0.11344968 0.10778955 0.20205069 0.27141744 0.10504032 0.32301003
0.31867543 0.5276408 0.17919688 0.14536941 0.1087002 0.25921458 0.045865394 0.59506214
0.4713081 0.40457165 0.28678253 0.24087685 -0.113013975 0.019356163 0.081996955 -0.16557911
00000000: 37b5 143e 03a3 a7bd aca6 1b3d 00d0 253d
00000010: c104 d8bd 750e 1ebe 8a4e 863c 2790 ce3d
00000020: 70e6 ebbd 4b54 bd3d 597f 33be f367 c93d
00000030: 9a7f 2ebe cfce 21be 046f ad3c 470b 2dbe
00000040: a3a6 a1bd 36e3 f7bd b123 04bd 8761 7b3d
00000050: 8ff0 b23c 7953 15bc 38ff 963d 191c 323a
00000060: c5a9 94be 44d5 f23e 94de 2f3d 10a4 2fbd
00000070: b226 af3d ad10 66bd 71bc a0bd 2b68 c9bd
00000080: f88f 8abe 3f6e 95bd b8e7 183e c662 e43e
00000090: 4c9e 0e3e fbc5 b63c 93e8 8bbc f9e4 e63d
000000a0: 12fd c93d 8824 1b3e 0458 9a3e 36d2 2a3e
000000b0: 8b9c d13d 135f f4bd 865f ba3e 6eb6 f83d
000000c0: aa35 6c3e 2598 5f3e 3e8d 9cbe 0823 823e
000000d0: ff28 8b3e 1ab7 203e 06c0 803d a439 c13c
000000e0: ae29 48be 61f8 a4ba 47e0 6cbd 98b5 953d
000000f0: 19ba 993d c6c1 0a3e 80c1 0e3f f3ab 8b3d
00000100: 99ab 253f 65bb 37bd 5a17 003f 7228 f5be
00000110: 0c8a a23e db53 5b3f 54c2 a9bd 04ee a4be
00000120: 104e 0abe 645f 7d3d f976 253e 467d 5239
00000130: b133 083e 1929 73bd 2bd1 cc3e 949a 97bd
00000140: 3a5b 18be eabd e73e cf82 243f 8deb 803d
00000150: b033 313f 94f4 05bf 39e8 643e 6a73 f53e
00000160: d235 bfbb d87c 383e f1b2 6dbd 3680 173e
00000170: dc39 853e bf04 64bd e3ed 863e 7bf7 ba3c
00000180: 76ee a8be ef68 7cbe 615c 333e 095f 6e3e
00000190: 96c7 133f 7dde 803e c4ba 733e a87f d8be
000001a0: 9679 e53e def6 263f 1558 1cbe 9339 86be
000001b0: 12ac b9bb 5c3c 3a3d 7cec 583e 4ff7 f53d
000001c0: 3780 013e 0d0c 07bd 5bf2 cdbe 445c 883c
000001d0: 9c28 c83d ae47 22bd ee30 85bd cc34 883e
000001e0: 8783 263f f84f c03e 0a75 c0bd e17c 8f3e
000001f0: 7a56 b3bd 26d3 a83d f726 9fbd 3fb2 523e
00000200: 2911 a33e 4db9 2e3e 7378 903e e343 473d
00000210: 3028 133d 369e f13c 6ad4 fb3e e04d df3e
00000220: c227 74be 6216 8b3e 1bf2 cbbe 7819 d33e
00000230: 99b7 8ebe 61c5 993e 7141 c0bd 159c 77bd
00000240: 5c18 13be 35ef 3abd 453f d33b b0bd 37be
00000250: 02c7 233c b3fa e33c ec6d ac3d 3bd7 163f
00000260: 9ad3 97bc 9c75 f0bd 31f8 0cbe f116 2abe
00000270: 7240 123f ebb4 463e ae70 913e 97a8 023f
00000280: 0cbc 8e3e 4b56 c33e 7bff e03d a7b0 9c3c
00000290: 3e51 263d 29c0 8f3d 66fc dd3b 1167 ee3d
000002a0: e1df 0d3e e754 103e 6bc0 60be 3e5e 873e
000002b0: 6491 ca3e 40dd 1f3e 71d1 0fbb f65a 973e
000002c0: 6285 d0bb 9d5f 013e 3b97 b2bb 5d21 af3e
000002d0: f106 9a3c 0780 0bbe ece8 debd fe11 80be
000002e0: e534 90bd 3aeb 63be d196 323f 5da8 653d
000002f0: 1850 c33e 4ce8 293e 0a35 e83c 74a3 813c
00000300: 6d55 f03e bd91 91bd e0f2 683c 6db0 8e3e
00000310: 3afb b9bd 784b 70bc e0b4 ec3c 7334 913e
00000320: 0269 143e 2d26 533e 8dbd 803e 9d31 c03e
00000330: b7d0 ee3d f05e b3be 8c12 07be 9967 a53e
00000340: 0b77 54be c292 9a3d 407b 6d3e e28f de3b
00000350: c02f b93d 88c9 e23e 609e 91be 084f 6d3e
00000360: 3df8 23bd 075f 623e f46e 233e c429 c73d
00000370: bd97 3d3e 9cd5 bf3e fd71 85bd 35c4 adbe
00000380: ce59 193f 88e2 873e 3890 d13e d51a a7bd
00000390: 8ac1 593e 0821 b6be 8dd3 d4bd ab48 11bd
000003a0: 7578 d63d 134c 183e 4e58 e83d c5c0 dc3d
000003b0: 60e6 4e3e 3af7 8a3e 611f d73d 9261 a53e
000003c0: 6d29 a33e 7813 073f 637f 373e b8db 143e
000003d0: 369e de3d c6b7 843e 5add 3b3d fe55 183f
000003e0: 4c4f f13e 0424 cf3e 29d5 923e 6ca8 763e
000003f0: df73 e7bd d190 9e3c 05ee a73d 928d 29be

down1.bias f4 [15]
-0.07268548 -0.07382385 0.0046594427 0.00047523322 0.14558797 0.06503922 0.16204366 0.058000054
0.14104408 0.2830795 0.17885748 0.11121586 0.141985 0.3668369 0.33334997
00000000: 20dc 94bd f530 97bd 3dae 983b b928 f939
00000010: 0315 153e 4833 853d c6ee 253e 7791 6d3d
00000020: dc6d 103e ccef 903e 6a26 373e 24c5 e33d
00000030: 8464 113e 0cd2 bb3e d9ac aa3e

down2.weight f4 [12, 15]
0.058494803 0.24133392 0.25529122 0.1376243 0.54487014 0.053203586 -0.22823766 0.091656014
0.31344017 0.40133616 0.3531901 -0.25732198 0.44768876 0.096475154 0.040000405 0.098435774
0.2314648 0.044589177 0.57618684 0.08712318 0.5038421 -0.01530637 0.48543552 0.5691202
-0.0028421858 -0.12634403 -0.29299214 -0.10633809 0.4950669 -0.0044416063 -0.18679869 -0.15216535
0.31163928 0.16805361 0.20467664 -0.46656987 0.39961863 0.33760625 0.09610155 0.030788463
0.4621761 0.48824066 -0.21860209 -0.15232682 0.53581053 0.110872224 -0.06807709 -0.3852867
-0.02332898 0.41473517 0.11610969 -0.23091203 0.23195697 -0.087426715 0.20142761 0.23164171
0.19824849 0.43509373 0.05727122 -0.3826799 -0.06631504 0.09101587 0.21642691 0.021641726
0.43301773 0.5717828 0.32758522 -0.3225245 0.14347346 0.39536682 -0.3699428 0.473877
-0.29602498 -0.05326789 0.24196325 0.09873261 -0.36164814 -0.4128138 0.38397598 0.6540905
0.42528066 -0.11178881 -0.71191686 0.34560892 -0.073252164 0.16721687 0.16072927 -0.21786939
0.12455109 -0.08435817 0.09163709 -0.021341959 0.22272967 -0.047672164 0.4208675 -0.28073353
0.19619101 -0.33845606 0.5913304 0.387518 0.4537746 -0.21793829 -0.30342126 0.42279547
-0.1308026 0.24849302 -0.48413712 -0.4668679 0.45879483 0.06371084 0.3092707 0.59428936
-0.11928705 0.20301522 -0.32942244 0.5868349 0.5424454 0.28405336 0.1747416 0.07280767
0.24093033 0.35423788 0.38159686 0.27272746 0.46556354 0.22753014 -0.0888073 0.08788593
-0.29072884 0.00097035116 0.19106825 -0.35262445 0.43004188 -0.3538907 0.57985777 -0.122826986
0.30856508 0.09293257 0.41036367 0.059164837 0.2758898 0.43514034 -0.3821741 0.22894089
0.04931488 -0.11086654 -0.42096382 0.33218747 0.0791284 -0.2834202 0.23764051 -0.638042
0.09505671 0.27771264 0.22166935 0.10233253 -0.6831365 0.46998042 -0.19810326 0.0023178572
0.38820338 0.4712337 -0.36403492 0.16660738 0.45094618 -0.14476828 -0.10032999 -0.11387211
-0.08756417 -0.14562461 0.15409604 -0.068095975 0.048678998 -0.07227127 0.25430757 0.10199905
-0.24899489 -0.1776338 -0.20199114 0.07772396
00000000: 3f98 6f3d 3d20 773e 88b5 823e 62ed 0c3e
00000010: 9c7c 0b3f 01ec 593d 22b7 69be 26b6 bb3d
00000020: 3b7b a03e ef7b cd3e 55d5 b43e b5bf 83be
00000030: 7637 e53e c494 c53d 77d7 233d b298 c93d
00000040: 1c05 6d3e 24a3 363d fb80 133f a36d b23d
00000050: ccfb 003f 92c7 7abc 018b f83e ddb1 113f
00000060: f743 3abb 5460 01be 1103 96be c9c7 d9bd
00000070: 6979 fd3e e58a 91bb 2848 3fbe 3cd1 1bbe
00000080: 2f8f 9f3e 3f16 2c3e c196 513e 3fe2 eebe
00000090: d09a cc3e bada ac3e e4d0 c43d 1638 fc3c
000000a0: 59a2 ec3e aefa f93e 3ad9 5fbe 90fb 1bbe
000000b0: e12a 093f fa10 e33d 006c 8bbd 4c44 c5be
000000c0: 6b1c bfbc 2b58 d43e ebca ed3d 3474 6cbe
000000d0: 2186 6d3e c70c b3bd 0a43 4e3e 7c33 6d3e
000000e0: a701 4b3e 9bc4 de3e 3a95 6a3d 9fee c3be
000000f0: 2ed0 87bd 8766 ba3d 049f 5d3e fd49 b13c
00000100: 80b4 dd3e 5c60 123f 40b9 a73e ee21 a5be
00000110: b5ea 123e 856d ca3e 2569 bdbe 02a0 f23e
00000120: 9690 97be 6e2f 5abd 37c5 773e 5334 ca3d
00000130: f229 b9be 555c d3be 8098 c43e 7a72 273f
00000140: 63be d93e 88f1 e4bd 2f40 36bf a7f3 b03e
00000150: 3b05 96bd e63a 2b3e 3796 243e 2719 5fbe
00000160: a414 ff3d fac3 acbd 3aac bb3d 55d5 aebc
00000170: 3f13 643e e343 43bd f27b d73e 4ebc 8fbe
00000180: 4ce6 483e 1d4a adbe 6e61 173f c268 c63e
00000190: 2555 e83e 372b 5fbe 085a 9bbe a678 d83e
000001a0: 1ef1 05be f474 7e3e d2e0 f7be 4f09 efbe
000001b0: 28e7 ea3e d47a 823d bb58 9e3e 5923 183f
000001c0: c54c f4bd 39e3 4f3e 0faa a8be d03a 163f
000001d0: b4dd 0a3f 716f 913e 76ef 323e 301c 953d
000001e0: 71b6 763e ab5e b53e aa60 c33e efa2 8b3e
000001f0: 585e ee3e a9fd 683e 9ae0 b5bd 8afd b33d
00000200: 69da 94be 2a5f 7e3a 65a7 433e 318b b4be
00000210: 732e dc3e 2931 b5be 8f71 143f b78c fbbd
00000220: 3efc 9d3e 6e53 be3d 301b d23e d456 723d
00000230: 6e41 8d3e b7ca de3e 53ac c3be 7b6f 6a3e
00000240: 66fe 493d ff0d e3bd 9288 d7be 7a14 aa3e
00000250: 120e a23d 741c 91be 0958 733e b856 23bf
00000260: 18ad c23d 5a30 8e3e 4afd 623e b893 d13d
00000270: 09e2 2ebf 46a1 f03e 95db 4abe 31e7 173b
00000280: 98c2 c63e 8b45 f13e c962 babe 209b 2a3e
00000290: 6be2 e63e 233e 14be cf79 cdbd c835 e9bd
000002a0: d854 b3bd 9e1e 15be 5acb 1d3e e775 8bbd
000002b0: a163 473d f602 94bd 9a34 823e e1e4 d03d
000002c0: 84f8 7ebe a3e5 35be c4d6 4ebe bd2d 9f3d

down2.bias f4 [12]
0.20555416 -0.15023805 0.25155318 0.3154288 0.109667175 0.24317515 0.0025085842 0.25054702
0.20429218 0.32820958 0.047704615 -0.11165166
00000000: ca7c 523e 01d8 19be 94cb 803e e27f a13e
00000010: 2f99 e03d e802 793e 0f67 243b b347 803e
00000020: f831 513e 160b a83e ea65 433d a0a9 e4bd

down3.weight f4 [11, 12]
-0.15848543 0.113870084 -0.05630141 0.49054277 -0.12009787 0.29714885 -0.2946417 0.48820484
-0.0002020159 -0.25634533 0.4918651 -0.026528897 -0.0646772 -0.33405292 0.38659775 0.20963727
0.24286659 0.12186625 0.40140668 0.3933881 -0.29607114 -0.07448528 -0.2624882 0.11595416
0.25946823 0.1809738 -0.045186333 0.38208243 0.07191593 0.48862165 0.47165766 0.22736931
-0.08211216 0.2790486 -0.21613638 0.20188898 0.14291734 0.056065742 0.35332835 0.08754168
-0.78546655 -0.3428798 0.1831723 0.5118065 0.1912819 0.19162923 -0.136866 0.2749192
-0.16971764 0.42460224 0.2469277 -0.516281 0.24019104 0.26569143 -0.08118186 0.45012987
0.11668416 0.082405746 0.18388583 0.1527307 0.3972723 -0.041342564 0.3270108 0.15447816
0.10213884 0.07512492 0.39917347 -0.24470958 0.36513764 -0.29634362 0.45503306 -0.101794004
0.19499208 -0.3884555 0.22217917 -0.086115494 0.33934128 0.20709462 -0.15059637 0.2970672
0.6346947 0.28022066 -0.32496756 0.11534705 0.25701553 -0.06183892 -0.37478247 0.3023958
0.02180128 0.14456937 -0.033540707 -0.042740468 0.4817146 0.33033586 0.00731386 0.151009
-0.2091724 -0.28756204 -0.13968988 0.10970935 -0.26351592 -0.24516653 -0.10978334 0.019810185
0.08737592 0.20213 0.028062226 -0.12013948 0.1576023 0.023412572 0.42383718 -0.05887649
0.37705535 -0.73450136 0.09900937 -0.17075653 0.14861746 0.22016902 -0.3807912 0.115790844
-0.44535026 -0.40989083 0.06087081 0.15774627 0.28747505 -0.29706272 -0.038010273 0.03479841
0.17695071 -0.42833802 0.022747407 0.13100527
00000000: 014a 22be b834 e93d 4f9c 66bd 6c28 fb3e
00000010: dff5 f5bd e523 983e 47db 96be fcf5 f93e
00000020: 3bd4 53b9 b23f 83be bed5 fb3e 2153 d9bc
00000030: 7b75 84bd fc08 abbe 24f0 c53e 27ab 563e
00000040: 05b2 783e 0395 f93d 2d85 cd3e 2a6a c93e
00000050: a396 97be bd8b 98bd da64 86be 6079 ed3d
00000060: 05d9 843e 3251 393e 4e15 39bd 4fa0 c33e
00000070: a948 933d 9e2c fa3e 1d7d f13e 80d3 683e
00000080: 6c2a a8bd 75df 8e3e db52 5dbe fcbb 4e3e
00000090: ec58 123e 31a5 653d 74e7 b43e 0d49 b33d
000000a0: 5614 49bf f18d afbe 8591 3b3e c005 033f
000000b0: 67df 433e 743a 443e 9a26 0cbe 36c2 8c3e
000000c0: 76ca 2dbe 7765 d93e 9dda 7c3e fe2a 04bf
000000d0: a4f4 753e b508 883e ad42 a6bd 6c77 e63e
000000e0: 1bf8 ee3d 58c4 a83d 914c 3c3e 7065 1c3e
000000f0: 4667 cb3e d256 29bd f66d a73e 862f 1e3e
00000100: 2b2e d13d 18db 993d 7760 cc3e 2695 7abe
00000110: 52f3 ba3e 5aba 97be 18fa e83e 6079 d0bd
00000120: 01ac 473e a4e3 c6be f082 633e 525d b0bd
00000130: 24be ad3e 9d10 543e ef35 1abe 3119 983e
00000140: 5a7b 223f 1579 8f3e 2662 a6be 133b ec3d
00000150: 8a97 833e cf4a 7dbd 7de3 bfbe 9fd3 9a3e
00000160: 9998 b23c fe09 143e fb61 09bd a110 2fbd
00000170: 4ca3 f63e c821 a93e 1ba9 ef3b 1aa2 1a3e
00000180: 4a31 56be 553b 93be dd0a 0fbe 4caf e03d
00000190: 8feb 86be ef0c 7bbe 16d6 e0bd f848 a23c
000001a0: 25f2 b23d 2bfb 4e3e c1e2 e53c b00b f6bd
000001b0: 7f62 213e b9cb bf3c 3001 d93e 7928 71bd
000001c0: 660d c13e 4808 3cbf 6dc5 ca3d cdda 2ebe
000001d0: 2d2f 183e fd73 613e 10f7 c2be c023 ed3d
000001e0: f304 e4be 36dd d1be ac53 793d 3d88 213e
000001f0: ee2f 933e 9b18 98be a9b0 1bbd c788 0e3d
00000200: 9132 353e 1f4f dbbe c558 ba3c 3f26 063e

down3.bias f4 [11]
0.24956204 -0.024977038 0.11152206 -0.0110055655 0.063623704 0.23365857 -0.061736576 0.14988793
-0.27089658 -0.20960441 0.20306188
00000000: 318d 7f3e a59c ccbc ae65 e43d b050 34bc
00000010: 254d 823d 3144 6f3e 7edf 7cbd 397c 193e
00000020: f5b2 8abe 8aa2 56be 74ef 4f3e

down4.weight f4 [10, 11]
0.014218498 -0.7119109 -0.14680421 -0.26257747 -0.37766632 0.0032450382 0.22052632 0.61037993
0.03341433 -0.2658265 0.29557636 0.23483992 0.4522353 -0.19669743 -0.5360465 0.03313773
0.13563518 0.09055543 -0.31572184 0.24961604 -0.81134975 0.024452219 -0.3585983 0.00891553
-0.23532866 0.0014919527 0.61681974 0.29340273 0.525311 0.22328545 -0.06633761 0.31704178
0.30419567 -0.3099514 -0.26016375 -0.42209524 0.14019063 0.20248017 0.29851645 -0.40398774
-0.42552465 0.01690886 0.20638567 -0.0907801 0.25581303 0.21317133 -0.42008564 0.257292
-0.27765664 0.14156231 0.20699763 -0.1652567 -0.20583642 -0.1476533 0.21196474 -0.32868108
0.19676757 0.081151076 0.17095554 -0.0018451805 -0.23994254 0.33608168 0.2829284 -0.08736118
0.80299664 -0.45710206 0.0522604 0.08480079 -0.07043411 0.76642257 -0.28421623 0.1550254
-0.22493282 0.24418037 0.042058036 0.30356964 -0.49001634 -0.5482059 0.24307385 -0.1991011
-0.22526476 -0.74530244 0.20970663 0.11032889 0.077782415 -0.17154746 0.1890469 -0.5076252
-0.0010112155 -0.25646684 -0.13961367 0.2504793 0.15572208 -0.29407734 0.015872529 0.0038430928
0.26994452 -0.72976017 0.026765145 0.0043056393 0.43453705 -0.4364944 0.27767363 -0.02957823
-0.4836773 0.15342422 -0.18017761 0.14150856 -0.111953266 0.07128659
00000000: b4f4 683c cb3f 36bf d853 16be 8e70 86be
00000010: 7b5d c1be b5aa 543b a7d1 613e dc41 1c3f
00000020: 77dd 083d 691a 88be c955 973e e079 703e
00000030: 638b e73e 0d6b 49be 583a 09bf 6ebb 073d
00000040: f3e3 0a3e 2075 b93d 4ba6 a1be 599b 7f3e
00000050: 9eb4 4fbf 0550 c83c 329a b7be 7112 123c
00000060: fff9 70be a08d c33a e6e7 1d3f e238 963e
00000070: c87a 063f f1a4 643e 03dc 87bd 4d53 a23e
00000080: 89bf 9b3e f3b1 9ebe 2f34 85be de1c d8be
00000090: 228e 0f3e f656 4f3e 26d7 983e 7bd7 cebe
000000a0: 5ede d9be 7384 8a3c c456 533e ebea b9bd
000000b0: edf9 823e 9649 5a3e 7715 d7be c7bb 833e
000000c0: 0329 8ebe b6f5 103e 30f7 533e 0d39 29be
000000d0: c8c6 52be 6d32 17be 490d 593e e348 a8be
000000e0: 707d 493e 8932 a63d f80e 2f3e fcd9 f1ba
000000f0: 7fb3 75be e612 ac3e fedb 903e 6bea b2bd
00000100: 3091 4d3f 4809 eabe 000f 563d 09ac ad3d
00000110: c23f 90bd 4534 443f ca84 91be fabe 1e3e
00000120: ca54 66be 6b0a 7a3e 0c45 2c3d 7b6d 9b3e
00000130: 6ce3 fabe 3957 0cbf 5ae8 783e 29e1 4bbe
00000140: ceab 66be 24cc 3ebf 56bd 563e 1df4 e13d
00000150: 634c 9f3d 23aa 2fbe 8395 413e baf3 01bf
00000160: c38a 84ba 9f4f 83be e3f6 0ebe d33e 803e
00000170: 9c75 1f3e 4e91 96be 1b07 823c 66dc 7b3b
00000180: 2b36 8a3e 90d1 3abf 9442 db3c 5216 8d3b
00000190: a47b de3e 327c dfbe 3d2b 8e3e 0b4e f2bc
000001a0: 8da4 f7be 3d1b 1d3e 7b80 38be 9fe7 103e
000001b0: c147 e5bd b4fe 913d

down4.bias f4 [10]
0.121241055 -0.18827987 0.0967619 0.12828614 -0.32738963 0.28702605 0.051676564 -0.19116485
-0.15812653 0.021287164
00000000: 3b4d f83d 70cc 40be 1a2b c63d 715d 033e
00000010: 9d9f a7be 14f5 923e ceaa 533d b8c0 43be
00000020: eceb 21be 6b62 ae3c

up1.weight f4 [11, 10]
0.44690663 0.03515457 0.22454035 -0.023160066 0.26880533 -0.010302232 -0.006032518 -0.21970582
-0.25857183 -0.3725529 -0.21955194 0.13409403 0.029076606 -0.68113065 0.37719026 0.29658207
0.123662114 -0.119367085 -0.2775735 0.28098258 0.08567858 -0.26096204 -0.008292129 -0.050923705
-0.281784 0.16480942 0.07666448 0.2662019 0.097786784 -0.22160093 -0.1950012 -0.19628093
0.016194822 0.32002327 0.035322104 0.1937932 0.6143546 -0.08006957 -0.37559706 -0.22370842
-0.109103344 0.07801934 0.65054226 0.36800346 -0.39112863 0.37207338 -0.3562213 -0.36500376
0.16739993 0.25354528 0.1835026 0.25649518 -0.37316313 -0.31250915 0.017730655 -0.2742839
-0.06263748 -0.24672036 -0.105731584 0.036792044 0.14115928 -0.5568719 -0.15288159 -0.2816099
-0.30290926 0.43180078 -0.063198976 0.03377871 0.0018549742 -0.15508221 -0.21754217 -0.3589513
0.31801727 0.28032616 0.1560924 0.26281458 0.20010433 -0.26079172 0.2954924 -0.14705919
-0.12247172 0.15054187 0.052048165 -0.23170714 -0.27688557 0.18865538 0.019770302 0.0031642292
-0.28433883 -0.4475814 -0.18746135 -0.30289748 -0.23288672 -0.11790836 -0.3913116 -0.1599705
0.26817897 -0.5449947 0.1796633 0.0074060326 -0.58719593 0.17814772 0.03780585 0.1721362
-0.28892323 -0.12257653 -0.16010962 0.014875181 -0.14407007 -0.11120361
00000000: f2d0 e43e 3dfe 0f3d e8ed 653e 2eba bdbc
00000010: daa0 893e b1ca 28bc 6eac c5bb 90fa 60be
00000020: 8763 84be 41bf bebe 39d2 60be f24f 093e
00000030: 1032 ee3c 945e 2ebf 151f c13e 9bd9 973e
00000040: 9042 fd3d bb76 f4bd 1d1e 8ebe f3dc 8f3e
00000050: 4078 af3d d19c 85be b6db 07bc 6095 50bd
00000060: fe45 90be cdc3 283e 4402 9d3d 9e4b 883e
00000070: 7044 c83d 5beb 62be 65ae 47be defd 48be
00000080: 01ab 843c 17da a33e e9ad 103d ba71 463e
00000090: 5846 1d3f 84fb a3bd 424e c0be d213 65be
000000a0: 9371 dfbd 9bc8 9f3d f089 263f f36a bc3e
000000b0: 0342 c8be 6780 be3e a362 b6be c6e1 babe
000000c0: e36a 2b3e b0d0 813e 1be8 3b3e 5653 833e
000000d0: 3d0f bfbe 3301 a0be e13f 913c f06e 8cbe
000000e0: 1448 80bd 43a4 7cbe cd89 d8bd 41b3 163d
000000f0: 0f8c 103e 288f 0ebf fe8c 1cbe 2c2f 90be
00000100: ec16 9bbe fe14 dd3e 776e 81bd 8b5b 0a3d
00000110: 9b22 f33a dfcd 1ebe 60c3 5ebe 77c8 b7be
00000120: 29d3 a23e e986 8f3e b0d6 1f3e a28f 863e
00000130: 26e8 4c3e 7e86 85be c84a 973e af96 16be
00000140: 74d2 fabd a627 1a3e 7530 553d a344 6dbe
00000150: f2c3 8dbe e02e 413e 54f5 a13c f55e 4f3b
00000160: dc94 91be 6429 e5be def5 3fbe 6115 9bbe
00000170: db79 6ebe f079 f1bd fe59 c8be 4fcf 23be
00000180: c14e 893e c684 0bbf a8f9 373e 4eae f23b
00000190: 7952 16bf 5b6c 363e 4fda 1a3d 7944 303e
000001a0: bfed 93be 6709 fbbd c7f3 23be 08b7 733c
000001b0: 1b87 13be b8be e3bd

up1.bias f4 [11]
0.30978334 -0.076351866 -0.24205957 0.04381646 0.19957508 0.044734918 0.27143416 -0.20538877
-0.33837995 -0.2989263 0.24364707
00000000: ec9b 9e3e 5e5e 9cbd 77de 77be e378 333d
00000010: 695d 4c3e f63b 373d 6bf9 8a3e 6f51 52be
00000020: 2340 adbe de0c 99be 9e7e 793e

up2.weight f4 [12, 11]
0.28352162 0.037296396 0.12501414 0.04897588 -0.51273334 -0.3816448 -0.48228937 0.34188318
0.38239828 -0.07459426 0.10409551 -0.06657965 -0.38780043 0.20435895 0.07253987 0.034115553
-0.31752458 0.1178175 -0.09498252 0.1682685 0.25695297 0.1605764 -0.10062667 0.11613963
-0.003961355 -0.0017277126 -0.23150201 -0.13009638 0.038943283 0.43933937 -0.12478069 0.4597096
-0.35547203 0.18002278 0.09825394 -0.12419559 -0.018519558 -0.4836513 0.53680104 0.008159178
0.2943064 0.13659962 -0.030576421 0.120642774 0.19201007 -0.32043436 -0.39629537 0.04818231
0.06836358 -0.11736263 0.27072513 -0.09207502 0.36726335 -0.12707983 -0.18458113 -0.058226842
-0.07263602 -0.17542507 0.20643725 0.17183954 0.07330443 -0.0028968367 -0.24623965 0.08112339
0.060739387 -0.15873685 -0.36219725 0.51872766 -0.09720818 -0.12067889 -0.0753647 -0.37532902
0.018211147 0.27695048 0.2111882 -0.16147186 -0.07786601 -0.25336295 -0.13212474 -0.2336649
0.16235662 -0.015961628 0.10613008 0.12651338 0.016751152 0.013358937 0.0210715 0.20710567
-0.05580464 -0.11296845 0.069901235 -0.15243277 -0.26163444 0.08927727 0.18253115 -0.31696415
0.13966154 0.5529648 0.20024899 0.20306025 -0.23922522 0.03562914 -0.12189467 0.3326051
0.35074508 -0.15496626 0.19725241 -0.053018052 -0.0034670471 0.31110242 -0.011175705 -0.23500478
-0.2326594 -0.091009244 -0.18491852 -0.37464544 0.26996782 0.15201385 0.19840312 0.024921201
0.048683718 -0.07166433 0.23805596 0.2719078 0.21126139 -0.2602847 -0.07587008 0.07035053
-0.18085763 0.14684954 -0.06854687 0.11927208
00000000: bf29 913e 1bc4 183d b503 003e ef9a 483d
00000010: 7e42 03bf f266 c3be a2ee f6be 500b af3e
00000020: b5c9 c33e e0c4 98bd 0730 d53d e95a 88bd
00000030: c78d c6be 7943 513e c98f 943d c0bc 0b3d
00000040: 9592 a2be 4d4a f13d 3286 c2bd 944e 2c3e
00000050: 578f 833e 246e 243e 5b15 cebd 9dda ed3d
00000060: 41ce 81bb 6a74 e2ba dd0e 6dbe fc37 05be
00000070: fe82 1f3d 17f1 e03e 058d ffbd 0f5f eb3e
00000080: 6e00 b6be e457 383e 5d39 c93d 425a febd
00000090: 54b6 97bc 25a1 f7be cb6b 093f 13ae 053c
000000a0: 54af 963e c5e0 0b3e 677b fabc 8f13 f73d
000000b0: 4a9e 443e f90f a4be 3ae7 cabe d05a 453d
000000c0: 3402 8c3d d25b f0bd 7c9c 8a3e d491 bcbd
000000d0: f109 bc3e 3721 02be d602 3dbe 457f 6ebd
000000e0: 32c2 94bd a1a2 33be 4964 533e b4f6 2f3e
000000f0: a220 963d dbd8 3dbb 3f26 7cbe 0524 a63d
00000100: ddc9 783d ea8b 22be eb71 b9be 56cb 043f
00000110: 1515 c7bd 7e26 f7bd cf58 9abd 202b c0be
00000120: 8b2f 953c 74cc 8d3e b841 583e e158 25be
00000130: 3778 9fbd cab8 81be b54b 07be da45 6fbe
00000140: d040 263e f6c1 82bc ba5a d93d b98c 013e
00000150: b639 893c 71df 5a3c 239e ac3c 8213 543e
00000160: 6893 64bd 015c e7bd 6128 8f3d 5617 1cbe
00000170: f3f4 85be 00d7 b63d 72e9 3a3e 2049 a2be
00000180: 6f03 0f3e 1a8f 0d3f 120e 4d3e 07ef 4f3e
00000190: 75f7 74be dcef 113d eaa3 f9bd 374b aa3e
000001a0: dc94 b33e 7aaf 1ebe 89fc 493e 7529 59bd
000001b0: 6637 63bb d148 9f3e 4e1a 37bc 18a5 70be
000001c0: 443e 6ebe 0e63 babd 485b 3dbe 87d1 bfbe
000001d0: 3939 8a3e 85a9 1b3e 302a 4b3e 8c27 cc3c
000001e0: 9468 473d c0c4 92bd f1c4 733e 8037 8b3e
000001f0: e854 583e 0944 85be c661 9bbd f013 903d
00000200: be32 39be ba5f 163e 4d62 8cbd ec44 f43d

up2.bias f4 [12]
0.13334939 -0.0689394 0.18364103 -0.011908843 -0.2559277 -0.010439939 -0.046883527 0.09184089
0.074596375 -0.16085166 -0.004939825 -0.06974865
00000000: be8c 083e 1a30 8dbd 650c 3c3e 4f1d 43bc
00000010: f508 83be 470c 2bbc f108 40bd 1417 bc3d
00000020: fcc5 983d 4cb6 24be 41de a1bb 61d8 8ebd
