2/model_Panel1.pt (torch, 8002 bytes, 12 tensors)

down1.weight f4 [15, 18]
0	0xbd8b32f7	-0.0679683
1	0xbd71bc64	-0.059017554
2	0xbd1c34fe	-0.038136475
3	0xbe48f028	-0.19622862
4	0x3e2b2a00	0.1671524
5	0xbe29944d	-0.16560479
6	0x3f18a00c	0.5961921
7	0xbd13d2d0	-0.03608972
8	0xbe5acd90	-0.21367478
9	0x3ea76a2a	0.32698184
10	0x3ee21a1f	0.44160554
11	0x3d9f6a9b	0.07784005
12	0x3e88262a	0.26591617
13	0xbe7463d1	-0.23866202
14	0x3d0e096c	0.034676954
15	0x3ebe07b0	0.3711524
16	0xbd706f5c	-0.05869995
17	0xbe2972c0	-0.1654768
18	0xbd9a5bf5	-0.07537071
19	0x3bd11431	0.006380581
20	0x3e4e08a3	0.20120482
21	0x3e0f993e	0.14023301
22	0xbc765173	-0.015034067
23	0x3e57c4a2	0.21071103
24	0x3ddc068f	0.107434385
25	0x3b5d35d0	0.0033753999
26	0xbcebe509	-0.028795736
27	0x3e56d6bc	0.20980352
28	0xbcd0a0c9	-0.025467293
29	0x3e225148	0.15851319
30	0xbe7a0d2b	-0.24419086
31	0x3df9247f	0.12165164
32	0x3eb75e30	0.35814047
33	0x3e2f91ac	0.17145413
34	0x3dead26b	0.11465915
35	0x3e9c7187	0.30555364
36	0xbbc9cce0	-0.006158456
37	0xbdb695d5	-0.08915297
38	0x3e228e75	0.15874656
39	0xbba3fa7a	-0.0050042244
40	0xbdb74953	-0.08949532
41	0x3db20f99	0.08694381
42	0x3e63477b	0.22195236
43	0x3d31f76f	0.04344886
44	0xbe68ea8d	-0.22745724
45	0x3e5a1a95	0.21299203
46	0x3e3aea4d	0.18253441
47	0x3dd320da	0.10309
48	0x3ec32a9d	0.3811845
49	0xbd00793b	-0.031365614
50	0x3ecb31ae	0.3968634
51	0xbdbd2f38	-0.09237522
52	0x3d86be34	0.06579247
53	0x3f00a18b	0.50246495
54	0x3e67a8e1	0.22623016
55	0x3e7f5828	0.24935973
56	0x3d9e32c5	0.07724527
57	0x3e1ff58c	0.15621012
58	0x3cc070bf	0.023491262
59	0x3e2b09b6	0.16702923
60	0x3d0fe2db	0.035128456
61	0x3e0ddd63	0.13853984
62	0x3dcc2b5f	0.0996921
63	0xbd43ef95	-0.047835905
64	0x3f3efcbb	0.74604386
65	0xbcbb3a43	-0.02285493
66	0xbd753360	-0.05986345
67	0xbdbb893c	-0.09157035
68	0xbe1b692e	-0.15176842
69	0xbe9d1a5d	-0.30684176
70	0x3f205236	0.62625444
71	0x3ed05ad0	0.40694284
72	0xbe3cca74	-0.18436605
73	0x3c06a972	0.00821911
74	0xbe3b56bf	-0.1829481
75	0xbde729b1	-0.11287249
76	0x3d9ca4f4	0.0764865
77	0x3d432391	0.04764134
78	0xbda91f8c	-0.0825797
79	0x3dbb4ca1	0.09145475
80	0xbdc03492	-0.09385027
81	0x3d6553f7	0.05598828
82	0xbe0e4efd	-0.13897319
83	0x3e58f4e6	0.21187171
84	0xbe036838	-0.12832725
85	0x3d9d4d71	0.076807864
86	0xbdb248e1	-0.08705307
87	0x3e2c9f28	0.16857588
88	0x3e54352b	0.20723407
89	0x3e56dfee	0.2098386
90	0x3d948076	0.072510645
91	0xbe4a658e	-0.19765303
92	0xbd77dcd7	-0.060513344
93	0xbdc4f82f	-0.0961765
94	0x3d8fef50	0.07028067
95	0xbe106e00	-0.14104462
96	0xbe55c71d	-0.20876737
97	0x3ea4839c	0.3213166
98	0x3eafc81f	0.34332368
99	0x3c2289aa	0.009920517
100	0x3e88a674	0.26689494
101	0xbdc04efc	-0.09390065
102	0x3e848044	0.2587911
103	0xbe2ac23a	-0.16675654
104	0xbd4d2231	-0.050081436
105	0xbd54cae2	-0.051951297
106	0x3e8b4ffd	0.27209464
107	0x3ed1aead	0.4095358
108	0xbde16a76	-0.11006634
109	0x3ddf637a	0.109076455
110	0x3db8216e	0.08990751
111	0x3c6014ee	0.013676865
112	0xbe189d18	-0.14903677
113	0x3dbf87c9	0.09352071
114	0x3dfd8e24	0.12380627
115	0x3ec8e473	0.39236793
116	0x3e04b741	0.12960531
117	0x3e5a57b9	0.21322526
118	0x3f15f3f3	0.5857536
119	0xbcd91a4c	-0.026501797
120	0x3eb87b06	0.3603136
121	0xbd0abbc4	-0.033870474
122	0xbe193fe7	-0.14965783
123	0x3ee0117e	0.43763345
124	0x3e0cf77c	0.13766283
125	0x3caf5818	0.021404311
126	0x3da9002b	0.08251985
127	0x3d4ad760	0.049521804
128	0x3d07b29a	0.033129312
129	0x3c20c54a	0.009812662
130	0x3ca17172	0.019707415
131	0xbd56f0bb	-0.052475672
132	0x3ecf45fd	0.40483084
133	0x3eb5e3e0	0.35525417
134	0x3e912876	0.28351182
135	0x3db15cd1	0.086602814
136	0xbe49a2e2	-0.19691041
137	0xbdd077ff	-0.101791374
138	0x3d8eb78b	0.06968602
139	0x3e51e255	0.20496495
140	0x3e83ff93	0.25780925
141	0x3ef1f1a2	0.47254664
142	0x3da8f9c6	0.082507655
143	0x3de45916	0.11149804
144	0x3d0e31bb	0.034715395
145	0x3d3e2261	0.046419505
146	0xbc625e66	-0.013816452
147	0x3e110c37	0.14164816
148	0x3ded0430	0.11573064
149	0x3c67855d	0.014130917
150	0x3e826da4	0.25474274
151	0xbd9b14b2	-0.07572307
152	0x3ec80e64	0.3907348
153	0x3dbbd87e	0.09172152
154	0xbeaf68d2	-0.3425966
155	0xbd1ea37b	-0.038730126
156	0x3d39312d	0.045212913
157	0x3da758f2	0.08171262
158	0x3e131d89	0.14366736
159	0xbe7924a2	-0.2433038
160	0xbce87383	-0.028375393
161	0x3eaaa341	0.33327678
162	0x3d5e4137	0.054261412
163	0x3b5d3f20	0.003375955
164	0x3d39dbd8	0.045375675
165	0xbe19e7fa	-0.15029898
166	0x3db30bbe	0.08742474
167	0x3e6cdca4	0.23131043
168	0x3dd5f5f1	0.104473
169	0x3de30c12	0.110862866
170	0x3f0c087e	0.5470046
171	0xbdee4128	-0.11633521
172	0xbd82cbdb	-0.063865386
173	0x3e3fa4f7	0.18715273
174	0x3efae27b	0.49000916
175	0x3e5197ad	0.20468016
176	0xbe3f56ab	-0.18685405
177	0x3eb20658	0.34770465
178	0xbcd1262b	-0.025530895
179	0x3e3063bf	0.1722555
180	0xbdc3a2a5	-0.09552506
181	0x3d284405	0.041080493
182	0x3e0ea1ea	0.13928953
183	0x3d8bfb7d	0.06835077
184	0xbdc2335f	-0.094824545
185	0xbdbe9398	-0.09305495
186	0xbe2cdeb2	-0.16881827
187	0x3e294a26	0.16532192
188	0x3edf36bb	0.43596444
189	0x3bcd4618	0.0062644593
190	0x3e13b0a0	0.14422846
191	0x3dc4b3a1	0.09604574
192	0x3ecec48e	0.40384334
193	0xbbf6f0df	-0.0075360383
194	0x3f11d46c	0.56964755
195	0x3ea18461	0.3154631
196	0x3b81fad2	0.0039666677
197	0xbea0c1ab	-0.31397757
198	0x3d007b7e	0.03136777
199	0x3e398e62	0.18120721
200	0xbd0e07cd	-0.03467541
201	0xbda0a2fc	-0.07843587
202	0x3e41f603	0.18941502
203	0x3e20adef	0.1569135
204	0x3e0cdf43	0.13757043
205	0xbc98636f	-0.018602101
206	0x3e0cb341	0.13740255
207	0x3e229d8d	0.15880413
208	0x3dfb1858	0.122605026
209	0x3d93517c	0.07193276
210	0x3d892b47	0.066977076
211	0xbcdccfaa	-0.02695449
212	0x3f58d381	0.8469773
213	0x3f1116cd	0.56675416
214	0xbd7ce4db	-0.06174169
215	0xbdc290d9	-0.09500284
216	0x3d5287d8	0.051399082
217	0xbd9b6fb8	-0.07589668
218	0xbd2bd464	-0.0419506
219	0xbe906946	-0.28205317
220	0x3e8e76b5	0.2782494
221	0xbe2ac0db	-0.16675131
222	0xbe09d590	-0.13460374
223	0xbd0d0e29	-0.034437332
224	0x3dd76927	0.10518103
225	0x3e6fbd90	0.23412156
226	0x3e94de46	0.2907583
227	0x3c25f8c3	0.01013011
228	0x3f2b1286	0.6682514
229	0xbd45046f	-0.04809993
230	0x3ea23671	0.3168216
231	0x3e5b5950	0.21420789
232	0x3d3bcc2a	0.045849003
233	0x3eb1459a	0.34623414
234	0xbc11af3c	-0.008891877
235	0x3da62498	0.081124485
236	0x3e31e748	0.17373383
237	0x3ead9ffd	0.33911124
238	0x3e52e967	0.20596848
239	0x3ebe8a98	0.37215114
240	0xbd994fbf	-0.074859135
241	0xbe86486b	-0.26227126
242	0xbeaf1aa2	-0.34200007
243	0xbd9dd070	-0.07705772
244	0x3e4115aa	0.1885592
245	0x3d991f28	0.07476646
246	0x3dfac951	0.12245429
247	0xbe01119f	-0.12604378
248	0xbe35c9f4	-0.1775282
249	0x3f33f2d8	0.70292425
250	0xbe24659a	-0.16054383
251	0x3dd7fb87	0.10546022
252	0x3d52d898	0.05147609
253	0x3e3922ea	0.18079725
254	0x3e015acf	0.12632297
255	0x3df77cc7	0.12084346

down1.bias f4 [15]
0	0x3eb4e13f	0.353281
1	0x3e4c1950	0.19931531
2	0x3e293e21	0.16527607
3	0x3ecceccc	0.40024412
4	0xbe2b70d8	-0.16742265
5	0x3eb1a375	0.3469502
6	0x3d808bcc	0.06276664
7	0xbcf8cd6e	-0.030371394
8	0x3eabf163	0.335826
9	0x3e3e1be7	0.18565331
10	0x3e7719a5	0.24130876
11	0x3d85ec22	0.065391794
12	0x3ecc9855	0.3995997
13	0x3e87a07d	0.2648963
14	0x3e839988	0.25703073

down2.weight f4 [12, 15]
0	0xbe332232	-0.17493513
1	0xbdf82c19	-0.12117786
2	0xbeb4140d	-0.35171548
3	0xbeb10123	-0.3457118
4	0x3e56eea2	0.20989469
5	0x3db18b86	0.0866919
6	0xbdf9fd91	-0.12206567
7	0x3e51b2c2	0.20478347
8	0xbe251979	-0.16122998
9	0x3e60525a	0.21906415
10	0xbe0f27d7	-0.13980041
11	0xbe3126fd	-0.17300029
12	0x3e516871	0.20449997
13	0x3dc95484	0.09830573
14	0x3e3cebb4	0.18449289
15	0x3d4baafe	0.049723618
16	0xbe9b6fd5	-0.3035876
17	0xbe3f8f22	-0.18706945
18	0xbed7ede2	-0.42173678
19	0x3de97786	0.113997504
20	0xbde24d6e	-0.11049925
21	0x3df504cb	0.11963805
22	0x3e430070	0.19043136
23	0x3da971a9	0.08273632
24	0x3ed064e2	0.40701967
25	0x3ebeb660	0.37248516
26	0x3d8bd970	0.06828582
27	0x3ee7450a	0.4516986
28	0x3f11b7da	0.5692116
29	0x3e9507e5	0.29107586
30	0xbdf67dc1	-0.120357044
31	0xbdd729d1	-0.10506023
32	0xbe8781c5	-0.26466194
33	0x3e0585dd	0.13039346
34	0x3e56c688	0.20974171
35	0x3bb09da9	0.0053898883
36	0x3e0c2860	0.13687277
37	0xbe262998	-0.16226804
38	0x3d8b5ee3	0.068052076
39	0xbe8f2fd7	-0.27966186
40	0xbe3b65c5	-0.18300541
41	0x3d8525c9	0.065013476
42	0x3e2ea65a	0.17055646
43	0xbdbb941d	-0.0915911
44	0x3e0e1cc3	0.13878159
45	0x3f00506b	0.5012271
46	0x3ed1d252	0.40980774
47	0x3e8b1660	0.27165508
48	0x3c866635	0.016406158
49	0xbb201b8c	-0.0024430482
50	0x3e254abe	0.16141793
51	0x3e889da9	0.26682785
52	0x3ef0b0da	0.47009927
53	0x3e8dc849	0.27691868
54	0xbd7396aa	-0.059469856
55	0x3e07a80b	0.13247697
56	0x3eee3451	0.4652429
57	0xbcda8386	-0.026674043
58	0xbe210eb4	-0.15728265
59	0x3e23dd97	0.16002499
60	0xbd1c7452	-0.03819687
61	0x3dde7af1	0.10863293
62	0x3df267e0	0.11836219
63	0xbb88faad	-0.0041802735
64	0xbe362ea7	-0.17791234
65	0x3ea498c0	0.3214779
66	0x3ed425e8	0.4143517
67	0x3eb87476	0.36026353
68	0xbdfa84f0	-0.12232387
69	0xbcafbd34	-0.021452524
70	0x3ea63b10	0.32466936
71	0x3ee8560f	0.45378157
72	0x3e47c476	0.19508538
73	0xbe4b4481	-0.19850351
74	0xbdd66c3a	-0.10469861
75	0x3f26ab95	0.65105563
76	0xbe578262	-0.21045831
77	0x3e7a0eb3	0.2441967
78	0x3f0b629e	0.5444735
79	0x3e249461	0.16072227
80	0x3ec7351f	0.38907716
81	0x3f17521c	0.59109664
82	0xbeaf6bd5	-0.34261957
83	0xbdbd32f7	-0.092382364
84	0x3e623359	0.220899
85	0xbe199912	-0.14999798
86	0xbe6735ca	-0.22579113
87	0x3ec1cc5d	0.3785123
88	0x3e11f5ba	0.14253893
89	0x3dbcf961	0.09227253
90	0xbe8c70b1	-0.27429727
91	0x3d140b98	0.03614387
92	0x3eb84dd3	0.35996875
93	0xbdd511df	-0.10403799
94	0x3e29dbcf	0.16587757
95	0x3e7cbde2	0.2468181
96	0xbe38476a	-0.17995992
97	0x3e04f8f0	0.12985587
98	0x3f353680	0.70786285
99	0x3ec1e8c7	0.37872908
100	0x3d85043c	0.06494948
101	0xbe8f4d82	-0.2798882
102	0x3ea09bd8	0.313689
103	0xbefed76e	-0.49773735
104	0x3f0bab7d	0.54558545
105	0xbe1afd2f	-0.15135644
106	0x3e36c278	0.17847621
107	0xbdf8451d	-0.12122557
108	0x3ec729c9	0.38899067
109	0x3e9ed8b7	0.31024715
110	0x3f12ce77	0.5734629
111	0x3e40b1cd	0.18817826
112	0x3e2ee6f8	0.17080295
113	0x3c343068	0.010997869
114	0x3eccad06	0.39975756
115	0x3e2f45ae	0.17116424
116	0xbe2c71fd	-0.16840358
117	0x3d9a2a98	0.07527655
118	0xbdbed0bc	-0.09317157
119	0xbea70bf7	-0.32626316
120	0x3dda6f89	0.10665805
121	0xbe80d6d2	-0.25163895
122	0x3e078995	0.13236077
123	0xbcc86748	-0.02446331
124	0xbe7b9839	-0.24569787
125	0x3d632f34	0.05546494
126	0xbe45582c	-0.19271916
127	0x3e680df7	0.22661577
128	0xbe6b9993	-0.23007803
129	0xbe25561a	-0.16146126
130	0x3d048197	0.03235015
131	0x3c3ce4e8	0.011529185
132	0xbc59231f	-0.013253002
133	0x3d4ef627	0.050527718
134	0xbcdf8dc9	-0.027289288
135	0x3eb55555	0.35416666
136	0x3e33ac2c	0.17546147
137	0x3e8ff8a7	0.28119394
138	0x3ddba4dd	0.107248046
139	0x3e0d1b76	0.13780007
140	0xbd625c97	-0.05526408
141	0x3e1b15c1	0.15145017
142	0xbe11f224	-0.14252526
143	0x3ea9705d	0.3309354
144	0x3d223f3c	0.039611086
145	0x3ee105d8	0.4394977
146	0x3edece14	0.435166
147	0x3eb30ba0	0.34969807
148	0xbe9982bc	-0.29982555
149	0x3f0268ab	0.5094096
150	0x3f085a06	0.53262365
151	0x3d85e462	0.06537701
152	0xbe8fceb0	-0.28087378
153	0xbd7315f7	-0.05934712
154	0xbd81822d	-0.06323657
155	0xbe63839a	-0.22218171
156	0x3eab129a	0.3341263
157	0x3f283e95	0.6572049
158	0x3e8736d0	0.26409006
159	0x3ef50f2c	0.47863138
160	0xbb444003	-0.002994538
161	0xbe347d67	-0.17625962
162	0xbe892b4a	-0.2679084
163	0xbda413ba	-0.08011575
164	0xbdfa1e0b	-0.122127615
165	0x3f1488df	0.5802135
166	0xbe3b3bf6	-0.18284592
167	0x3ede9fd5	0.43481317
168	0xbe57f945	-0.21091183
169	0xbe015c19	-0.12632789
170	0x3c582422	0.0131922085
171	0xbe401e66	-0.18761596
172	0xbce0621f	-0.027390538
173	0x3d09744a	0.033558168
174	0xbd23d7a8	-0.040000588
175	0xbea113ed	-0.31460515
176	0x3dd8575c	0.105635375
177	0x3dcb0d27	0.09914618
178	0x3ecf8d28	0.4053738
179	0x3e24072d	0.16018362

down2.bias f4 [12]
0	0xbdcf84f7	-0.10132783
1	0x3e18b4ce	0.14912722
2	0xbd532ff0	-0.05155939
3	0x3e044997	0.12918697
4	0x3e926ac9	0.28597096
5	0x3ea2af7a	0.31774503
6	0x3d848ce8	0.06472188
7	0x3decc836	0.11561625
8	0xbe0d4970	-0.13797545
9	0x3cacd340	0.021096826
10	0x3e87aa49	0.26497105
11	0x3e914d84	0.28379452

down3.weight f4 [11, 12]
0	0x3e3437f7	0.17599474
1	0xbc9b288e	-0.018940236
2	0xbe5413c8	-0.20710671
3	0x3e272278	0.16321743
4	0x3e4ac7f8	0.19802845
5	0x3eca2656	0.39482373
6	0xbe028b42	-0.12748435
7	0x3f1dc34f	0.6162614
8	0x3df7a3d2	0.12091793
9	0xbe1abd7a	-0.15111342
10	0x3f11f6ec	0.570174
11	0xbe721f20	-0.23644686
12	0x3eaf73f2	0.34268147
13	0x3e23076a	0.15920797
14	0x3df3ca01	0.119037636
15	0x3dd46d5f	0.103724234
16	0x3efd014c	0.49415052
17	0xbe7b6ad1	-0.24552466
18	0x3dda9cc7	0.10674434
19	0x3dbda988	0.09260851
20	0xbe233d61	-0.15941383
21	0x3d82411a	0.063600734
22	0x3d5f5310	0.054522574
23	0xbed98ca7	-0.42490122
24	0xbd53019f	-0.051515218
25	0x3f0c39fe	0.5477599
26	0xbca55cb8	-0.020185813
27	0x3ef98e81	0.48741534
28	0x3e181de9	0.1485516
29	0x3e474b5b	0.1946234
30	0x3e093b7d	0.13401599
31	0xbe29f31c	-0.16596645
32	0x3c34440a	0.01100255
33	0x3ef509e5	0.4785911
34	0x3d3fe35e	0.046847694
35	0x3e9ff70e	0.31243175
36	0x3e8da48d	0.27664605
37	0xbf1f591e	-0.6224536
38	0xbe05d2da	-0.13068715
39	0x3e55418f	0.2082579
40	0x3df7dd82	0.12102796
41	0x3ed6cd2b	0.41953406
42	0x3ebb26d2	0.36553055
43	0x3e836cce	0.2566895
44	0xbd5bb212	-0.053636618
45	0xbe344f57	-0.17608391
46	0xbe43765b	-0.19088118
47	0x3cdc866f	0.026919572
48	0x3e25aac4	0.16178423
49	0xbea08781	-0.3135338
50	0x3d456ca9	0.04819933
51	0x3ea4ce3d	0.32188597
52	0xbe2a2cb5	-0.16618617
53	0x3f0b9c66	0.5453552
54	0x3eb18580	0.34672165
55	0x3d565086	0.052322887
56	0x3e7f3abb	0.24924748
57	0x3eac7fa7	0.3369114
58	0xbdd0594a	-0.101732805
59	0xbdcd330f	-0.10019504
60	0xbdc5f560	-0.09665942
61	0x3eb7b6ed	0.3588175
62	0xbd670279	-0.056398842
63	0x3d531203	0.05153085
64	0x3e811e4e	0.25218433
65	0x3ee57d69	0.44822243
66	0xbe071f48	-0.13195527
67	0xbdab0215	-0.083500065
68	0xbd8964d8	-0.067086875
69	0x3ea64b14	0.32479155
70	0xbeb547dd	-0.3540639
71	0x3ed4c7ef	0.41558787
72	0xbc004444	-0.007828776
73	0x3ea4d6ac	0.32195032
74	0x3d3f0962	0.046639808
75	0xbcb870b1	-0.022514673
76	0xbe8d6dbe	-0.2762279
77	0x3a3df911	0.00072468916
78	0x3edd1e28	0.4318707
79	0xbda0742f	-0.0783466
80	0x3d53ed10	0.051739752
81	0x3dca5a63	0.09880521
82	0x3f29d2b7	0.6633715
83	0x3e3a19e8	0.18173945
84	0x3e08a6ef	0.1334493
85	0xbe11b394	-0.1422866
86	0x3e0b08e5	0.13577612
87	0xbd5c54ab	-0.053791683
88	0xbdabe63b	-0.08393522
89	0x3dd15242	0.102207676
90	0x3e2385f9	0.15969075
91	0xbd43a70c	-0.04776673
92	0x3e739986	0.23789033
93	0xbe87104d	-0.26379624
94	0x3de2a060	0.11065745
95	0xbe438cc9	-0.19096674
96	0x3e43dc3a	0.19126979
97	0x3efa1e6a	0.4885133
98	0x3d8462bc	0.064641446
99	0xbf063d01	-0.52436835
100	0xb9068323	-0.00012828088
101	0x3ecc6b4a	0.39925605
102	0x3e507ba9	0.20359673
103	0x3ddb5885	0.10710243
104	0xbe218941	-0.15775014
105	0x3d929a9f	0.07158398
106	0xbe605e9e	-0.21911094
107	0x3d36fb72	0.04467339
108	0x3ea53975	0.322704
109	0xbe3dc911	-0.18533732
110	0xbdf86ec3	-0.12130501
111	0x3d31e8d9	0.04343495
112	0x3eafa452	0.34305054
113	0xbdd7b28b	-0.10532101
114	0x3f046a3b	0.51724595
115	0x3edbdb9c	0.42940986
116	0xbe12a65d	-0.14321275
117	0x3ecf4471	0.40481904
118	0xbf09c7c9	-0.5382047
119	0xbef0789d	-0.4696702
120	0xbc8d41af	-0.017243234
121	0xbe8da032	-0.27661282
122	0xbe45c1e1	-0.1931224
123	0xbe56a5e6	-0.20961723
124	0xbe0c5e07	-0.13707744
125	0xbd3c0aff	-0.045908924
126	0xbe27377e	-0.16329762
127	0xbe6a4753	-0.2287877
128	0xbe897466	-0.26846617
129	0xbe1038bf	-0.14084147
130	0xbe872522	-0.26395518
131	0xbe8e13f7	-0.27749607

down3.bias f4 [11]
0	0xbe778604	-0.24172217
1	0x3e8831f4	0.2660061
2	0x3dbaad98	0.09115142
3	0x3e84d709	0.2594531
4	0x3d9f7621	0.07786203
5	0xbe11694d	-0.14200325
6	0xbb13b57c	-0.0022538593
7	0xbda72331	-0.08161009
8	0xbcd8e01d	-0.026474053
9	0x3e96bd78	0.29441428
10	0xbcd1b431	-0.025598617

down4.weight f4 [10, 11]
0	0xbe9726b0	-0.29521704
1	0x3e96b059	0.29431418
2	0xbc804e70	-0.015662402
3	0xbeabc00c	-0.33544958
4	0xbe876dd0	-0.26450968
5	0x3eabe545	0.33573356
6	0xbf123d6c	-0.5712497
7	0x3d733b4b	0.059382718
8	0x3d932b88	0.07186037
9	0x3e9e8471	0.3096042
10	0x3d9b6342	0.07587291
11	0x3911ddda	0.00013910924
12	0x3e409f43	0.18810754
13	0xbe2363de	-0.15956065
14	0x3dfbe151	0.12298835
15	0x3cfe6e68	0.031058505
16	0xbe9fe48b	-0.31229052
17	0x3e60fc4c	0.21971244
18	0xbe894412	-0.26809746
19	0x3ed23276	0.41054124
20	0x3e9a91d4	0.30189383
21	0xbe92da70	-0.2868228
22	0x3e9c9b6c	0.30587327
23	0xbddd8a99	-0.10817451
24	0x3e32fe3d	0.17479797
25	0x3d21c565	0.03949489
26	0x3c148117	0.009063981
27	0xbe5e4817	-0.21707188
28	0x3ef48b32	0.47762448
29	0x3e27e103	0.16394429
30	0x3d27be2b	0.040952843
31	0x3da598f4	0.08085814
32	0xbdf5df74	-0.12005511
33	0x3f34328b	0.7038962
34	0x3f0d09cc	0.55093074
35	0xbdaa9f63	-0.08331182
36	0xbe90de90	-0.28294802
37	0xbef3359d	-0.4750184
38	0xbdf4d964	-0.119555265
39	0xbe283cfe	-0.16429517
40	0xbe0409d6	-0.12894377
41	0xbe644e32	-0.22295454
42	0x3e69fa6a	0.22849432
43	0xbd6608ac	-0.056160614
44	0x3f12c216	0.573274
45	0x3e852017	0.26001045
46	0x3e98c218	0.29835582
47	0x3d7cf667	0.061758425
48	0x3dfca2f5	0.12335769
49	0x3cf7316c	0.030174933
50	0x3e115c38	0.14195335
51	0x3d932925	0.07185582
52	0x3ec8b6bb	0.39201912
53	0x3e24fb73	0.16111545
54	0x3d9ea7d7	0.07746857
55	0xbf360eb3	-0.7111618
56	0x3e09e83e	0.134675
57	0x3eda7930	0.42670584
58	0x3e5467c2	0.20742705
59	0x3d2fc85c	0.042915687
60	0xbdce3a91	-0.100697644
61	0x3eef1bc7	0.4670088
62	0xbe07f64d	-0.1327755
63	0xbf52eaf6	-0.8238977
64	0x3ca5b4ae	0.020227756
65	0x3e39fc23	0.18162589
66	0x3f1441dd	0.57913
67	0x3e069f44	0.13146693
68	0xbe9f4473	-0.3110691
69	0x3e463b15	0.19358476
70	0xbe6ba2b2	-0.23011282
71	0xbf01d920	-0.5072193
72	0xbe6a5ebb	-0.228877
73	0xbdd15a8c	-0.102223486
74	0xbe979acd	-0.2961029
75	0xbe6968b0	-0.22793841
76	0x3baf2de5	0.005346047
77	0x3d09125f	0.033464786
78	0xbd3f9377	-0.046771493
79	0x3bf2d8b2	0.007411086
80	0x3ee71248	0.45131135
81	0x3efe1e5e	0.49632543
82	0x3e083d62	0.13304666
83	0xbeb17d54	-0.3466593
84	0x3e8a67df	0.27032372
85	0x3f465b64	0.774832
86	0x3ebd6ad3	0.36995563
87	0x3d5ac10f	0.05340677
88	0xbe1f5ee8	-0.15563548
89	0x3e8b89b3	0.27253494
90	0xbdb8f5a5	-0.09031228
91	0x3de95d89	0.113947935
92	0x3ece2fbb	0.4027079
93	0xbea487fd	-0.32135
94	0xbe99f6a7	-0.30070993
95	0xbe7e2528	-0.24818861
96	0xbf435ac0	-0.7631035
97	0x3e862ec0	0.26207542
98	0xbdcb81fa	-0.099369004
99	0xbea2fcad	-0.318334
100	0xbe22c01f	-0.15893601
101	0xbb410c43	-0.0029456771
102	0xbe739896	-0.23788676
103	0xbee5b6de	-0.4486608
104	0xbe3cb10d	-0.18426915
105	0x3eee1f6c	0.46508348
106	0x3e18001a	0.14843789
107	0x3e800df7	0.25010654
108	0xbdc69434	-0.09696236
109	0xbdd1647f	-0.10224246

down4.bias f4 [10]
0	0x3e2f8cc8	0.17143548
1	0xbdbabbea	-0.09117873
2	0x3ed39949	0.41327885
3	0xbeb66a77	-0.356281
4	0xbe9f1218	-0.31068492
5	0x3e17f90e	0.148411
6	0xbe38d482	-0.18049815
7	0x3db743c8	0.08948475
8	0xbe6b97ca	-0.23007122
9	0x3d707444	0.05870463

up1.weight f4 [11, 10]
0	0x3dcc9cfa	0.099908784
1	0x3e543a55	0.20725377
2	0x3e55136b	0.20808189
3	0xbe5f2b17	-0.21793781
4	0x3c6c165b	0.014409627
5	0xbf129a71	-0.5726691
6	0xbdc8de22	-0.098079935
7	0x3dc4dce8	0.09612447
8	0xbf03c119	-0.5146652
9	0x3e0dacd6	0.13835463
10	0x3dae8a92	0.08522524
11	0x3eb1eadf	0.34749505
12	0xbe8e0611	-0.27739003
13	0xbe74a521	-0.23891117
14	0x3e81495f	0.2525129
15	0x3d2e5f79	0.04257152
16	0xbeae9f9b	-0.34106144
17	0x3e74ecaa	0.23918405
18	0x3e11d7ce	0.14242479
19	0xbe4286c2	-0.18996719
20	0x3e8faf68	0.28063512
21	0x3d1dcf0c	0.038527533
22	0xbdf2c985	-0.11854843
23	0x3e3653aa	0.17805353
24	0x3e5a29cc	0.21305007
25	0xbd82150e	-0.06351672
26	0x3e389a78	0.18027675
27	0xbe5f8e86	-0.21831712
28	0x3e473455	0.19453557
29	0x3db75343	0.08951428
30	0x3dad7214	0.08469024
31	0x3e1b48ce	0.15164492
32	0xbea4ef9f	-0.32214066
33	0xbab1de2e	-0.0013570243
34	0x3be97f56	0.0071257753
35	0x3e557cef	0.2084844
36	0xbc90a082	-0.017654661
37	0xbed5ec5c	-0.4178189
38	0x3e87c456	0.2651698
39	0x3e144b56	0.14481863
40	0x3de7a33c	0.11310431
41	0xbe449988	-0.19199193
42	0x3e167c37	0.14695822
43	0xbe8d2887	-0.27569982
44	0xbdb8e5a4	-0.090281755
45	0x3c364698	0.011125229
46	0xbca86fbc	-0.020561092
47	0xbc34a7be	-0.011026321
48	0xbec7623d	-0.38942137
49	0x3e9f2a6e	0.3108706
50	0xbf40a25e	-0.7524775
51	0xbe8e2390	-0.27761507
52	0x3da2124b	0.07913645
53	0xbeba8ec9	-0.3643706
54	0xbdbeb84a	-0.09312494
55	0xbd04e4c1	-0.03244472
56	0xbc1e5390	-0.009663478
57	0xbb761049	-0.0037546328
58	0xbe154990	-0.14578843
59	0xbe99dd36	-0.30051583
60	0xbefafff1	-0.49023393
61	0x3ebe607d	0.3718299
62	0x3e7fabf0	0.24967933
63	0x3c49a98d	0.01230849
64	0x3eb7a611	0.35868886
65	0x3d83a98b	0.06428822
66	0x3c9d5878	0.019207224
67	0x3dea6465	0.1144493
68	0x3d75fa44	0.060053125
69	0xbd7513da	-0.059833385
70	0x3cc48385	0.023988495
71	0xbeb48981	-0.35261157
72	0xbe41b6ac	-0.1891734
73	0x3ed9d0a8	0.42542005
74	0x3e7b4f79	0.24542035
75	0x3d9e0126	0.07715063
76	0xbe03467d	-0.12819858
77	0xbe594a02	-0.21219638
78	0xbe8bc289	-0.27296856
79	0xbeb9c913	-0.3628622
80	0x3d9205ec	0.07130036
81	0xbe8b11e7	-0.27162096
82	0xbdf46d32	-0.1193489
83	0xbe12459d	-0.14284368
84	0x3cfe140a	0.031015415
85	0xbe1c7e34	-0.15282518
86	0x3e450ba8	0.19242728
87	0x3eb8c277	0.36085865
88	0x3db911df	0.09036612
89	0xbed2867e	-0.41118234
90	0x3c2c2475	0.010506739
91	0x3d9a56eb	0.075361095
92	0xbd38a767	-0.045081522
93	0xbe887fe1	-0.26660064
94	0x3e1f2c11	0.15544154
95	0x3eed00e0	0.4628973
96	0xbee9c4aa	-0.45657855
97	0x3df16228	0.117863
98	0x3ee7a5fd	0.45243827
99	0xbe865ef8	-0.2624433
100	0x3dbb41c6	0.09143405
101	0xbe6a3f9c	-0.22875828
102	0xbe3219eb	-0.173927
103	0x3d5195d8	0.051168293
104	0xbece4b36	-0.40291756
105	0x3c932c0f	0.017965345
106	0xbe56fd61	-0.20995094
107	0x3dcef6b7	0.10105651
108	0xbe7bd0ec	-0.24591416
109	0x3f2caa2b	0.67447156

up1.bias f4 [11]
0	0x3e763a18	0.24045599
1	0x3d8c91b5	0.06863729
2	0xbe104461	-0.14088584
3	0x3e3a66b6	0.18203244
4	0x3ec1e93e	0.37873262
5	0xbd0399e9	-0.032129202
6	0xbede521f	-0.43422028
7	0xbe0d2aa0	-0.13785791
8	0x3eb10b0a	0.34578735
9	0x3e5c84ad	0.21534987
10	0x3e9cbb7c	0.3061179

up2.weight f4 [12, 11]
0	0xbe945f94	-0.2897917
1	0xbe9833e9	-0.29727104
2	0xbe3ae95c	-0.18253082
3	0x3e0f60ac	0.14001721
4	0x3d999115	0.07498375
5	0x3f228748	0.6348767
6	0x3e5c1d82	0.21495631
7	0x3d937739	0.07200474
8	0xbe252fe9	-0.16131558
9	0x3e1a6dce	0.1508095
10	0xbc9ca633	-0.019122219
11	0xbedf6df4	-0.43638575
12	0x3e1a121f	0.15045975
13	0x3dc137f4	0.094345
14	0xbe90b815	-0.28265443
15	0x3eab3ea0	0.33446217
16	0xbe184322	-0.14869359
17	0x3eb0c97e	0.34528726
18	0x3e59eba2	0.21281293
19	0x3e78a1d7	0.24280487
20	0xbeb7284b	-0.3577293
21	0xbddc4770	-0.10755813
22	0x3e076273	0.13221149
23	0xbd45e4f4	-0.04831405
24	0x3d4176ef	0.047232565
25	0x3dcf8f64	0.101347715
26	0xbec2775a	-0.37981683
27	0xbeb5cc60	-0.35507488
28	0x3eed2dd0	0.46324015
29	0xbd0a5870	-0.033775747
30	0xbe853ea5	-0.26024356
31	0x3a6c46d1	0.0009013238
32	0xbe0b2a09	-0.13590254
33	0xbde66ca2	-0.11251189
34	0x3e745d77	0.23863779
35	0xbe657efc	-0.22411722
36	0xbe2d5058	-0.1692518
37	0xbed70ae3	-0.42000493
38	0x3ec7eec9	0.39049366
39	0xbe3866c2	-0.18007949
40	0x3dddbd80	0.1082716
41	0xbe5d3e60	-0.21605825
42	0x3cb30c10	0.021856338
43	0x3d65a1aa	0.056062378
44	0x3e170948	0.14749634
45	0xbdded926	-0.108812615
46	0xbe900432	-0.281282
47	0x3d07f7b9	0.03319523
48	0xbe82f677	-0.25578663
49	0x3e2c9f78	0.16857708
50	0xbe8c0cea	-0.27353603
51	0x3eb0bfb0	0.34521246
52	0x3f000805	0.50012237
53	0x3d61bda4	0.055112496
54	0xbdc78af0	-0.09743297
55	0xbb0e86fd	-0.002174794
56	0x3cb3269b	0.021868994
57	0x3d4d1acf	0.050074395
58	0x3e144729	0.1448027
59	0xbd2247f1	-0.03961939
60	0x3cc3b5f3	0.023890471
61	0xbcb0bcf7	-0.02157448
62	0x3d460fd2	0.04835493
63	0xbc4c0497	-0.012452266
64	0xbc1e62be	-0.009667097
65	0xbd61472a	-0.054999508
66	0x3eba0c3c	0.3633746
67	0x3eb12087	0.3459513
68	0x3cba95ce	0.02277651
69	0xbe153416	-0.1457065
70	0x3e53d6a0	0.20687342
71	0xbd686496	-0.05673655
72	0x3e0b216c	0.13586968
73	0xbc2d4943	-0.010576549
74	0xbea73b45	-0.32662407
75	0x3c9f5830	0.01945123
76	0xbe941447	-0.2892172
77	0xbd1e49c9	-0.038644586
78	0xbda6c5b0	-0.08143175
79	0x3e0b1aa6	0.13584384
80	0x3e882ea6	0.2659809
81	0xbe0eec2c	-0.1395728
82	0xbdf3e258	-0.11908406
83	0x3e54a1af	0.20764802
84	0xbd73f2f4	-0.05955787
85	0xbe111611	-0.14168574
86	0xbc47b38e	-0.012188805
87	0xbdb18bed	-0.08669267
88	0xbe5746db	-0.21023123
89	0x3d96e76b	0.07368358
90	0xbb882d0b	-0.00415576
91	0x3e27f6dd	0.16402765
92	0x3dc6ea84	0.09712699
93	0xbe9de590	-0.30839205
94	0xbe6de822	-0.23233083
95	0x3e93ec19	0.28891066
96	0x3e1d1b49	0.1534244
97	0x3e994d3a	0.29941732
98	0xbe296036	-0.16540608
99	0x3dad4e27	0.08462172
100	0xbdaa5967	-0.083178334
101	0xbe0de5a7	-0.13857137
102	0xbe2eb472	-0.17061022
103	0x3db15448	0.086586535
104	0xbcb06326	-0.021531653
105	0xbd25bb2e	-0.04046171
106	0x3f2daf33	0.6784546
107	0xbdbf54c0	-0.09342337
108	0xbd489134	-0.0489666
109	0x3edc88b7	0.43073055
110	0xbe2773f2	-0.16352823
111	0x3b59a342	0.0033208882
112	0xbe8ab5ef	-0.2709193
113	0x3d46475e	0.048407905
114	0x3e0b3c77	0.13597284
115	0xbcf3c606	-0.02975751
116	0x3dcebf35	0.100950636
117	0x3ca2cff8	0.019874558
118	0x3e9e12a8	0.3087361
119	0xbda83786	-0.08213715
120	0xbe6e4260	-0.23267508
121	0xbda52c97	-0.080651455
122	0x3da6d6ce	0.081464395
123	0xbdf5a651	-0.11994613
124	0xbe544bde	-0.20732066
125	0x3dfe6e19	0.12423343
126	0x3da2383c	0.07920882
127	0x3e4b0836	0.19827351
128	0xbe626257	-0.22107826
129	0x3de991e6	0.11404781
130	0x3b8fc85d	0.004387899
131	0x3ca8b9e6	0.020596456

up2.bias f4 [12]
0	0xbdd41502	-0.103555694
1	0x3e6af636	0.22945485
2	0x3eab09b2	0.33405834
3	0x3d95553a	0.07291646
4	0xbe818d6f	-0.25303218
5	0x3de27fc6	0.11059527
6	0xbf2212e0	-0.6331005
7	0x3ebfa51a	0.3743065
8	0xbe0fcfe1	-0.14044143
9	0x3e8c5de5	0.27415386
10	0xbdb1a8d1	-0.08674777
11	0xbea235cc	-0.3168167
